Self project/models/nn/raw/Colour/model.pt (torch, 54492 bytes, 9 tensors)

net.0.weight f4 [64, 3]
00000000: 7773 a03d a78e d43d a6a9 0e3f c276 2ebf
00000010: 1de1 48bf 2df8 ec3e 06e8 a4be d3f4 f1be
00000020: c033 1f3e 5b9c 22bf 8167 843e a7e6 70be
00000030: 210c ec3e 9ab4 0abf 118b 15bf 928b 5cbe
00000040: 306e 013f 7d3c 12bf f0c5 acbe 0190 0a3f
00000050: b2e1 f13e 51eb 50bd 91d4 15bf 7391 f23e
00000060: 8771 b73e 1607 fc3e cfb9 d73c 19c1 10bf
00000070: 03e2 33bf 0399 00bf a880 1d3f 0fbb 423e
00000080: fd96 923e 6bfe 8abe cec5 ff3e 5237 f33d
00000090: e5aa e43e 5186 ac3e 879a babe c704 0a3f
000000a0: 3190 74be 4b72 b63e 9164 70bd a7ce abbe
000000b0: 7bef f73e 2247 843e 70e4 3b3d 818e cfbe
000000c0: 1383 bb3e 82d0 d43e b52b 2dbe 89c3 653e
000000d0: 35b6 3ebe f779 f83e 962c 11bf 56a9 e03d
000000e0: 3518 10bf 8ee4 143e b15f 913e 711f 873e
000000f0: be43 943e dca8 293f 42a4 1abf ab2d 9cbe
00000100: 289c 96be 7eca 443f aeae 393e cf85 38be
00000110: a1aa cd3e 86d8 14be 3643 3ebf 7984 f83d
00000120: 61f3 b8be 518e 02bf c1c8 293d ee3a 693e
00000130: a859 19bf 65d1 2a3f 0eb5 893c 0dfe 133d
00000140: dc4a 0dbf a092 d5bc 8611 123e 16e7 0dbf
00000150: 6550 e5be c932 e53d 08b0 f9bd 1c8d 253f
00000160: 56a9 a63d c361 083d 8301 dabe ce72 a0be
00000170: edeb f23e 4615 32bf ed0e dbbd 44c2 d23e
00000180: b9f8 c5be 0006 44bf 41d1 07bf 0556 e0be
00000190: d09d dfbd 9583 b63e 728f e43e f59c 0d3e
000001a0: 34cc 6dbe 624f 5c3e b22a 113e 264f d8bd
000001b0: 40b2 703e bf68 0b3e 019a d53e 7334 913e
000001c0: 9f1f e83e 4fbb 583d bf53 81be 09c0 24bf
000001d0: 9003 bbbe 6f20 f4be a1d5 0c3e 8f7a bfbe
000001e0: afdf f53e e68d 22be 890c 06bf 8a36 90be
000001f0: bc3e 4dbe 5388 9bbe d1b0 85be 2c9b c33e
00000200: fd71 b1be 37f3 4cbe 864c 203f a277 dfbd
00000210: 7b4d 03be f12b 9a3e ca80 063f e94e bb3d
00000220: 0ba7 173f 6156 613e 5b59 c3be 2acd c93e
00000230: 05e6 2abe c8e4 bfbe 9589 fabe ccc5 233f
00000240: 768a 943e 485b 383d 4828 10be e74a d4be
00000250: 3345 e83e 8e6d eb3e 0418 443c a6f9 5dbe
00000260: d106 103e 55a5 893d 9f96 023e f63b 68bd
00000270: 0c19 9fbe 4aed 693d 2853 a53e 2896 0dbf
00000280: af67 92be 7315 eabd 1791 48be 8d90 723e
00000290: f62d 90be 59a1 333d b47a f93e d8fe bcbe
000002a0: 2af8 133f e996 3f3e 6f7c 02bd 74e1 913e
000002b0: 6cec 2bbe bf81 fb3e f295 39be 68d9 08be
000002c0: bc5e ecbe 51d7 ff3e 8c6d e43e a827 e8be
000002d0: 3b46 163f b0e5 a9bc 2230 67be ec45 5ebe
000002e0: 5a97 f83e 4b11 97bb e5a7 6c3e 356d 803e
000002f0: 64cb 62be a1c0 0dbe 68f2 3dbe 917b 2e3e
0.07834523 0.10378771 0.5572761 -0.6814996 -0.78468496 0.46283093 -0.3220827 -0.472571
0.15547085 -0.6351983 0.25860217 -0.23525487 0.46103004 -0.54181826 -0.58415323 -0.21537617
0.5055876 -0.5712355 -0.33744764 0.5412598 0.47242504 -0.051005665 -0.58527476 0.47376594
0.35828802 0.49224156 0.026333718 -0.56544644 -0.7026674 -0.5023348 0.6152444 0.1901667
0.2863082 -0.2714723 0.499556 0.11875786 0.44661632 0.33696225 -0.3644602 0.5391354
-0.2388313 0.35634074 -0.058689658 -0.335561 0.48424897 0.2583552 0.04587215 -0.4053841
0.3662344 0.4156533 -0.16911204 0.22437872 -0.18624194 0.48530552 -0.5670866 0.10969798
-0.56286937 0.14540312 0.2839332 0.26391175 0.28957933 0.66273284 -0.6040689 -0.30503592
-0.29416013 0.7687148 0.18133041 -0.18019794 0.40169242 -0.14535722 -0.74321306 0.12134642
-0.36123183 -0.5099841 0.04145122 0.22776386 -0.5990243 0.6672576 0.016809966 0.036130954
-0.5519235 -0.026070893 0.14264497 -0.55430734 -0.447879 0.11191327 -0.121917784 0.6466844
0.08137767 0.033296358 -0.42579278 -0.3133759 0.47445622 -0.6956371 -0.10696206 0.41163838
-0.38666323 -0.76571655 -0.5305367 -0.43815628 -0.10918772 0.35647264 0.4464069 0.13829406
-0.23222429 0.21514657 0.14176443 -0.10561971 0.23505497 0.13614176 0.41719058 0.28360328
0.45336625 0.052913006 -0.25259206 -0.6435552 -0.36526155 -0.47680995 0.13753368 -0.37398192
0.4802222 -0.15874442 -0.5236288 -0.2816661 -0.20043463 -0.30377445 -0.26111463 0.38204324
-0.3465728 -0.20014654 0.62616765 -0.1091149 -0.12822525 0.3011165 0.52540267 0.0914591
0.5923926 0.22005607 -0.3815411 0.3941434 -0.16689308 -0.37479234 -0.48933092 0.6397369
0.29011887 0.045008928 -0.14077866 -0.41463396 0.45365295 0.4598202 0.011968616 -0.21677265
0.140651 0.06720988 0.1275277 -0.05669781 -0.31073797 0.057111062 0.32290006 -0.55307245
-0.2859473 -0.11429872 -0.19586597 0.23687954 -0.28160065 0.043855045 0.48726428 -0.3691318
0.57800543 0.18709911 -0.03185695 0.2849232 -0.16789407 0.49122426 -0.18123606 -0.13364184
-0.46166027 0.4996896 0.44614828 -0.45342755 0.58700913 -0.020739406 -0.22576955 -0.2170636
0.48552972 -0.004610216 0.23110922 0.25083318 -0.221479 -0.13843013 -0.18549502 0.17039324

net.0.bias f4 [64]
00000000: b05f 8b3e 64d5 10be 8fae 22bf d288 053f
00000010: 91d8 75bd e2e3 bdbe d753 babe 96af c93d
00000020: 161b debe 63ce 9fbe 3829 103f c597 8cbe
00000030: 8fa0 c93e 55e0 babe 80e5 e4bd de30 10bf
00000040: dde5 5a3e b74c c7be 90e7 963d 82c6 03bf
00000050: caf7 85be a3e1 40be b0f6 cd3e 400a 5fbb
00000060: c643 103e 244a c5be 34a0 d4be 7b6c f03d
00000070: 0f02 913e 476e 59be b818 85be fced 84be
00000080: 9cff 9b3d 2220 213e 5ba9 db3d d0e6 14bf
00000090: 2f90 893e 2754 d4bd 6dbb 59be f294 97be
000000a0: f12b 80be b69c 293f 51f8 a1be 8e36 02bf
000000b0: 55de 823e ac0f 16bf 66fc 033f cff9 a73e
000000c0: 8312 ff3e 131c bfbe 5702 173f d76a a13e
000000d0: d70b 143f e2f1 4fbd 1d3e 2dbe 912c 1f3f
000000e0: 8ac0 8cbe 5c13 2fbc 3641 7c3e db8a 973e
000000f0: 62de d43d 829c 02be 84a3 8f3e 5298 a9be
0.2722144 -0.14143902 -0.63547605 0.52161896 -0.060020987 -0.37087923 -0.3639209 0.098479435
-0.4338004 -0.31212148 0.56312895 -0.2745954 0.3938031 -0.36499277 -0.11176586 -0.56324565
0.21376748 -0.38925716 0.07368386 -0.51474774 -0.2616561 -0.18836074 0.4022727 -0.003403321
0.14088354 -0.38533127 -0.41528475 0.11739441 0.28321883 -0.21233474 -0.2599542 -0.25962818
0.07617113 0.15734914 0.10725661 -0.5816469 0.26867816 -0.10367613 -0.21262904 -0.29605824
-0.25033525 0.66254747 -0.31634763 -0.50864494 0.2556025 -0.58617663 0.51557004 0.32807776
0.4981881 -0.37326106 0.58987945 0.31526825 0.57830566 -0.050767787 -0.16918226 0.6217738
-0.27490646 -0.010685768 0.24634251 0.29598126 0.10393979 -0.12755015 0.2805444 -0.33124024

net.2.weight f4 [64, 64]
00000000: 8a16 ccbc 7a14 923d 8598 d83c 32c4 e0bd
00000010: e4d2 14bd 0f25 bebd f87a 8abd 6ff8 863d
00000020: 1283 7abd 326a 33bd b21e e53d ef04 f33d
00000030: 929d 79bd 3330 d3bd 0219 aabd aabe 883d
00000040: 097b 93bd 53e4 e83d abc9 553d 5642 7b3e
00000050: 0eda a03d 97c9 2bbc cf06 b53d cef3 4b3e
00000060: e032 16bd 0618 37bd 2224 59bd 4b1d 7bbc
00000070: ec7d 3d3d 5aac bf3d 0a22 72bd d167 5bbd
00000080: 1a0b 023e 65c6 ecbd 55d3 ac3d 3550 503e
00000090: 4524 cebd 422d 0b3d bb6e 1d3e a0e5 55bd
000000a0: 7a4d 8bbd cbda c03d 71e0 06bd b26b b13d
000000b0: 059f dc3d 47de f33b 569b 6b3d 326b 073e
000000c0: 3636 cebd b3f8 843c e037 bb3d 987d c9bd
000000d0: 166d aabc 91ee de3d 9ddb 7d3d bad1 143d
000000e0: 840a a1bd d89e 3a3d 5ae8 c4bc 42b6 d23c
000000f0: 9423 e03b f2f1 043e f6a6 efbd ad2f 02be
00000100: fb95 9e3d 9c73 f03d dba7 eb3d 06f4 073e
00000110: 157a a73c 8e91 2e3e 34b5 723d 2dfe e33b
00000120: 1efd 11bd 34a0 b2bd b7c1 c13d c708 9ebd
00000130: 21c4 033e 47fc fbbb dfa8 90bd 9043 0fbe
00000140: 24f2 843d af06 1d3d 02dd 293d 98db 2fbe
00000150: ce6f 04be 45a2 683d 8b39 b83d 1434 303d
00000160: 4662 fbbd 4fb3 b3bd 65e7 043e 0568 b03d
00000170: a66c 003c fc46 0abe bab7 873e 45b4 493e
00000180: a9cc afbd 00a9 b0bc f9e3 92bb ae8f e7be
00000190: 3dbe 303d 78d7 073d 0dac be3c 9b2d cebd
000001a0: 3ddf 22be 2102 e03d c13d 35be c055 4abe
000001b0: 3cc4 5f3d 6daf f3bc 268d 8fbd 6d80 e73d
000001c0: 94f6 56bd 2cea 0d3d d2c7 f63d 8bad 073e
000001d0: bb63 143e 42df 7ebd bb34 633a 44a7 d4bd
000001e0: 90bd 2d3b d29d 31bc d7a3 c0bd 7044 ce3d
000001f0: 4aed 88bd 5a4e 94bd 6dbd a0bd f76f 453d
00000200: a441 653d ae55 7a3d a2b3 843e 677f 413d
00000210: d749 a6bd c0b0 90bd 37f4 bcbe 48d1 4c3e
00000220: 6f35 f6bd f9d5 c73d a712 643d 8324 99be
00000230: 70f1 acbd 181f 86be 3c36 5bbe 058f 18bd
00000240: e869 b0bd eb34 05bf a7b7 a1bd 6972 90be
00000250: 8a32 493d 7358 80be ef63 de3d 60ad 4abc
00000260: 28c5 b83c a063 a1be e4e9 2ebd 833b f43c
00000270: ad1e 9e3d 7d3f 693d 063e 8fbd e833 fabc
00000280: 94a7 ccbc 078c 163d 345d 10be 78a8 16be
00000290: 6f08 5f3d 5da4 43bd 0a59 b4bd 4e2e 88bd
000002a0: eb6e 403d b485 223e aea1 7cbe 7192 8cbe
000002b0: 1f85 663d bd4a cd3a 9c94 983c f5a5 82bc
000002c0: 3ebb 093e 05ef c1be 6572 193e cffe 313b
000002d0: add9 563e 1642 113e d5e5 babd 0cad cb3d
000002e0: 9165 64bd 2004 b4bd 70dd dabd 7287 bb3d
000002f0: 45ea 153d 23c8 b9bd 11a8 03be 6d5d 723e
00000300: da09 9c3d fdc7 b9be 9eac c23c 1210 3b3d
00000310: 070b 9d3d 340e c93c 506c aabd 911c dc3d
00000320: e3b4 4d3b a5c1 a6bd c67a ba3d b213 313d
00000330: 1612 103e 13bd 923d fcac bdbe accf 43bd
00000340: 6892 33bd 02a0 c1be 8168 8dbd 7468 0ebe
00000350: 55d8 09be b348 6dbe 5119 383d dcf1 86bd
00000360: 4a7a 4a3d 3d3e d8be 3b80 04bd 3905 10bd
00000370: d5a7 c03c 956c f93c 04b9 00be 83b5 ae3e
00000380: 879b cb3d 62fa ff3b c7b9 873b 1c56 4cbe
00000390: e4bb 86bd 29df d3bd e097 97bd 612f 7dbd
000003a0: 28d2 34be e900 903d d895 05be a0a2 16be
000003b0: 0098 a83c d4b4 7bbc 8106 cdbc 3497 22be
000003c0: 916e e83b b738 c9be 4ec3 0d3e 95d7 423d
000003d0: ece4 aa3c 1af4 92ba b48e fcbd 54d4 893c
000003e0: 69a6 bc3d 184a 8cbc 97d9 023d 1dd9 ed3d
000003f0: dfeb 913d 5105 b0bd 42ab 42bc 5d01 d7bd
-0.024913091 0.07132812 0.026439914 -0.10974921 -0.036333933 -0.09284412 -0.06761736 0.06590354
-0.061160155 -0.043802448 0.11187495 0.118661754 -0.060941286 -0.10311928 -0.08305551 0.06676991
-0.072012015 0.113716744 0.05219428 0.24537024 0.07854091 -0.0104850745 0.08839189 0.19917223
-0.036669612 -0.044700645 -0.053012975 -0.015326808 0.046262667 0.09359045 -0.059114493 -0.053565804
0.12699547 -0.11561278 0.08438746 0.20343097 -0.100655116 0.033978708 0.15374272 -0.05222094
-0.06801887 0.094167314 -0.032928888 0.086631194 0.10772518 0.007442269 0.057521187 0.13224486
-0.10068934 0.01623187 0.09141517 -0.09838408 -0.02080397 0.10885347 0.061977018 0.036332823
-0.07863334 0.04556164 -0.024036575 0.025721673 0.0068401787 0.1298292 -0.11701767 -0.127135
0.0774345 0.11740801 0.11506625 0.13276681 0.020443955 0.17047712 0.05925484 0.0069577903
-0.035641782 -0.087219626 0.09460776 -0.07716518 0.12867786 -0.007689986 -0.070634596 -0.13990617
0.06491497 0.038336452 0.041470535 -0.17173612 -0.12933275 0.056795377 0.089953505 0.043018416
-0.122746035 -0.08774435 0.12978895 0.0861359 0.007838404 -0.13503641 0.2650736 0.19697674
-0.08583958 -0.02156496 -0.004482743 -0.45226806 0.043150175 0.03316447 0.0232754 -0.10067292
-0.15905471 0.10937906 -0.17699338 -0.19759274 0.054630503 -0.029746735 -0.07009344 0.11303792
-0.05248125 0.03464715 0.120498314 0.13249795 0.14491169 -0.062224634 0.000866722 -0.10383466
0.0026510693 -0.01084085 -0.0940625 0.10071647 -0.06685884 -0.07241507 -0.0784863 0.04820248
0.055970803 0.061116867 0.259183 0.04724064 -0.081195526 -0.070649624 -0.3690507 0.2000171
-0.120219104 0.09757609 0.05568185 -0.2991067 -0.08444488 -0.26195598 -0.21407408 -0.03724577
-0.0861395 -0.5203387 -0.07896357 -0.28212288 0.049120463 -0.2506748 0.108589046 -0.012370437
0.022554949 -0.3152132 -0.042703524 0.029813534 0.07720695 0.056945313 -0.06994252 -0.030542329
-0.024982251 0.036754634 -0.14098054 -0.14712703 0.054451402 -0.04776417 -0.08806045 -0.06649457
0.04698078 0.15871316 -0.24671051 -0.27455476 0.056279298 0.0015662533 0.01862555 -0.015948275
0.13450333 -0.3787767 0.14985044 0.0027159934 0.20981474 0.14185366 -0.09125868 0.099451154
-0.055760924 -0.08789849 -0.10686767 0.091566935 0.03660037 -0.09071376 -0.12857081 0.23668452
0.076190665 -0.3628539 0.02376395 0.045669623 0.07668119 0.024542905 -0.0832144 0.10747636
0.0031388334 -0.081424035 0.091054484 0.043231674 0.14069399 0.07164969 -0.3704604 -0.047805473
-0.043840796 -0.3781739 -0.06904698 -0.13907033 -0.1346143 -0.23172264 0.04494602 -0.065891
0.04943303 -0.42234984 -0.032348853 -0.03516123 0.023517529 0.030447284 -0.12570578 0.34122857
0.09941774 0.0078118304 0.0041420194 -0.19954723 -0.06578806 -0.10345299 -0.07402015 -0.061812762
-0.17658293 0.070314236 -0.13045442 -0.14710474 0.020580292 -0.015362937 -0.025027515 -0.15877992
0.0070932587 -0.39301082 0.13844034 0.047568876 0.020861112 -0.0011211664 -0.12331906 0.016824879
0.09211428 -0.017125174 0.03194579 0.11613677 0.07125067 -0.08594764 -0.011881651 -0.10498307

net.2.bias f4 [64]
00000000: 27ee 673d fa77 4d3b f6f7 2c3e 956e 863c
00000010: eed5 b53c 2af1 93bd 7cd0 7ebd 70e6 98bd
00000020: 417d 16be e3a7 f8bd 50f1 693d b8dd d03d
00000030: 389f c9bc fe30 8ebd 99d5 b53d 2061 96bc
00000040: d047 fdbd f0a4 16be b296 25be 1580 fabd
00000050: 4440 553b a41b b2bd d50e 9e3d f283 283d
00000060: 8327 91be 29b6 9dbc 0be9 d73d 0d8d 09be
00000070: c35b aebd aa85 9a3d dc38 cf3d b0d2 473d
00000080: 7ca3 e93d 1c5c 09be 6482 e63c ba89 e2bd
00000090: 58c6 8c3d cba3 86bc 49e5 94bd 8d99 883d
000000a0: 72c5 a13c da37 bcbd 48da 873d c329 60bd
000000b0: 3702 2dbd d41f 3a3e 1ab9 ff3d ecfb 47bd
000000c0: 5d72 05be 7aa1 7dbc af5b 8b3d ff4b 4abd
000000d0: b345 9abd eb7b b63c 50ca 6d3b 8582 443e
000000e0: c2f7 f93d 7058 9fbc b71f 4b3d ac4e b33d
000000f0: 7a41 a1bc 991e 1dbe 9452 573d 91ff 003e
0.056623604 0.003135203 0.16891465 0.016410151 0.022196736 -0.07223733 -0.062210545 -0.074658275
-0.14696218 -0.12141397 0.0571149 0.101985395 -0.024612054 -0.06942938 0.08878631 -0.01835686
-0.12367213 -0.14711356 -0.16170767 -0.12231461 0.0032539526 -0.08696678 0.07717673 0.041141458
-0.28350458 -0.0192519 0.10542496 -0.13432713 -0.08513596 0.07545026 0.10118267 0.04878491
0.11408135 -0.13414043 0.028138347 -0.110614255 0.068737686 -0.016435524 -0.07270295 0.066699125
0.01974747 -0.0919034 0.06633431 -0.054727327 -0.04223844 0.18176204 0.12486477 -0.048824236
-0.13031907 -0.015480394 0.06804597 -0.04938888 -0.07532825 0.022275886 0.0036283918 0.19190414
0.12205459 -0.01945135 0.049590793 0.0875524 -0.019684542 -0.15343703 0.052568987 0.12597491

net.4.weight f4 [64, 64]
00000000: 3750 793d 5e5f b33d c4aa 40bd 5486 7abd
00000010: c525 44bd 29c4 b13d d4bf 373d b43b fa3d
00000020: 5ab3 90be 6798 813e f850 60be 355b e33d
00000030: 0848 ddbd 3210 cf3d ea69 f33d 744f 7abd
00000040: fa58 cd3d 865a 78be 891f 15be 9d66 d93d
00000050: 3479 bd3d 6146 f1bc a139 cbbd 75d9 443d
00000060: 8abf 693e b2af 93bd 871f 0dbc 416e 133a
00000070: c4b0 f3bd 4add 9cbd 2119 3abc bf96 0fbc
00000080: 33f7 5b3c 3e8c 37bd da2a 8cbd a6c8 f4bd
00000090: fe2f 403d 9ab6 09ba 6ab7 e4bc 3384 19be
000000a0: cca2 1f3d 1dc5 4a3d 1283 583c b60f 16bc
000000b0: cbcf 65be e3db 1dbd b24c efbc 194d 353d
000000c0: e0cb aebb 27b8 c3bd eb99 053e ce96 10bc
000000d0: 81a6 9f3e 73f3 62bd 6604 f4bd e17d 22bd
000000e0: f2f2 16be d0eb 5b3c 734f 30be a9a5 03bd
000000f0: f2a1 f83d 7943 7e3d 5426 a83d cc53 b73d
00000100: 34a0 063c a9b5 313d a1fa 3e3c 52fc a93d
00000110: 7c9a 57be af86 e4bd 03fd c1ba 2ac4 6d3e
00000120: 37b0 32be 9cdc 3abb 101e 54be 4edb 08be
00000130: 78cf 9a3d 50cc 0c3c 7a7c ff3c 40fb 81bc
00000140: 1f7c 3e3c 0a1f 86be 652b 24be 7f7c df3b
00000150: 1b13 063e a6a0 063d 3744 7a3d 0722 8d3d
00000160: 26e0 923e 62d7 a03d 331c 6cba 303f 6cbd
00000170: 490d 00be 2429 c4bd 9a69 9cbb a141 5c3d
00000180: 50ae b93d d894 76bd 99ef 3a3c 5ee7 b6bd
00000190: 79c0 90bd aa32 edbd 2402 06bd 65aa 373d
000001a0: 15d0 da3d 5e8c 61bd 5c7f 81bd 35b6 12be
000001b0: ea68 94bd cfa7 443d 6071 c5bd 95b5 02be
000001c0: bbc2 e7bc ac88 92bd 2377 eb3b fde9 a03d
000001d0: 9b66 113e 21fd 4dbc 0926 21be a523 cebd
000001e0: 7d73 45be 10cf 11bd 844e 9bbd 488e 063d
000001f0: e90d 37bd d363 03be 82de 15bd 7240 51bd
00000200: 78ce dfbd ddfc 7abd 9e1e e8bd 3485 6b3d
00000210: 0b50 4dbd ad1d 3ebc a1cd 9bbb fcec 893d
00000220: 902d 08bc bbf8 30bd ae3c 9b3d 577a 923d
00000230: c8a6 5bbc 9ecd f13d 8788 a7bc 0059 333d
00000240: e78a 733c 38f5 4bbd 35b7 89bd 3ec2 623d
00000250: ac8b 7bbd c9fa 06be c1ab bb3d 8d57 893d
00000260: ceb6 b53d baab 95bd f38e c73d 00a5 283b
00000270: 76e1 303c f6dd e93c f1fc fcbd 3d83 bfbd
00000280: 15d8 53bd 8306 30bc 69e7 a6bd a09e 903b
00000290: f5d4 8ebd 7848 a63d 103f 7c3c 5345 0d3d
000002a0: 0610 0f3d 904a cf3d 3cd6 bb3c 7d8e c5bc
000002b0: 3825 c13c 5447 ecbd e9e8 8b3d a4ef 323d
000002c0: d18b 963d e143 a63d b4e3 ecbd a837 1d3d
000002d0: 7534 8cbd fb92 05be 2753 923d d698 79bd
000002e0: f9e0 ad3c f0fe 053d 2653 7abd 4eaf ac3c
000002f0: 9b6e a13d 14e5 01be 3ad5 6e3c 0e43 b2bd
00000300: fbf8 7dbd 0a78 983d f31c 8c3c 944e 973d
00000310: 6983 21be 21f6 d23a 39ef 3f3e 2b1a 6fbd
00000320: 364d 01bf e76e 723e 4dc2 fcbe a0fa 3f3c
00000330: 47ec f43c 608d 0cbb 5c74 ab3d 34a1 4ebd
00000340: 1c43 73bd 4451 94bb 7939 9ebe 1618 0ebe
00000350: bd92 d83d 5f99 05bd 0bdb debd d225 c33d
00000360: ff9f 9c3e 7ae3 1f3e 1bd7 f3bd 682b dc3d
00000370: 1782 483e 3b15 5fbe 163a 143d 47fc 43be
00000380: dabd 1b3d 3ea4 723d ab25 83be f2d5 83bd
00000390: 47af a63d b0f0 2bbe e57c c33d ca3c 063b
000003a0: 9b13 0f3e 9c8c 3cbd 4317 e6bd e6da fd3d
000003b0: 7912 cd3c d569 2dbe be05 de3c b1cd e03d
000003c0: 820e cfbd 1724 583e d772 63be 0c99 b43d
000003d0: 4b2b 3b3e 9340 c2bd 6b52 70bd 313d d7bd
000003e0: 0558 63bd 945d 3dbd 966d 01be 07e1 0d3d
000003f0: c0ee a3bd 5284 33be 55e4 33be eb0f 9f3e
0.060867514 0.08758424 -0.047037855 -0.06116326 -0.047887582 0.08679993 0.044860676 0.12218419
-0.28261834 0.25311586 -0.21905887 0.11101381 -0.108047545 0.10110511 0.11885436 -0.06111093
0.100267366 -0.24253282 -0.14562811 0.10615275 0.09251633 -0.029452505 -0.09923101 0.048058946
0.22826973 -0.072112456 -0.008613474 0.0005624034 -0.1189895 -0.07659395 -0.01135853 -0.008763968
0.013425636 -0.04481148 -0.06844111 -0.11952333 0.04692077 -0.0005253345 -0.02791949 -0.14991836
0.038973615 0.049504388 0.013214843 -0.009159019 -0.22442548 -0.03853978 -0.029211376 0.04426298
-0.0053343624 -0.09556609 0.13046996 -0.008825017 0.3118172 -0.055407953 -0.119149014 -0.03967083
-0.14741114 0.013422921 -0.17217807 -0.032140408 0.121402636 0.062076066 0.082104355 0.0895153
0.008216906 0.043386135 0.011656434 0.083000794 -0.21055025 -0.11158501 -0.0014800135 0.23219362
-0.17450033 -0.002851284 -0.20714593 -0.13364908 0.07559103 0.008593634 0.031187285 -0.015866876
0.011626272 -0.26195556 -0.16032179 0.006820261 0.13093226 0.03286805 0.06110021 0.06891256
0.28686637 0.07853581 -0.00090068876 -0.057677448 -0.12505068 -0.095781595 -0.004773331 0.053773526
0.090664506 -0.060200542 0.011409664 -0.089308485 -0.07067961 -0.11581929 -0.032716885 0.044840235
0.1068422 -0.055065505 -0.0632312 -0.14327319 -0.07246573 0.048011597 -0.09640765 -0.1276458
-0.028291097 -0.07154974 0.007185833 0.0785713 0.14199297 -0.012572558 -0.15737166 -0.100653924
-0.19282337 -0.03559786 -0.07583335 0.032850534 -0.044691 -0.12831049 -0.036589153 -0.05108685
-0.10928053 -0.061276305 -0.11333965 0.05750008 -0.050125163 -0.011603755 -0.0047547375 0.06734654
-0.008311644 -0.043205958 0.07579933 0.07152241 -0.013406463 0.118067965 -0.020450843 0.04378605
0.01486466 -0.049794406 -0.06724397 0.055361025 -0.0614125 -0.13181604 0.09163619 0.06706152
0.08872758 -0.07308145 0.09744062 0.0025733113 0.010795942 0.028548222 -0.12352932 -0.093512036
-0.051719744 -0.01074374 -0.08149607 0.004413441 -0.06974212 0.08119291 0.015395895 0.03448994
0.03492739 0.101216435 0.022929303 -0.024115795 0.023577318 -0.11537042 0.068315335 0.04368557
0.073508866 0.081184156 -0.115668684 0.038383156 -0.06845943 -0.1304435 0.07144766 -0.06093677
0.02122544 0.03271383 -0.061114453 0.021079686 0.078824244 -0.12685043 0.014577204 -0.08704196
-0.062005024 0.07444771 0.017103648 0.073880345 -0.15772785 0.0016095081 0.187436 -0.058374565
-0.5050844 0.23675118 -0.4936699 0.0117174685 0.029897822 -0.002144657 0.08371803 -0.050446704
-0.059390172 -0.004526289 -0.30903223 -0.13876376 0.10574863 -0.03261697 -0.10881623 0.09528698
0.30590817 0.15614119 -0.119062625 0.107504666 0.19580875 -0.21785443 0.036188208 -0.19139205
0.038022853 0.059238665 -0.25614676 -0.06437291 0.081389 -0.16791034 0.09545306 0.002048301
0.13972323 -0.046032533 -0.112349056 0.12395267 0.025033223 -0.16934903 0.027102347 0.109767325
-0.10110189 0.21107517 -0.22211777 0.08818254 0.18278234 -0.09484973 -0.05867235 -0.10509718
-0.055503864 -0.04623182 -0.1263946 0.03463843 -0.08004522 -0.17530945 -0.1756757 0.31066832

net.4.bias f4 [64]
00000000: b61f 113d 0b2f a73d 35a1 d5bd 2539 a1ba
00000010: 6b69 0dbc 56c1 913d 93fd 27bc e185 b73d
00000020: 3312 e53d 3623 053e 8baa a0bd 6091 7abd
00000030: 52bd 68bd f283 cdbc 0299 ac3d a14b db3c
00000040: a1c6 1839 cffa 833d 90b5 013e e70e ce3b
00000050: c792 9b3d d153 d8bc 6e91 383e ad1b 953c
00000060: 6adf 0f3d 4e6a cbbd 3afe a43d 215c 203c
00000070: a7b8 59bb aa21 f63d 9323 b03d f474 a9bd
00000080: 2004 0f3e cbe5 c83c 203b 233d eb16 053e
00000090: 4f41 02b9 8c3d 2dbd 8800 d53d 73a6 85bd
000000a0: 910f 823d 9422 ea3d 2699 c03d c1d7 233e
000000b0: 8a3b 843d 011e fd3d 4ab8 b73d 9f42 263e
000000c0: b40e 29be c159 d9bd e110 5f3d 20d2 7a3d
000000d0: 4e84 03be c9d1 5bbd 1c24 913d 0572 30bd
000000e0: 3645 05bd 6d14 be3d f3bc 0abd 0ef1 4d3a
000000f0: 248a f8bd acbc 213d fad1 57bd fb2c 8fbd
0.035430633 0.081632696 -0.104311384 -0.0012300356 -0.008631091 0.07116954 -0.010253328 0.08961082
0.11185112 0.13001713 -0.078450285 -0.061173797 -0.056821175 -0.02508733 0.084276214 0.026769461
0.00014569845 0.06444322 0.12666917 0.0062883976 0.07596355 -0.026407154 0.18024227 0.018201673
0.035125174 -0.099323854 0.08056302 0.00978759 -0.0033221634 0.1201814 0.08600535 -0.0827426
0.13966417 0.024523636 0.039851308 0.12997024 -0.00012422095 -0.042295024 0.10400492 -0.06525888
0.06350625 0.114323765 0.09404211 0.16000272 0.06456669 0.123592384 0.08970697 0.16236351
-0.16509515 -0.10612822 0.054459456 0.061235547 -0.12843439 -0.053666864 0.070869654 -0.043077487
-0.032536708 0.0928124 -0.033871602 0.00078560493 -0.12135723 0.039486572 -0.052690484 -0.06991001

net.6.weight f4 [64, 64]
00000000: 920d 33bd 5d2e 80bd 20b3 8ebc 200a ca3d
00000010: 528c 34bd 17e0 84bd 6dc1 4ebd 361b 51bd
00000020: 1214 7bbd 2f59 e7bd 473f b33d dae7 94bd
00000030: 4750 783d e201 993d 4257 3b3d 2b9a 1d3d
00000040: 11c9 6b3d 7946 ddbd 0ac2 f9bd 8e07 f1bd
00000050: 8a75 903c f86e 113d 4876 c33c 14ed c0bd
00000060: 0da4 16bd fd1a d6bc 4639 df3d dc4c 163d
00000070: acfe 0dbd fedd aebd 5a61 eebd d795 8dbc
00000080: c8ca 913d 4863 edbc db6b 013d ad77 aebc
00000090: 6138 a1bd ee8c 413d c181 7e3d b715 d13d
000000a0: 6ac9 d2bd 8404 47bd 159d b93d 29af 32bc
000000b0: ac96 af3d c471 4a3d 7027 083d 0ed8 c7bd
000000c0: 7e48 dd3d dea1 62bd 1c84 e9bd e086 c2bd
000000d0: f51c 633c eea3 fb3d 57d0 a53d 63ed f5bc
000000e0: c694 613c da96 20bd e86e d7bc 4e2e 48bc
000000f0: f860 f33d 3c3c bcbd be21 34bd e715 40bc
00000100: 3cf4 46bd a197 c7ba 2ea8 bdbd 6b85 2fbd
00000110: a965 e9bd fc79 d03c 91f3 113d d727 173d
00000120: b993 cfbc 165d d93c a838 6cbd 5a9a f2bd
00000130: f54e 83be d18c bd3c f003 973c eb71 9ebd
00000140: ca47 ed3b 42d3 073d dbfd babb 2738 93bb
00000150: 972d 153d b056 7fbc 93c1 893d 8cfe 343d
00000160: 71b7 0bbd 737a 0b3e dd30 53bd 2690 e63d
00000170: c4dc a63d a840 1bbb 59ba 903d 1b87 0bbe
00000180: 02a5 823d d4fd e9bd df7c d0bd 70f6 ac3d
00000190: 4b8b e03d 95ae 1a3d b514 7fbd 3b94 febd
000001a0: bf16 253e 2100 ce3d 7137 21be ec65 a7ba
000001b0: 667c 9abd 8404 fabd a01c 01be b90a 08be
000001c0: 19ef 3ebe 463b 8e3d dd23 44be 241f 553d
000001d0: 7b36 45be 296b 7a38 4133 0b3d 63eb bcbd
000001e0: eb82 adba efb6 c03d 96a6 c5bd aeca a2bd
000001f0: 1ba3 6bbe e740 3ebe c58a 393d 01b6 a3bc
00000200: d006 bb3d 20f1 513c a870 99bc 91e4 bebd
00000210: eb94 7ebb bab9 433d a5da ac3d c015 a9bd
00000220: 488b d63c c39d cebd c905 dfbd 6039 0f3c
00000230: d8b9 adbd f874 4c3d 4e06 753d 0797 6cbc
00000240: afc3 d7bc 87f3 79bd ec51 243d 8338 d63d
00000250: e244 06be 1aaf 133d ea1f ec3d ca2f f73d
00000260: e22b d0bd abad d3bc 60aa 98bc 2ccb bf3d
00000270: 160f 96bd 87e9 05be 1872 21bd a09d 513d
00000280: 4874 f23d 7158 c8bd 4233 c1bd dd58 d43d
00000290: 4bba 853d 6224 f73c a6a2 86bc 20a2 09be
000002a0: 8a94 0d3d 56f6 08be 41da 9abd 7e67 fcbd
000002b0: de3c 933d 4a2c ed3d 2e2a 823d 1691 a03d
000002c0: 80aa d13c 44af ed3c 00bc 3c3c c5a6 c03c
000002d0: 9947 d93d a8e7 853c 0a2a 96bd aabf 2cbd
000002e0: a23a ca3d 623b 233d 08fc 93bd 84d0 ffbd
000002f0: ccb7 093d 84d2 7ebd e235 b83d fb93 1cbd
00000300: 5ed0 8f3d f433 3c3e 88b5 10be 7275 923e
00000310: 79c1 213d 27fa a53d 981c 21be 4603 b63d
00000320: c15f b43d 96f2 61be ea93 55be e043 f73b
00000330: 6252 853d 1e66 65be bc6e 593d 90e0 163d
00000340: 8cf3 a13d c7a0 6c3d 966f 0bbe 0c97 023e
00000350: 7476 623d 78c3 91bc 3432 d6bc 7324 d43d
00000360: d612 16bd f6ae 2fbe 0c30 55be ec31 d4bd
00000370: 30c1 07bd da5a a13d 92fe 60be f8f3 71bd
00000380: cbf3 4e3e 7e24 443e 8711 8fbc dcf6 173c
00000390: a5f2 023d a3bf 57be 6aa5 4f3d 86d2 903d
000003a0: 9aa4 493b a058 243d 9356 283e 402e dcbd
000003b0: 7858 293c 90c9 c13e 7c3c ac3d e2de f93d
000003c0: b8f4 873d a9a4 52be a27a 813d 8a3d e73d
000003d0: 4b03 1d3e 6494 8b3d dad7 cebd 9e61 96bd
000003e0: e7e8 b2bd af19 af3d e75b 31bd 8c63 45be
000003f0: 6402 cabd a10b 72bc 2093 6d3d 79fa 14be
-0.043714114 -0.06258843 -0.017419398 0.098652124 -0.044079132 -0.06488054 -0.050477434 -0.05105134
-0.061298437 -0.11296307 0.087523036 -0.07270785 0.060623433 0.07471062 0.045737512 0.038477104
0.0575648 -0.10804457 -0.12195213 -0.11769019 0.017634172 0.03550622 0.023860112 -0.09420219
-0.036777545 -0.026135916 0.10899596 0.036694393 -0.034666702 -0.085384354 -0.11639662 -0.017283363
0.071187556 -0.028978005 0.031597 -0.0212973 -0.078720815 0.04725354 0.06213546 0.1020922
-0.10292323 -0.04858829 0.09063164 -0.010906019 0.0857366 0.0494249 0.033240736 -0.09758006
0.108048424 -0.05533015 -0.11402151 -0.094983816 0.013861884 0.122871265 0.08096378 -0.030020421
0.0137683805 -0.039206363 -0.026298001 -0.012218071 0.1188373 -0.09191176 -0.04397749 -0.011723972
-0.048572764 -0.0015227684 -0.09260593 -0.042851847 -0.11396343 0.025448792 0.035632674 0.03690323
-0.025338994 0.026533645 -0.05767122 -0.118458465 -0.25646177 0.023138436 0.018434495 -0.07736572
0.007241224 0.033160456 -0.0057065315 -0.004492778 0.03642043 -0.015584633 0.067263745 0.044188067
-0.03411049 0.1362093 -0.05156027 0.11257963 0.081475765 -0.0023689661 0.07066793 -0.13625757
0.06379129 -0.11425367 -0.10180067 0.08445442 0.10964068 0.03776415 -0.062275607 -0.124306165
0.16121958 0.10058618 -0.15743805 -0.0012771464 -0.07543258 -0.122078925 -0.12608576 -0.1328534
-0.18645896 0.06944899 -0.19154306 0.05203165 -0.19259064 5.9704445e-05 0.033984426 -0.09224584
-0.0013237869 0.09409892 -0.09650914 -0.07948814 -0.23011439 -0.18579446 0.045298357 -0.019984247
0.09132159 0.012813836 -0.018730476 -0.09320939 -0.0038846086 0.047784545 0.08440141 -0.082561016
0.026189461 -0.100886844 -0.10889775 0.008741707 -0.084827125 0.049916238 0.059820466 -0.014440305
-0.026338426 -0.06102326 0.04011719 0.104599975 -0.13112214 0.03605566 0.115295246 0.12069662
-0.1016462 -0.025839647 -0.018635929 0.09364924 -0.07327096 -0.13077365 -0.03941545 0.051175714
0.11838585 -0.09782494 -0.09433605 0.10368512 0.06529673 0.030168716 -0.016434979 -0.13440752
0.034565486 -0.1337522 -0.0756116 -0.12324427 0.07189344 0.11580713 0.063557014 0.07840173
0.025593996 0.029014237 0.011519432 0.023517022 0.10609359 0.016345814 -0.07332237 -0.042174973
0.098744646 0.039851554 -0.072258055 -0.12490943 0.033622548 -0.062212482 0.08994652 -0.038227063
0.07022165 0.18379194 -0.14131749 0.2860523 0.03949115 0.081043534 -0.15733564 0.08887343
0.08807326 -0.22065195 -0.20857206 0.007545933 0.06509854 -0.22402236 0.05308412 0.036835253
0.07907781 0.057770517 -0.13616785 0.12752932 0.055288747 -0.017793402 -0.026146986 0.10358515
-0.036639057 -0.17156586 -0.2081911 -0.10361084 -0.033143222 0.07878657 -0.21972111 -0.059070557
0.20210187 0.19154546 -0.017464412 0.009275164 0.031969685 -0.21069197 0.05069486 0.07071404
0.0030768276 0.040123582 0.16439275 -0.10751009 0.010336034 0.37849092 0.08409974 0.12200715
0.06638473 -0.20570625 0.063222185 0.112910345 0.15333287 0.06815413 -0.10099764 -0.07342838
-0.08735829 0.08549821 -0.043300536 -0.19276255 -0.09863737 -0.01477328 0.058001637 -0.14548673

net.6.bias f4 [64]
00000000: c7c6 c5bd 03d6 46bd 9da8 dcbd 0e5e 1a3e
00000010: 80c7 013d 5ecf a33d 2e4e 0ebe cb0c 263d
00000020: 078f 963c b993 413d e6c4 22bb 94c7 8ebd
00000030: 3b8c 723d 6a8c 023e 1f92 a33d 37ad e13d
00000040: b6fb c33d fd13 183d e653 b43d 725c ab3d
00000050: 75ce 873d 545c 1ebc 60bd 99bd 5c1f 64bd
00000060: 7ade b13c 4158 a93d 52cc 2f3d 9ce5 503d
00000070: a2ab e63d d67f ebbd 760d 903d e28d 21ba
00000080: 51a8 293a 8c69 3ebd 9a7f d13c bd68 f4bd
00000090: 7f3d 253d 8a00 51bd 9336 ca3d 6fbc e53d
000000a0: 9d99 e53d 80dc 3fbe accd 9d3d 4dec 12be
000000b0: 5b52 c53b 18a0 853d 381b 0cbe 1f24 8bbe
000000c0: 88cf 8d3c 3470 943c ce6f f9bd 83fb 8f3d
000000d0: 17be 9a3d 3322 2bbc c60f 29be 4d4d aa3d
000000e0: d16b cfbd 4b1a 363c ec42 97bc e1f8 b23d
000000f0: 4a82 8e3d d4e2 1abe 5985 efbd 3ec3 31bd
-0.096570544 -0.04854394 -0.10774348 0.15074942 0.0316844 0.079985365 -0.1389701 0.040539544
0.018378748 0.04726002 -0.00248366 -0.0697166 0.059215765 0.12748876 0.07986855 0.11019366
0.095694944 0.037128437 0.08805065 0.08367242 0.066311754 -0.009665567 -0.075068235 -0.05569397
0.02171253 0.08268786 0.042919464 0.051000223 0.11263205 -0.11498992 0.070338175 -0.0006162805
0.00064719195 -0.046487376 0.02557354 -0.1193404 0.04034185 -0.051025905 0.098736905 0.112175815
0.1121094 -0.18736458 0.077052444 -0.14347954 0.0060217804 0.06524676 -0.13682258 -0.27175996
0.017310873 0.018119909 -0.12179528 0.07030394 0.07555788 -0.010445165 -0.16509923 0.08315525
-0.10127986 0.011114667 -0.018464528 0.08738876 0.069584444 -0.1512559 -0.11695356 -0.043399088

net.8.weight f4 [1, 64]
00000000: 74e0 e9bd 810c 083d 9b20 24bd be98 68be
00000010: 0cc5 e7bd ff87 643e 98a5 ecbe 169c 0cbd
00000020: ba55 523e 50fb 71be 1912 85bc 004e 553d
00000030: cc76 74be bdac 823e b03c 453e 8f5f 843e
00000040: 65ec a93e 35da 69be 6a5c 75be ec16 593e
00000050: d128 60be 306f 1b3e d08e 343e e005 abbe
00000060: 48ed 44be 7ef0 06bf 4ab0 593e df24 3c3e
00000070: 77cf 733e a4a7 f13c 8601 073e 5082 c2bd
00000080: a9ce 6abe 219f 9cbd f3a5 7cbe e795 4c3d
00000090: 94ab 6dbe 6b76 4abe f985 783e febb 57be
000000a0: 7b68 82be 0d81 a5be 0849 d03d 853a d6be
000000b0: fef0 debd cabd a0be 6d52 bd3e c05a 97be
000000c0: 1c31 89be 8a36 d3be 7f56 bdbe 46c0 88be
000000d0: 3620 39be 5f62 4cbd 1b65 f8be c281 acbe
000000e0: 946c 34be b341 1b3e c443 61be cec6 543e
000000f0: 6a26 aabe b831 b1be d262 06bf 5f0e 523e
-0.11419764 0.03321505 -0.040070157 -0.22714517 -0.113168806 0.22317503 -0.46220088 -0.034328543
0.20540515 -0.23631024 -0.016243981 0.05207634 -0.23873442 0.25522414 0.19261432 0.25854155
0.33188167 -0.22837146 -0.23961034 0.2120015 -0.2189057 0.15179133 0.17632604 -0.3340292
-0.1923114 -0.5271071 0.21258655 0.1837344 0.2380961 0.029498883 0.13184175 -0.094975114
-0.22930397 -0.07647539 -0.2467268 0.049947646 -0.23209983 -0.19771735 0.24269857 -0.21067807
-0.25470337 -0.3232502 0.101701796 -0.41841522 -0.10885809 -0.31394798 0.36976948 -0.29561424
-0.2679528 -0.41252548 -0.36980054 -0.26709193 -0.18078694 -0.0498985 -0.48514637 -0.33692747
-0.17619544 0.15161781 -0.21998507 0.20778963 -0.33232433 -0.34608245 -0.5249454 0.20513295
