models/nn/smogn/Colour/model.pt (torch, 54492 bytes, 9 tensors)

net.0.weight f4 [64, 3]
00000000: 987a c53e 26bb cebe 1183 91be 1680 9c3d
00000010: fc88 8c3d 6d93 153f 1419 f5be 15dd 17bb
00000020: eb37 e9be bd46 993e 6eec 6d3e f313 19be
00000030: e7d4 dd3e cb25 d93e 549e 86be b512 08bf
00000040: 39ce 813e d2fe f0be 2576 6a3d 8168 0a3d
00000050: c9cd b53e 74c2 933e ba8f 9dbe 206a 133d
00000060: ee05 27be a6f2 143f 9e3a 073e fd77 033f
00000070: eb11 ee3e 0e8d 823e b292 b43e 7f66 4cbc
00000080: 6fed c8be 4237 83be 22fe 78be 7492 b4be
00000090: 9a26 c6be fc99 28bf fec5 913d df12 d5be
000000a0: 4197 0dbf ca43 2d3e d306 11bf b514 ca3d
000000b0: a559 96bd ce56 ad3e 7bdf 023f b487 3d3e
000000c0: 3752 f0be 0b6f 7dbd a9e2 813e cb1f c5be
000000d0: 4647 fcbe e9f0 28bf c5da a8be 766f a93e
000000e0: cba1 a1be a6f2 1e3e b8b5 c6be e856 82be
000000f0: 6b98 93bd a4a4 113f 7d4e d13d a18f 08bf
00000100: 595d c53e 2265 a43c f0a9 053f cf79 75bb
00000110: 98c5 13bf 8f7a 283d 2570 bcbe fa69 fcbe
00000120: 4554 863c a821 303e 1994 9bbe 0a2d 21be
00000130: f73d 5ebe 5f02 ef3e 5ebe 423e 0796 a1bd
00000140: fc3b 62be 0171 b5be 341d 2dbe 18c4 8c3e
00000150: cacc 90be 2ee0 98be b3ec edbe fad7 0e3f
00000160: 40c8 49be 9a01 173f ebcc 67bd 07cf 09be
00000170: 77cb 02bf 2769 a3bd 552a c0bd 0d91 503e
00000180: df12 85be dc9f 023f c273 0b3e 82c0 08be
00000190: 5984 debe 3423 1c3e 2890 c93d 2a70 0e3d
000001a0: 126b 1cbf a60f 893e ba73 e83d 1364 b13e
000001b0: a866 99be 9111 c03e b539 d83e 9cac 563e
000001c0: b4d8 033f 84b0 0abf 6f64 223f 2192 a43d
000001d0: 6e8f ea3e 307f d93e 9f07 a43d 18d2 b5bc
000001e0: 946b 893e 28d6 113f 545f c8be 0060 003f
000001f0: e32c 623d cdcd b93e 0077 92bd 6335 34be
00000200: 0ead 63be a2e1 cdbd 7097 f2be d75b e03e
00000210: fabf 843e 59e5 19bf b61e 943e 95f6 fcbe
00000220: 1ec9 9abe 8aec 063f 3909 a1bd 1d19 ae3e
00000230: 5fad bb3e d498 9d3d 3633 08bf 9171 b03e
00000240: 0520 9cbe 7cba e1be 3fc0 4cbe b428 e13e
00000250: 72b5 3bbe 3520 f73e 628b bd3d a6bc 7cbe
00000260: 35f5 4c3d 7525 ed3e 5a36 f53e 61e0 41bb
00000270: 3b49 f63d 563a d23e 98ad 36be 91fc 03be
00000280: 89eb 913e 6b03 d63e de80 573d bf52 93bd
00000290: 4d7a febe 8358 a2bd 00f6 d4be 9fc8 00be
000002a0: 66e2 a23c 384c 813e 187d df3e 2976 923d
000002b0: ff71 fb3d fa84 9abe 9be2 ecbe 9fe3 0ebf
000002c0: c044 1e3d a816 163e e887 123f fd2c d43e
000002d0: 7481 16bd b9fb 77be 73ae f93e 1601 16bf
000002e0: a113 dabd 6925 483e a1ae 0abf db18 f13e
000002f0: e093 28be 7a84 043f 0787 a3bd ad73 b6be
0.38570094 -0.40377158 -0.28420308 0.07641618 0.06862065 0.5842808 -0.47870696 -0.0023172547
-0.45550475 0.29936782 0.23234722 -0.14949016 0.43326494 0.42411646 -0.2629267 -0.53153545
0.25352648 -0.47069412 0.057241578 0.03379107 0.35508564 0.28859293 -0.30773717 0.03598988
-0.16310856 0.5818275 0.13205954 0.5135496 0.46498045 0.2549824 0.3526817 -0.012475609
-0.39243647 -0.25628096 -0.24315694 -0.35267985 -0.38701326 -0.6585996 0.07117842 -0.4161596
-0.5530892 0.1692039 -0.5665104 0.09867231 -0.07341317 0.3385529 0.51122254 0.18508798
-0.46937725 -0.061873477 0.2536824 -0.3850082 -0.49273127 -0.659926 -0.32979408 0.3309285
-0.3156875 0.1552225 -0.38810515 -0.2545693 -0.07206806 0.56891847 0.102200486 -0.5334416
0.3854778 0.020067755 0.5221243 -0.0037456637 -0.5772338 0.041132506 -0.3680431 -0.49299604
0.016397605 0.17200339 -0.30386427 -0.15739837 -0.21703325 0.46681497 0.19017932 -0.078899436
-0.22093195 -0.35437778 -0.16905671 0.27493358 -0.28281242 -0.29858536 -0.4646965 0.55798304
-0.19705296 0.5898682 -0.05659191 -0.13457881 -0.5109171 -0.079790406 -0.09383074 0.20367832
-0.2599096 0.51025176 0.13618377 -0.13354686 -0.43460348 0.15247804 0.09841949 0.034774937
-0.61100876 0.2676975 0.11350198 0.34646663 -0.29961133 0.37513402 0.42231527 0.20964283
0.5150254 -0.5417559 0.634345 0.080356844 0.45812553 0.4247985 0.08009266 -0.022194907
0.26839888 0.569674 -0.3913523 0.50146484 0.05521859 0.36289826 -0.07151604 -0.1759849
-0.22233984 -0.10052802 -0.47381163 0.43820068 0.25927716 -0.6011558 0.2892968 -0.49406877
-0.30231565 0.5270468 -0.07863087 0.34003535 0.3665571 0.07695165 -0.5320314 0.34461644
-0.3049318 -0.4408759 -0.19995211 0.43976367 -0.18330935 0.4826676 0.09255101 -0.24681339
0.050038535 0.4631764 0.4789303 -0.0029583203 0.12025686 0.41060132 -0.17839658 -0.12889315
0.28500012 0.41799483 0.05261313 -0.07193517 -0.49702683 -0.079270385 -0.41593933 -0.12576531
0.019883346 0.25253463 0.43650126 0.071514435 0.122776024 -0.30179578 -0.46266636 -0.5581607
0.038639784 0.1465708 0.57238626 0.41440573 -0.03674455 -0.24217118 0.48765907 -0.58595407
-0.10648275 0.19545521 -0.5417271 0.47089276 -0.1646266 0.51764643 -0.07984739 -0.3563513

net.0.bias f4 [64]
00000000: db52 a13e 72a0 9cbe b6cf 05bf 3215 06be
00000010: 20d5 013f 6e7f 903e 5439 f53e de3d 49be
00000020: 6f8d 013c 6505 16be e175 263f 69f8 1bbd
00000030: 4452 f4be 0cd0 3a3e 441e eabe e0d3 7b3e
00000040: e40b 533e a98c 31be 45f2 22bf 7ed3 0bbd
00000050: 3ea4 bcbe 6e7e 1b3f 0177 4abe 921c 26be
00000060: 9e58 f23e a9a7 18be bae6 533d 29f2 05bf
00000070: 599e 7e3e b336 d83e 705c 0fbf 81b9 0a3f
00000080: 7781 ec3e 5a17 933e e422 47bb a8d1 a4bd
00000090: 2d30 0d3f 6d66 843e 64fe 2abe e145 a2be
000000a0: eea7 173f f686 b3be 0c16 88be 8be7 00bf
000000b0: bd37 843e 0d22 b43c 40af 133f d0b0 c7be
000000c0: 59fe 473e 3463 cbbe 0005 dcbe 0785 05bf
000000d0: 32c8 473d 5952 593e 789c b03e d3d9 213f
000000e0: 81d4 d93e 4c99 573d 6414 c13e be0f 17bf
000000f0: 72d4 103f 3d9a 0abf 9ea6 ce3e 9a2a d3be
0.31508526 -0.3059116 -0.52270067 -0.13094023 0.5071583 0.2822222 0.478953 -0.19652507
0.007907256 -0.14650495 0.6502362 -0.0380787 -0.47719014 0.18243426 -0.45726216 0.24592543
0.20610005 -0.17338814 -0.63650924 -0.03413724 -0.36844057 0.6073979 -0.19771959 -0.16221836
0.47333235 -0.14907707 0.05173371 -0.5232263 0.24865092 0.42229232 -0.56000423 0.54189306
0.46192524 0.28728753 -0.0030385787 -0.08047801 0.55151635 0.25859395 -0.16698605 -0.31693938
0.59240615 -0.35063905 -0.2657932 -0.50353307 0.25823775 0.021988893 0.57689285 -0.39002085
0.1953062 -0.39724123 -0.42972565 -0.5215611 0.048774906 0.2122282 0.34494376 0.63223
0.4254494 0.05263643 0.3771087 -0.59008396 0.56574166 -0.541416 0.40361494 -0.4124344

net.2.weight f4 [64, 64]
00000000: 8a9d e93d 73b6 973d 46a0 73bd 3715 5bbc
00000010: 1a67 cdbd 53f6 6a3b a8b9 923d 6c1a 1d3d
00000020: 1439 8ebd e534 9a3d ae83 9cbc 22e4 c3bd
00000030: 1083 d7bd be1d e13d 8f7b 923e 3d60 19be
00000040: e33c 9e3c 2bd5 83bc 30d0 cf3e a06b 8cbd
00000050: b56a 11be 8b2d f13d c97d a0bd bb69 0f3e
00000060: 5082 f1bc 41a4 ebbd e8c4 013c a760 053e
00000070: b4bc 91bb b4c5 1a3e f8a0 a73e 9e66 4fbb
00000080: b390 78bb 44ac 2fbb 9ddf edbd ca1a 21be
00000090: d679 90bc 709a fcbd e7fe d1be 459c 19bd
000000a0: 5162 aa3d 8102 84bd 2772 6cbd 9dd7 23be
000000b0: c8d0 eb3c 5881 0dbd 3789 7e3d 7d67 663d
000000c0: fcbb e43d 2110 b3be 3f84 fb3c 47cc 823d
000000d0: 29f0 803d a02e cd3d 11af aabd 91d6 023e
000000e0: 3794 a73d 0dca 983d ea4c 923d ea9b 0ebd
000000f0: a5b0 723d ad00 063e bb8a 0d3e 7e19 fb3d
00000100: 3283 dabd 3cd8 7e3d be6c ce3d b8d5 84bd
00000110: de06 e0bd 2623 863d d032 693c 02b8 d13d
00000120: d8f1 563d ac56 c33d 4633 d6bd 08cd 1cbd
00000130: fc37 f3bd 685d 9e3c f8e7 a83d 34c4 b4bd
00000140: dc7c a93d a06e e0bd 00aa ac3d 30e9 d5bd
00000150: d643 c7bd 480c 82bd 3466 113d 22d4 e7bd
00000160: 6c43 723d 5850 f0bd 40f5 24bc 84d4 23bd
00000170: d8d3 bebc 169c a4bd 805c f93d 28ee eb3d
00000180: 106a ffbd e897 8fbc fc6e c6bd 2007 d9bd
00000190: 8cf3 2cbd 3c16 a23d bef8 ecbd a425 ed3d
000001a0: 2698 e13d 5823 563d 6aca bf3d d027 a73c
000001b0: 9cc7 7c3d fa3a 843d d064 e4bd 3834 033d
000001c0: 600b 95bb d444 f7bd 66bd c63d fc6c 21bd
000001d0: c02d 8d3c 901d 81bd 9c20 a33d 6016 ff3b
000001e0: 5490 40bd 78b5 65bd 245b 003d e63f e0bd
000001f0: 686d 593d 166e d8bd 06f0 a0bd 6820 8c3c
00000200: 3ccf 89bd 80c0 253d 9ab4 a4bd 007c 26bd
00000210: 84c0 4c3d 2430 853d 480b ecbc a43f 303d
00000220: fa75 c7bd e80a cebc 9834 a03d 708c 32bc
00000230: c2e4 dfbd 8077 47bc d0f4 98bc 3cbb 2f3d
00000240: 7868 d4bc 7c93 b0bd 9863 ca3c 26e3 bc3d
00000250: b8d9 f2bc dc55 143d c847 aa3c e8cd a13c
00000260: 3822 9bbc 60dd fbbb 229f f6bd 84cf 973d
00000270: 6c81 99bd 5064 c7bd 2eaa 99bd bc6a 123d
00000280: c8f3 cdbc 70f8 95bd 1c51 8e3d 84af 7bbd
00000290: 982e b3bd 08a9 763d f407 56bd c629 a8bd
000002a0: d0bb 1abd 54cc 7abd 008a be3a 6057 5dbd
000002b0: 004f 8d3b 6002 fdbb 2422 b03d cc25 a03d
000002c0: 4403 79bd 5481 433d 84e7 e3bd da9c c8bd
000002d0: 82ae aebd 704b 5bbd 0630 f4bd 3c08 953d
000002e0: 92da d63d de62 c7bd 2c0f eabd 6822 1abd
000002f0: da14 c83d 4c04 0b3d 20da e73b 1465 f43d
00000300: a53e a33d 179b 3e3d 67ba a5bd bc6e 01bd
00000310: 2d6b 08bd f324 2fbd 98be 363c acbe a03d
00000320: 5f4a abbd ca53 02be aef6 02be d74c 4d3c
00000330: 770c d1bd 89ab 2c3d 6639 7d3c 6fef ff3c
00000340: b62d 89bd 9588 293d 00b3 8a3d 4eba ac3c
00000350: 00f2 f33b 5106 0d3d cb54 293b 3d5d 323c
00000360: 8205 003d 6517 bf3d 08cd 1ebd bca9 263d
00000370: a823 9b3d e6b7 f0bd 5e63 bbbc 8039 fdbd
00000380: ddf4 e1bd 4049 753d 461e edbd cf81 d83d
00000390: 6238 be3d 2523 cabd 1e39 efbd a86d a6bc
000003a0: 9000 03be d091 703d c146 89bd 263d 153c
000003b0: e56b abbc 791b fbbc a56d b1bd 8961 703c
000003c0: 64a4 da3c a417 793b a9b6 dabc 1097 42bd
000003d0: b792 88bd 6895 a13c f2d1 fd3c 4401 92bd
000003e0: 5586 91bd 812d b83d b453 773d ca95 febd
000003f0: 58ac bbbd a7d9 c0bc 6dbf 93bd 8d25 e13a
0.11407001 0.07407846 -0.05947902 -0.013371757 -0.10029431 0.0035852387 0.07164317 0.038355276
-0.069444805 0.0752962 -0.019105759 -0.09564997 -0.10523045 0.10992001 0.28609893 -0.14978118
0.019316142 -0.016092857 0.40588522 -0.06856465 -0.14200862 0.11776265 -0.078364916 0.14005177
-0.029481083 -0.11505938 0.007920481 0.13025151 -0.004447544 0.1511448 0.32739997 -0.0031646858
-0.0037928044 -0.002680556 -0.116149165 -0.15732875 -0.01763622 -0.12334144 -0.41014788 -0.037502546
0.083195336 -0.0644579 -0.05772605 -0.16000219 0.028786078 -0.03454718 0.062142577 0.056251038
0.11168668 -0.34973243 0.030702708 0.06386619 0.06295807 0.10018659 -0.083341725 0.12777163
0.081825666 0.07460413 0.071435764 -0.03481666 0.059250493 0.13086195 0.13822453 0.122607216
-0.10669555 0.062217936 0.10079335 -0.06486076 -0.1093881 0.06549673 0.014233306 0.10240175
0.052476734 0.09538016 -0.104589984 -0.03828147 -0.118759125 0.019331649 0.082473695 -0.08826485
0.08275768 -0.109586 0.084308624 -0.104448676 -0.097297356 -0.06349999 0.03549786 -0.11319758
0.05914633 -0.11734074 -0.010068238 -0.039997593 -0.023294374 -0.080375835 0.12175846 0.11520034
-0.12471402 -0.01752849 -0.09689137 -0.10597062 -0.042224452 0.07914397 -0.11570881 0.11579445
0.11015348 0.0522798 0.09364779 0.020404726 0.0617138 0.064565614 -0.11152041 0.03203222
-0.004548475 -0.12073675 0.09704094 -0.039410576 0.01723373 -0.06304467 0.07965204 0.0077846497
-0.047012642 -0.056081265 0.03133692 -0.10949688 0.053082854 -0.10567872 -0.07858281 0.017105296
-0.0672898 0.040466785 -0.080422595 -0.0406456 0.049988285 0.06503323 -0.028813973 0.043029442
-0.09739299 -0.025151685 0.078225315 -0.010897741 -0.10932304 -0.012174487 -0.018671423 0.04290317
-0.02592872 -0.086218804 0.024705693 0.092230126 -0.029644832 0.036214694 0.020786181 0.019751504
-0.018937215 -0.007686302 -0.12042071 0.07412627 -0.074953884 -0.0973593 -0.07503162 0.03574632
-0.025140658 -0.07322776 0.06949064 -0.06144668 -0.087491214 0.060219795 -0.05225368 -0.08211093
-0.03777677 -0.06123002 0.0014536977 -0.054038405 0.004312396 -0.0077212304 0.08600262 0.07819709
-0.06079413 0.04773076 -0.111281425 -0.09795542 -0.085293785 -0.05353874 -0.11923222 0.07276961
0.10490908 -0.09735654 -0.11428675 -0.03763047 0.09769602 0.033939645 0.007075563 0.119333416
0.07970933 0.046534624 -0.08092194 -0.031599745 -0.033305336 -0.042759847 0.0111538395 0.07848868
-0.083637945 -0.12727275 -0.12789413 0.012530527 -0.102074556 0.042155776 0.015455579 0.0312421
-0.06698172 0.04139002 0.06772423 0.02108493 0.00744462 0.034429852 0.0025837894 0.010886488
0.031255253 0.09330634 -0.03876975 0.040689215 0.0757516 -0.11753826 -0.02287453 -0.12364483
-0.11033032 0.05988431 -0.1157804 0.10571634 0.09288098 -0.098699845 -0.11680816 -0.02031596
-0.12793183 0.058732808 -0.06702948 0.009108817 -0.020925472 -0.030652748 -0.08663491 0.014671692
0.026689716 0.0038008476 -0.026698427 -0.047507346 -0.06668609 0.019724563 0.030983899 -0.07129148
-0.071057 0.08993054 0.06038256 -0.12430914 -0.09163731 -0.023541285 -0.07214246 0.0017177329

net.2.bias f4 [64]
00000000: a45d 5d3d a0ff babc b6c8 fdbd d07e 94bd
00000010: f0d9 903d 2c80 27be a8f5 2ebd ab76 333d
00000020: d827 d2bd 3526 6e3d ceee 253d 0e57 c93d
00000030: 34cd 813d 075b 663d 62c6 e33d 6bc1 0a3d
00000040: 2b96 1c3e 400b 003d 2058 33bd 0375 123e
00000050: 2e6f 003e 7406 753d 6bf3 143e a681 0a3d
00000060: e43d 9d3d 45f4 3fbd e16c 913c 3a2f f33c
00000070: e876 683c 2ba7 423d a37a e43d 0fd5 9c3d
00000080: bed5 febd 393e 2c3e 6fc1 eabd 966b d43c
00000090: 698d 6b3c 4468 1e3e 4ecf 02bb d326 bc3b
000000a0: 6aee c3bd 58b1 1c3e f8a8 033d e4ea 4b3d
000000b0: a423 65bd 62fa 01bd 0dcd 313e 39c4 eb3d
000000c0: 724d c5bd 2664 9c3d 9748 09be 9577 d13d
000000d0: f20d 973c 0894 f3bd 0f73 0e3d 6da8 9dbd
000000e0: 0e73 23be 4421 1dbe 2932 0cbe 28fc d13d
000000f0: 3196 9e3d 06f6 e93d a1e0 8dbd acee 09bd
0.05404438 -0.02282697 -0.12391798 -0.0725075 0.07072818 -0.16357487 -0.042714745 0.043814342
-0.10261506 0.058141906 0.040510945 0.098310575 0.063379675 0.056239154 0.11121823 0.033875864
0.1529166 0.03126073 -0.043785214 0.14302449 0.12542412 0.059820607 0.14545982 0.03381505
0.0767782 -0.046863813 0.017752113 0.029685605 0.014188506 0.047522705 0.111562036 0.07657825
-0.12443112 0.16820611 -0.11462676 0.025930207 0.0143769765 0.15469462 -0.001995999 0.005741933
-0.09566958 0.15302026 0.032143563 0.049784556 -0.055942193 -0.031732924 0.17363377 0.11512036
-0.09633912 0.07636289 -0.13406597 0.102278866 0.018439267 -0.11893469 0.034777697 -0.0769814
-0.15961859 -0.15344721 -0.1369101 0.10253173 0.077434905 0.11423878 -0.0692761 -0.03367488

net.4.weight f4 [64, 64]
00000000: 0367 1dbe a024 f2bd 80e7 52bd 6339 9c3c
00000010: 8af8 193e 7a52 a9be 1c2c ffbd bfda 8b3d
00000020: f662 e53d 0c43 2a3e e1ff c0bd 2dc6 1dbd
00000030: 4d5c 25bd f686 4f3d 5d58 273e 719a 163c
00000040: c496 883d 808c dc3c 1800 13bc b1b8 3c3d
00000050: d886 d0bc c066 9b3d 09b7 a63d 9299 153e
00000060: 4a7b b2bd 438c fbbc d198 94bc 8a84 583d
00000070: 747c 223e 1b5d cdbc 40f4 c53d 6350 8ebd
00000080: 05e0 4a3c 8022 e33b f2f5 c23d 78a0 e83d
00000090: 2f0a a03c df92 3bbc 5849 a83d f6e0 06be
000000a0: d415 8c3d f172 a43d 964d 94be a53e 053e
000000b0: e0ed 863c 8782 51bd d52d cdbb 81cf 25bd
000000c0: 7d29 8ebd 3b92 b83d 9864 c03d c85b ae3c
000000d0: 593d c03d 0251 bfbd c63d 8dbd 5101 90be
000000e0: 246b cc3d 29fc 86bd ae17 f6bc 55c6 163e
000000f0: ece5 34bd de9b 80bb 618b 403e 6359 773b
00000100: 92ce 22be 200e 223c 8008 cf3c 573d 96bd
00000110: f7c1 283c 1110 07bf 50c5 3c3c 0a36 2ebd
00000120: 5854 b5bd 414b 873e 4399 373d 10c6 093e
00000130: f929 d7bd cdd1 c3bd 3994 633e a391 1abe
00000140: b8cc 533d b460 22be d68f 633e 8349 08be
00000150: af6a 903d 6d3f e13d 6976 bfbc 09cd 71bd
00000160: 7d9c 073e bc1a afbd a3e0 543d 8531 4dbe
00000170: 5fc9 8c3d e9ff 40be 8406 023e db51 043d
00000180: 0819 513d c12d 0d3d baac 05bf 9196 863d
00000190: 008a 8cbd fce6 07be 0080 3bbd ef91 e6bd
000001a0: e4e8 9f3d 157d 87bd 3e47 ecbd 53e0 aebd
000001b0: b080 00bd 1338 2bbf b3ec b8bc bce7 16be
000001c0: 40d8 c1bd 0f59 4d3d 302e 83bc e370 8dbd
000001d0: 7a7f 73bd 56e9 603d 579f 28be 3fc1 6dbe
000001e0: 4cbe 193f bbe5 233e 770f ab3d 0708 8f3d
000001f0: 0092 e33d ea80 303e 9816 853d 797d f83b
00000200: 80b1 cbbd dacb f83d 601b 1b3c c9ce d53c
00000210: baf5 233e 04e4 9abe baa7 debd 94dd bebd
00000220: 5c51 383d 17c0 5a3e f6ea 8f3d 07e3 d0bc
00000230: ee35 723d 4340 74be 9e6f a23d e7ca cb3b
00000240: 624b 76bd c485 2dbe 580d 8e3c 61c8 dfbd
00000250: 45c4 0a3d 784e d43d 1cb4 783d 1712 ddbd
00000260: a9c1 8a3d 7a71 ffbd 3365 853d 7c23 26be
00000270: 9bab fd3d c489 d0bd e9fa 193d 3748 053e
00000280: c6c5 963d 5de1 aebd 7802 bbbe 0815 903d
00000290: 5df9 553d 5626 fdbc ea34 fc3d 4d62 863d
000002a0: 1888 80bc 1d4a b1bd f52c 813d abd5 57be
000002b0: 1c6e 873d e773 0dbe 9d27 3a3d 8a6e 04bd
000002c0: 2c9f c5bd 6eed b7bd 4ddd c9bb fd7b c0bd
000002d0: 2332 d73d 44ea 37bd 7ecb 99bd c539 2dbe
000002e0: 637b 123e b1c3 4f3d 6a6d 883d 098d b43d
000002f0: afbc 033d 6a0f 3c3e f936 a43d 557c 033d
00000300: 20dd 093e 70b4 4d3d 82b3 cf3d 8b88 b33d
00000310: 6335 a53a edbe 62bd ba2c 80bd 2ae7 df3d
00000320: 147e 193d 5497 213c 070a 173e 1fd8 df3d
00000330: b5f5 d23c 4428 cabd f3a5 67bb 548d b4bd
00000340: 5856 8cbd 84e5 5f3d fbb8 5d3d 90c3 aa3c
00000350: be3e a03d 6440 023e ca2a 823d 3efa e4bd
00000360: cd05 1c3e bc45 cbbd 4db7 723d c9f8 b6bd
00000370: 81b3 043e 7d0a 2dbe 8bc8 ca3d 3a17 a13c
00000380: 2f86 9fbd a3c8 543d 6dd1 61bd 962b 0c3e
00000390: 7a6c 06be 5254 babc 89c2 e43d 7b8b a3bd
000003a0: e0da f13d c5da abbc c3e4 0e3e 2f11 14be
000003b0: 4424 c53d 5d30 2bbe 1650 653d 3e15 12be
000003c0: 687e 143d 4c4e 30be 5804 14bd c4fb 813b
000003d0: 4256 a4bd 995f bf3d 5b49 64bd 162b bdbd
000003e0: 6294 273d 69eb af3d 90f6 fbbc 91a4 843d
000003f0: 4136 9cbd 2a05 6d3d 2249 adbd 4d43 ecbd
-0.15371327 -0.11823392 -0.051490307 0.019070333 0.15036216 -0.33070737 -0.12459585 0.06828832
0.11200516 0.16627139 -0.09423805 -0.038519073 -0.040371228 0.05066582 0.16342302 0.009192095
0.06669381 0.026922464 -0.00897219 0.046074573 -0.025454924 0.075879574 0.0814038 0.14609364
-0.08714922 -0.03070653 -0.018139275 0.052860774 0.15867788 -0.02506881 0.096657276 -0.06948926
0.012382512 0.006931603 0.095195666 0.11358732 0.019536106 -0.011448591 0.08217114 -0.13171753
0.06840101 0.08029736 -0.28965443 0.13012178 0.01647085 -0.05114987 -0.006261567 -0.040481094
-0.06941507 0.09012266 0.09394187 0.021284 0.09386701 -0.09341623 -0.06896548 -0.28126004
0.09981373 -0.065910645 -0.030040588 0.14724095 -0.044164583 -0.003924831 0.18803169 0.0037742488
-0.15899113 0.009891063 0.025272608 -0.073359184 0.010300151 -0.5275889 0.011521652 -0.042532004
-0.08853978 0.26424602 0.044823896 0.13454461 -0.105060525 -0.09561501 0.22224511 -0.15094618
0.051708907 -0.15857202 0.22222838 -0.13309292 0.07051598 0.10998426 -0.023371892 -0.059033427
0.1324329 -0.08550021 0.051972043 -0.20038421 0.06874346 -0.18847622 0.12697798 0.032304626
0.051049262 0.034467462 -0.52216685 0.06571687 -0.06862259 -0.13271707 -0.045776367 -0.112583034
0.07808092 -0.066156544 -0.11537026 -0.0853888 -0.031372726 -0.6688244 -0.022573804 -0.14736837
-0.094650745 0.05013376 -0.016013235 -0.06906297 -0.059447743 0.054910026 -0.16467033 -0.23218249
0.60055995 0.16005604 0.08352559 0.06983953 0.11111832 0.17236677 0.0649845 0.007583317
-0.09945965 0.121482566 0.009466976 0.02609958 0.16011706 -0.30252087 -0.10871835 -0.093196064
0.044999465 0.21362339 0.07027237 -0.02549888 0.059133463 -0.23852639 0.079314455 0.006219256
-0.060130484 -0.16945559 0.017340347 -0.10926891 0.033878583 0.10366529 0.06071864 -0.10794466
0.06775219 -0.12472816 0.06513443 -0.16224474 0.12386247 -0.10182527 0.037592802 0.13015829
0.07361941 -0.085390784 -0.3652532 0.070352614 0.052239764 -0.030902069 0.1231478 0.06561718
-0.015689895 -0.08656714 0.06307403 -0.21077602 0.066127986 -0.13813744 0.045447934 -0.03233198
-0.096495 -0.08980833 -0.0061604143 -0.09398649 0.1050761 -0.044901147 -0.07509516 -0.16916569
0.14304881 0.050723735 0.06661494 0.08815963 0.032162365 0.18365255 0.08018298 0.032100994
0.13463259 0.050220907 0.1014166 0.08766278 0.0012604411 -0.055357862 -0.06258531 0.10932763
0.037473753 0.00986274 0.14749919 0.10929894 0.025751928 -0.09870961 -0.0035346716 -0.08816019
-0.06852406 0.054662243 0.05413149 0.020845205 0.07824467 0.12719876 0.063558176 -0.111805424
0.15236588 -0.0992541 0.05925684 -0.08934171 0.129591 -0.16898532 0.09901532 0.019664396
-0.07789265 0.051949155 -0.055131365 0.13688502 -0.13127318 -0.022745285 0.11169917 -0.07985588
0.11809325 -0.02097834 0.13954453 -0.1445968 0.09626058 -0.16717668 0.05598458 -0.14265916
0.036253363 -0.17217368 -0.036136955 0.0039667804 -0.08024265 0.09344406 -0.05573402 -0.092367336
0.040912993 0.08589823 -0.030757219 0.06476701 -0.076275356 0.057866253 -0.084612146 -0.11536274

net.4.bias f4 [64]
00000000: 0b56 123e 4726 f1bb 1d0f 15bd cb07 b83d
00000010: b07c f33d f17b adbd 635e 6d3c 3269 febd
00000020: 528c 72bc 79d7 893d e35a 8abd 0e3b cfbd
00000030: 665b dbbc 6626 ed3b 7d09 1d3e e2f7 bf3d
00000040: 9b3b e43d 3852 173e 5cce 5f3d 3fc7 acbd
00000050: 100e 2dbd 63b1 c83d 906e 5f3b 4eab cdbd
00000060: 9704 9c3d eb44 e6bd f0af 683d 0704 d93d
00000070: f80e 083e 6f0d 4b3d 4a60 7d3b 9814 633d
00000080: 050d a5bc 9cb0 86bd 0c07 123e 0c0c e8bd
00000090: 8c09 233d cac6 abba 1dcd c23d 6a89 84bd
000000a0: a553 953d efae 90bd 1a61 2bbd b42d ef3d
000000b0: 8d22 fb3c ec1e 123e e02e cebd 97c8 e33d
000000c0: 9627 0838 447e 103e 375b 8abd 4eb8 b93c
000000d0: 0352 b03d 441e 8ebd e8b2 443d 351e 55bd
000000e0: 0adf 543d d2c7 b23d bf1a 28bd b20c 8c3c
000000f0: a899 8f3d 030f 21bc fa9e 003e 8654 2aba
0.14290635 -0.0073592993 -0.036391366 0.089858614 0.11889017 -0.084709056 0.014487836 -0.12422408
-0.014803963 0.06730551 -0.067556165 -0.10118686 -0.02677698 0.0072372435 0.1533565 0.09373452
0.11144181 0.14777458 0.05464016 -0.08436441 -0.04224974 0.09799459 0.0034093 -0.100424394
0.07618063 -0.11243614 0.056808412 0.10596471 0.1328696 0.04957336 0.003866213 0.05543956
-0.02014781 -0.06576654 0.142605 -0.11330423 0.039804026 -0.0013105508 0.095117785 -0.06471522
0.072913446 -0.07064616 -0.04184065 0.11678639 0.030656124 0.14269608 -0.100675344 0.11122244
3.2461794e-05 0.14110667 -0.06755679 0.022670891 0.086093925 -0.069393665 0.04802218 -0.05203076
0.05197052 0.08729519 -0.041041132 0.017095897 0.070117295 -0.009830239 0.12560645 -0.00064975803

net.6.weight f4 [64, 64]
00000000: 99cf bf3d 6a56 41be a7cd 5b3d bdb3 a83d
00000010: 2b9d ca3d 8581 3fbb e70b 65bc bfa3 4dbd
00000020: eee2 29be c118 40be 51b0 2a3d 4ac4 c2bd
00000030: 8a56 f5bd e01d b1be 48de 81bd d48b bebd
00000040: 6cd1 8bbd 5917 003e 8023 66be d92c 913c
00000050: 437b ba3e 74fe edbd 7b0f b43d dbe7 483e
00000060: 1578 8c3c b3d9 cfbd b560 bf3d 4a9f a6bd
00000070: d30a 42bd 8c8a a73d 0030 2d3d bff0 ecbb
00000080: 468a 0f3e 22e3 6d3d fcb7 0e3e 79e4 a6be
00000090: 912f e13c c180 f13d fe9f ccbd 3e73 9ebd
000000a0: 2e09 c0bd 6973 44bb 3055 d03d 2521 f6bd
000000b0: 5e94 71bc e58b 7cbc b775 c0be 59e6 54bc
000000c0: fe51 e23d d0f7 8fbd 9c8b aebe 4f6c 8cbb
000000d0: 36ea 3a3e a6e6 6cbc 0740 cc38 58d2 96bd
000000e0: 8265 78bc bfcf a0bd 04a6 9cbd c2ee 6fbb
000000f0: 26b0 4e3c 93ab 39be c84c 623e 3bd2 8cbd
00000100: 64c8 c0bd 8a47 87be 01dd b5bd 61ec 3dbd
00000110: 17c2 f13d b023 de3d a0fb dc3d 9376 ed3d
00000120: 9de5 c43d c615 9cbd 33ad 2ebc 0671 d8bb
00000130: 6c21 d1bd d08b 613d c31d 153e b3da 55bd
00000140: d1b2 cc3d 2d27 81bd d3ab c3bd dfe6 d63d
00000150: 1e52 96be db99 cfbd 3a73 953d b0ac a43c
00000160: d664 e6bd 714c b1bd 2edd 013e 54bc dabc
00000170: e172 c5ba 77da c93b 16c4 9bbd 7ac0 e7bd
00000180: 4ed4 e23d 9fc3 ecbd f53d 1fbe 28e8 b53d
00000190: 29a0 d53c 8de8 98bd 1e77 14be 36eb f9bd
000001a0: fb16 27bd 5b97 703d 0843 473d fcd3 07bd
000001b0: cfa7 e63d be2a 253d c727 c5be ca75 10be
000001c0: 2159 203c 2dac 963d 9ed7 363d 3354 d73d
000001d0: 7bea 983d 6ce0 7fbb a7e3 01be d3cf 3dbd
000001e0: 4bad 813d 20da 043e 1dda 6b3a 7250 11be
000001f0: 8b2a 473d 302b abbd 7421 15bb e407 fe3d
00000200: 04b5 6bbd f478 07be 422a 5abe 9409 c43d
00000210: 6599 6ebe c7ad cfbe bbf4 0c3e ccf9 dbbd
00000220: d68d 96be 3dde 2dbe d265 843c 66fb 8cbd
00000230: 0479 febc 4a0b 92be d3d0 7abe 4a69 f0bd
00000240: d237 99bd ee5a bdbd 1b80 05be 5ec6 ebbd
00000250: de3e be3e bfe6 37be 3065 ea3d 625a 243d
00000260: dc5b aa3c 0419 b4bd 5c8e 6d3a ca8e c03d
00000270: b25b 093e 7c4d ecbd 9c71 c5bd 384f 93bd
00000280: 2649 c23c 9cf2 a03e d980 bdbc 1785 38be
00000290: 14d1 d6be 77dd 053d 8a7b 01be 745c f2bd
000002a0: bcd8 c63d 1657 53ba 1670 cabe b15a a1be
000002b0: 2c93 ddbd b8d1 9abd a9c5 d33d a8d5 38bd
000002c0: 8834 f6bd 4fa7 0b3f 1e90 11bf 6b0d 34bd
000002d0: 7051 47bd d9a5 0a3e c310 783d 4b1d 8fbe
000002e0: 8a98 46bd d6ef d4bd da79 b2bd 4c70 2e3d
000002f0: 6b7a 3bbe 983f 60be 2d6b 6d3e 4aee e9bd
00000300: f4ec d33c 3da7 11be b520 ebbd 3f3d 08be
00000310: 1b9c f73d 1c10 213d 6f9b 693b 90c3 c13c
00000320: 8083 7abb d8d6 b3bd 9719 12be 2b5b 863d
00000330: a024 a93c 0062 80bb 618d 42bd 1252 0c3e
00000340: 6604 b7bd 2154 973d d1c2 dabd e30f b6bd
00000350: 4f36 99bd 5f0a a23d 4762 04bb 7004 a1bd
00000360: f502 eabd 0785 763d a919 b6bd 6063 7a3d
00000370: 2f04 b0bc 39ea c83d 1e61 e6bd 75e8 e33c
00000380: 38eb 963e 21c8 6c3d d96a c7bd 4ef1 05be
00000390: f03b 643d da98 b4be d6ab 20be 56fb bcbd
000003a0: e537 b6bd a29d dd3c 433b 813d ca63 35be
000003b0: 6620 c13d 18a5 c63d 0e40 debe e858 8ebd
000003c0: 8efb c1bd 5267 d9bc 6535 86bd 7876 283d
000003d0: 4def dc3d 670f 533d 089c 2abd 2f18 3cbd
000003e0: 5a36 083d 2230 08bc 6488 a53d 4ddc 0dbe
000003f0: 9b43 a33d 3ef7 e2bc 19b0 283e 33a7 b4bc
0.09365768 -0.1888062 0.053662922 0.08237407 0.09893259 -0.0029221487 -0.0139798885 -0.05020499
-0.16590473 -0.18759443 0.041672055 -0.095100954 -0.11979397 -0.34593105 -0.06341225 -0.09304014
-0.068270534 0.12508906 -0.2247448 0.01772158 0.36422166 -0.11620799 0.08792015 0.19619696
0.017147103 -0.10148945 0.09344617 -0.08135851 -0.047373604 0.081807226 0.042282104 -0.0072308476
0.14017591 0.05807794 0.13937372 -0.32596186 0.027488502 0.11792136 -0.099914536 -0.077368245
-0.09376751 -0.0029976016 0.10172498 -0.120180406 -0.014744846 -0.015414213 -0.3758981 -0.012994372
0.11050795 -0.07029688 -0.34090889 -0.0042853723 0.18253407 -0.014459288 9.739404e-05 -0.07364339
-0.01516092 -0.078521244 -0.076488525 -0.0036610817 0.012615239 -0.18131857 0.22099602 -0.06876036
-0.094132215 -0.26421767 -0.08880044 -0.046368007 0.11804598 0.108466506 0.10790181 0.11594882
0.09614108 -0.076213405 -0.010661411 -0.0066052703 -0.10211453 0.055064976 0.14562134 -0.05221052
0.09995044 -0.063063 -0.09554257 0.10493254 -0.29359525 -0.101367675 0.07297368 0.020101875
-0.11249702 -0.08657158 0.1268203 -0.02670113 -0.0015064144 0.0061600762 -0.0760576 -0.11316009
0.1107565 -0.11560749 -0.15550978 0.08882171 0.026077347 -0.074662305 -0.14498565 -0.12203066
-0.0407934 0.058738094 0.04864791 -0.03316115 0.11262476 0.040323965 -0.3850691 -0.14107433
0.009786875 0.07357059 0.044639222 0.105141066 0.074665986 -0.0039043678 -0.12684499 -0.046340775
0.06331881 0.12973833 0.000899704 -0.14190844 0.048624557 -0.08357847 -0.0022755535 0.12403849
-0.057545677 -0.13229734 -0.21305183 0.095721394 -0.23300703 -0.4056227 0.13765232 -0.10741004
-0.29405087 -0.16979308 0.016161833 -0.06883888 -0.031063564 -0.28524238 -0.24493723 -0.11738832
-0.0748135 -0.09245859 -0.1303715 -0.11512445 0.3715734 -0.17959116 0.11445081 0.04012526
0.020795755 -0.08793834 0.0009062046 0.09402235 0.13413885 -0.115382165 -0.0964081 -0.07192844
0.02371652 0.31435096 -0.023132728 -0.1801952 -0.4195639 0.03268191 -0.12644783 -0.1183404
0.097093076 -0.0008061988 -0.3953864 -0.31514505 -0.108190864 -0.07559532 0.10340435 -0.045125633
-0.12021738 0.5455217 -0.5686053 -0.04395811 -0.04866165 0.13539828 0.06056286 -0.27952036
-0.048485316 -0.103973076 -0.087146476 0.042587563 -0.18308417 -0.21899259 0.23185416 -0.11422403
0.025869824 -0.14223953 -0.11480848 -0.13304614 0.12090322 0.039322004 0.0035645624 0.023652822
-0.0038225353 -0.087812126 -0.14267574 0.06560358 0.020647347 -0.0039179325 -0.04749811 0.13703182
-0.08936386 0.07389093 -0.106816895 -0.08889749 -0.07481062 0.079121344 -0.002020018 -0.078621745
-0.11426345 0.06018546 -0.08891613 0.061129928 -0.02148637 0.098102994 -0.112489924 0.027820805
0.29476333 0.057808045 -0.097371764 -0.13080332 0.055721223 -0.35272866 -0.1569055 -0.09227626
-0.0889738 0.027052704 0.063101314 -0.17713848 0.09430008 0.09699458 -0.43408245 -0.06950551
-0.094718084 -0.026538525 -0.06553153 0.041128606 0.107878305 0.05152836 -0.04165271 -0.0459215
0.03325496 -0.008312257 0.08082655 -0.1385357 0.07971879 -0.027705785 0.16473426 -0.022052383

net.6.bias f4 [64]
00000000: c7ae b2bd e4ec 943d 121a 90bc 51d1 61bd
00000010: edd6 88bd a742 b63c fcd4 363d d6f9 a9bd
00000020: 6aac 373c 3598 783d 4a06 c53d 6aa1 5bbd
00000030: 4acb d0bd cd11 db3d 1580 81bd 55c7 5dbc
00000040: bc3c cb3c 1a87 97bd 32d1 81bd b4de 81bd
00000050: 3535 f73d 3d45 673d f4d0 84bd e272 0f3e
00000060: 6ac4 98bd 15e7 35bd 5ba5 ee3d 2c96 b3bd
00000070: 5bc3 8ebd 3b50 1e3e 93c0 9cbd a950 0d3e
00000080: be99 eb3d a85f 7fbd d223 29bd 7ec1 133e
00000090: 843f 5bbd b986 5ebd 33f8 1e3e 092a 0abe
000000a0: 25ce 563d f462 32bd 3cab 36bd 9fec 66bd
000000b0: 780d ae3d 7344 903d 2080 febc 6c55 83bd
000000c0: 1607 ec3c 1c46 3a3c 73f9 c33d a8f9 15bd
000000d0: e20f 71bc 1914 e83d 68fc 21bd 591d aebd
000000e0: c50e 6e3d 9e77 8e3d b5cd 223d 800b 4bbd
000000f0: 1083 13bd b891 393d f55a 8c3c dab7 dbbd
-0.087247424 0.07271746 -0.017590556 -0.05513126 -0.06681619 0.02224858 0.04463671 -0.082996055
0.01121054 0.06069203 0.0962034 -0.053620733 -0.10195024 0.106967546 -0.06323258 -0.013536294
0.024809234 -0.073988155 -0.06338729 -0.063413054 0.12070695 0.056462515 -0.06485167 0.14008668
-0.07459338 -0.04440983 0.11652633 -0.087688774 -0.06970855 0.15460293 -0.07653918 0.138003
0.11503933 -0.062347084 -0.041293927 0.1442928 -0.05352737 -0.0543277 0.15524368 -0.13492598
0.05244269 -0.0435514 -0.044596896 -0.056378003 0.08498663 0.07044306 -0.031066954 -0.06412777
0.028811973 0.011369254 0.09569063 -0.036615044 -0.014713259 0.11331958 -0.039547354 -0.08501691
0.058119554 0.06956409 0.03974696 -0.049571514 -0.036013663 0.045304984 0.017133215 -0.10728426

net.8.weight f4 [1, 64]
00000000: 4f8e 0d3e fd08 fe3c b816 213f 794a cc3d
00000010: 1ea9 0f3e 2ef9 db3d 6c05 0e3d 2928 813e
00000020: 50b4 db3d 2cd6 9e3d 8acb 08be 1c56 fabe
00000030: 0c99 00be 5976 c93d 3c4c af3d 6519 f8bd
00000040: 3c36 923d 981b a03d 5b97 37be c859 d23d
00000050: bc0f 14be 1bb8 16be d3bd 83bd f342 00be
00000060: f9d9 3b3c d4fc 0cbe ad61 f1bd e600 03bf
00000070: 154d 373e 995a c83d 5ad9 7cbe 061d ff3d
00000080: 2079 1fbe 2610 37be 9ae6 933e 92f7 26be
00000090: ebad e93d 808d 383e da81 af3d 3a83 0cbe
000000a0: dabf 1ebe f635 02bf 59f6 6b3e 06b9 a73d
000000b0: fbce 20be 2786 cfbd 0066 1fbd 8a1f 693e
000000c0: eb5c 563d bd2d a0bd 413f 38be 554f fbbd
000000d0: 2cfe a63d 9f63 a43d 886f 08bd 9c40 f9bd
000000e0: 92dc 86bd 1dcb fabd baea b73d 1198 09be
000000f0: dcad 513d 921f 0a3e 067f f73c 4fe2 1cbd
0.13823818 0.031010145 0.6292529 0.09975142 0.14029357 0.10740887 0.03467314 0.25225952
0.10727751 0.07755694 -0.13358894 -0.4889382 -0.12558383 0.09837026 0.085594624 -0.121142186
0.07139251 0.07817763 -0.17928831 0.10271031 -0.14459127 -0.14718668 -0.064326905 -0.12525539
0.011465543 -0.13768321 -0.11786208 -0.51173246 0.17900498 0.09782905 -0.24692288 0.12456708
-0.1557355 -0.17877254 0.28886873 -0.16305378 0.11410125 0.18022728 0.08569689 -0.13721934
-0.15502873 -0.5086359 0.23043193 0.08189587 -0.15703957 -0.101330094 -0.038915634 0.22765937
0.052334707 -0.07821224 -0.1799288 -0.12270991 0.08153948 0.08026814 -0.03330949 -0.121705264
-0.06585039 -0.12245772 0.089803174 -0.13436915 0.051191196 0.13488606 0.030211937 -0.038301762
