Self project/models/nn/raw/SM/model.pt (torch, 54492 bytes, 9 tensors)

net.0.weight f4 [64, 3]
0	0x3ee481f4	0.44630396
1	0x3ef7de6b	0.4841188
2	0xbe35599a	-0.17709962
3	0x3f090004	0.5351565
4	0xbdf93ad3	-0.12169423
5	0x3dc5964b	0.09647807
6	0xbe89f16f	-0.26942012
7	0x3eb394d5	0.35074487
8	0x3f0c2f58	0.5475974
9	0xbee1bdce	-0.44090122
10	0x3ef80ecc	0.4844879
11	0x3e60b0bf	0.21942423
12	0x3ecbeee8	0.39830709
13	0x3d4ca31b	0.049960237
14	0x3ea95251	0.33070615
15	0xbd9977c1	-0.07493544
16	0x3ee73ffd	0.45166007
17	0x3d5a9a8b	0.05337004
18	0xbe66aa55	-0.22525914
19	0x3e440de9	0.19145931
20	0xbe88b9b7	-0.2670419
21	0xbd957122	-0.07296969
22	0xbe758b18	-0.23978841
23	0x3ebc0fe0	0.36730862
24	0xbeecc8db	-0.4624699
25	0xbe8bb896	-0.27289265
26	0xbdfefcc0	-0.12450552
27	0xbea1ea79	-0.316242
28	0x3daf0d36	0.08547442
29	0xbf169355	-0.5881856
30	0x3f05cf4e	0.52269447
31	0xbefa710f	-0.48914382
32	0x3eb821f5	0.35963407
33	0x3dfe6e66	0.124234006
34	0xbe232013	-0.15930204
35	0x3ebf205e	0.37329382
36	0x3dea4436	0.114387915
37	0x3efb5795	0.49090257
38	0xb929164d	-0.00016125404
39	0xbea94f0a	-0.33068115
40	0x3bd3571e	0.006449594
41	0xbe0bd800	-0.13656616
42	0x3e8262c1	0.25465968
43	0x3f06f372	0.5271522
44	0x3e8ceb81	0.27523425
45	0xbe813acb	-0.25240168
46	0x3eaaa430	0.3332839
47	0x3dd39098	0.103303134
48	0x3e81b65e	0.25334448
49	0xbec898b2	-0.39178997
50	0xbf1ae2e2	-0.60502446
51	0xbe89237f	-0.26784894
52	0xbef9aa36	-0.48762673
53	0x3ebf34ab	0.3734487
54	0x3e3facd8	0.18718278
55	0x3e8523c7	0.26003858
56	0x3e07944e	0.13240167
57	0xbb3b3df3	-0.002857086
58	0x3eeb06b2	0.45903546
59	0xbee33f68	-0.44384313
60	0xbdd37cbb	-0.10326525
61	0xbf08a213	-0.53372306
62	0x3e847936	0.25873727
63	0xbe381bc2	-0.17979339
64	0x3e48a511	0.19594218
65	0xbe321bb9	-0.17393388
66	0x3efba51d	0.4914941
67	0xbea8b9e1	-0.32954314
68	0xbec381c0	-0.3818493
69	0xbea9fef5	-0.3320233
70	0x3f0818f1	0.5316306
71	0x3de5f0b1	0.11227549
72	0x3f0a80a1	0.5410252
73	0xbefb6489	-0.4910014
74	0xbf0b800d	-0.54492265
75	0xbeee66d2	-0.4656282
76	0xbecdfbe0	-0.40231228
77	0x3e4e067a	0.20119658
78	0x3e638044	0.22216898
79	0x3efd8803	0.4951783
80	0xbeb87612	-0.3602758
81	0xbed12625	-0.40849414
82	0x3e952f83	0.2913781
83	0xbe6ce618	-0.23134649
84	0x3e967155	0.2938334
85	0xbe463a4b	-0.19358175
86	0x3ee88bce	0.45419163
87	0xbedc1d9a	-0.42991334
88	0xbe8ba0a7	-0.27271006
89	0x3e0fbf4e	0.1403782
90	0x3d6d1f17	0.057890978
91	0xbe587271	-0.21137406
92	0x3eb622e6	0.355735
93	0x3ed20a52	0.410235
94	0xbecd4479	-0.40091303
95	0xbeb0e49a	-0.3454941
96	0x3f07d2ad	0.5305584
97	0xbe458bc9	-0.19291605
98	0xbe05efc3	-0.13079743
99	0xbf1117a5	-0.56676704
100	0xbead7324	-0.33876908
101	0x3dd75dc7	0.105159335
102	0xbd9fa222	-0.07794596
103	0xbed77edf	-0.42088982
104	0x3bd475e7	0.0064837816
105	0xbed80df3	-0.42198142
106	0xbf047840	-0.51745987
107	0xbeac27c8	-0.336241
108	0xbeea420e	-0.4575352
109	0xbea3c5c9	-0.31986836
110	0x3f1ebc76	0.6200632
111	0x3dc9ae3c	0.09847686
112	0x3e2b5c22	0.16734365
113	0xbf07f390	-0.5310602
114	0xbeb4d6d9	-0.35320166
115	0xbe2a35d7	-0.16622101
116	0x3c1d2a03	0.009592536
117	0xbf05f681	-0.5232926
118	0xbe8732fe	-0.2640609
119	0xbed5eaf3	-0.41780815
120	0xbb2a3c8f	-0.0025976037
121	0xbe6054d0	-0.21907353
122	0xbd5562df	-0.052096244
123	0xbed07c7c	-0.40719974
124	0xbed31904	-0.41230023
125	0xbe9bbd8a	-0.30418044
126	0xbe366184	-0.17810637
127	0xbedf53b4	-0.43618548
128	0x3eda8b31	0.4268432
129	0xbdb47c68	-0.08812791
130	0x3f05f1a0	0.52321815
131	0x3dd87f1c	0.10571119
132	0xbef0f98f	-0.47065398
133	0x3ed5f5ad	0.41788998
134	0xbe2d4a58	-0.16922891
135	0xbe86a3a8	-0.26296735
136	0xbf055a58	-0.5209098
137	0xbf1a5498	-0.6028533
138	0x3e202523	0.15639167
139	0xbe0a33c6	-0.13496312
140	0x3e7ed0ca	0.24884334
141	0xbef65953	-0.48115024
142	0x3ed7b517	0.42130348
143	0xbedb041d	-0.42776576
144	0xbd9e6c82	-0.0773554
145	0x3e125e59	0.14293803
146	0x3e93dde3	0.28880224
147	0x3ef9d293	0.48793468
148	0x3f0c3be9	0.54778916
149	0xbef86f8c	-0.48522604
150	0x3dc4ad68	0.09603387
151	0xbe98661c	-0.29765403
152	0xbdd74804	-0.10511783
153	0xbeea8b41	-0.45809367
154	0x3efff62c	0.49992502
155	0xbec50c5d	-0.38485995
156	0x3ea8f533	0.32999572
157	0x3e65b8ec	0.22433823
158	0x3e589e04	0.21154028
159	0xbe674c83	-0.2258778
160	0x3f1c6d48	0.6110425
161	0x3bf0bd41	0.0073467796
162	0x3d8632fa	0.06552692
163	0xbf047da0	-0.5175419
164	0x3e96a04e	0.29419178
165	0xbd8f4fdc	-0.06997654
166	0xbe7dcde4	-0.24785572
167	0x3f054144	0.5205271
168	0x3db989c0	0.09059477
169	0xbeb71338	-0.3575685
170	0xbead276a	-0.33819133
171	0xbd11b433	-0.035572242
172	0x3ea0f5a1	0.314374
173	0xbe1fc5eb	-0.15602843
174	0xbec06054	-0.37573493
175	0xbe79dad6	-0.24399886
176	0xbef45a2a	-0.4772504
177	0x3e53ddbf	0.20690058
178	0x3ee55431	0.44790795
179	0xbf260d49	-0.6486402
180	0x3e20d5e1	0.15706588
181	0x3ea47931	0.32123712
182	0x3dbfa706	0.09358029
183	0xbe652c5f	-0.22380207
184	0x3e90f8ae	0.28314728
185	0x3eb9bda9	0.36277512
186	0x3e70fe54	0.23534518
187	0xbda7e94c	-0.08198795
188	0xbe4801d2	-0.19531944
189	0x3d46b349	0.048510823
190	0xbdec0b78	-0.11525625
191	0xbe59134f	-0.21198772

net.0.bias f4 [64]
0	0x3ec7b210	0.39003038
1	0x3f0de19d	0.55422384
2	0xbc503e79	-0.012710207
3	0xbe4eea4c	-0.20206565
4	0x3d38173a	0.044944026
5	0xbd3747b8	-0.04474613
6	0x3e5cc412	0.2155917
7	0x3de1f134	0.11032334
8	0xbf047de0	-0.5175457
9	0xbe839181	-0.25696948
10	0x3f0c6046	0.548344
11	0x3e8657b3	0.26238784
12	0xbc358635	-0.011079361
13	0xbe8ffb35	-0.28121343
14	0xbea64444	-0.32473958
15	0xbf046555	-0.5171712
16	0xbdcf4dff	-0.101222984
17	0x3e7af813	0.24508695
18	0x3ed9482e	0.4243788
19	0x3eaa97fe	0.33319086
20	0xbee82a61	-0.45344833
21	0xbec1ba1f	-0.37837312
22	0xbd669e2a	-0.05630318
23	0x3f1a8a56	0.60367334
24	0x3e2f8cb9	0.17143525
25	0xbdb5e066	-0.08880691
26	0x3e919cb7	0.28439876
27	0xbe9f279e	-0.31084913
28	0xbed3f0ea	-0.4139474
29	0x3efb1511	0.4903951
30	0xbe811ae2	-0.25215822
31	0xbd3cb071	-0.046066705
32	0xbf1eb35b	-0.61992425
33	0x3edec374	0.43508494
34	0x3f03b0f5	0.5144189
35	0x3e6a2cf9	0.22868718
36	0xbee8c8cf	-0.45465705
37	0xbf182d3b	-0.59444016
38	0xbf02ffde	-0.5117167
39	0x3eea14fc	0.45719135
40	0x3eb2d0c6	0.34924906
41	0x3f0b765e	0.5447749
42	0x3ec4de93	0.3845106
43	0x3e3c5ffb	0.18395989
44	0xbda00fa5	-0.07815484
45	0xbec7e41f	-0.3904123
46	0xbf0c9c54	-0.5492604
47	0xbf10f781	-0.5662766
48	0x3e7baf69	0.24578632
49	0xbe848431	-0.25882104
50	0xbdfb796b	-0.12279018
51	0xbed1105e	-0.408328
52	0xbd90fc7d	-0.07079408
53	0xbeee018c	-0.46485555
54	0xbeb1632d	-0.34645978
55	0x3e7b36d3	0.24532633
56	0xbdea2520	-0.11432862
57	0x3ecfaf0c	0.40563238
58	0xbdb94f0f	-0.09048282
59	0xbec922d6	-0.3928439
60	0xbdaaa676	-0.08332531
61	0xbea6bd50	-0.3256631
62	0xbe13cddf	-0.14434002
63	0xbf15dfed	-0.5854481

net.2.weight f4 [64, 64]
0	0x3db59522	0.088663355
1	0xbd8370ad	-0.064179756
2	0x3d96591c	0.07341215
3	0x3d575032	0.052566715
4	0x3dd6092e	0.1045097
5	0xbdab527e	-0.083653435
6	0x3e01c9d8	0.12674654
7	0xbd879347	-0.06619888
8	0xbbf12e5e	-0.0073602637
9	0x3e21b853	0.1579297
10	0x3c082cd0	0.008311465
11	0x3c9af5a1	0.018915953
12	0xbc75e281	-0.015007616
13	0xbe7462f6	-0.23865876
14	0x3d8b4019	0.06799335
15	0xbdfe22c2	-0.12408973
16	0x3da70d2e	0.08156811
17	0x3db86a08	0.09004599
18	0x3e0e3386	0.13886842
19	0xbc0cf40b	-0.008603106
20	0x3df4d4a0	0.119546175
21	0x3c9788cc	0.018497847
22	0x3db13093	0.08651843
23	0xbdc72399	-0.097235866
24	0xbc0762dc	-0.008263316
25	0xbdd8a253	-0.10577836
26	0x3c1e1882	0.009649398
27	0xbde6e2ad	-0.11273704
28	0xbd6969d4	-0.05698569
29	0xbb9cda68	-0.0047867782
30	0xbe0b3ca3	-0.1359735
31	0x3df93762	0.121687666
32	0x3d9a2a31	0.075275786
33	0x3d6779b2	0.056512542
34	0xbd11f058	-0.0356296
35	0xbb6b3e33	-0.0035895228
36	0xbe422632	-0.18959883
37	0xbe0865cb	-0.13320081
38	0xbd07209f	-0.032990094
39	0xbd3b13b2	-0.04567308
40	0xbda8dbd8	-0.08245057
41	0xbc13c361	-0.00901875
42	0xbd828871	-0.063736804
43	0xbcc63995	-0.02419738
44	0x3d2c6aaf	0.04209393
45	0xbd5faead	-0.054609943
46	0x3ea2d274	0.31801188
47	0xbd83b7e4	-0.06431559
48	0xbda40e8c	-0.08010587
49	0x3ded8df4	0.11599341
50	0xbe4d93ae	-0.20075867
51	0x3cc51a46	0.02406038
52	0xbd022b50	-0.031779587
53	0xbd998932	-0.07496871
54	0x3e8407c4	0.25787175
55	0x3d820cd8	0.06350106
56	0xbdb15a69	-0.086598225
57	0x3d97496c	0.07387051
58	0x3e37eb32	0.17960814
59	0x3d278779	0.04090068
60	0x3dc27aec	0.09496102
61	0x3e029061	0.12750389
62	0xbc8444e2	-0.016146127
63	0x3df21869	0.11821062
64	0xbd974804	-0.07386783
65	0x3cc2c319	0.02377467
66	0x3dfc49e7	0.12318783
67	0xbd8e06e2	-0.069349065
68	0xbdab1744	-0.08354047
69	0xbe072d9c	-0.13200992
70	0xbd694e00	-0.056959152
71	0xbdb68bd5	-0.089133896
72	0xbdb26ff6	-0.08712761
73	0xbd1f0d26	-0.0388309
74	0x3e119e3c	0.14220518
75	0x3d8b6399	0.06806106
76	0xbe0630d2	-0.13104561
77	0xbe786770	-0.24258208
78	0xbac0ee36	-0.001471943
79	0xbdbe6c62	-0.09298016
80	0x3cafd0de	0.0214619
81	0x3db08e34	0.08620873
82	0xbc54226a	-0.012947658
83	0x3cac48a7	0.021030737
84	0xbd561cf4	-0.052273706
85	0xbe1b35af	-0.15157197
86	0xbd556a40	-0.05210328
87	0xbd63f4f8	-0.055653542
88	0xbd5ab2b9	-0.0533931
89	0xbd316bbe	-0.04331564
90	0x3e1108aa	0.14163461
91	0xbb7925b9	-0.003801687
92	0xbe6fed62	-0.23430398
93	0x3d71ceb3	0.059035014
94	0x3d16ce9b	0.036818128
95	0x3da06b28	0.078329384
96	0x3dab71dd	0.08371327
97	0x3dbbcf6d	0.09170423
98	0xbda2d56d	-0.07950864
99	0x3d1adad2	0.03780634
100	0x3dc9b476	0.09848873
101	0xbb27b44f	-0.002558965
102	0xbd9325fc	-0.07184979
103	0x3e1c1b64	0.15244824
104	0x3ab73044	0.0013976176
105	0xbd216a75	-0.039408166
106	0xbd996f9e	-0.074919924
107	0x3ce4bfaf	0.027923433
108	0x3d7ec946	0.062203668
109	0x3d54c3d5	0.051944572
110	0x3d322ac1	0.043497805
111	0xbd372879	-0.044716332
112	0xbd6f5ee7	-0.058440115
113	0xbd228ced	-0.03968518
114	0x3e00298e	0.12515852
115	0x3d9c63f9	0.07636256
116	0xbde4fbd0	-0.11180842
117	0xbd43f728	-0.04784313
118	0xbdc44496	-0.09583394
119	0xbccaf890	-0.024776727
120	0x3d59c688	0.05316785
121	0x3df94837	0.12171977
122	0x3df1f006	0.11813359
123	0xbe286c3b	-0.16447537
124	0x3d2d82d2	0.042361088
125	0xbe55079f	-0.20803688
126	0xba4845ad	-0.0007639777
127	0xbe217f57	-0.15771233
128	0xbc13cc8b	-0.009020935
129	0x3e04f157	0.12982689
130	0xbdcd47bd	-0.100234486
131	0xbe1a888a	-0.15091148
132	0x3d2600a7	0.040527966
133	0xbd358b86	-0.044322513
134	0x3c45d3bb	0.012074406
135	0xbcbacf1d	-0.022803837
136	0x3dc366d2	0.09541096
137	0x3d792647	0.06082752
138	0x3da90bbc	0.08254191
139	0xbd0442be	-0.032290213
140	0xbdf47173	-0.11935701
141	0xbdc3baa0	-0.0955708
142	0xbb3af569	-0.0028527624
143	0xbd6c6580	-0.057713985
144	0xbc54bd53	-0.012984592
145	0x3de2177d	0.11039636
146	0x3c8d27c0	0.017230868
147	0x3c67695f	0.0141242435
148	0xbd44072d	-0.047858406
149	0xbeb63783	-0.35589227
150	0xbe0093eb	-0.12556426
151	0xbca11c76	-0.019666892
152	0xbd03f7e1	-0.032218818
153	0x3d783937	0.06060144
154	0xbd3a0d4a	-0.04542283
155	0xbca9a742	-0.020709638
156	0x3c0fdffd	0.00878143
157	0x3d918e88	0.07107264
158	0x3ddde1bc	0.10834071
159	0xbd807542	-0.06272365
160	0xbddaaa52	-0.10677017
161	0x3d8e3b4b	0.06944903
162	0xbd3ac07f	-0.045593735
163	0xbd5e1e57	-0.054228153
164	0x3c8c1561	0.017100038
165	0xbdaf5e1d	-0.085628726
166	0xbdbe7aa2	-0.09300734
167	0x3ddd357e	0.108012185
168	0x3e101cc1	0.14073469
169	0x3d5af7a2	0.053458817
170	0x3c2980f6	0.010345688
171	0xbe026aa7	-0.12735997
172	0xbd0cd7ff	-0.034385677
173	0x3d49c750	0.049262345
174	0xbe7e7c74	-0.24852163
175	0xbdbf8de2	-0.09353234
176	0xbbd6cb63	-0.0065550073
177	0x3d42b1e8	0.047532946
178	0xbdbffb54	-0.09374109
179	0x3d306818	0.04306802
180	0xbd964185	-0.073367156
181	0xbdc6bcea	-0.09704001
182	0xbcc19dd8	-0.023634836
183	0x3d3458fe	0.044030182
184	0xbc76bdbf	-0.015059887
185	0x3debcdcd	0.11513863
186	0x3bd6d509	0.0065561575
187	0x3d809491	0.06278337
188	0x3dc6615d	0.09686539
189	0xbe2bbca0	-0.16771173
190	0xbe0ff474	-0.14058095
191	0xbe189153	-0.14899187
192	0x3e02d2eb	0.12775771
193	0xbd7785c9	-0.06043032
194	0x3c53c28f	0.012924804
195	0xbdeebb7c	-0.116568536
196	0xbd96a93a	-0.07356496
197	0x3d49d0a0	0.049271226
198	0x3d9a3653	0.07529893
199	0x3d0c5453	0.034260105
200	0xbd52252e	-0.05130499
201	0x3e1a5d2a	0.15074602
202	0x3d67ea50	0.056619942
203	0xbd2d5100	-0.042313576
204	0x3c9c484e	0.019077446
205	0x3c22c01e	0.0099335
206	0x3d84563c	0.064617604
207	0xbdb50340	-0.088385105
208	0x3d7b0e75	0.061293084
209	0xbd6350c2	-0.05549694
210	0xbd90f24e	-0.07077466
211	0xbd19a064	-0.037506476
212	0x3d966cb5	0.07344953
213	0x3d98d541	0.0746255
214	0x3e0aaf5e	0.1354346
215	0x3de69dd1	0.1126057
216	0x3dfd4de1	0.1236837
217	0xbcae0a17	-0.021245046
218	0xbd1f8cea	-0.038952745
219	0x3d1bab8b	0.038005393
220	0xbd80483b	-0.06263777
221	0xbd7596dc	-0.059958324
222	0xbd35eb1b	-0.044413667
223	0x3d4232a1	0.047411565
224	0x3d5a0c1d	0.05323421
225	0xbca0f80d	-0.01964953
226	0xbd6ee665	-0.05832519
227	0x3d4d3b69	0.050105486
228	0xbdcdb5de	-0.10044454
229	0xbda6155b	-0.08109542
230	0x3d300ac7	0.042979028
231	0x3bd12e5f	0.0063837017
232	0x3e0b2f6c	0.13592309
233	0x3e190cb8	0.14946258
234	0x3d34343c	0.043995127
235	0x3d9541d4	0.07287946
236	0x3d7d4e02	0.061841972
237	0x3d0a8d09	0.033825908
238	0x3e0cf63d	0.13765807
239	0xbc2b7d04	-0.010466818
240	0x3da6a12b	0.08136209
241	0x3e0dc836	0.13845906
242	0xbd666aec	-0.056254312
243	0xbd62fbd7	-0.055415954
244	0xbb9f746b	-0.004866173
245	0xbdd09df2	-0.10186376
246	0x3c1215c5	0.008916323
247	0x3ddad3a3	0.10684898
248	0x3e0af028	0.13568175
249	0x3dbdbe68	0.09264833
250	0xbd127f11	-0.03576571
251	0xbd4f2e43	-0.050581228
252	0xbb41ee8f	-0.0029591655
253	0xbc9cbb0e	-0.019132163
254	0x3cb51861	0.022106351
255	0xbdc7fa91	-0.097645886

net.2.bias f4 [64]
0	0x3d0b2836	0.033973895
1	0x3de4bbb9	0.11168618
2	0x3d7ba106	0.06143286
3	0xbd39f9cf	-0.04540425
4	0x3cf4676b	0.02983447
5	0x3e08d6b2	0.1336315
6	0xbd26b54a	-0.040700234
7	0xbd0088a1	-0.0313803
8	0xbd59d706	-0.053183578
9	0xbc8b27c5	-0.016986737
10	0x3d168bac	0.036754295
11	0x3e3b4122	0.18286565
12	0x3d08e5ac	0.033422157
13	0xbd4df245	-0.050279874
14	0x3dfc672e	0.123243675
15	0x3d4d3db8	0.050107688
16	0xbd02e388	-0.031955272
17	0xbd2cb93f	-0.042168852
18	0xbcc7bd09	-0.024382131
19	0xbd943fc9	-0.072387286
20	0xbe13e15d	-0.14441438
21	0x3ddf4f80	0.10903835
22	0xbd7a4aa5	-0.061106343
23	0x3db43116	0.08798425
24	0x3e0ae083	0.13562207
25	0xbdd81910	-0.10551655
26	0xbd9f0151	-0.07763923
27	0xbdca4664	-0.09876707
28	0x3d856f68	0.0651539
29	0x3d72b351	0.05925304
30	0xbbfbbfff	-0.0076828
31	0x3d9aa50a	0.0755101
32	0x3da3acc9	0.079919405
33	0xbde74e4c	-0.11294231
34	0x3ce36f1d	0.027762944
35	0xbd4d5d00	-0.05013752
36	0x3b978bf1	0.0046248366
37	0x3d7bb070	0.06144756
38	0x3cdf95ff	0.027293203
39	0xbdc6154b	-0.0967203
40	0x3dd6a013	0.104797505
41	0xbd830aa7	-0.06398516
42	0x3b504b01	0.0031782987
43	0x3dc34ba2	0.0953591
44	0x3e148213	0.14502744
45	0x3e09f279	0.13471402
46	0x3a0c8034	0.000535968
47	0x3d2ada48	0.041712075
48	0xbddcf70c	-0.10789308
49	0xbd22efc9	-0.03977946
50	0xbd6c279c	-0.057654962
51	0x3d92fbaa	0.07176907
52	0xbd4b6821	-0.049659852
53	0x3c98d375	0.018655518
54	0x3ddf2906	0.108964965
55	0x3e0f3065	0.13983305
56	0x3c984b5c	0.018590622
57	0x3e1e229b	0.15442888
58	0xbda24385	-0.079230346
59	0x3c31ca03	0.010851386
60	0x3d421b58	0.04738936
61	0x3da30eae	0.07961784
62	0x3ddd1e0b	0.10796746
63	0xbd3e93e1	-0.046527747

net.4.weight f4 [64, 64]
0	0x3d9da0a4	0.076966554
1	0xbdf04326	-0.117315575
2	0xbdaf889c	-0.08570978
3	0xbc0b47e0	-0.008501023
4	0xbdf8b4ae	-0.12143837
5	0xbdf355dc	-0.11881611
6	0xbde34270	-0.11096656
7	0x3dcdd236	0.1004986
8	0x3ce09e98	0.027419373
9	0xbd235d50	-0.03988391
10	0xbba85740	-0.005137354
11	0xbddf2266	-0.10895233
12	0xbdf1c784	-0.11805633
13	0xbdb28770	-0.08717239
14	0xbdf7aa0c	-0.12092981
15	0x3da86cf6	0.08223908
16	0xbd332a28	-0.043741375
17	0xbd0a3620	-0.033743024
18	0xbddc740a	-0.1076432
19	0x3ca99890	0.02070263
20	0xbc99a290	-0.018754274
21	0xbdae481a	-0.08509846
22	0x3da4231a	0.080145076
23	0x3dd7c8ee	0.10536371
24	0xbdb678b6	-0.089097425
25	0x3d910b68	0.07082254
26	0xbca64620	-0.02029711
27	0xba9aae80	-0.0011801273
28	0x3d59ee9c	0.05320607
29	0xbcbab180	-0.022789717
30	0x3dd9823a	0.10620542
31	0x3d9d8210	0.07690823
32	0xbda62d82	-0.08114149
33	0xbd9bcac0	-0.07607031
34	0xbdfda512	-0.12385
35	0x3d23eccc	0.04002075
36	0xbdc08f50	-0.09402335
37	0xbdd692e6	-0.104772374
38	0xbda4166c	-0.08012089
39	0xbdfd1998	-0.12358397
40	0xbdd0723c	-0.101780385
41	0x3de457d0	0.111495614
42	0x3d8eff74	0.069823176
43	0x3de2d29a	0.11075325
44	0xbd785c8c	-0.060635135
45	0xbd51ff60	-0.051268935
46	0xbd33a4f4	-0.043858483
47	0x3b1ffe80	0.0024413168
48	0xbdb7bf7a	-0.08972068
49	0x3c961ed8	0.018325254
50	0xbda411f2	-0.08011235
51	0x3ca1d008	0.019752517
52	0x3dea7ed0	0.11449969
53	0x3cacf3e0	0.021112382
54	0x3dbabcda	0.09118052
55	0xbdb65356	-0.08902614
56	0xbc9082c0	-0.017640471
57	0xbd9e1312	-0.07718481
58	0xbc633820	-0.013868362
59	0xbd4bac08	-0.04972461
60	0xbd915a94	-0.070973545
61	0xbdf747e2	-0.120742574
62	0xbd3dd890	-0.04634911
63	0x3c8921e8	0.0167398
64	0xbcf11379	-0.02942823
65	0xbdee6ca2	-0.11641814
66	0x3db8b0fd	0.09018133
67	0x3dae8c39	0.08522839
68	0xbda1b8fb	-0.0789661
69	0x3c5030a0	0.012706906
70	0x3d9a9e43	0.07549717
71	0xbdf31c26	-0.11870603
72	0xbdf132ab	-0.11777242
73	0x3d7e99ac	0.06215827
74	0xbb224080	-0.0024757683
75	0x3d230a50	0.039804757
76	0xbd7389d7	-0.059457626
77	0x3cb9a978	0.022663817
78	0x3d9a7c79	0.075432725
79	0xbd1b5f1e	-0.037932508
80	0xbd2939f3	-0.04131503
81	0xbdf3c2aa	-0.119023636
82	0xbc9e0300	-0.01928854
83	0x3d92e164	0.07171896
84	0xbe007155	-0.12543233
85	0xbc1e3380	-0.009655833
86	0x3dba9b78	0.091116846
87	0xbd30cca8	-0.043163925
88	0xbd3d2af4	-0.04618354
89	0xbd367dc5	-0.044553537
90	0xbd6e2412	-0.058139868
91	0x3c751e10	0.014960781
92	0xbdf67a52	-0.120350495
93	0x3d256fec	0.04038994
94	0xbd014f00	-0.03156948
95	0xbc825fc8	-0.015914813
96	0xbc0a2d40	-0.00843364
97	0x3d8f02ac	0.069829315
98	0xbdae2ce9	-0.0850466
99	0xbde8f4b2	-0.11374797
100	0xbdc7649c	-0.097359866
101	0xbdbbcc96	-0.09169881
102	0xbd7946d4	-0.060858563
103	0x3dca315a	0.09872694
104	0xbdd54d76	-0.10415165
105	0xbda514ac	-0.080605835
106	0xbddfb894	-0.10923877
107	0xbd8fe95c	-0.07026932
108	0xbc2bfde4	-0.010497544
109	0xbd9c199a	-0.076220706
110	0x3aad2e00	0.0013212562
111	0x3d2d0654	0.042242363
112	0xbcae38c8	-0.02126731
113	0x3d5ce850	0.053932488
114	0x3ceaf990	0.028683454
115	0x3df74c4a	0.12075098
116	0xbbd11da0	-0.0063817054
117	0x3ddde3f0	0.10834491
118	0x3dbf9d38	0.09356159
119	0x3d56148e	0.052265696
120	0x3d90e106	0.0707417
121	0xbdab7194	-0.08371273
122	0xbdab7474	-0.08371821
123	0x3d3c8494	0.046024874
124	0x3d39e86c	0.04538767
125	0x3dd7c73f	0.1053605
126	0xbcc29a34	-0.02375517
127	0xbcf1fde6	-0.029540014
128	0x3dcbdd9f	0.0995438
129	0x3cf1c48a	0.029512662
130	0x3e0c2a83	0.13688092
131	0xbcdde882	-0.027088407
132	0xbc3a0a05	-0.011354928
133	0x3d627665	0.05528869
134	0x3dce4d99	0.10073394
135	0xbda0b945	-0.07847837
136	0xbcf6e0ec	-0.030136548
137	0x3df8684b	0.12129267
138	0x3d4f12b8	0.05055496
139	0xbd45f79d	-0.048331846
140	0xbd264742	-0.0405953
141	0xbd817383	-0.0632086
142	0xbd98bd42	-0.07457973
143	0xbd33523b	-0.043779593
144	0xbda5332f	-0.08066403
145	0x3d7c8e5f	0.061659213
146	0x3d1a19e2	0.03762234
147	0xbd9cc072	-0.076538935
148	0x3da3e2b7	0.08002227
149	0x3d964515	0.07337395
150	0x3d9e1d80	0.077204704
151	0xbd236112	-0.039887495
152	0x3ddfeebe	0.10934208
153	0xbdccb308	-0.09995085
154	0xbe5b6f0d	-0.21429081
155	0xbd8b1d2e	-0.06792675
156	0x3d67c6b0	0.056585968
157	0xbd23f72d	-0.040030647
158	0x3e0e18cd	0.13876648
159	0xbdd6b328	-0.1048339
160	0xbad0f481	-0.0015942008
161	0xbd0a3278	-0.033739537
162	0xbd8b79b6	-0.06810324
163	0xbce330fe	-0.027733322
164	0xbcc4e40e	-0.024034526
165	0x3bcb51f1	0.0062048365
166	0x3dee539b	0.1163704
167	0xbce67de9	-0.02813621
168	0x3e016bec	0.12638825
169	0xbcb1aed0	-0.021689802
170	0xbd414d70	-0.04719299
171	0x3c1d47cb	0.009599636
172	0x3bc02222	0.005863444
173	0x3da00d10	0.078149915
174	0x3e1a0f99	0.15045013
175	0x3d2f4dc0	0.042798758
176	0xbda856a0	-0.082196474
177	0xbcf4824d	-0.029847289
178	0xbd0b4b88	-0.03400758
179	0xbde365b6	-0.11103384
180	0x3da3d624	0.079998285
181	0x3dcf1cfa	0.10112949
182	0x3d5a609a	0.053314783
183	0x3c80b2e7	0.015710307
184	0xbc946d02	-0.018118385
185	0xbcc08d7e	-0.023504969
186	0xbcb0b369	-0.021569924
187	0x3e0f2ef8	0.13982761
188	0xbd839d86	-0.064265296
189	0x3d2837ec	0.041068956
190	0xbd737d99	-0.05944595
191	0xb9aa9192	-0.00032533385
192	0xbc196479	-0.009362333
193	0xbdc14e30	-0.09438741
194	0x3c9d00d0	0.019165426
195	0xbe004c88	-0.12529194
196	0xbd37f8be	-0.044914953
197	0x3da2a975	0.079424776
198	0x3dcfff2f	0.10156094
199	0xbcc5a215	-0.024125138
200	0xbdd9690d	-0.1061574
201	0xbdeb97c5	-0.11503557
202	0xbcfba670	-0.030719012
203	0xbd9f0c41	-0.07766009
204	0x3daadd2d	0.08342967
205	0xbdb67e94	-0.089108616
206	0x3d782929	0.06058613
207	0x3bf1d811	0.0073804935
208	0xbd6169c1	-0.055032495
209	0x3dd0ad7e	0.10189341
210	0x3d8e7614	0.06956115
211	0xbcb3670a	-0.021899719
212	0xbdd1751a	-0.102274135
213	0xbd4ecc45	-0.050487775
214	0x3cd98dd7	0.026556892
215	0x3dc129d2	0.09431805
216	0xbd6684e6	-0.056279086
217	0xbd82e1f5	-0.06390754
218	0xbe096d8e	-0.13420698
219	0x3d9d594e	0.07683049
220	0x3dd9984e	0.10624753
221	0x3d9086e0	0.07056975
222	0xbd8ea56a	-0.06965144
223	0x3db7648e	0.08954726
224	0xbd5ee512	-0.054417677
225	0x3d85d778	0.06535238
226	0x3d646c12	0.055767126
227	0xbde645d3	-0.11243787
228	0x3c653f86	0.013992196
229	0x3d2f2c75	0.042767007
230	0xbdbd0ae3	-0.09230592
231	0x3ddad2c6	0.10684733
232	0x3da6a843	0.08137562
233	0x3dc9e574	0.09858218
234	0xbc93938b	-0.01801469
235	0xbdaa02d7	-0.08301323
236	0xbdaed666	-0.08536987
237	0x3ce1d413	0.027566945
238	0xbd2456ad	-0.040121723
239	0x3dcb7930	0.09935224
240	0x3dc210fa	0.09475894
241	0xbb449573	-0.0029996305
242	0xbdeee46b	-0.11664661
243	0x3d08289b	0.03324185
244	0x3de517d8	0.111861885
245	0xbd27f75d	-0.04100739
246	0xbda4ddb9	-0.08050103
247	0xbd3642f9	-0.044497464
248	0x3b046f2a	0.002020786
249	0xbddf7478	-0.109108865
250	0x3d55efa7	0.052230503
251	0x3d16285a	0.036659576
252	0xbd43c0fc	-0.047791466
253	0xbd8219dc	-0.063525885
254	0xbd93abf7	-0.07210534
255	0x3dc81d40	0.09771204

net.4.bias f4 [64]
0	0xbc9bf780	-0.019038916
1	0xbd9d8ea8	-0.07693225
2	0x3d62e6f6	0.055396043
3	0xbdaf2de9	-0.085536785
4	0x3dee6407	0.116401725
5	0x3dd5ea95	0.104451336
6	0x3d9a2867	0.075272374
7	0x3ccc0cff	0.02490854
8	0x3d2bd80e	0.041954093
9	0x3da3bb19	0.079946704
10	0xbde5981d	-0.11210654
11	0x3c7a3b3a	0.01527291
12	0xbd62101b	-0.05519114
13	0xbdb5aae9	-0.08870489
14	0xbdb72b2e	-0.08943783
15	0xbde1dc11	-0.110283025
16	0x3e0fc3a5	0.14039476
17	0x3df944c1	0.12171317
18	0xbdcfa503	-0.10138895
19	0xbdc5bc2d	-0.09655032
20	0x3e2268eb	0.15860336
21	0x3d8807c9	0.0664211
22	0x3dd5fc65	0.10448531
23	0x3d640deb	0.055677336
24	0xbd3f4ea8	-0.04670587
25	0xbdaeb2ca	-0.08530195
26	0x3d89bbd2	0.06725277
27	0xbe064d2b	-0.13115375
28	0xbde2c0c2	-0.11071922
29	0x3d904e0a	0.07046135
30	0x3ada5250	0.0016656611
31	0x3d89fb35	0.06737367
32	0x3de4dae2	0.11174561
33	0xbd1b6c9a	-0.037945367
34	0xbda9809a	-0.08276482
35	0xbd1e4cde	-0.038647525
36	0xbd824398	-0.06360549
37	0x3d0c399a	0.03423462
38	0x3dfbf42b	0.12302431
39	0x3d2efea2	0.042723306
40	0x3dc332ee	0.095311984
41	0xbca0780e	-0.019588497
42	0x3d15b6ee	0.03655141
43	0xbdc03ac0	-0.09386206
44	0x3cc57220	0.02410227
45	0x3d9e276d	0.077223636
46	0xbc24f965	-0.010069226
47	0x3e1c8275	0.1528414
48	0x3d9c00f8	0.07617372
49	0x3ddf2c41	0.10897113
50	0x3e16264a	0.14663044
51	0x3dc3ba26	0.09556989
52	0xbc20e560	-0.009820312
53	0x3d99749a	0.07492943
54	0x3e2bc710	0.16775155
55	0xbda0c9e9	-0.07851011
56	0xbc1a9fdd	-0.009437528
57	0x3d8b3b7a	0.06798454
58	0xbd177004	-0.03697206
59	0xbde51d48	-0.111872256
60	0xbcf9dfd7	-0.030502243
61	0xbda0d835	-0.07853738
62	0x3dd62688	0.10456568
63	0x3dc4319c	0.09579775

net.6.weight f4 [64, 64]
0	0xbc691040	-0.014225066
1	0xbdd178d2	-0.10228123
2	0x3cd11845	0.025524268
3	0x3d4ae928	0.04953876
4	0xbc1e0f3d	-0.009647188
5	0x3da8c7bd	0.08241222
6	0xbc865ee6	-0.016402673
7	0x3d9ca219	0.07648105
8	0x3e0137e5	0.12618978
9	0x3dca2c16	0.0987169
10	0xbc62028e	-0.013794554
11	0x3e217c11	0.15769984
12	0xba983514	-0.0011612498
13	0xbdd490e3	-0.103791974
14	0x3db803f6	0.089851305
15	0xbe9f55f7	-0.31120273
16	0x3dc213d1	0.09476436
17	0x3e163027	0.14666806
18	0x3da6dab2	0.081471816
19	0x3d74799f	0.0596863
20	0x3da07259	0.0783431
21	0xbd7ff4e0	-0.06248939
22	0x3d1847db	0.0371779
23	0xbc17d420	-0.009266883
24	0x3d0cd840	0.03438592
25	0xbdcb6f38	-0.09933323
26	0x3bf225e0	0.007389769
27	0x3d60ab96	0.054851137
28	0xbd57dce8	-0.052700907
29	0xbd22f948	-0.039788514
30	0xbd9b6ae6	-0.07588749
31	0x3d8a719f	0.06759953
32	0xbdc0e000	-0.094177246
33	0xbc5c29e5	-0.013437723
34	0x3c9a2ab3	0.018819189
35	0x3d5d2573	0.053990792
36	0xbd88f54c	-0.06687412
37	0x3d84013b	0.06445547
38	0xbd391a81	-0.04519129
39	0x3ca6137e	0.020272966
40	0xbd3929c8	-0.04520586
41	0xbd917223	-0.07101848
42	0x3d2a26a1	0.041540746
43	0x3cade2c8	0.021226302
44	0x3e113722	0.14181188
45	0x3e1fa364	0.15589672
46	0x3dfd0a73	0.12355509
47	0x3da91814	0.08256546
48	0x3dc933ce	0.09824334
49	0x3d6da9e1	0.058023337
50	0xbd9e7e72	-0.07738961
51	0x3e047e59	0.12938823
52	0x3c78a560	0.015176147
53	0xbcf921fb	-0.030411711
54	0xbafe64ce	-0.0019408704
55	0x3df7e5f1	0.12104405
56	0x3df0b7fb	0.117538415
57	0x3cc872e3	0.024468845
58	0xbd24ea14	-0.040262297
59	0xbd9e233e	-0.07721566
60	0x3dd5ebd5	0.10445372
61	0xbd59c58a	-0.053166904
62	0xbd3c1e01	-0.04592705
63	0xbd1c5039	-0.038162444
64	0x3d14a978	0.03629443
65	0x3dc43dfa	0.095821336
66	0x3c26a3b3	0.010170865
67	0x3d3ed874	0.046593145
68	0xbdecdb54	-0.11565271
69	0xbdda1c98	-0.10649985
70	0xbdafdb64	-0.08586767
71	0xbdc04af7	-0.093892984
72	0xbd932868	-0.07185441
73	0xbdc2c456	-0.09510104
74	0xbd27862c	-0.04089944
75	0xbdbc5dda	-0.09197588
76	0x3d188268	0.03723374
77	0xbc43572d	-0.01192264
78	0x3bd07100	0.006361127
79	0x3d5913d4	0.052997425
80	0xbded785b	-0.115952216
81	0xbd8063e8	-0.062690556
82	0xbca48100	-0.020081043
83	0xbe159369	-0.14607014
84	0x3d57c331	0.052676383
85	0xbde88059	-0.113526054
86	0x3d922748	0.071363986
87	0x3ddc2604	0.107494384
88	0x3cd30870	0.02576086
89	0xbd7933fc	-0.06084059
90	0x3db4ad66	0.088221356
91	0xbda7d434	-0.081947714
92	0x3bc1ee80	0.005918324
93	0x3d836946	0.06416564
94	0x3dd2710b	0.102754675
95	0xbbfe0729	-0.0077523184
96	0xbcc08939	-0.023502933
97	0xbcd8a024	-0.026443549
98	0xbdf832ac	-0.1211904
99	0x3be19e72	0.006885343
100	0xbde8c2a3	-0.11365249
101	0xbb50a589	-0.0031836948
102	0xbd317f67	-0.04333439
103	0x3d7e0910	0.06202036
104	0xbd4d0180	-0.05005026
105	0x3d82b5a5	0.06382302
106	0xbd339360	-0.04384172
107	0xbcc60d10	-0.02417615
108	0xbdf59468	-0.11991197
109	0x3dc4155f	0.09574389
110	0xbc211214	-0.00983097
111	0xbdf56b67	-0.11983376
112	0xbbed1efb	-0.007236359
113	0x3d177608	0.036977798
114	0xbd25b4b1	-0.040455524
115	0x3db42b2e	0.08797298
116	0x3d7a6970	0.06113571
117	0xbcf0ad03	-0.029379373
118	0x3df97cee	0.121820316
119	0x3d9b8251	0.07593215
120	0xbcf879ef	-0.03033158
121	0x3a438f3f	0.0007460005
122	0x3d1d2214	0.038362578
123	0xbd267482	-0.040638454
124	0x3d77db14	0.060511664
125	0xbdf64c14	-0.120262295
126	0xbdab5299	-0.08365364
127	0x3d46a80d	0.04850011
128	0xbdf5b394	-0.119971424
129	0xbd13637a	-0.03598354
130	0xbda16e05	-0.07882313
131	0x3da75782	0.08170988
132	0x3d03ead2	0.032206364
133	0xbd479a88	-0.048731357
134	0x3e0a53a0	0.13508463
135	0xbcd7b1c1	-0.026329877
136	0x3cba1fef	0.022720305
137	0x3d9faa8a	0.077961996
138	0xbdc1c712	-0.09461798
139	0x3cb0e1cf	0.021592049
140	0xbd3d390e	-0.04619699
141	0xbd85b4e0	-0.0652864
142	0xbd39b950	-0.045342743
143	0xbeb254ff	-0.34830472
144	0xbcbbd8a2	-0.022930447
145	0xbdc5784c	-0.096420854
146	0xbd553e2b	-0.05206124
147	0x3d606ae6	0.054789446
148	0xbcfc8b5e	-0.030828174
149	0x3d2f461b	0.042791467
150	0x3e259664	0.1617065
151	0x3b24ee4c	0.002516645
152	0xbde4756e	-0.111552104
153	0xbdecfa59	-0.115711875
154	0x3d04bc98	0.03240642
155	0x3d5d4e49	0.054029737
156	0xbb694169	-0.0035591966
157	0xbe06fc70	-0.13182235
158	0xbe06883a	-0.13137904
159	0xbd5915d3	-0.05299933
160	0x3d4e47c5	0.050361414
161	0x3bdadcfe	0.0066791764
162	0xbd6b8832	-0.057502933
163	0xbe092e79	-0.13396634
164	0x3dd259af	0.10271012
165	0x3ccd3f95	0.025054732
166	0x3dd5e293	0.10443606
167	0xbd8bc221	-0.068241365
168	0xbd657b3f	-0.05602574
169	0x3d3ec5f2	0.046575494
170	0x3dbb86e1	0.091565855
171	0x3da91a4a	0.08256967
172	0x3e21dee4	0.15807682
173	0x3df19932	0.11796798
174	0x3db153c2	0.08658554
175	0xbd32b8c6	-0.043633245
176	0x3dc04e4d	0.09389935
177	0xbda03fd5	-0.07824675
178	0x3de74eef	0.11294352
179	0x3d935702	0.0719433
180	0xbd97bd5a	-0.07409163
181	0xbd4c7408	-0.049915344
182	0x3cbf6f7a	0.023368586
183	0x3de7146d	0.11283193
184	0x3d8ddf6a	0.069273785
185	0x3d8066fb	0.06269642
186	0xbd846fbd	-0.06466625
187	0x3cd47044	0.025932439
188	0x3e092e04	0.1339646
189	0xbd996777	-0.074904375
190	0x3e0c006e	0.13672039
191	0x3d7c5a79	0.06160972
192	0x3d8d9bde	0.06914495
193	0x3d2fa020	0.042877316
194	0x3d9f9c47	0.077934794
195	0xbdd9cd66	-0.1063488
196	0x3d8ac47f	0.0677576
197	0xbd8eacbd	-0.06966541
198	0x3c262941	0.010141672
199	0x3dfba0a5	0.122865
200	0xbda9b459	-0.08286352
201	0xbd8d59eb	-0.06901916
202	0xbd5f9e28	-0.05459419
203	0x3d04950c	0.032368705
204	0x3cb52754	0.02211348
205	0xbdbd09a6	-0.09230356
206	0x3c856cb8	0.016287193
207	0x3e845b38	0.25850844
208	0xbd34dd71	-0.044156495
209	0xbaf9863e	-0.00190372
210	0x3d9beb91	0.0761329
211	0x3d171b66	0.036891364
212	0xbdb3d7d7	-0.087814026
213	0x3e091684	0.13387495
214	0x3ca68d2c	0.020330988
215	0xbcb20b8a	-0.021734018
216	0x3ddd976e	0.108198985
217	0x3d250950	0.040292084
218	0x3d851fb0	0.065001845
219	0x3db50262	0.08838345
220	0x3a945f4f	0.0011319908
221	0x3dce019f	0.10058903
222	0x3b81f85b	0.003966374
223	0x3e0ae4ba	0.13563815
224	0x3c2bbcec	0.010482054
225	0x3d5dc9d3	0.054147553
226	0x3d80eade	0.06294797
227	0xbd9223eb	-0.07135757
228	0x3dd487b0	0.10377443
229	0x3aeca341	0.0018054025
230	0x3d32d294	0.043657854
231	0xbd4c1d22	-0.04983247
232	0xbd4eaa4e	-0.050455384
233	0x3daae2e4	0.08344057
234	0xbd864032	-0.06555213
235	0x3c8dde20	0.017317832
236	0x3e06568f	0.13118957
237	0xbe1002c8	-0.14063561
238	0x3cca1c29	0.024671631
239	0x3d677f42	0.056517847
240	0x3d983527	0.07432013
241	0xbd271c4c	-0.04079847
242	0xbe06d873	-0.13168506
243	0xbdbf7cfb	-0.0935001
244	0x3d19aa44	0.037515894
245	0xbdbd62ca	-0.09247358
246	0xbddacc5a	-0.10683508
247	0x3c3b50c0	0.0114328265
248	0x3d0a4f04	0.03376676
249	0xbd55ca30	-0.052194774
250	0xbd46dd38	-0.048550814
251	0x3da15783	0.0787802
252	0xbd6871dd	-0.056749213
253	0xbdd292c2	-0.10281898
254	0xbca95395	-0.020669738
255	0x3e075b1b	0.13218348

net.6.bias f4 [64]
0	0xbd8ca531	-0.06867445
1	0xbde46ef9	-0.11153979
2	0x3dcab2ef	0.0989741
3	0xbdcdd57e	-0.10050486
4	0x3e176e6f	0.14788221
5	0x3ce55325	0.027993748
6	0xbbd5d469	-0.0065255654
7	0xbdc504c4	-0.096200496
8	0xbd191024	-0.03736891
9	0x3d8dc451	0.0692221
10	0xbcd0ec1a	-0.025503207
11	0xbdb0a1b2	-0.08624591
12	0x3c48229f	0.012215286
13	0x3ce9e613	0.02855209
14	0xbdb43193	-0.08798518
15	0xbda1d809	-0.079025336
16	0x3e1c870f	0.15285896
17	0xbd720334	-0.059085086
18	0x3cfc14db	0.030771663
19	0xbda2575d	-0.079268195
20	0xbd862a8d	-0.06551085
21	0xbdde45d4	-0.108531624
22	0x3e1668c6	0.14688405
23	0x3cbfd767	0.023418142
24	0x3db4bcc3	0.08825066
25	0x3daedc84	0.08538154
26	0x3db8b5d8	0.09019059
27	0x3db03ee0	0.086057425
28	0x3df7b037	0.12094157
29	0x3e0790f1	0.13238885
30	0x3d8b8d70	0.068140864
31	0x3d8ceaa9	0.068806954
32	0x3da08210	0.078373075
33	0xbd854201	-0.0650673
34	0x3dce1350	0.10062277
35	0x3d23ff9a	0.040038683
36	0x3d0ded3e	0.03465008
37	0x3c049c88	0.008093961
38	0x3ddb0b31	0.10695494
39	0x3d664a2c	0.05622308
40	0xbd2a1f39	-0.041533682
41	0x3ca4b2e3	0.020104831
42	0x3af1e31b	0.0018454524
43	0xbc9674f8	-0.018366322
44	0x3e21221f	0.15735672
45	0x3d6c0262	0.05761946
46	0x3d09dd03	0.03365804
47	0x3d318a2f	0.043344673
48	0x3d8ece9d	0.06973002
49	0xbdbc3e62	-0.09191586
50	0xbd9ebdb2	-0.07751025
51	0x3e265f24	0.16247231
52	0x3a329000	0.0006811619
53	0x3d63ddf8	0.055631608
54	0xbca94ea4	-0.020667382
55	0xbddcfaba	-0.1079001
56	0x3d9f6850	0.07783568
57	0x3dc61353	0.096716546
58	0xbdf11dca	-0.1177326
59	0xbda6df83	-0.081481
60	0xbc3bf99b	-0.011473085
61	0x3df4ce5f	0.11953425
62	0xbde4be44	-0.11169103
63	0x3e159b49	0.14610018

net.8.weight f4 [1, 64]
0	0x3e136e61	0.14397575
1	0xbc32d858	-0.010915838
2	0x3d3035ff	0.043020245
3	0xbd0143df	-0.031558868
4	0x3e232b6f	0.15934537
5	0x3d6135ce	0.054982953
6	0x3d88030c	0.06641206
7	0xbccb7997	-0.024838252
8	0xbac81c80	-0.0015267283
9	0xbcd1fbe5	-0.025632808
10	0x3d24d202	0.04023934
11	0xbcf7e5c7	-0.030260934
12	0xba8db436	-0.0010811153
13	0x3c4841a8	0.012222685
14	0xbe04b831	-0.12960888
15	0x3d840dad	0.06447921
16	0x3dd62a53	0.104572915
17	0x3db454d8	0.08805245
18	0x3d9856b8	0.07438415
19	0x3c3b55f6	0.011434069
20	0x3dbd5bf9	0.09246058
21	0x3f376391	0.716363
22	0x3de51140	0.11184931
23	0xbd80abd0	-0.06282771
24	0x3dc2e080	0.09515476
25	0xbd2d5e85	-0.04232647
26	0x3dc4f1e8	0.096164525
27	0x3dbf5e1a	0.0934412
28	0xbdf24446	-0.118294284
29	0xbdbfef0f	-0.09371769
30	0xbdf95d2e	-0.12175976
31	0xbd85fb3d	-0.065420605
32	0x3da0197f	0.07817363
33	0x3d5f946d	0.05458491
34	0x3e0693ab	0.13142268
35	0xbdd43efe	-0.10363577
36	0x3c5795fb	0.013158317
37	0x3e0980f4	0.13428098
38	0xbdeed379	-0.11661429
39	0xbe03d40c	-0.12873858
40	0x3c9a9ea2	0.01887447
41	0xbda840b0	-0.08215463
42	0x3d6aefba	0.057357527
43	0xbd7776ac	-0.06041591
44	0x3d60fae3	0.054926764
45	0xbe04a52b	-0.12953632
46	0x3e0648b7	0.13113676
47	0xbde942a0	-0.11389661
48	0xbe182adb	-0.14860098
49	0xbd3a7850	-0.045524895
50	0xbbecbadd	-0.0072244243
51	0x3e1448f9	0.14480962
52	0x3cd61948	0.026135102
53	0xbd5d4255	-0.054018337
54	0xbdfa629e	-0.12225841
55	0x3d272dcd	0.040815163
56	0x3d058047	0.032593038
57	0xbd8fdbac	-0.07024321
58	0xbd0f9444	-0.035053506
59	0x3d3ac648	0.045599252
60	0x3dad6d65	0.08468131
61	0xbdf65c17	-0.120292835
62	0xbcf754b8	-0.030191764
63	0x3dc4332d	0.095800735
