Self project/models/nn/optuna_best/Colour/model.pt (torch, 16604 bytes, 9 tensors)

net.0.weight f4 [32, 3]
0	0x3e0274e8	0.12739909
1	0xbee539df	-0.44770715
2	0xbec285bb	-0.37992653
3	0x3eb0d8fa	0.3454054
4	0x3f14bed9	0.5810371
5	0x3eb133e1	0.34609893
6	0x3f070e40	0.5275612
7	0x3d2f31e3	0.042772185
8	0xbd66d11b	-0.056351762
9	0xbf1298ea	-0.5726458
10	0xbf226a87	-0.634438
11	0x3f01d4fb	0.5071561
12	0xbef9573d	-0.4869937
13	0x3dad76bf	0.08469915
14	0xbe9ffecc	-0.31249082
15	0xbe1b3afb	-0.15159218
16	0x3d1fa5f6	0.038976632
17	0x3e78c104	0.2429238
18	0xbf03a851	-0.51428705
19	0xbe856677	-0.26054737
20	0x3edb4f48	0.42833924
21	0x3ea16f6b	0.31530318
22	0xbdd8c443	-0.10584309
23	0x3edf463e	0.43608278
24	0xbf0089d1	-0.5021029
25	0xbe2a2b6c	-0.16618127
26	0x3f01d8a7	0.5072121
27	0x3f0622bd	0.52396756
28	0x3e265588	0.16243565
29	0xbe885552	-0.26627594
30	0x3f17fa37	0.5936617
31	0xbedd5aaa	-0.43233234
32	0xbe2a0344	-0.16602808
33	0xbd80cafb	-0.062887155
34	0x3d93e43c	0.072212666
35	0x3ebb1a3d	0.36543456
36	0xbed5d8a7	-0.41766855
37	0xbcb54fe7	-0.022132827
38	0x3f10f785	0.56627685
39	0xbeb0dd11	-0.3454366
40	0x3f070bfb	0.52752656
41	0xbf19d932	-0.6009704
42	0xbf1ac4c1	-0.6045647
43	0xbe95197e	-0.29121011
44	0xbec7980f	-0.389832
45	0xbef714b5	-0.48257986
46	0x3e251a78	0.16123378
47	0xbef2db2c	-0.4743284
48	0x3e938d48	0.28818727
49	0xbea5cc69	-0.32382515
50	0xbf0435a5	-0.51644355
51	0x3ec20bf2	0.3789974
52	0x3f0bc9cf	0.5460481
53	0x3e745ab8	0.23862731
54	0xbec66efc	-0.3875655
55	0xbe951f15	-0.29125276
56	0xbe9e2c25	-0.30893055
57	0xbeae9ba7	-0.34103128
58	0xbe0a62ee	-0.13514301
59	0xbe3b6c95	-0.1830314
60	0xbdae289a	-0.08503838
61	0xbec70c5b	-0.38876614
62	0x3f14fb91	0.5819636
63	0xbf10f662	-0.5662595
64	0xbefd1ef5	-0.4943768
65	0xbf0551af	-0.52077764
66	0xbf0c2ece	-0.5475892
67	0xbe9ea9b3	-0.30988845
68	0x3f03e94c	0.5152786
69	0x3e09504d	0.13409539
70	0x3f06d844	0.52673745
71	0x3ebdaf07	0.37047598
72	0x3f0c1625	0.5472129
73	0x3f21f391	0.6326228
74	0x3de5e039	0.11224408
75	0x3ddf7c7f	0.109124176
76	0xbeacc618	-0.33744884
77	0x3ebcd2b5	0.36879507
78	0xbf0e1bf0	-0.5551138
79	0xbdab661a	-0.08369084
80	0x3e8a7b2b	0.27047095
81	0xbe1ff6d3	-0.156215
82	0x3effcedf	0.49962518
83	0x3d9b56dd	0.07584927
84	0xbea27ab3	-0.31734237
85	0x3ece949b	0.40347752
86	0x3ecd5aaf	0.4010825
87	0x3f1bcd34	0.6085999
88	0x3e898fa6	0.26867408
89	0x3eb377fa	0.35052472
90	0xbe87ca47	-0.26521513
91	0xbcd53ac5	-0.026029
92	0xbee9e7f2	-0.45684773
93	0x3f119de6	0.5688156
94	0x3eeb8cce	0.46005863
95	0x3e75461f	0.2395253

net.0.bias f4 [32]
0	0xbe8b5968	-0.2721665
1	0xbebe7d43	-0.37204942
2	0x3f24d8f0	0.6439352
3	0x3f0be783	0.54650134
4	0x3cc4752e	0.023981657
5	0x3ba80dcc	0.005128598
6	0xbe2a62d3	-0.16639261
7	0xbee277fa	-0.4423216
8	0xbf001c46	-0.5004314
9	0xbeb164a6	-0.346471
10	0xbe3013a1	-0.17194988
11	0xbc839b2a	-0.016065199
12	0x3e8629eb	0.26203856
13	0x3e226d09	0.15861906
14	0xbe3e7b4f	-0.18601726
15	0x3f12d8a7	0.57361835
16	0xbe0c210b	-0.1368448
17	0xbd4480ff	-0.047974583
18	0x3e2393a1	0.15974285
19	0x3e4365b6	0.19081768
20	0x3e9724b8	0.29520202
21	0x3e107d50	0.14110303
22	0xbed47716	-0.41497105
23	0xbd44eaf4	-0.04807563
24	0xbea579e1	-0.3231955
25	0xbee2d230	-0.44300985
26	0x3ccc7b91	0.024961265
27	0x3ec3778b	0.38177142
28	0x3ed5090a	0.4160846
29	0x3e0a7547	0.135213
30	0xbda1a6a2	-0.07893111
31	0x3da28fc3	0.079375766

net.2.weight f4 [32, 32]
0	0xbd2898dd	-0.041161407
1	0x3c2a39a1	0.010389716
2	0x3e2b990e	0.16757604
3	0x3d940994	0.072283894
4	0xbe1288a3	-0.14309935
5	0xbe042322	-0.12904027
6	0x3dc505ef	0.09620272
7	0xbe6435aa	-0.22286096
8	0x3e39c850	0.1814282
9	0xbe024eee	-0.12725422
10	0xbe415274	-0.1887911
11	0x3dd43d47	0.1036325
12	0x3e55cda7	0.20879231
13	0x3e1908bf	0.14944743
14	0xbb1100ad	-0.0022125647
15	0xbd002bb4	-0.03129168
16	0xbd003193	-0.031297278
17	0x3c2608a1	0.010133893
18	0x3e4f774d	0.20260353
19	0x3d1b9e95	0.037993032
20	0xbcbc19f2	-0.02296159
21	0x3d932371	0.07184494
22	0x3df92696	0.12165563
23	0x3dae21d1	0.08502544
24	0xbe4e5eee	-0.201534
25	0x3e0d804d	0.13818474
26	0x3dfcc824	0.12342861
27	0x3e2ff291	0.17182375
28	0xbd4dc518	-0.05023679
29	0xbe7c51b8	-0.24640548
30	0xbd5b2908	-0.053505927
31	0xbd6f189a	-0.05837307
32	0x3e001f9b	0.12512057
33	0x3df64a40	0.12025881
34	0x3e15f629	0.14644684
35	0x3e329349	0.17438997
36	0x3b9d1519	0.004793775
37	0x3dc23352	0.09482445
38	0x3dfc420a	0.123172835
39	0x3d6661c7	0.05624559
40	0x3e16ca3e	0.14725587
41	0x3d87a845	0.06623892
42	0x3e516683	0.20449261
43	0xbd1ffc72	-0.03905911
44	0xbc3296ce	-0.010900212
45	0x3d3c8c66	0.046032332
46	0x3dd784d8	0.10523385
47	0x3de06781	0.10957242
48	0xbd3d45f4	-0.04620929
49	0x3e5e1da9	0.21691002
50	0x3d21c346	0.039492868
51	0x3d8aa6e3	0.06770112
52	0xbd9d96cf	-0.0769478
53	0xbd757a90	-0.059931338
54	0xbda1964a	-0.078899935
55	0x3e393661	0.1808715
56	0x3dee6178	0.116396844
57	0x3e722521	0.23646976
58	0x3d56d94b	0.05245332
59	0x3dd41928	0.10356361
60	0xbd0d44ef	-0.03448957
61	0x3d343fec	0.044006273
62	0xbd21d265	-0.03950729
63	0x3da52c97	0.080651455
64	0xbe1be00f	-0.1522219
65	0xbddd2b0c	-0.10799226
66	0xbd4f2436	-0.050571643
67	0x3becf85a	0.0072317543
68	0x3de6722e	0.11252247
69	0x3e654ee1	0.22393371
70	0xbc80582e	-0.015667047
71	0xbd6326cf	-0.055456933
72	0x3d5d856e	0.054082327
73	0xbdfee75f	-0.12446474
74	0xbe270bcd	-0.16313095
75	0x3df1ef3f	0.11813211
76	0x3d8f31d3	0.06991925
77	0x3e19722e	0.14984962
78	0xbdd6ec3a	-0.104942754
79	0x3cce7d29	0.025206165
80	0xbe33b9d1	-0.17551352
81	0xbd6485c0	-0.055791616
82	0x3d579d93	0.05264051
83	0xbe490739	-0.19631661
84	0x3e6716dd	0.22567315
85	0xbdd2442a	-0.102669075
86	0xbe2df716	-0.16988787
87	0x3e2d17d0	0.16903615
88	0xbdc159f1	-0.09440983
89	0x3e2ad2da	0.16681996
90	0x3dbc4942	0.0919366
91	0x3e48ef2e	0.1962249
92	0x3d2d481f	0.04230511
93	0xbd3a29fb	-0.045450192
94	0xbde8d329	-0.113684006
95	0x3db4556b	0.08805355
96	0xbe4faed2	-0.20281532
97	0xbd50f192	-0.05101163
98	0x3c3cb7bc	0.011518415
99	0xbb598e1f	-0.0033196283
100	0xbe64bc24	-0.22337395
101	0x3e0177d0	0.12643361
102	0xbe14cc5a	-0.14531079
103	0x3e1f4643	0.15554146
104	0x3e24f040	0.16107273
105	0x3e443a6f	0.19162916
106	0x3e70c9a7	0.23514424
107	0x3de15832	0.1100315
108	0x3da94cb4	0.08266583
109	0xbdbc4722	-0.09193255
110	0x3ca7bad5	0.02047483
111	0xbe261c2d	-0.16221686
112	0x3dafc0ec	0.08581719
113	0x3e15b4d9	0.14619769
114	0xbde44488	-0.11145884
115	0xbcbb1584	-0.022837408
116	0x3dad09d0	0.08449137
117	0xbe3c78f4	-0.18405515
118	0x39f8dae1	0.00047465324
119	0xbda6d26d	-0.08145604
120	0x3e5f6616	0.21816286
121	0x3e790f28	0.24322188
122	0xbd76d200	-0.060258865
123	0xbde70b0a	-0.112814024
124	0xbe49676c	-0.19668359
125	0xbdb9d202	-0.09073259
126	0xbe2444fc	-0.1604194
127	0xbcc6e98f	-0.024281291
128	0xbcb210fe	-0.021736618
129	0xbe18e322	-0.14930394
130	0x3d15f5c0	0.03661132
131	0x3dd10532	0.10206069
132	0x3de9c77a	0.11415
133	0x3e19d8e7	0.15024148
134	0xbd9acb88	-0.07558352
135	0x3caec3d8	0.02133362
136	0xbd53920c	-0.051652953
137	0xbc8afa98	-0.016965196
138	0x3d3e6250	0.046480477
139	0xbddeb238	-0.10873836
140	0xbdb815f9	-0.08988566
141	0xbd110fed	-0.03541558
142	0xbd2d6e28	-0.04234138
143	0xbe258c0f	-0.1616671
144	0x3d937aa2	0.07201125
145	0xbda746d7	-0.081678085
146	0x3e0542ad	0.13013716
147	0xbd22202c	-0.039581463
148	0xbe0f386a	-0.13986364
149	0xbccfe1f7	-0.025376303
150	0x3df1a49b	0.11798974
151	0xbd913ec4	-0.0709205
152	0xbdd0fbf7	-0.102043085
153	0xbd55748d	-0.052113105
154	0x3e0f0ec4	0.13970476
155	0xbe0ec1d7	-0.13941132
156	0x3ceaa1e5	0.02864165
157	0xbcc9ab50	-0.024617821
158	0xbe1932eb	-0.1496083
159	0x3bf43d60	0.0074536055
160	0x3db77c6e	0.0895928
161	0x3d37aa38	0.044840068
162	0x3cf41d10	0.029799014
163	0xbc144725	-0.009050165
164	0xbdb86feb	-0.09005722
165	0xbd306e67	-0.043074038
166	0x3c9d9771	0.019237252
167	0x3df02c6a	0.11727221
168	0xbdd8795a	-0.10570021
169	0x3e25ed41	0.16203786
170	0xbd584a88	-0.052805454
171	0xbd89ca55	-0.06728045
172	0xbc22170c	-0.00989319
173	0x3e2ec872	0.17068651
174	0xbcbaaab0	-0.022786468
175	0x3d89ad44	0.06722501
176	0xbde1f7b0	-0.11033571
177	0xbde3d3c6	-0.11124377
178	0x3c8b323b	0.016991725
179	0x3cce5dc8	0.025191203
180	0x3e058345	0.13038357
181	0x3e3012cb	0.17194669
182	0x3d902ccb	0.070397936
183	0x3e36ab7f	0.17838858
184	0x3821a410	3.8538186e-05
185	0x3db95cb8	0.09050888
186	0x3e39b32f	0.1813476
187	0x3d2b8178	0.041871518
188	0xbdcb5eef	-0.099302165
189	0x3d83a73e	0.06428383
190	0xbe15c542	-0.14626029
191	0x3e1e4686	0.1545659
192	0x3d894d99	0.06704254
193	0x3da16ade	0.078817114
194	0xbe580e43	-0.2109919
195	0xbd64f60e	-0.05589872
196	0x3d8ba28a	0.06818111
197	0xbd29d160	-0.04145944
198	0x3e0a57d4	0.13510066
199	0xbd3ce478	-0.046116322
200	0xbdb3fe68	-0.087887585
201	0xbe0dff09	-0.1386682
202	0xbd856584	-0.06513503
203	0xbb1c0c74	-0.0023811134
204	0xbdc5589d	-0.09636042
205	0xbdec565f	-0.115399115
206	0x3d95d8f4	0.07316771
207	0x3da853d8	0.08219117
208	0x3c196d56	0.009364447
209	0xbdc78d8c	-0.09743795
210	0x3de5875b	0.11207458
211	0x3d290cec	0.04127209
212	0xbd86f80f	-0.06590282
213	0xbcfc90b9	-0.030830728
214	0xbd24f682	-0.04027415
215	0xbde5085d	-0.11183236
216	0xbe1840ea	-0.14868513
217	0xbc203823	-0.009779009
218	0x3e11a673	0.14223652
219	0x3d966506	0.073434874
220	0xbdf153ec	-0.11783585
221	0x3dc44882	0.09584142
222	0x3d7b0159	0.061280582
223	0x3d0b3634	0.03398724
224	0x3e6eeb59	0.23331966
225	0xbe54d84f	-0.2078564
226	0x3d3de35c	0.046359405
227	0x3d23992f	0.03994101
228	0xbdbde16e	-0.09271513
229	0x3dd90842	0.10597278
230	0xbd5339b8	-0.051568717
231	0xbdb70d26	-0.08938055
232	0xbe34021d	-0.17578931
233	0x3e015682	0.12630656
234	0xbe17aa05	-0.14810951
235	0xbe0be5f7	-0.13661943
236	0xbdee222e	-0.11627613
237	0x3d88b610	0.06675351
238	0x3d02ae5f	0.031904574
239	0xbc8e82d7	-0.017396374
240	0x3e293ac6	0.16526327
241	0x3e1778f0	0.14792228
242	0x3ddb2160	0.10699725
243	0xbe4f3159	-0.20233668
244	0xbe0f74eb	-0.14009444
245	0xbc9a1db1	-0.018812986
246	0xbd75bfa4	-0.059997216
247	0xbc0a8fbe	-0.008457122
248	0xbe48bec0	-0.19604015
249	0x3dfa7b2a	0.12230523
250	0xbcf3150c	-0.029673122
251	0x3e0c7355	0.1371587
252	0x3deb9a16	0.11503999
253	0xbdf72407	-0.120674185
254	0xbdd7545d	-0.10514138
255	0x3d2aa1be	0.041658156

net.2.bias f4 [32]
0	0x3d9d6647	0.076855235
1	0xbdf610c7	-0.12014919
2	0x3e4a20dc	0.19739097
3	0xbd27e951	-0.040993992
4	0xbe091d6e	-0.13390133
5	0xbe2f2f88	-0.17107975
6	0xbded365d	-0.115826346
7	0xbdec1350	-0.11527121
8	0x3dc6e6e1	0.097120054
9	0x3e20660f	0.15663932
10	0x3b8b2d46	0.0042473404
11	0x3e34ba55	0.17649205
12	0xbc790b99	-0.015200519
13	0xbe198c62	-0.14994958
14	0x3c9adcf5	0.018904189
15	0x3d3c1a90	0.04592377
16	0x3cbbae83	0.022910362
17	0xbdef768d	-0.11692534
18	0xbe7d4d5a	-0.24736539
19	0x3e196c01	0.14982606
20	0xbc142423	-0.009041819
21	0xbd7d24be	-0.06180262
22	0x3ddb6ced	0.10714135
23	0x3d77dbe4	0.06051244
24	0x3d88ebca	0.06685598
25	0x3e2970bb	0.1654691
26	0xbe0f408b	-0.13989465
27	0x3e6d0e76	0.23150048
28	0xbe2f4066	-0.1711441
29	0x3df49388	0.11942202
30	0xbe06e288	-0.13172352
31	0x3e31c38d	0.17359753

net.4.weight f4 [32, 32]
0	0xbe31f849	-0.1737987
1	0x3e1de309	0.15418638
2	0xbe8811fd	-0.26576224
3	0x3e286943	0.16446404
4	0x3e06a5de	0.13149211
5	0x3c658536	0.014008811
6	0x3d10d06d	0.03535502
7	0xbe24297d	-0.16031452
8	0x3d9544be	0.07288502
9	0x3c8e6c57	0.017385645
10	0xbd1ea9e6	-0.038736247
11	0xbdf720ae	-0.1206678
12	0xbdc18052	-0.09448303
13	0xbb5646ab	-0.003269593
14	0x3d494b44	0.049144045
15	0xbd39e03e	-0.04537987
16	0xbd4bafd6	-0.049728237
17	0x3c6032b0	0.01368396
18	0x3d3b0d0a	0.045666732
19	0x3e01d083	0.12677197
20	0x3de06130	0.10956037
21	0x3d9b01f2	0.075687304
22	0xbc79ccd9	-0.015246593
23	0x3c744100	0.014908075
24	0x3cbfd515	0.023417035
25	0x3e00ae95	0.12566598
26	0x3d853f49	0.06506211
27	0xbcd65471	-0.026163312
28	0xbdf3bc24	-0.11901119
29	0xbe14ac2a	-0.145188
30	0x3de190f7	0.11013978
31	0xbde30123	-0.11084201
32	0x3e344f35	0.1760834
33	0x3da44494	0.08020893
34	0xbe3185ed	-0.17336245
35	0x3e5bde34	0.21471483
36	0x3d95f92c	0.073229164
37	0x3d077610	0.033071578
38	0xbe20086e	-0.15628216
39	0xbe377ef6	-0.17919526
40	0x3c81bbaa	0.015836556
41	0x3d4d4ba1	0.050120953
42	0xbdaaee72	-0.08346261
43	0x3e34f5a9	0.17671837
44	0xbcf78a6e	-0.030217376
45	0xbe0a3498	-0.13496625
46	0x3e1ebb6e	0.15501186
47	0xbde9a539	-0.11408467
48	0x3e3ed317	0.18635212
49	0xbe23e00c	-0.16003436
50	0x3c92d505	0.017923841
51	0x3e28618c	0.16443461
52	0x3e5446ad	0.20730086
53	0x3e03efe3	0.12884478
54	0x3c56ca82	0.013109805
55	0x3e0231b9	0.1271428
56	0x3e3f3f06	0.18676385
57	0x3d922928	0.07136756
58	0x3e24136f	0.16023038
59	0xbe3ff8d3	-0.18747263
60	0xbd4aa598	-0.04947433
61	0xbd005ffc	-0.031341538
62	0x3d2067b5	0.039161403
63	0x3db21e76	0.08697216
64	0x3d8a0e60	0.06741023
65	0xbd83aa7c	-0.06429002
66	0xbe0226df	-0.1271014
67	0x3e9c14cb	0.30484614
68	0xbda7cc99	-0.08193321
69	0x3de5b5c4	0.1121631
70	0xbe0cfeb8	-0.13769042
71	0x3dbe9566	0.09305839
72	0x3deb9a0a	0.1150399
73	0xbe857f1d	-0.26073542
74	0xbe4fd955	-0.2029775
75	0xbe341e3d	-0.1758966
76	0xbd4511be	-0.048112623
77	0x3e84650f	0.25858352
78	0xbd133adc	-0.035944805
79	0x3e1a294a	0.15054813
80	0xbb28df5c	-0.0025767898
81	0xbe06dba0	-0.13169718
82	0x3e8d22d5	0.27565637
83	0xbe00957c	-0.12557024
84	0x3e76bb3c	0.24094862
85	0x3df9dfe2	0.122009054
86	0xbcc474e6	-0.023981523
87	0x3e2999af	0.16562532
88	0xbbd29ff1	-0.006427758
89	0xbd04781a	-0.0323411
90	0x3d518cdb	0.05115972
91	0x3d798eb3	0.060927104
92	0x3d3d9e30	0.046293437
93	0xbdfaaa27	-0.12239485
94	0xbde4f020	-0.11178613
95	0x3d520311	0.051272456
96	0xbda348fe	-0.079729065
97	0x3e0cc6d0	0.13747716
98	0xbdaae98e	-0.08345328
99	0x3e5384c5	0.20656116
100	0x3d4373c5	0.04771783
101	0xbd49d733	-0.049277496
102	0xbd2c975f	-0.042136546
103	0xbe4a3e58	-0.19750345
104	0x3e379741	0.17928793
105	0xbe1912b8	-0.14948547
106	0x3d0d2a14	0.034463957
107	0xbd4c5ab5	-0.049891192
108	0xbd7fe116	-0.062470518
109	0x3e4fa30e	0.20277044
110	0xbdc419fd	-0.09575269
111	0x3e187198	0.14887083
112	0x3e32e860	0.17471457
113	0xbe058291	-0.13038088
114	0xbde48a65	-0.11159209
115	0xbd836623	-0.064159654
116	0x3dca04df	0.0986421
117	0xbe25aa11	-0.16178156
118	0x3e1b6b06	0.15177545
119	0x3d1bdbac	0.038051292
120	0x3df127f0	0.117751956
121	0x3e0505da	0.12990513
122	0x3ce5e62e	0.02806386
123	0x3e2ecd10	0.17070413
124	0x3e15b687	0.1462041
125	0xbe1f8ffd	-0.15582271
126	0xbd661983	-0.056176674
127	0xbd9754e2	-0.07389237
128	0x3d620c62	0.05518759
129	0xbcf3c6e6	-0.029757928
130	0x3da506ba	0.080579236
131	0xbe08647d	-0.13319583
132	0xbd4a91cf	-0.04945546
133	0xbd340cc0	-0.04395747
134	0x3d52cf34	0.051467136
135	0x3e00d544	0.12581354
136	0xbccc85b0	-0.02496609
137	0xbd9ae3fd	-0.075630166
138	0xbd460479	-0.04834411
139	0x3d572a3e	0.05253052
140	0xbbfffeb0	-0.0078123435
141	0xbe400511	-0.18751933
142	0xbe3c4b6c	-0.18388146
143	0x3d46c7dd	0.04853045
144	0xbe47dd67	-0.19518052
145	0xbea000fd	-0.31250754
146	0xbe3725e2	-0.17885545
147	0x3e4c1c8e	0.19932768
148	0xbe0ee48c	-0.13954371
149	0x3dd3fb8e	0.103507146
150	0x3e570dea	0.21001402
151	0xbe2de7ad	-0.16982909
152	0x3dea3307	0.11435514
153	0x3e3b414e	0.1828663
154	0xbe1900b9	-0.14941682
155	0x3d933000	0.0718689
156	0x3d276704	0.040869728
157	0xbe6e690f	-0.23282264
158	0xbc734634	-0.014848281
159	0x3da1be69	0.07897646
160	0x3d09fb4b	0.033686917
161	0x3dc1ef58	0.09469479
162	0x3e0660a7	0.13122807
163	0x3d88c13d	0.06677482
164	0x3e101ce0	0.14073515
165	0x3e3edf49	0.18639864
166	0xbd17502a	-0.036941685
167	0xbe879d4d	-0.26487198
168	0x3c90996d	0.017651284
169	0xbe294b43	-0.16532616
170	0xbe12d857	-0.1434034
171	0xbce6c9db	-0.028172424
172	0x3e0056db	0.12533133
173	0xbd12d314	-0.03584583
174	0x3e08bd78	0.13353527
175	0xba2423ca	-0.00062614365
176	0xbd6e6f62	-0.05821169
177	0xbd6ba44a	-0.057529725
178	0x3d2cc4ee	0.042179994
179	0x3e736d93	0.23772268
180	0x3e423938	0.1896714
181	0xbd756fb2	-0.059920974
182	0x3da92d48	0.0826059
183	0x3d97918e	0.07400809
184	0x3d77ef94	0.060531214
185	0x3ca41570	0.020029753
186	0x3e5d45a6	0.216086
187	0xbd4a2c56	-0.04935869
188	0x3db521e6	0.08844356
189	0x3e000a58	0.12503946
190	0x3e805f28	0.25072598
191	0x3d237643	0.039907705
192	0xbd41c844	-0.04731013
193	0x3e3e0557	0.18556724
194	0xbdcebbf8	-0.10094446
195	0x3ba4b8af	0.005026899
196	0xbdca550a	-0.09879501
197	0x3d46e5bf	0.048558947
198	0x3d3a4b9b	0.04548226
199	0xbe3f7303	-0.18696217
200	0xbbb9fa33	-0.005675578
201	0xbe29f10e	-0.16595861
202	0x3d0387dd	0.03211199
203	0x3e010074	0.12597829
204	0x3dcd56bd	0.1002631
205	0xbe939ea9	-0.28831986
206	0x3e82da20	0.2555704
207	0xbcb9abc0	-0.022664905
208	0xbdb12af0	-0.08650768
209	0xbd5fba7c	-0.054621205
210	0x3e809ea6	0.2512104
211	0x3e1d01a7	0.15332662
212	0x3e68a8e9	0.22720684
213	0x3d94c878	0.07264799
214	0xbe28f312	-0.16498974
215	0x3de0291a	0.109453395
216	0x3e72fef4	0.2373007
217	0xbd0e7a3b	-0.034784537
218	0x3e360a92	0.1777747
219	0xbd4451c3	-0.047929537
220	0x3d377cd8	0.044796795
221	0xbdeb64ec	-0.11493859
222	0x3e59b237	0.2125939
223	0xbde7443a	-0.1129231
224	0xbd747ce9	-0.059689436
225	0xbdd54410	-0.104133725
226	0x3d63792f	0.05553549
227	0xbe24f49c	-0.16108936
228	0x3e2c4592	0.16823414
229	0x3c9c48f0	0.019077748
230	0xbdf1e409	-0.118110724
231	0xb90405b7	-0.0001259063
232	0x3e2b13b0	0.16706729
233	0xbd6a2165	-0.057160754
234	0x3e80f817	0.25189278
235	0xbdb68293	-0.08911624
236	0xbdd30061	-0.10302807
237	0x3e3016c8	0.1719619
238	0xbe7398a4	-0.23788697
239	0x3e3a702d	0.18206854
240	0xbdd33b5b	-0.103140555
241	0x3de88fb7	0.113555364
242	0xbc94bdc0	-0.018156886
243	0xbe65ddad	-0.22447844
244	0xbe071f35	-0.13195498
245	0x3d1fd8b4	0.039025024
246	0x3e588094	0.21142799
247	0x3d986bb6	0.07442419
248	0xbe44ed09	-0.19231047
249	0xbe0f20af	-0.13977312
250	0xbe13bcef	-0.14427541
251	0x3e6b7bda	0.22996464
252	0x3dd8851e	0.10572265
253	0x3e016845	0.12637432
254	0xbdec8904	-0.11549571
255	0x3e0faa16	0.14029726

net.4.bias f4 [32]
0	0xbda5db08	-0.080984175
1	0x3cea972e	0.028636541
2	0xbe05b085	-0.13055618
3	0x3e42ff77	0.19042765
4	0x3d8791ad	0.06619582
5	0x3d072e72	0.033003278
6	0xbe00372d	-0.12521048
7	0x3dfe84a0	0.1242764
8	0x3da5a137	0.0808739
9	0xbdd7aae4	-0.10530642
10	0x3dc57657	0.09641712
11	0x3dbc2986	0.091876075
12	0x3e179a70	0.14805007
13	0x3e4fec41	0.20304967
14	0xbd335430	-0.04378146
15	0xbdd252cd	-0.10269699
16	0x3d867e94	0.065671116
17	0x3df4da6a	0.11955722
18	0x3e6983da	0.22804204
19	0x3d988196	0.074465916
20	0x3da06719	0.07832164
21	0xbe7d9f23	-0.24767737
22	0xbe051856	-0.12997565
23	0xbdecfe7a	-0.11571975
24	0x3ca10b4e	0.01965871
25	0xbe108d69	-0.14116444
26	0x3e35e8a3	0.17764525
27	0x3e4142a9	0.18873085
28	0xbe08ef17	-0.13372456
29	0x3db618de	0.08891462
30	0x3e32d672	0.17464617
31	0xbd407ebf	-0.046995874

net.6.weight f4 [32, 32]
0	0x3d13f560	0.03612268
1	0xbc0ee5fe	-0.008721827
2	0x3d77b5bc	0.06047605
3	0xbe41cfb8	-0.18926895
4	0x3e03a10c	0.12854403
5	0x3e2419a3	0.16025405
6	0xbd40d98e	-0.047082476
7	0x3e18e4ae	0.14930984
8	0xbe334a7d	-0.17508884
9	0x3b93ee00	0.004514456
10	0xbd8ebab0	-0.069692016
11	0xbe1e1b41	-0.15440084
12	0x3d690a70	0.05689472
13	0x3d978867	0.073990636
14	0x3d95a4fa	0.073068574
15	0x3d522940	0.05130887
16	0xbde08ff6	-0.10964958
17	0xbe26926c	-0.16266793
18	0x3d2efb3d	0.04272007
19	0x3db8dedc	0.09026882
20	0xbcf790aa	-0.030220348
21	0xbde1c9bc	-0.11024806
22	0xbe1aa1a2	-0.1510072
23	0xbdc7906e	-0.09744345
24	0xbd46e2ae	-0.048556022
25	0xbc4eaca0	-0.012614399
26	0x3e222d7b	0.15837662
27	0xbd91c2b2	-0.07117213
28	0xbd33290b	-0.043740314
29	0xbd18d49c	-0.037312135
30	0xbde854ef	-0.11344325
31	0x3d971ff6	0.07379143
32	0xbe1bd63f	-0.15218447
33	0x3c3ff2e0	0.011715621
34	0xbdb9ab9e	-0.090659365
35	0xbdb8dfed	-0.090270855
36	0x3ce24ce8	0.027624562
37	0xbe091595	-0.13387139
38	0x3d09875c	0.033576354
39	0xbd97fb23	-0.074209474
40	0x3c5a4da0	0.013324171
41	0xbe0df985	-0.13864715
42	0x3dd6f87e	0.10496615
43	0x3bf91f00	0.0076025724
44	0x3e019e39	0.12658013
45	0x3d887532	0.06662978
46	0xbe1ba7d2	-0.15200737
47	0xbd690bf2	-0.056896158
48	0xbdbb2276	-0.09137432
49	0xbe2627d0	-0.16226125
50	0x3d8c5e0a	0.06853874
51	0x3e0a92a3	0.135325
52	0x3ac3d800	0.0014941692
53	0xbdead166	-0.11465721
54	0x3d52bc84	0.051449314
55	0xbdb83ba5	-0.08995751
56	0x3e2e737d	0.17036243
57	0x3d946fa2	0.07247855
58	0xbe2a9131	-0.16656949
59	0xbd8383c3	-0.06421616
60	0xbd933db8	-0.07189506
61	0x3d9bce32	0.07607688
62	0xbe11db70	-0.14243865
63	0xbdc30ec4	-0.09524301
64	0x3cea289d	0.028583819
65	0x3dd5e0d6	0.10443275
66	0x3e262111	0.16223551
67	0xbe18faea	-0.14939466
68	0xbd781ea9	-0.060576115
69	0xbd9d7f73	-0.07690325
70	0xbde257f7	-0.11051934
71	0x3e784a13	0.24247007
72	0xbdf9ea43	-0.12202885
73	0xbe298f7f	-0.16558646
74	0xbcad16b8	-0.021128997
75	0x3e25bd03	0.16185383
76	0x3d4c482a	0.04987351
77	0x3e31bbbd	0.17356773
78	0xbe229793	-0.15878133
79	0x3e20f6a5	0.15719087
80	0x3adc31b2	0.0016799478
81	0x3e2a850c	0.16652316
82	0xbdc4f100	-0.096162796
83	0xbdf91651	-0.1216246
84	0xbd2039c2	-0.039117582
85	0xbe341bb2	-0.1758869
86	0x3d90a9d8	0.07063645
87	0xbdc5f79d	-0.09666369
88	0x3dd4e407	0.10395055
89	0xbe0a28ed	-0.13492174
90	0x3ddaf8b2	0.10691966
91	0x3c414186	0.011795407
92	0xbe193c81	-0.14964487
93	0xbe0d745d	-0.1381392
94	0x3da5d1fc	0.08096692
95	0x3ccfd74e	0.02537122
96	0xbc4feb00	-0.012690306
97	0xbc4965b0	-0.012292311
98	0xbe0b58ea	-0.13608137
99	0xbce3fdd8	-0.027831003
100	0xbe271456	-0.16316351
101	0xbe1fc860	-0.15603781
102	0xbd835c98	-0.06414145
103	0x3ded97ee	0.11601244
104	0xbdbac52e	-0.0911964
105	0x3d1faa3c	0.038980708
106	0x3e1302b3	0.14356498
107	0xbb62e440	-0.003462091
108	0xbc960798	-0.018314168
109	0xbe29af8f	-0.16570877
110	0x3e311037	0.17291342
111	0xbe070758	-0.13186395
112	0xbd809cfb	-0.06279942
113	0x3e0b3dd7	0.13597809
114	0xbde638f9	-0.112413354
115	0xbe111219	-0.1416706
116	0x3d00f0c4	0.031479612
117	0xbdbcf486	-0.09226327
118	0xbd54d458	-0.05196032
119	0xbe1029d0	-0.1407845
120	0x3de7c5aa	0.11316998
121	0xbdaa8633	-0.08326378
122	0x3dc085be	0.09400509
123	0xbdfe6d8c	-0.12423238
124	0x3d13b668	0.036062628
125	0x3dc8a282	0.09796621
126	0xbe2c1a1f	-0.1680684
127	0x3e0b72d5	0.13618024
128	0xbd80ff80	-0.06298733
129	0xbdd84afb	-0.105611764
130	0x3e0c45cb	0.13698499
131	0xbcaba938	-0.020954713
132	0xbd7c7194	-0.061631754
133	0x3e192625	0.14955957
134	0xbd61721a	-0.055040456
135	0x3d16e298	0.03683719
136	0xba959580	-0.0011412352
137	0x3dbf317a	0.09335609
138	0xbe2e9cd5	-0.17052014
139	0xbe045197	-0.12921749
140	0xbd29c8d8	-0.041451305
141	0x3e2aede3	0.16692309
142	0x3e1a70db	0.15082113
143	0xbe00d612	-0.12581661
144	0xbe205c99	-0.15660323
145	0xbd54b9d4	-0.051935032
146	0x3dec9222	0.1155131
147	0xbe2f46ed	-0.171169
148	0xbe1daeeb	-0.15398757
149	0xbe29a532	-0.16566923
150	0xbdb904c3	-0.09034111
151	0x3defc0e2	0.11706711
152	0xbe2ebd60	-0.17064428
153	0x3dd65bd2	0.10466732
154	0xbd665a62	-0.05623854
155	0x3d803268	0.06259614
156	0x3d9d9406	0.07694249
157	0x3dff75be	0.124736294
158	0xbc3a2be0	-0.011363
159	0x3c0a8780	0.008455157
160	0xbe2b5636	-0.16732106
161	0x3d88f405	0.06687168
162	0xbd7ffe59	-0.062498424
163	0x3bdd7132	0.0067578787
164	0xbdf564b3	-0.119820975
165	0xbde39c7b	-0.11113831
166	0xbdc576bb	-0.09641787
167	0x3ddbd71f	0.107343905
168	0xbe69cae7	-0.22831307
169	0x3da737b2	0.0816492
170	0xbe1a0de0	-0.15044355
171	0x3b9252f4	0.004465455
172	0x3e40d4e1	0.18831207
173	0x3de5990c	0.11210832
174	0xbe2f1f66	-0.17101821
175	0xbd4e5a5c	-0.050379142
176	0xbe3ac321	-0.18238498
177	0x3e53bd93	0.20677786
178	0xbdaa16e9	-0.08305151
179	0xbb91c011	-0.004447945
180	0xbe86957a	-0.26285917
181	0xbd4db1ad	-0.050218273
182	0xbe0ed8a9	-0.13949837
183	0xbd85a2cf	-0.06525194
184	0xbca3d315	-0.019998113
185	0xbd62677c	-0.05527447
186	0x3e365011	0.1780398
187	0x3d35ad7f	0.044354912
188	0xbc045051	-0.00807579
189	0xbe2b2f30	-0.1671722
190	0x3e37a145	0.17932613
191	0xbdfbe959	-0.12300367
192	0xbe1ec2d3	-0.15504007
193	0xbd44a6f7	-0.048010793
194	0x3e0a721d	0.13520093
195	0x3dfa1314	0.1221067
196	0xbd01197c	-0.031518444
197	0xbe7bd989	-0.24594702
198	0xbd864f78	-0.06558126
199	0xbe285d68	-0.16441882
200	0x3e79c96e	0.24393246
201	0xbe1c1d4e	-0.15245554
202	0xbe00c378	-0.12574565
203	0xbd275f60	-0.04086244
204	0x3e3024be	0.17201516
205	0x3dff2519	0.12458248
206	0x3e2e99f3	0.17050914
207	0x3e211149	0.1572925
208	0xbe4c2d57	-0.19939171
209	0xbe156c06	-0.14591989
210	0x3dfdcf5e	0.12393068
211	0xbe06df0a	-0.1317102
212	0xbd31b6bf	-0.04338717
213	0xbe89a207	-0.2688143
214	0xbe112698	-0.14174879
215	0xbd9403a7	-0.07227259
216	0x3dff24e8	0.12458211
217	0xbc755709	-0.014974364
218	0x3e0fd9f7	0.1404799
219	0x3cca1ead	0.02467283
220	0xbd15b0b4	-0.03654547
221	0x3d281aef	0.04104131
222	0x3d8e5892	0.06950487
223	0xbe25c72b	-0.16189258
224	0x3e80802a	0.2509778
225	0x3db6d389	0.08927066
226	0xbe68ba37	-0.22727285
227	0x3e03a410	0.12855554
228	0x3e2a09b6	0.16605267
229	0x3cd3b291	0.025841983
230	0xba843da8	-0.0010089176
231	0xbe1ddd2c	-0.15416402
232	0xbd37847a	-0.044804074
233	0xbb9be8ff	-0.004758
234	0xbda22a7f	-0.07918262
235	0xbda15e6f	-0.0787934
236	0xbdc939fe	-0.09825514
237	0x3e2238f8	0.15842044
238	0x3dddded9	0.108335204
239	0xbe00a6d8	-0.12563646
240	0x3d6f386f	0.05840343
241	0x3dd2ae2d	0.10287128
242	0xbe02bcfd	-0.12767406
243	0x3e6a0b6e	0.22855923
244	0x3e8a3a61	0.26997665
245	0xbdc9e023	-0.09857204
246	0x3e0a6aa9	0.1351725
247	0x3e30ef4d	0.17278786
248	0x3dab7fa5	0.08373956
249	0x3da52da7	0.08065348
250	0xbe52e054	-0.20593387
251	0x3d1bcc6e	0.038036756
252	0x3e1a3f1f	0.15063141
253	0x3db984d1	0.09058536
254	0x3d658d1d	0.05604278
255	0xbd2f6abe	-0.042826407

net.6.bias f4 [32]
0	0xbe1c1e07	-0.1524583
1	0xbdeea434	-0.11652413
2	0x3d1c8ee5	0.038222212
3	0xbd52fa34	-0.051508144
4	0xbe1db405	-0.15400703
5	0x3e093b4d	0.13401528
6	0xbe2ad511	-0.16682841
7	0xbdba77f9	-0.09104914
8	0x3ca2c3ae	0.019868698
9	0xbd3f08d4	-0.04663928
10	0xbe17b761	-0.14816047
11	0x3ce77f08	0.028258815
12	0x3d3b4aa8	0.045725495
13	0xbd51f6b4	-0.051260665
14	0x3c1da579	0.009621971
15	0x3e2c0fea	0.16802946
16	0x3d2746f0	0.040839136
17	0x3e09655d	0.13417573
18	0xbdf4e189	-0.1195708
19	0xbe119d9a	-0.14220276
20	0x3de5c141	0.11218501
21	0x3d10b14c	0.035325333
22	0x3d508754	0.05091031
23	0xbdf7be01	-0.12096787
24	0x3d9d7f00	0.07690239
25	0x3dca3f2d	0.09875331
26	0x3d825838	0.06364483
27	0x3de0cc1d	0.109764315
28	0x3d9dcef2	0.07705487
29	0xbd3ec36c	-0.046573088
30	0x3c38a828	0.01127056
31	0xbd855218	-0.06509799

net.8.weight f4 [1, 32]
0	0xbd4b660a	-0.04965786
1	0x3d41aa70	0.047281682
2	0xbe6a3553	-0.22871904
3	0x3c493070	0.012279615
4	0x3d4ed668	0.050497442
5	0xbe7740a6	-0.24145755
6	0x3e9246ab	0.2856954
7	0x3e2bc3f4	0.16773969
8	0x3e0da0f3	0.13830929
9	0x3c788510	0.015168443
10	0xbd1b7244	-0.03795077
11	0xbe5407c1	-0.20706083
12	0x3e3a3800	0.18185425
13	0x3e7e0ba1	0.24809124
14	0x3e4facc1	0.20280744
15	0xbe36780c	-0.17819232
16	0xbd50427c	-0.050844654
17	0x3df708de	0.12062238
18	0xbe980c7a	-0.2969702
19	0x3dbb4777	0.0914449
20	0xbe37671a	-0.17910424
21	0xbd8108b7	-0.0630049
22	0x3e687489	0.22700705
23	0x3d1b9cda	0.037991382
24	0xbe02c76e	-0.12771389
25	0x3da55749	0.08073289
26	0x3e74e913	0.23917036
27	0x3d6ec7fe	0.058296196
28	0x3e056a5d	0.13028856
29	0x3d5063a4	0.050876275
30	0x3e5d5e36	0.2161797
31	0xbe6b56a0	-0.22982264
