Self project/models/nf/delta_sm/flow_state.pt (torch, 9013 bytes, 14 tensors)

0.unnormalized_widths f4 [4, 8]
00000000: daea b13f 7930 503f b601 643e 2391 43be
00000010: aa81 873f 4cde 3abf 4eb2 2f3f f0af 59bf
00000020: 1ca3 9bbf 3bac 973f ca33 5bbf 5af3 cbbf
00000030: 4cff 783e c617 0fc0 1cc9 293d ab9c b63f
00000040: 2ce2 e33f 4d8c 9ebc 18cb 1bbf 3a51 ab3e
00000050: a140 91be b3a3 953f 0db2 163f a323 bb3f
00000060: a794 8e3f 8e4b 8e3f 9365 d03e 1235 aabd
00000070: 26b2 a2bf e43e 7f3f 52be a23e 196d b83f
1.3899796 0.81323963 0.22266278 -0.19098334 1.0586445 -0.7299545 0.68631446 -0.85034084
-1.2159152 1.1849436 -0.856259 -1.593364 0.24316138 -2.235826 0.04145156 1.4266561
1.7803397 -0.01935401 -0.6085677 0.33460408 -0.2836962 1.1690582 0.58865434 1.462025
1.1139115 1.1116807 0.40702495 -0.083109036 -1.2710617 0.9970534 0.31785828 1.4408294

0.unnormalized_heights f4 [4, 8]
00000000: 6bb1 9abe 378a 0b40 b559 1d40 1c3a 1f40
00000010: 8ba5 7fbf 35ac 29c0 e1cf efbf 143e 3ac0
00000020: 6e31 9fbf 1c9e a73f 52df 10bf ca91 b1be
00000030: 80f4 47bf b944 cc3f 6b27 3e3e 6afb 873f
00000040: 055a a1bf b163 87bf 8608 c3bd c0c2 393f
00000050: b6ce 5a3d 1e12 993f b6c0 2ebf f972 2dbf
00000060: 4df0 99bf e971 863e 05e0 5f3e c1a9 ae3f
00000070: ae5d 383e acfa a03f 01b4 dbbf e9f0 5f3f
-0.30213484 2.180311 2.4586003 2.4879217 -0.99861974 -2.6511357 -1.8735315 -2.910039
-1.243696 1.3095126 -0.5659076 -0.3468154 -0.7810745 1.5958472 0.18569724 1.06236
-1.2605597 -1.0577298 -0.0952311 0.7256279 0.05341979 1.1958654 -0.68262804 -0.6775356
-1.2026459 0.26258782 0.218628 1.3645555 0.18004486 1.2576499 -1.7164308 0.87476975

0.unnormalized_derivatives f4 [4, 7]
00000000: 9c45 69c0 38b0 1f40 fbc2 b540 7fca 0340
00000010: 2e76 86bf 2770 903f ec72 68c0 5c95 a33f
00000020: 9c52 30be 6c04 743f 0c99 92bf 975c 0a3f
00000030: 46bb 5fbf 8b3e 5f41 020e dabe bcb3 12c0
00000040: 82a7 20bf 3677 3b40 1e9e 0b40 e42c 813f
00000050: 269a e73f 473b f1bf 9baf b43e b773 52c0
00000060: 14fb 1bc0 2d22 8bbe 8b06 4b40 128f 573e
-3.6448736 2.4951305 5.6800513 2.0592344 -1.0504816 1.1284226 -3.6320143 1.2779956
-0.17219013 0.9531925 -1.1452956 0.5404753 -0.8739513 13.952769 -0.42588812 -2.29222
-0.62755597 2.929151 2.1815257 1.0091825 1.8093917 -1.8846215 0.35290226 -3.2883127
-2.4371996 -0.27174512 3.1722744 0.2105067

0.unnormalized_lambdas f4 [4, 8]
00000000: 9ff0 bdbf 8b9a 813f a7f8 a340 ec7e c43f
00000010: b4ab 4040 905c 0040 2a7e 80be 6a19 08bf
00000020: f803 143f d0eb 753d 4eb2 913e 7c29 8cbe
00000030: 4375 463f 4a88 6cbe 4df6 fd3f b80d 253e
00000040: 0826 b03d bfa9 71be 44aa 0d40 4f14 04c0
00000050: 02df fd3e 2de5 833f 442e 853f 012d 3a3f
00000060: 9819 25bd 935f 933f 707e a7bf d683 8c3f
00000070: 3fa8 793f 78b8 b9bf bebb 913f a531 bc3e
-1.4839057 1.0125288 5.124103 1.5351233 3.01048 2.0056496 -0.25096256 -0.5316378
0.57818556 0.06003934 0.28456348 -0.273754 0.7752268 -0.23098865 1.984079 0.16118515
0.08601004 -0.23599909 2.2135172 -2.0637395 0.49584204 1.0304314 1.0404744 0.7272492
-0.04030761 1.1513542 -1.3085461 1.0977733 0.9752235 -1.450942 1.1385419 0.36756626

1.nn.layers.0.weight f4 [40, 2]
00000000: a0f2 cfbc 60eb bbbe 2bc3 663c 50f1 92bd
00000010: 2172 66bd 93a8 aa3d 32b4 9ebd 4d0c cd3e
00000020: c0bf 6e3e 872e 62be da99 4b3b 872a 81bc
00000030: 4e4e 0ebc 0bc4 96bc 9b27 d53c 0324 84be
00000040: 0764 943d 86f8 5c3e 7f78 dc3d 639d 8abe
00000050: 354e 4e3d cb6f a43e 7c69 2a3c f0e9 95bd
00000060: e842 263b 0f6f e23c 447e 84bc cf83 243f
00000070: d8f9 34bc d526 94bc 370c abba ec6b 0dbb
00000080: 39e9 593c 54f8 1fbe 88a0 77be 1087 72bd
00000090: ae16 59be 55f6 a63e ea1a 063e 8c2b debe
000000a0: 6ed6 64bb 6e52 9f3d dbd8 90bb b41c 93bc
000000b0: 51c8 3cbd 1401 453e 8c0a 873d 124b 6fbb
000000c0: 73bd a83c 507f 053d a195 5fbd 9632 10be
000000d0: d955 79bd 81b7 a93e c168 3e3c 96f4 5ebb
000000e0: 000e 293c 00ef 2cbd f3e9 cf3a 406a 183c
000000f0: 6ccb 14be 1e6c 11be 2fea b8bd d6b2 903e
00000100: 7059 f2bb 4459 91be 71d2 2dbe fbf0 cebe
00000110: b06c c33d 2757 273d d931 383e 272c c33d
00000120: a362 ddbd 2bdc 44bd bb21 96bd b619 863f
00000130: 98f8 543a f2d6 b5b7 2a95 cf3c 42e1 8dbd
-0.025384247 -0.36703014 0.014084618 -0.07174933 -0.056261186 0.08332934 -0.07749213 0.40048447
0.23315334 -0.22088061 0.0031067044 -0.015767349 -0.0086856615 -0.018404027 0.026019862 -0.25808725
0.07245641 0.21579179 0.1076517 -0.27073202 0.050367553 0.3211654 0.010401126 -0.07320011
0.002536947 0.027640847 -0.01617349 0.64263624 -0.0110458955 -0.018084923 -0.0013049905 -0.002157922
0.0133002335 -0.15622073 -0.24182332 -0.059210837 -0.21200058 0.3260981 0.13096204 -0.433926
-0.003491785 0.07779394 -0.0044203824 -0.017958023 -0.046089474 0.19238693 0.065938085 -0.0036513251
0.020598149 0.032592118 -0.054586057 -0.14081797 -0.060872886 0.33147815 0.011621655 -0.0034020296
0.010318279 -0.042220116 0.0015862569 0.009302676 -0.14530724 -0.142014 -0.09029042 0.2826144
-0.0073959157 -0.28388417 -0.16974808 -0.40418229 0.09542215 0.0408546 0.17987765 0.09529906
-0.10809829 -0.04806153 -0.07330652 1.0476596 0.00081242016 -2.1676973e-05 0.025339682 -0.0692773

1.nn.layers.0.bias f4 [40]
00000000: 337a 2fbf a1af ecbd 219b c5be af76 fcbe
00000010: 5f2b 8abf 0f36 5dbd 814d 3cbd d15e 84be
00000020: a23d 5cbf f1b3 4fbf 35aa 04bf bc22 64bd
00000030: c2ba 71bd ae1a 513f 945c 8cbd a5d4 37bc
00000040: 09f9 1ebe 3ee4 38bf 2924 2dbf f1bb 5ebf
00000050: 502b f0bd d26d 12bf 4d0d afbe f9ec 02bf
00000060: 9a12 a6be be48 11bf 6de2 46bf 007c 29be
00000070: 7431 57be be5c 55bd cac7 16bf 5f39 0cbf
00000080: 2e07 8abe b406 12bf fef8 f0be 4770 6abf
00000090: 0e18 6fbe bde6 fdbd 46b1 94bb 1283 2bbe
-0.68545836 -0.11556936 -0.38594916 -0.49309298 -1.0794486 -0.054006632 -0.04597235 -0.2585359
-0.86031544 -0.81133944 -0.51822215 -0.055697188 -0.059015997 0.81681335 -0.068535954 -0.011220132
-0.15524687 -0.7222327 -0.676333 -0.87005526 -0.11727011 -0.5719882 -0.34189835 -0.5114284
-0.32436067 -0.5675162 -0.7768925 -0.16551208 -0.21014959 -0.0520904 -0.58898604 -0.5477504
-0.26958603 -0.5704148 -0.47064966 -0.9157757 -0.2334902 -0.123975255 -0.004537734 -0.16749218

1.nn.layers.1.weight f4 [4, 40]
00000000: 4f6d 54bd 9ea8 5abe c601 5d3d f801 0fbd
00000010: 7d58 22bf 9201 b13d 0f88 65bd 2bab a63c
00000020: aef3 62bd 3192 5bbe 226e 99be d46d eebe
00000030: 724a f93d 9eeb 923e e809 6d3d 6f23 2b3d
00000040: 7392 2ebd 3691 c53f 3eef 8a3f 316e edbe
00000050: 1d73 ff3c 0ca1 dbbe 2884 81bd d4a6 50bc
00000060: 5e0b 52bd 67a9 1dbd 91c8 40be 9345 283d
00000070: a9bb 073e b7d8 d0be f110 bd3e f44d 23be
00000080: a370 59be b40d 7e3f 2285 8e3f c526 f6bd
00000090: d01a a33d 175b 883e 3e97 e9bd 04be e8bd
000000a0: c8bc a2bc 411c a03b a80b ac3c a986 883d
000000b0: ba6c 773c 18da 313d 0b9d 1cbc a349 853c
000000c0: ead4 3f3e aa39 acbd c7dc c8bc ff78 43bb
000000d0: 1396 a93b e41f 603e f8b3 7f3d cf75 04ba
000000e0: 5624 e03c ef39 0d3d 04f4 e8bb 3ad6 09bd
000000f0: 0d08 ab3b a3e6 58bd b247 5cbd dc6e 0a3d
00000100: 232d bfbc c111 33be 95e0 47bd fe0d 37bd
00000110: b8de f9bd b8cb c7bc b2f4 7c3d 597e 6abd
00000120: 7545 3b3c 9d18 083c 28c2 a8bc 46c6 0bbc
00000130: 3e59 893b f4c9 c53e 774b a4ba 4bde 233c
00000140: 9e63 4ebe dd2b 213c 7690 85bc 1bb9 a1bd
00000150: 2b82 c2be dfd3 db3e 0cd0 f73e 568f 25bd
00000160: b9bc cdbd 0df8 b63d 74b3 5cbd a706 e83e
00000170: 4b35 4b3e 1b1f 953e 79cf 263d a5a9 f33d
00000180: 1ae5 0b3e 0d1f 88bf e58f 963e 8c2a e53b
00000190: b891 b03c f050 9fbf 6788 8abd 1766 9b3d
000001a0: cb56 763e e290 133d 24c6 df3d fccc c0bb
000001b0: 5334 17be 7e31 5a3b 63a4 f8bc 5b16 163e
000001c0: 822d 8b3d 897d 31bd 1c11 52be aeed 74bd
000001d0: f741 3f3e 84b5 1cbe 909d 843e cecd d4bd
000001e0: c03b 0dbc 6786 543b aee2 cabc 9446 bebe
000001f0: bdb7 993c dda1 4b3d b2a7 09bc 4f25 eb3c
00000200: 496b 6a3e 1b6d 893d 7dbf b93d 0594 2abb
00000210: a3fc 113d 36da b7bd 0804 7f3d aaee f1ba
00000220: 4b8a 0d3d dc7c 4a3d 9715 b53d 77e8 fb3b
00000230: 5b8e 09be 04dc ac3d 9f99 0f3d 4318 a73d
00000240: 3547 65bb 2f64 b4bd 1aa9 1dbd fa91 54bd
00000250: 6d9a a4bd 03d9 a13b 3b28 32ba e675 4dbd
00000260: 926e 883d 22b6 1f3c ec16 08bf 9470 743d
00000270: b0ee 203c 706f 0cbf c3dc f03b faa6 463c
-0.051862057 -0.21353385 0.05395677 -0.034913987 -0.6341627 0.08642878 -0.05603796 0.020345291
-0.055408172 -0.21442486 -0.29966837 -0.46568167 0.121724024 0.28695387 0.057870775 0.04178184
-0.042620134 1.543494 1.0854261 -0.46373132 0.03118282 -0.42896307 -0.06324035 -0.012735087
-0.05128037 -0.038491633 -0.1882651 0.041081976 0.1325518 -0.4079034 0.36926988 -0.15947706
-0.21234374 0.9923966 1.1134379 -0.120191135 0.079640985 0.26631996 -0.114058 -0.113643676
-0.019865409 0.0048861806 0.021001652 0.066663094 0.015101606 0.04342088 -0.009558926 0.016270464
0.18733564 -0.08409436 -0.024519337 -0.0029826758 0.005175361 0.21887165 0.06242749 -0.0005052955
0.027361076 0.034479078 -0.007109167 -0.033651568 0.0052194656 -0.052954327 -0.05377931 0.03379713
-0.023336953 -0.17487241 -0.048798162 -0.04469108 -0.12200683 -0.024389133 0.061756797 -0.0572494
0.011430134 0.0083066495 -0.020600393 -0.008531159 0.0041915467 0.3863064 -0.0012534697 0.010001729
-0.20155188 0.009837118 -0.016304236 -0.07896634 -0.37989935 0.42935082 0.48400915 -0.0404199
-0.100457616 0.08934031 -0.053882077 0.45317575 0.19844548 0.29125294 0.040725205 0.118975915
0.13661614 -1.0634476 0.29406658 0.0069935974 0.02155386 -1.2446575 -0.06764298 0.075878315
0.24056546 0.036026843 0.10926464 -0.005883811 -0.14766054 0.003329366 -0.030351823 0.14656965
0.06795789 -0.04333261 -0.20514339 -0.05979698 0.18677507 -0.15303618 0.2590146 -0.10390817
-0.008620203 0.0032428743 -0.024766292 -0.37163222 0.018764371 0.04971491 -0.008401798 0.028704314
0.22892489 0.06710263 0.090697266 -0.0026028168 0.035641324 -0.08977167 0.062259704 -0.0018457968
0.034555715 0.04943548 0.088420086 0.007687624 -0.1343321 0.08440402 0.035058614 0.081589244
-0.003498507 -0.08808171 -0.038491346 -0.051897027 -0.08037267 0.0049392 -0.0006796156 -0.050161265
0.066617146 0.009748014 -0.53159976 0.059677675 0.009822533 -0.5485754 0.0073505356 0.012124771

1.nn.layers.1.bias f4 [4]
00000000: 3c1a 83be 70cf e33d e3f6 c13e ae2f 16be
-0.25605953 0.1112355 0.37883672 -0.14666626

2.nn.layers.0.weight f4 [10, 4]
00000000: 7ab1 383f 298d 0ebf 74f4 31bd 1c0d 21bf
00000010: 0d6f 9ebe 14b9 efbd 7b27 043f f73a 4c3d
00000020: 7de9 303f b741 233f 7274 513b 74b8 1dbd
00000030: af2c 72bf d1a1 f2bd f3c2 803c ac61 213e
00000040: 3339 cebe 5c74 dd3d 4835 833d 8871 2a3f
00000050: 8ddb cc3e b812 07bf a95b 69be b63b e93e
00000060: 9641 1abe 1ebb 1ebf 7d76 f53c e28f 4dbf
00000070: edf0 25bf 911d e7bd ffed 203c abca 563e
00000080: 3818 e9be 3f60 ca3e 7dfd 6f3d 4506 09bf
00000090: b7e8 41bf 30d3 6d3e b4f9 13bd 3ed7 aebe
0.7214581 -0.55684143 -0.04344602 -0.6291063 -0.309441 -0.11705223 0.5162274 0.04986092
0.69106275 0.6377215 0.0031960276 -0.038505986 -0.9459943 -0.1184727 0.015717959 0.15759915
-0.40278015 0.108132094 0.06406647 0.66579485 0.40011254 -0.5276294 -0.22788872 0.45553368
-0.15064082 -0.6200427 0.029963726 -0.8029767 -0.6482075 -0.11284936 0.009822368 0.20975749
-0.4552629 0.39526555 0.058591355 -0.5352519 -0.7574572 0.23225093 -0.036126807 -0.34148592

2.nn.layers.0.bias f4 [10]
00000000: c012 d53d 5470 6cbe 85e2 3dbf ccd7 82bd
00000010: 6a6e 473f be23 023f 0ef5 263f eb19 d73e
00000020: d1a3 f03e e8c8 dcbd
0.10403967 -0.23089725 -0.74173766 -0.06388816 0.77902853 0.5083579 0.65217674 0.4201196
0.46999982 -0.10780507

2.nn.layers.1.weight f4 [10, 10]
00000000: e389 c8be 85f5 1cbd 7f74 56bf 8555 94bf
00000010: 2f13 cb3e 953b 3e3e d3c6 673d 664e 173e
00000020: 87cb 4d3e 401e 9dbc f2a6 e3be 9847 e23e
00000030: 5ad1 293e 4c41 91be 58f8 093f 01a9 d63e
00000040: 453d e73e 3a4b 253e 9452 553c a159 d4bc
00000050: f142 c2bd 6f64 90bd a6e5 e5bc 5f61 3b3f
00000060: d5ce 37be 90fb 873e 506b 8bbe e1bb a3bc
00000070: 4845 5c3e 5eae 7f3f d0bf 8b3e 19f6 103f
00000080: 6325 a8bd 9897 01bf d6bf a53e fc1a dbbd
00000090: 31b6 2f3e 9c7a 5cbe e78c 643e eb61 a7bd
000000a0: 9698 c6be ccd6 99bd 9bad cebe 70a5 25bf
000000b0: 6e11 a13e c64a de3d 749a 1c3f 9fe4 493e
000000c0: 913e 7c3e f7a1 1fbc 7838 a23e 3e3e 0c3d
000000d0: e272 cc3d cbfc d93e b6cc e13e 4877 5c3e
000000e0: d632 6b3d a49c 353e 4229 cdbd c94c eb3d
000000f0: 5161 4d3e 9ac8 a1be 1fa9 f83e 5c99 9abe
00000100: 2400 21be 8e26 1b3f 2a54 62be 5401 e43e
00000110: 0ad9 7b3e 14d9 9cbc 23d2 de3e b278 833e
00000120: 1637 423f 101d a63e 422b 4c3e 82db 4dbd
00000130: fe43 82be c074 0f3f ed6f 8e3e 8a24 003e
00000140: 2f91 b0be d2db b2be 6582 fc3c dd9d 35be
00000150: f89e 4c3c 51fc 1c3e 69b8 cc3e 36f3 923e
00000160: 650d b1bd 3c67 53bf a72a 63be 9225 49be
00000170: 84ae 8ebe 0650 22be 400c 95be 1e61 95be
00000180: 9b7f 41be 719d 9fbe 57c3 46be d8f2 f63d
-0.391677 -0.038320083 -0.8377151 -1.1588598 0.39663073 0.18577416 0.056586098 0.14776
0.20097171 -0.019179463 -0.44463307 0.44195247 0.16583768 -0.2837013 0.5389457 0.41925815
0.45163932 0.16141978 0.013020176 -0.025921645 -0.09485424 -0.07050406 -0.028063606 0.7319545
-0.17949994 0.26559114 -0.2723031 -0.019987049 0.21510804 0.9987544 0.2729478 0.56625515
-0.08210256 -0.5062194 0.32372922 -0.10698506 0.17159344 -0.21531147 0.22319375 -0.08172973
-0.3878829 -0.075116724 -0.40366825 -0.6470556 0.3145861 0.10854106 0.61173177 0.19716118
0.24633242 -0.009743205 0.31683707 0.034239046 0.0998285 0.42575678 0.44101495 0.21529877
0.057421528 0.17735535 -0.10017635 0.11489255 0.20056655 -0.3159836 0.4856653 -0.3019513
-0.1572271 0.60605705 -0.22102419 0.44532263 0.24594513 -0.01914648 0.43519697 0.2567802
0.75865304 0.32444048 0.19938377 -0.050258167 -0.254425 0.5603752 0.27819768 0.12513939
-0.34485766 -0.34933335 0.030823896 -0.17736001 0.012489073 0.15330626 0.39984444 0.2870118
-0.08645133 -0.825794 -0.2218424 -0.19643238 -0.2786752 -0.15850839 -0.29110909 -0.29175657
-0.18896334 -0.31174806 -0.19410454 0.120580375

2.nn.layers.1.bias f4 [10]
00000000: 8271 0b3f d2a9 783d c41a babe a27d b83e
00000010: 61fc ea3d da3c be3d e124 ca3e bfb4 99be
00000020: 0de1 20bd f306 8f3e
0.54470074 0.06070883 -0.36348546 0.3603335 0.11473919 0.0928895 0.3948126 -0.3002071
-0.039277125 0.2793499

2.nn.layers.2.weight f4 [31, 10]
00000000: 9c09 7b3e 1a17 163e 88bf b9be e053 853d
00000010: 6dff 613e dbd3 aabb 62b0 523e 1bd4 593e
00000020: 81b6 8bbd e04d 1b3c efaa 0dbf 2cf1 dcbe
00000030: 6db4 a63d 43e5 f9be 82c8 78bd d95c 74be
00000040: 2ab6 133e 717c babc 99a0 5bbe 2881 fabd
00000050: 8923 c5be 7fa6 b0be 5b78 253e 3b34 80be
00000060: d141 fabd e9e8 103e 0e29 5f3d 8694 6ebd
00000070: f8c1 a2be eb4b 8d3e 5c4e 99be 805d ac3d
00000080: cb98 02be 82a6 cebd 624a 82be 5250 013f
00000090: e415 753c 7733 943d 313b 91bd 4a25 35be
000000a0: e914 b7bd 804f 81be 770a 6a3e a0ab 793e
000000b0: ad17 efbe 0c38 383e 21a2 c1be 1305 dbbd
000000c0: 4954 7cbd a1bc 803e 380d 21be 8dcf 36be
000000d0: b2a4 de3e f4ec a4be b568 a9be 3a39 f8bc
000000e0: 5242 2dbc 5a46 cabd 9efd 0a3e f228 4b3e
000000f0: f1ae 83be ac61 00bd dc2c 35bf 1b7e d1bc
00000100: a626 c73d 27ad 12bc 01b2 903e 1885 96be
00000110: 8172 6d3e c025 a73c c660 c23e 6aec 5b3e
00000120: 0dc7 153e 5298 51be 7738 1b3d e766 843e
00000130: c8f1 c9be 36ca fe3d cbf2 19bf 30c7 293e
00000140: 4081 14be 3709 6fbe 3f63 e23e 9133 9ebe
00000150: c2f1 0abd 0100 33bf 2aca e4be 6945 25be
00000160: a677 303e 20f3 243e df6c adbc c3de 753e
00000170: 12d3 93bd 486f 0a3d 260a 45be 81b8 6b3d
00000180: 6006 5d3d 49fe 943e 1ff1 89be 8859 c73d
00000190: 85c9 aebe 0cb2 f63e a548 883f 39c3 4d3e
000001a0: 93d7 0ebf 124a 473e f311 493e b8ee a13e
000001b0: 62fa 103f 7dba 9e3e e00a 953d b60d fc3e
000001c0: c058 a3be fe66 dc3e 2d2b 0b3b eaea f53e
000001d0: 280e cd3e cda4 54be 0041 ddbd dccc 87be
000001e0: 3eb4 f23e e42c 13be 7082 e8be 28b8 1a3e
000001f0: 4436 0b3e 885c c63e 1c22 d93e ca25 793f
00000200: 4d03 623e edf5 a0be 772a c23e 4a1a d53e
00000210: 29cf ed3d 7420 07bd bf55 ac3c bd48 90bd
00000220: 8f1c f7bd 8f48 0b3f 6347 5e3e b942 803e
00000230: 17a7 f8bd 982a 133c 92d0 943f a6e6 46bf
00000240: 595e 82be 27c5 dfbe daf7 663e 6955 37bf
00000250: 2ccf 59be 1067 353e 24b0 883e 3c88 a43d
00000260: d3a7 23bf 5828 c5be 807d 4f3e 5b80 a4bc
00000270: 1c81 9c3d 974b a0be 57e9 913d fbab 993e
00000280: a3b7 423f 1df2 f83e 9a3e 9c3c 3c88 153f
00000290: de40 1d3f 774c 983f 9106 833f ec85 953f
000002a0: 47d3 fc3d c000 8fbb 6d68 04c0 95ab 81bd
000002b0: f9b4 c13e 9c63 9cbc bdb1 51c0 bbd1 4b3f
000002c0: eac3 713f 2422 2240 8157 a5bf b404 53be
000002d0: 19ac 8f3f 103e 723f 8c0f e4bf 4820 2b3e
000002e0: 36ff f4bf 435a 3d3f 522b 423f b978 463f
000002f0: 196d 5d3f d0f5 0dbe a1d0 593f 4820 843e
00000300: 4bc9 e5be f3c3 8abe 88bb 0040 1eb3 f93c
00000310: 013e 2dbc 6e13 3a3f 2240 a83f c83f f43d
00000320: d2f7 2440 795e 87be 3033 3e40 c722 643f
00000330: 9202 adbf 5af6 30be 478f 023c 00b3 873e
00000340: cd4e 5dbf d9be 87be c88e d43f 6c6e 02bf
00000350: efe4 853f c3e5 04c0 f42c 4fbf f4ad 043f
00000360: 3dc6 263f d469 4b3f e299 97bf 2469 3a3e
00000370: f76c 56bd d90d 5f3e b79b 123f c664 b63e
00000380: 4344 6e3f c84e 673e fe36 6abe 49b4 0e3f
00000390: 4e1b 363e 5cff f83d b628 de3e 6dda a7be
000003a0: d7af d8bc d5fc 1b3e 937e 643c a744 b0bd
000003b0: 936f 8fbd 8971 94bd 4305 72be 63e7 1fbe
000003c0: 52c6 7bbf ecb2 e1be e37d 8dbe 6aef c9be
000003d0: 31d5 6cbf bd06 a0bc 948d 103f 077c 3dbc
000003e0: b7bd 90be d92d 32be d4c1 77bf 142d bf3e
000003f0: 3723 25bf c134 1abe 7619 c1be e079 28bf
0.24515384 0.1465725 -0.3627894 0.065101385 0.22070093 -0.0052132434 0.20575097 0.21272318
-0.06821919 0.009479016 -0.5533895 -0.4315275 0.08139882 -0.48807725 -0.060738094 -0.23863544
0.14424959 -0.022764416 -0.21447982 -0.12231666 -0.38503674 -0.34502026 0.16159193 -0.2503985
-0.12219585 0.14151348 0.054482512 -0.05824711 -0.3178861 0.27596983 -0.29942596 0.08416271
-0.12753598 -0.100903526 -0.25447375 0.50513184 0.014958832 0.07236379 -0.07091368 -0.17690006
-0.08939535 -0.25255966 0.22855555 0.24381876 -0.4669775 0.1799013 -0.37819007 -0.10694327
-0.061603818 0.25143912 -0.15727699 -0.17852612 0.43485028 -0.3221203 -0.33087698 -0.030300725
-0.010574894 -0.098767 0.1357331 0.19839838 -0.25719407 -0.031343147 -0.70771575 -0.025572827
0.097241685 -0.008952416 0.28260806 -0.29398417 0.23188211 0.020403743 0.37964457 0.21476904
0.14626713 -0.20468262 0.037895646 0.25859758 -0.39442277 0.124409124 -0.601361 0.1657989
-0.1450243 -0.23343359 0.44216344 -0.30898717 -0.033921964 -0.6992188 -0.4468549 -0.16139759
0.17233142 0.1610837 -0.021170078 0.24010758 -0.07217993 0.033797532 -0.19242153 0.057549004
0.053961158 0.29100254 -0.26941773 0.097338736 -0.34138122 0.48182714 1.0647169 0.20094003
-0.5579769 0.1946185 0.19635753 0.3162744 0.56632054 0.31001654 0.07277465 0.4922921
-0.31903648 0.43047327 0.0021235452 0.48030788 0.40049863 -0.20765992 -0.108034134 -0.26523483
0.4740314 -0.14372593 -0.45412016 0.15109313 0.1359492 0.3874247 0.42408836 0.97323287
0.22071572 -0.31437626 0.37923023 0.4162162 0.11611778 -0.032989934 0.02103698 -0.07045124
-0.12065994 0.5440759 0.2170692 0.25050905 -0.12141245 0.008982323 1.1626151 -0.7769569
-0.25462607 -0.43705103 0.22555485 -0.716147 -0.21270436 0.17715096 0.26696885 0.08033797
-0.63927954 -0.38507342 0.20262718 -0.020080736 0.07641813 -0.3130767 0.07124584 0.30014023
0.7606146 0.48622218 0.01907282 0.58411 0.61427104 1.1898335 1.0236379 1.1681495
0.123449855 -0.004364103 -2.0688736 -0.06331555 0.37833384 -0.019090466 -3.2764733 0.796169
0.94439566 2.5333338 -1.2917329 -0.20607263 1.1224395 0.9462595 -1.7817245 0.16711533
-1.9140384 0.73965853 0.7584735 0.7752796 0.86494595 -0.13863301 0.8508397 0.2580588
-0.44880137 -0.27102622 2.011446 0.030480918 -0.010573865 0.726859 1.3144572 0.11926228
2.5776258 -0.26439264 2.9718742 0.89115566 -1.3516409 -0.17281476 0.00796873 0.26503754
-0.86448365 -0.26512793 1.6606073 -0.5094974 1.046049 -2.0765235 -0.8092797 0.5182793
0.6514624 0.79458356 -1.1843836 0.1820417 -0.05235001 0.21782626 0.5726885 0.3562376
0.9307291 0.22588646 -0.2287254 0.55743843 0.17783853 0.12158081 0.43390435 -0.32783833
-0.026451034 0.15233167 0.013946193 -0.086068444 -0.07003703 -0.072482176 -0.2363482 -0.15615611
-0.9834949 -0.4408182 -0.27635106 -0.3944047 -0.92512804 -0.019534463 0.5646603 -0.011565215
-0.2826974 -0.17400302 -0.96780133 0.3733908 -0.6450686 -0.15059187 -0.37714738 -0.65810966

2.nn.layers.2.bias f4 [31]
00000000: 5e41 9d3e 31dc ef3d 1236 59be 756d 2ebe
00000010: 71f4 78be e7c8 5fbe b84b c33e 4bbe 683e
00000020: 88e6 d33d 3b55 24be 3b09 943e a567 cc3e
00000030: 7dde fbbd ca61 983d 3b13 11be 2e96 b9be
00000040: 103b a53e 3075 db3e 06b0 2c3f e8f2 193e
00000050: 0c88 843e ef81 debc c8e2 ba3e bd78 8abd
00000060: 4a10 babe 0f1a 3e3e c0b7 6ebe c9fe 75be
00000070: 0b73 31bf 133c b13e 92a5 2e3f
0.30713934 0.1171192 -0.21212032 -0.17033942 -0.24311997 -0.21853982 0.38143706 0.22728841
0.10346705 -0.16048138 0.28913292 0.39922825 -0.12298296 0.07440527 -0.14167492 -0.3624739
0.32271624 0.42862844 0.6745609 0.15034068 0.25885046 -0.027161567 0.36501145 -0.0676131
-0.36340553 0.18564628 -0.23312283 -0.24022974 -0.69316167 0.34616145 0.6822139
