Self project/models/nn/optuna_best/SFR/model.pt (torch, 54492 bytes, 9 tensors)

net.0.weight f4 [64, 3]
000000 b2 21 8c be 44 70 0b bf 20 c9 43 3e 2c e0 1c bf
       -0.27369457 -0.5446818 0.19119692 -0.6127956
000010 53 55 f5 be 65 4c 5d be a0 d1 bc be 00 e6 2d be
       -0.4791666 -0.21611173 -0.3687868 -0.1698227
000020 cc 88 3e 3b e4 10 f1 be 79 2b e0 be 42 03 07 3f
       0.0029073237 -0.470832 -0.43783167 0.52739346
000030 e0 6e 1c 3f 32 68 42 3e 5e b6 62 3e 51 ff ce be
       0.6110668 0.1898506 0.2213988 -0.40429166
000040 b5 f1 43 be a8 b3 89 be 72 a7 e2 3e ee a8 f0 be
       -0.19135173 -0.2689488 0.44268376 -0.47003883
000050 27 3e 04 be 0c 00 41 be 11 65 93 be ca 25 13 be
       -0.12914334 -0.18847674 -0.28788045 -0.14369884
000060 35 81 89 be 2a 03 06 bd 3b a4 98 be f8 26 5e be
       -0.2685639 -0.03271786 -0.29812798 -0.21694553
000070 60 e8 61 3e e0 94 7b 3d 2b 59 8b 3e 20 9b 25 3d
       0.220613 0.061421275 0.27216467 0.04043114
000080 1a 2c 9b 3d cd 0c a6 be b7 3f 96 3e 9c 7c 95 bd
       0.07576771 -0.3243164 0.29345486 -0.07299158
000090 75 58 a8 3e de 06 ac 3e 07 b4 90 be 80 cb c0 be
       0.32879987 0.3359899 -0.2826235 -0.37655258
0000a0 6e 6a a8 bc a1 7f a8 bd 88 bf 2e 3e 60 74 00 be
       -0.020558562 -0.08227468 0.17065251 -0.12544394
0000b0 88 d1 c7 3d bd 0b 82 3c 92 0b c1 be 52 23 ec be
       0.09756762 0.015874738 -0.3770414 -0.46120697
0000c0 2e 8f ae be 27 99 4f bd de 3f 0a bf ac 18 1f 3d
       -0.34093612 -0.050683167 -0.54003704 0.03884189
0000d0 d2 3d e8 bd 3d f9 d5 be 68 3a f7 be ff 11 0c bf
       -0.11339916 -0.41791716 -0.48286748 -0.5471496
0000e0 be 89 82 3e 89 45 c9 be dc d1 73 3d 6d f0 0b 3f
       0.25495714 -0.39310864 0.05952631 0.54663736
0000f0 19 19 c9 be c6 31 c5 be 03 b0 43 3e 45 56 ee 3e
       -0.3927696 -0.38514537 0.19110112 0.46550193
000100 7d ac 59 be 58 d4 d7 3c 64 04 13 3f 83 2f b4 3d
       -0.21257205 0.02634637 0.57428575 0.08798125
000110 9e cf 93 be e7 26 58 be 0d b0 4a bd 62 2f 93 be
       -0.28869337 -0.2110859 -0.0494843 -0.28747088
000120 31 b1 8d be d5 06 00 3f b7 d3 1c 3d db ec 00 3e
       -0.2767425 0.50010425 0.038287845 0.12590353
000130 fb f5 b1 3e cb 4a f7 3c f6 b6 1b bd 70 ca d3 3d
       0.3475798 0.030187031 -0.038016282 0.10341346
000140 6e 80 14 3e 7f be 6e be 25 6c 02 3f 92 99 a0 be
       0.14502117 -0.23314856 0.50946265 -0.31367165
000150 d4 43 da 3d 9d e1 0f 3e e2 33 c0 3e 0c 05 a4 3e
       0.106574684 0.14050908 0.37539583 0.320351
000160 bc 19 8c be 21 bc e8 bd c7 e5 3f 3d 39 2b 0b 3f
       -0.27363384 -0.11364008 0.046849992 0.5436283
000170 27 39 0f 3f 11 42 79 3e 00 83 1e 3e c0 8a 04 be
       0.5594658 0.24341609 0.1547966 -0.12943554
000180 cd 6b 1b 3c 3d b5 d1 bd 3a 9e e6 bd 22 ee a1 3e
       0.009486151 -0.102396466 -0.11260648 0.31626993
000190 7c 6d 0f 3f e6 d9 b6 be e4 ac e1 3e a6 f5 83 be
       0.56026435 -0.35713118 0.44077218 -0.25773352
0001a0 4f ea f7 be 00 14 81 3e 4f 26 77 be d8 4b 98 3d
       -0.4842095 0.2521057 -0.24135707 0.07436341
0001b0 ad c0 f6 3e 26 7f 80 3e 80 73 12 3b 47 4f f5 3e
       0.48193875 0.25097007 0.0022346675 0.47912046
0001c0 69 19 12 3f db ad 9d 3d 27 88 59 be 16 21 30 3e
       0.5707002 0.07699176 -0.21243344 0.17200121
0001d0 11 05 11 bf 46 af fe 3e 89 90 8f 3e 95 68 a3 be
       -0.56648356 0.49743098 0.2803996 -0.31915727
0001e0 bd 90 9e 3e 6d 47 5c bd 03 1d ac 3a 08 27 ed bd
       0.30969802 -0.053779054 0.0013131205 -0.1157971
0001f0 6b eb d3 3e 66 86 9a 3e 01 ea 89 3e e2 63 93 3d
       0.41390547 0.30180663 0.26936343 0.071967855
000200 d7 f8 0b 3f 90 24 e7 be cc 47 2e be 60 e8 97 3e
       0.54676574 -0.45145082 -0.17019576 0.29669476
000210 2c e2 ae 3e a4 a0 d6 be a9 f5 00 3f 06 37 72 3e
       0.3415693 -0.41919434 0.5037485 0.23653802
000220 f0 63 18 be e2 0f 60 bd e2 ef ff 3e 4e f9 38 3e
       -0.14881873 -0.054702647 0.49987704 0.18063852
000230 df 5b 36 3e b5 8a e0 be 50 fa ce be 6e 97 22 3f
       0.17808484 -0.43855825 -0.40425348 0.63512313
000240 a6 ee 89 be 7b 33 d4 3e e7 b3 0a 3f 9b e3 bb 3e
       -0.26939887 0.41445526 0.5418076 0.36697087
000250 f8 e8 e5 bb 9c a7 1b 3d d3 9e a9 be 93 97 01 3f
       -0.0070162974 0.03800164 -0.33128986 0.5062191
000260 5e be c4 3e c6 6c d5 be b1 97 9e 3d 46 2e 97 be
       0.3842649 -0.4168455 0.077437766 -0.2952749
000270 d3 11 a2 3e 83 03 69 be 84 23 26 3e e9 d9 5c 3e
       0.31654224 -0.22755246 0.16224486 0.21567501
000280 82 9a f0 bc b5 44 24 bf e7 03 ca be 5c d0 8f 3c
       -0.02937055 -0.6416734 -0.39456102 0.017555408
000290 a5 9a a9 3d a6 9e b1 3e 4a 4c 0c 3e 18 94 0f 3f
       0.08281449 0.34691352 0.13700977 0.5608535
0002a0 03 2d 88 3d 9a 27 e8 3e 65 f8 f6 bd 60 5b b6 be
       0.0664921 0.45342714 -0.12059096 -0.3561659
0002b0 2b a4 d9 be 02 49 05 bf 40 89 f1 bc f2 c0 8b 3e
       -0.42508063 -0.52064526 -0.029484391 0.27295643
0002c0 50 61 09 be 0f ed 28 3e 5c c8 17 be be 04 11 be
       -0.13416028 0.1649668 -0.14822525 -0.14161965
0002d0 ac 4f 9c be 28 b8 4a 3d 24 5f ea be 8a aa f6 be
       -0.30529535 0.04949203 -0.45775712 -0.48176986
0002e0 26 6d b3 3e a0 62 bf bc f5 7f 97 3e 35 b8 10 3f
       0.3504421 -0.023362458 0.2958981 0.5653108
0002f0 60 7d a3 3e 34 4b 92 be ca b6 1b 3f 93 22 16 bf
       0.3193159 -0.28573 0.6082579 -0.58646506

net.0.bias f4 [64]
000000 c6 2a a0 3e 02 22 c8 be e1 05 8b be 6d da 9e be
       0.31282634 -0.39088446 -0.27152923 -0.3102602
000010 db 4d a7 bd f4 d1 5a bd 5e 98 8b be 63 a9 bd 3e
       -0.081691466 -0.053422883 -0.27264684 0.37043294
000020 24 d1 fa 3e ae 12 b6 be 31 66 a0 3e 67 89 80 3e
       0.48987687 -0.35561126 0.31327966 0.2510483
000030 11 02 18 bf 74 25 f2 3e 43 2a 94 be 7a 87 0c be
       -0.59378153 0.472942 -0.28938493 -0.13723555
000040 e7 1d 6b be ab c9 ef be 3a 3c fc be d9 23 0d bf
       -0.22960626 -0.46833548 -0.492647 -0.55132824
000050 72 09 40 be 22 d2 aa be ad 67 d2 be ba 32 a7 be
       -0.18753603 -0.33363444 -0.41094723 -0.3265589
000060 8e a9 7d bd d1 9b ac be 92 0e 24 3e 00 e1 db 3e
       -0.061929278 -0.33712628 0.16021183 0.429451
000070 43 0e cd be 01 cf c6 3e a3 fd 91 3e 87 f3 09 bf
       -0.40049943 0.38829806 0.28513822 -0.5388722
000080 45 20 eb 3c e0 55 0e 3f 70 5a f3 be f2 e1 1e 3f
       0.02870191 0.55599785 -0.47529936 0.62063515
000090 d0 1d d8 3c f3 a5 94 3e 12 86 41 be d2 4e 01 bf
       0.026381403 0.2903286 -0.188988 -0.50510895
0000a0 61 c4 bd be 5f b1 6a be 98 2e 5d be f4 db d3 3e
       -0.37063888 -0.22919224 -0.21599805 0.41378748
0000b0 77 f5 8e 3c 4c 6c f2 3e 2b 61 b9 bd 81 75 88 3e
       0.017451031 0.4734825 -0.090517364 0.26652148
0000c0 3f 24 c0 be 7a 44 04 bf fa 78 15 3d 05 64 f9 3e
       -0.37527654 -0.51666987 0.036492325 0.4870912
0000d0 5a 58 6f 3e d1 50 01 bf e3 51 c0 be e6 6e e3 3e
       0.23373547 -0.5051394 -0.37562475 0.44420546
0000e0 17 1f 60 bd 3a c7 a3 3e 45 c9 5b be e2 dd ca 3d
       -0.05471715 0.31987935 -0.21463497 0.09905602
0000f0 00 7a d6 3e 76 41 e6 be de 53 11 3f 85 10 ae be
       0.41889954 -0.44971818 0.56768596 -0.33996978

net.2.weight f4 [64, 64]
000000 c0 63 da 3c b8 f7 e8 bc 8c 83 bf bd ac 6b 7b 3d
       0.026658893 -0.028438434 -0.093512625 0.06138198
000010 40 29 a6 bd 5c d0 b4 bd 08 39 2e bd a4 04 72 bd
       -0.081133366 -0.08828804 -0.042534858 -0.059086457
000020 70 37 8a bc 7c 57 2d 3d cc bc c7 bd 66 43 c3 3d
       -0.016872138 0.04231976 -0.09752807 0.095343396
000030 54 78 6a bd 8c cc 94 bd 40 0f e2 bc 3c e3 6c bd
       -0.05724366 -0.07265577 -0.027595162 -0.057833895
000040 48 60 f8 bd 0a 5d 88 3d 94 8b 24 bd d0 a4 d6 3c
       -0.12127739 0.06658371 -0.040172175 0.026201636
000050 80 95 86 3d 00 40 b4 3d ce a3 eb 3d c8 a8 52 3d
       0.065714836 0.088012695 0.11505853 0.051430494
000060 02 41 d4 bd 98 4d eb bc 88 18 f1 3d 5c 58 ef bd
       -0.10363962 -0.028723523 0.11772257 -0.11686775
000070 aa 07 b6 3d d0 5b 22 bd 44 9a 9b bd 78 e8 42 bd
       0.088881806 -0.03963834 -0.07597783 -0.04758498
000080 54 82 87 bd 08 c5 c6 bc 64 9e 33 bd 2e 26 9b 3d
       -0.06616655 -0.024263874 -0.043852225 0.075756416
000090 a4 b8 e3 bd 2a 75 ef bd 68 43 3f 3d 78 36 36 bd
       -0.11119202 -0.11692269 0.046695143 -0.04448554
0000a0 38 ea b8 bd f8 46 46 3d 38 06 9a bc 62 04 ca bd
       -0.09029049 0.048407525 -0.018801793 -0.09864117
0000b0 04 00 e6 bd d0 0b 1d 3c 32 02 ac bd a0 29 d2 bc
       -0.11230472 0.009585336 -0.08398856 -0.025654614
0000c0 68 ef 99 bc e2 f5 87 3d ec 2e a5 bd a4 5d 35 bd
       -0.018790916 0.06638695 -0.0806559 -0.044278756
0000d0 0a 34 bd bd 36 b5 f6 bd 9e 41 af 3d 1c 52 6c bd
       -0.09238441 -0.12046282 0.08557437 -0.057695493
0000e0 60 52 24 bc 0c ac 0b bd 04 49 33 bd d0 0d 74 bd
       -0.010029405 -0.034099624 -0.043770805 -0.059583485
0000f0 00 a4 fc b9 30 6e ce bc 54 b9 4b 3d 28 0b 07 3d
       -0.00048187375 -0.025199026 0.04973729 0.032969624
000100 00 00 b7 38 40 c9 9a 3b 5e 66 fb 3d e0 72 f6 bb
       8.72612e-05 0.004723698 0.12275384 -0.0075210184
000110 4d c5 dd 3d e4 aa b0 bd b8 75 fa bc 54 57 73 bd
       0.10828648 -0.08626345 -0.03057371 -0.059409454
000120 20 b5 82 bb 60 d2 7b 3c e6 5d b9 bd c7 e0 b1 3d
       -0.003988877 0.0153699815 -0.09051113 0.08685451
000130 fe d4 72 3d fa 7a bd 3d 90 36 2b 3d e0 31 26 bc
       0.059285156 0.092519715 0.04180008 -0.010143727
000140 a4 aa e6 bd b0 d2 18 bc 60 35 86 3b 38 db cd bd
       -0.11263016 -0.009327576 0.0040957183 -0.10051578
000150 36 71 c7 3d b4 ed d6 bd 53 42 ec 3d 1e ba a1 bd
       0.0973839 -0.10494557 0.11536088 -0.07896827
000160 f9 00 25 bd 95 67 c3 3d 93 1c cd 3d f8 ad f2 bd
       -0.04028413 0.09541241 0.10015216 -0.11849588
000170 0b 62 d8 3c 8d ff 54 3c 66 c9 bd ba ae 0d 5e bc
       0.026413938 0.013000381 -0.0014479577 -0.013553066
000180 ce 6f b3 3d f1 d3 24 3d 82 18 92 bc f2 78 6d 3d
       0.087615594 0.040241186 -0.017833952 0.05797667
000190 ab 57 af bd a9 bb ac bd cc 1f 30 bd fd 87 af bd
       -0.08561643 -0.08434231 -0.042999074 -0.085708596
0001a0 1f 12 89 3d 43 f2 f5 3d ee fc 76 bc 34 13 b1 bd
       0.066929094 0.120090984 -0.015074952 -0.08646241
0001b0 f6 a5 76 bd d5 ae 91 bd 78 98 01 be 18 a7 69 bd
       -0.060216866 -0.07113425 -0.12655818 -0.05704412
0001c0 bd bb 79 bd 75 fe 86 3d 30 9c b8 3d 00 e4 b6 bb
       -0.060970057 0.065915026 0.090141654 -0.005581379
0001d0 a8 93 0f 3d 26 df 07 3d b0 63 5c 3c b0 d1 af bc
       0.035052925 0.033171795 0.013451502 -0.021462291
0001e0 a0 d1 04 3d 60 2d 2f bd 9a 1b 96 3d 53 7c 9e bd
       0.032426476 -0.042767882 0.07329483 -0.07738557
0001f0 68 6a 87 bd 00 ba 24 3a a4 67 0b 3d 3e 32 8c 3d
       -0.06612092 0.00062838197 0.034034386 0.068455204
000200 bf 8b d3 3d a2 4c 1e 3d cf f3 e1 bd ac 38 14 bd
       0.10329389 0.0386473 -0.11032831 -0.03618686
000210 c7 be 28 be fa ee b3 bd 62 0e cb 3d 82 c1 95 3d
       -0.16479026 -0.087858155 0.09914853 0.07312299
000220 96 94 e4 3d 98 da fc 3d 8a c2 b6 3c e7 c5 65 3d
       0.11161153 0.12346381 0.02230956 0.056096938
000230 08 3a 1b 3d c6 3d bc 3d b0 cc 79 3d b7 ec ab 3c
       0.03789714 0.0919147 0.06098622 0.020986898
000240 59 02 09 bd f9 fa aa ba 69 88 f3 39 a6 8d 40 bd
       -0.033449505 -0.0013044766 0.00046450205 -0.047010086
000250 c4 dc d0 3c cc e4 c2 bd ac 84 39 be 34 cb 90 bd
       0.025495894 -0.09516296 -0.18117017 -0.07070008
000260 a4 58 f9 bd 19 1e 3d be 87 db c6 3d 50 55 1a bd
       -0.1217511 -0.18468513 0.0970984 -0.037679017
000270 dc b2 74 bd 42 04 9c 3d 23 0d 2f bc 9d 69 2e 3d
       -0.059740886 0.076179996 -0.010684284 0.04258119
000280 5e 1f bb 3d 69 b4 7d bd 81 c5 43 bd de 38 9b 3c
       0.09136842 -0.06193963 -0.047795776 0.018948015
000290 88 ac 5c bd dd 1f 1b 3d de dd b9 3d a5 45 60 3d
       -0.053875476 0.037872184 0.09075521 0.05475392
0002a0 59 fa d1 3d bd a0 b0 bd 82 44 b2 3c fc 52 ee 3d
       0.10252828 -0.086244084 0.021761183 0.11636922
0002b0 f8 9f 6c bd 6a c2 a2 3d f3 87 93 3d db 66 c7 3d
       -0.057769746 0.07947238 0.07203665 0.09736415
0002c0 5f 39 21 3d 46 99 3d bd db d9 72 bd 82 33 38 bd
       0.039361354 -0.04628875 -0.059289794 -0.044970997
0002d0 99 26 a3 3d 86 32 80 bd e3 31 8a 3b eb 0c 01 3c
       0.07966346 -0.062596366 0.0042173727 0.007876615
0002e0 ca eb 13 bd bf 8d a2 bc 4c c3 fb bd 4c 24 af 3c
       -0.036113538 -0.01984298 -0.12293109 0.021379612
0002f0 90 d4 d0 3d 48 7d d8 bd 60 6e 46 3d 5c 2d 8f bd
       0.10196793 -0.105707705 0.048445106 -0.069910735
000300 ed d0 76 3d ea 45 9f 3d eb 3e 14 bb b9 b0 76 bd
       0.06025784 0.07777007 -0.002262051 -0.06022713
000310 ff 91 03 be ed 1e 63 3c f4 1a 35 3d ad eb bf 3c
       -0.12848662 0.013862354 0.044215158 0.023427809
000320 52 34 f4 3d 2c 32 3a bd a4 ba ab 3d c8 5e cd 3d
       0.11924042 -0.045458004 0.08385208 0.10027844
000330 1f f4 2a be aa 77 04 3d e8 da 8d 3d 3a 32 4e 3d
       -0.16694687 0.032340683 0.06926519 0.05034087
000340 80 73 0b bd 4b 75 21 3e 94 eb 03 3c 42 98 0d be
       -0.034045696 0.157674 0.008051772 -0.13827613
000350 f0 77 93 3d 0e 95 7b bd 88 69 d7 bc 8f f1 ee 3d
       0.07200611 -0.061421447 -0.026295438 0.116671674
000360 2d 4a 82 bd 76 a0 ec 3c 28 d6 09 bd dd 9c d1 3c
       -0.06361804 0.028885107 -0.0336515 0.025587494
000370 3f cb 18 3d df 1b 42 3c 47 18 29 3d 43 c0 8c 3d
       0.037303206 0.011847465 0.04128292 0.068726085
000380 11 21 56 bd e3 ff 0b 3e b6 b0 97 bd 7a b4 e7 3d
       -0.05227763 0.13671832 -0.07406752 0.1131372
000390 7d 6f f1 bd 7b 60 cf bd a6 6d 73 bd 53 59 fb bc
       -0.11788843 -0.10125824 -0.05943074 -0.030682242
0003a0 30 80 bd 3c 57 14 6e 3c 8c c0 0f 3e b3 17 48 3d
       0.023132414 0.014531217 0.14038295 0.048850726
0003b0 6e ee 8c bd 32 ec 19 3d 92 17 21 be 2b 03 66 bd
       -0.06881414 0.03757877 -0.15731648 -0.056155365
0003c0 35 fe 6c bd c5 a0 d2 bd e7 42 b7 3c 25 0a ff 3d
       -0.05785962 -0.102845706 0.022370769 0.12453107
0003d0 8d 31 5d bd 76 3c 11 bb bc ff b9 bd 41 39 bb 3d
       -0.054002333 -0.0022161282 -0.090819806 0.0914178
0003e0 0b b4 45 bb b8 2a 43 bd 2d fa 08 bd 11 d4 0b 3e
       -0.0030167128 -0.04764816 -0.03344171 0.13655116
0003f0 7c 08 8f bd c6 06 e0 3d 74 41 08 3d fd 50 8c bd
       -0.0698404 0.10938792 0.033265546 -0.06851385

net.2.bias f4 [64]
000000 18 8c c5 3d 53 79 80 bd 52 66 1b 3e b3 d1 40 bd
       0.096458614 -0.06273141 0.15175751 -0.047074985
000010 49 ba 07 3e 1d 22 37 3d 54 4f 1a bd b7 1c b3 bd
       0.13254656 0.044710267 -0.03767331 -0.08745711
000020 a5 d3 b1 bc d4 cd e1 3d a1 fe d5 bc 28 cf c2 3d
       -0.021707365 0.11025587 -0.026122393 0.09512168
000030 63 d6 6f 3d 81 4f 44 bd 91 4c 4d 3d 1f 58 bf bc
       0.058554064 -0.047927383 0.050121848 -0.02335745
000040 bc 56 0c 3d 2b 9c 0b 3e aa e2 d5 bc 56 96 91 bd
       0.034262404 0.13633792 -0.026109058 -0.071087524
000050 92 75 98 bd cc 2f 84 bd ba b2 7f bc a0 e8 f8 3d
       -0.074443 -0.06454429 -0.015606577 0.12153745
000060 60 16 04 be c5 41 f2 bd 97 c1 0f bd a8 5c 10 bd
       -0.1289916 -0.11828951 -0.03509673 -0.035244614
000070 0a 59 85 bd e0 a7 d3 3d 08 f0 b7 3c 3a 08 4e bd
       -0.065111235 0.10334754 0.022453323 -0.050300814
000080 39 18 ec bd 46 c7 5e 3d 45 2d 43 3c 8f 4d 2d be
       -0.115280576 0.05438926 0.011912649 -0.16924118
000090 4b bf 9e 3d 4a a6 0f 3e 50 eb ae 3d d9 b2 95 3d
       0.0775133 0.14028278 0.08540976 0.07309503
0000a0 7c 48 a1 bd ad a0 a3 bd f1 71 09 3e f9 0c 2c 3d
       -0.078751534 -0.07989631 0.13422371 0.04200456
0000b0 66 73 8a bb 2c 3d 00 be aa d4 dd 3c 84 86 b2 bd
       -0.0042251823 -0.12523335 0.027078945 -0.08717063
0000c0 3b c4 ed bd e5 70 ee bc 76 14 6e 3c 29 86 9f 3d
       -0.116096936 -0.029106567 0.014531245 0.07789261
0000d0 ae 18 17 3d 38 ad 75 3d c1 94 70 3d 0a 00 89 bd
       0.03688877 0.059979647 0.058735613 -0.066894606
0000e0 d4 84 ca 3b a8 6f 45 3d 66 e8 85 bd 77 92 13 3e
       0.006180385 0.048202187 -0.06538467 0.1441134
0000f0 c9 75 61 3d 78 45 2d 3e bc d5 f6 3d d8 d2 22 3d
       0.05504397 0.16921031 0.12052485 0.039751858

net.4.weight f4 [64, 64]
000000 78 bd 5b bd 4f d6 82 bc 6a cd 7c 3d 3f aa a3 3c
       -0.05364749 -0.01597133 0.061719336 0.01997864
000010 cf 81 86 3d e0 16 85 3d 83 50 d6 3d 37 24 bc bd
       0.06567728 0.06498504 0.10464575 -0.09186595
000020 bd 28 ab 3d 4a 69 76 3c 10 e3 f6 3c 4e db 57 bd
       0.083573796 0.015039751 0.030137569 -0.05269938
000030 88 1c 9e 3d 24 f5 b4 bd d5 90 9e bd c6 28 b1 bd
       0.07720286 -0.08835819 -0.07742468 -0.08650355
000040 b7 a7 fd bc 8d 8d da 3d 91 fc be bd 90 3e c5 3c
       -0.030963762 0.1067153 -0.09325517 0.024077684
000050 1e 1f 82 3d 89 aa d7 3d 50 82 14 3e c9 92 32 3d
       0.063535914 0.10530574 0.14502835 0.043597016
000060 05 61 61 3d 72 38 03 bd e4 ca bb bc 66 88 e8 bd
       0.055024166 -0.032036252 -0.022923894 -0.11354141
000070 39 f0 e2 3d 03 74 c7 bd aa 21 0c be 3f f1 23 3d
       0.11080975 -0.09738924 -0.13684717 0.040024992
000080 9c 08 a5 3c 8b be 02 3e d6 98 9f 3d ff a5 d7 bb
       0.020145707 0.12767999 0.07792823 -0.0065810676
000090 99 f9 79 3d 33 d1 93 ba 89 2e c2 bc 45 7d ba bd
       0.06102905 -0.0011277556 -0.02370383 -0.091059245
0000a0 c8 dc c4 3c c9 46 f2 3a d9 06 a8 3d 0a 5c fb 3d
       0.024031058 0.001848423 0.08204431 0.122734144
0000b0 58 0c 64 bd 5c e2 0d 3d 0e 79 66 3d 83 ea da 3a
       -0.055675834 0.0346397 0.05626779 0.001670197
0000c0 79 b7 36 3c c5 e2 0a bd cd 11 df bd 2d 03 2c 3d
       0.011152142 -0.03390767 -0.10892067 0.041995216
0000d0 d0 ae 2d 3c bb e5 4e 3d 63 eb e8 3b 6a 7c ce 3d
       0.010600761 0.050512057 0.0071081384 0.10082324
0000e0 62 8e 10 3d 9e 07 d8 3d 20 1b bb bd b0 46 f4 3c
       0.035292037 0.10548328 -0.09136033 0.029818863
0000f0 5c d6 4f bd 86 a2 a5 3d dc 43 9f 3d be 04 d6 bd
       -0.05074154 0.080876395 0.07776615 -0.10450123
000100 2a 21 e1 3d 98 99 6f 3d 87 53 dc bc b2 0c 38 3e
       0.10992654 0.058496088 -0.026895298 0.17973593
000110 4c dd 42 3e b6 3f 09 bd 8d 9e 37 be c0 4e 0d 3d
       0.1902973 -0.033508025 -0.17931576 0.03449893
000120 da bd 08 be bf 81 fe 3d 40 6e 94 3d 8b b2 7a bd
       -0.13353673 0.12427091 0.07247591 -0.061205428
000130 97 80 04 3e b0 4b f9 3d 2f 8c 86 bd 18 a8 6b 3d
       0.12939678 0.12172639 -0.06569707 0.057533354
000140 3f c1 a3 3d 2c 7f f5 bc c3 80 0f 3e 16 32 87 3d
       0.07995843 -0.029967867 0.14013962 0.0660135
000150 7c 74 dc 3d 0c 79 ea 3d 05 5c 71 bc f8 65 9b bd
       0.10764405 0.11448869 -0.014731412 -0.07587808
000160 11 54 f5 3c fe ef 23 be ba 1f 90 3d d0 06 63 3d
       0.029947313 -0.16009519 0.07037301 0.05542642
000170 23 02 17 bd de 81 27 3e 67 29 82 bc 01 74 88 3d
       -0.036867272 0.16358134 -0.015888883 0.06662751
000180 36 38 05 be 38 ca 15 3d 17 ae ec bd 00 d3 73 3b
       -0.13009724 0.036569804 -0.115566425 0.0037204623
000190 60 93 48 bd 64 49 5c 3d 5f 51 3f bc 2f 68 22 be
       -0.048968673 0.05378093 -0.011677115 -0.15860055
0001a0 e8 f8 94 bd 6e 4a d3 3d 12 b2 a5 bd 29 38 2a bc
       -0.072740376 0.10316931 -0.08090605 -0.010389366
0001b0 fd 2c d2 bd 49 c9 d8 bd f5 5c cb ba 47 23 4b bd
       -0.10262487 -0.10585267 -0.0015515374 -0.04959419
0001c0 41 57 df bb d9 17 0d be c9 9d 9b bd 83 82 fe bd
       -0.0068158214 -0.13778628 -0.075984545 -0.12427237
0001d0 2f 66 0e 3d d5 40 55 3c 9e 12 ef 3d 20 92 11 bc
       0.03476542 0.013015945 0.11673473 -0.008884937
0001e0 52 0a ea 3c fc d7 ba 3d 95 02 b6 3d cb fe 94 bd
       0.028569374 0.09123227 0.08887211 -0.072751604
0001f0 7c bb 43 bd 37 1d d5 3c 30 e4 25 3d 82 69 b6 3d
       -0.04778622 0.026014907 0.04050082 0.08906843
000200 34 13 c3 3d 60 e8 c1 bc b2 a0 72 3d ed 2e d1 bc
       0.09525147 -0.023670375 0.059235282 -0.025535071
000210 d0 dc 42 3c d9 83 79 bd c5 4f 8e bc 33 43 b2 bd
       0.011893466 -0.060916755 -0.017372021 -0.087042235
000220 01 46 c7 3d 47 7a b1 bd 60 67 6c 3c 0f 84 02 3e
       0.09730149 -0.08665901 0.014428943 0.12745689
000230 53 33 c9 3d 87 d3 d6 3d 70 e3 fb 3d 07 68 95 3d
       0.098242424 0.104895644 0.1229924 0.07295232
000240 74 04 c9 3c e8 83 08 3e 80 2d 2e 3e 39 01 d7 3d
       0.024538256 0.13331568 0.17009544 0.1049828
000250 67 d9 22 3e ac e1 6b bd 52 a9 11 bd 94 6c 23 ba
       0.15903245 -0.057588264 -0.035561867 -0.0006234136
000260 64 c1 0e 3c c3 3f 9b 3b 1f ff df 3b 5b 5a 09 3e
       0.0087131 0.0047378256 0.0068358327 0.13413374
000270 e0 70 3c 3d 79 bb 50 bd 13 15 43 3b be d1 a4 bd
       0.046006083 -0.050960038 0.00297672 -0.08047818
000280 7f 7c 00 3d fe ce 34 bb c3 6e d9 bd 12 5e 99 bd
       0.03136873 -0.0027589197 -0.10616829 -0.074886456
000290 26 27 f1 3d 52 58 29 3d 02 0c 05 3e 18 ba fb bd
       0.11775045 0.041343994 0.12992862 -0.12291354
0002a0 d2 af 8d 3d ac f9 2c 3d 42 50 11 3b 5b 1b b5 3d
       0.06918301 0.042230293 0.0022173082 0.08843108
0002b0 2d 13 75 3d 5c 3e 08 be 55 82 fe 3b f5 d8 28 3c
       0.05983274 -0.13305038 0.0077670016 0.010305633
0002c0 b6 51 dd bd 82 bc 42 3d 3d a2 bd 38 5d a7 33 3d
       -0.10806601 0.047543056 9.0424415e-05 0.043860782
0002d0 3a 8c ea 3b 10 e0 84 3c 0d 05 5f 3d 3a 69 c8 3d
       0.0071578296 0.016220123 0.054448176 0.097856954
0002e0 e0 e1 7d bd b3 19 02 3c 9a 70 04 3e 34 9a b0 3d
       -0.06198299 0.0079406975 0.12933579 0.08623162
0002f0 32 0e f7 3d 7e ff be 3c 3c 56 05 3e 7e bd f9 3d
       0.120632544 0.023315188 0.13021177 0.12194346
000300 8a d6 d3 3d 28 c2 9b bd 46 2c 1b bc 68 70 cf bc
       0.103436545 -0.07605392 -0.009471005 -0.025322154
000310 87 7d fa bc 1e b4 8b bd 6a 40 16 3d d4 64 cd bd
       -0.030577434 -0.06821464 0.036682524 -0.10028997
000320 a2 76 f6 3c 9f 09 2c bd 4e c4 cf 39 4a b4 42 bd
       0.030085865 -0.042001363 0.00039628375 -0.04753522
000330 cd 07 02 3e 48 4e ac 3d 3e 7d 92 bd b3 70 71 bd
       0.12698288 0.084133685 -0.07152794 -0.05894537
000340 56 1d 01 3e 6a 34 7b 3d d9 02 e4 bd a1 db cb 3d
       0.12608847 0.061329283 -0.11133356 0.09954
000350 7c 04 ba 3d a4 90 1e bd 39 00 21 3d 9d 42 c2 3d
       0.090828866 -0.03871216 0.039306853 0.09485362
000360 75 48 f1 3c 21 fc ba 3d 4a 05 eb bd d4 96 03 3b
       0.029453496 0.09130121 -0.11475618 0.0020078914
000370 ef d9 34 3d f1 59 92 bd 02 cf 0e be d2 3b 2e 3c
       0.04415315 -0.07146061 -0.13946155 0.010634379
000380 9f 29 dc bd 2e e2 ee 3d cb e3 d3 bc 4b be c8 bd
       -0.10750126 0.11664234 -0.025865456 -0.098019205
000390 ef ed bc bc 52 cf 63 3c e1 47 84 3d f3 8d c6 bd
       -0.023062674 0.0139044095 0.06459022 -0.096950434
0003a0 a8 3a e0 bd ff f9 68 3d a2 3c d4 3c c9 04 f9 bc
       -0.10948688 0.05687904 0.025907818 -0.03039779
0003b0 80 72 6b 3d 2c 41 0d bd 2e 14 ca 3c ec 63 c1 bd
       0.057482243 -0.03448598 0.024667826 -0.09442887
0003c0 dc 01 c0 bd 68 9d 3e bd 62 31 47 3c 92 28 65 bc
       -0.09375355 -0.046536833 0.01215777 -0.0139867235
0003d0 b8 b2 19 3d 72 3d d8 3d aa ae 20 bd d0 0a 4b 3d
       0.037523955 0.10558595 -0.039229073 0.04957086
0003e0 0c 1a ec 3d 68 c0 bf bd db 3e 30 be 72 a6 1b bd
       0.115284055 -0.093628705 -0.17211477 -0.03800053
0003f0 75 85 d9 3c a0 b2 3b 3d 39 11 80 3d b6 b5 9d 3d
       0.026552895 0.045824647 0.06253285 0.07700674

net.4.bias f4 [64]
000000 44 0a 80 3c c9 74 7b 3b 86 ab 88 bd a6 c6 03 3d
       0.015629895 0.003836917 -0.066733405 0.032171868
000010 ce 59 19 3d 1c 8b f6 3d dd 7b 0b 3d 8f 52 ba bd
       0.03743916 0.12038252 0.034053672 -0.09097778
000020 76 55 23 3e 86 bb 11 3e 54 f5 b3 bc 0b 16 7a 3d
       0.1595057 0.14231691 -0.021967568 0.061056178
000030 3e c8 77 3d 2f f1 bf 3d 27 4f e4 bd f4 3b 72 3a
       0.0604937 0.09372174 -0.111479096 0.0009240501
000040 9c 5b 59 3d da af 9d 3c f0 83 13 3e fb e7 9b 3d
       0.05306588 0.019248892 0.14405799 0.07612606
000050 9b 66 b2 bd d9 41 04 bd a8 0c 35 3d f2 be cd 3d
       -0.08710977 -0.03228936 0.044201523 0.100461856
000060 f0 ca de 3c a2 1e 3b 3d c7 d6 85 3c 6f 38 ed 3d
       0.027196378 0.04568351 0.016337765 0.115830295
000070 06 1d 06 3e 35 c6 b1 bc 19 de ed 3d ea 62 09 bd
       0.13097009 -0.021700958 0.116146274 -0.033541597
000080 e8 dc e9 bd 81 19 07 3e 59 3e 02 3e a2 dc 0e 3e
       -0.11419088 0.13193323 0.12719096 0.13951352
000090 36 20 1a be 48 ef 96 bd 61 a0 f4 3b 23 f3 58 3d
       -0.1505135 -0.07369858 0.0074654077 0.05296625
0000a0 5d c5 56 bd 1e d2 f7 3d d3 43 98 3c 5f 5c 9c 3d
       -0.052434314 0.121006235 0.018587029 0.07634806
0000b0 da df 04 3e f8 a6 3b bd b4 9f 2c bd 46 af a4 bd
       0.12976018 -0.04581353 -0.042144492 -0.08041243
0000c0 17 8c ae bc 06 c3 96 3d d3 20 c0 bd af 83 29 3d
       -0.021307034 0.073614165 -0.09381261 0.04138535
0000d0 be 14 11 bd 3c ac f2 3d d2 b9 3b bc f0 81 0b 3e
       -0.035420172 0.11849257 -0.011457877 0.13623786
0000e0 63 8b 3a bc d2 81 8a 3d df 0f cc 3d 7c 54 04 3e
       -0.011385771 0.067630425 0.09963965 0.12922853
0000f0 40 0a 14 be 74 1d d6 bd 14 32 f4 3c 93 17 12 be
       -0.14457035 -0.104548365 0.029809035 -0.14266805

net.6.weight f4 [64, 64]
000000 15 50 88 3d 40 dd d4 bd d2 07 2b be 8e 2d 14 be
       0.066558994 -0.103937626 -0.16702202 -0.14470503
000010 15 c9 cf bd 97 89 0f be 32 04 30 bd f3 82 00 3e
       -0.10145775 -0.1401733 -0.04297275 0.12549953
000020 6a 00 2d be 54 8e e8 bd 9b c1 fc 3d 10 53 b9 3c
       -0.16894689 -0.11355272 0.12341615 0.022622615
000030 37 2d 75 bd f6 df ea bd ae 1d e6 3d 96 aa e1 bd
       -0.059857573 -0.114684984 0.1123613 -0.11018865
000040 a8 f8 3a bd 6f 43 29 be bc 1c 9d 3d 54 c4 d6 3d
       -0.045647293 -0.1652963 0.07671496 0.10486665
000050 b6 47 25 3e 9b 13 33 3d c7 53 85 bd e7 5b 26 be
       0.16140637 0.04371987 -0.0651012 -0.16245995
000060 49 9c 92 3d ae 4b 36 3c 55 6b b3 3d 50 49 9e bd
       0.07158715 0.011126442 0.08760706 -0.07728827
000070 ce 1a 1d 3d cd 96 98 3d c4 aa 01 be 9a 78 09 bd
       0.03835564 0.07450638 -0.12662798 -0.03356228
000080 a0 07 cb bb b1 8e 6a 3d 0a d3 24 3d 92 6e 2b be
       -0.0061959773 0.057264987 0.040240325 -0.16741398
000090 a9 77 fb 3d 15 ce 79 bd 26 b2 1c bc 88 f8 f4 3d
       0.12278683 -0.06098755 -0.009563958 0.11961466
0000a0 0b 93 ea 3d 6f 17 61 3d da 68 1d bb c4 c0 82 3d
       0.114538275 0.05495399 -0.0024018795 0.063844234
0000b0 50 2f d5 bb 0c dc a4 3d 04 22 f5 3d 9d 2c cb 3d
       -0.006505884 0.08049783 0.119693786 0.09920619
0000c0 68 9d 23 3d 97 85 33 bd d2 64 ba bd 90 eb 49 3d
       0.039945036 -0.043828573 -0.09101261 0.049296916
0000d0 e0 9f 34 bc 62 7b 06 be b7 ce 17 bd da c5 58 3d
       -0.011024445 -0.13133004 -0.037062373 0.05292306
0000e0 fe 52 d3 bd 9e 5a 45 bd c4 ce 2d ba ff 1e 10 be
       -0.10318564 -0.048182122 -0.0006630237 -0.14074324
0000f0 6c 76 e2 3d 88 18 7b bd 42 9c 8a 3d f8 77 7f 3d
       0.110577434 -0.06130269 0.06768085 0.06237027
000100 8e ca 00 3e 76 11 e0 3d 8a 70 19 bd 70 e1 83 3d
       0.12577268 0.109408304 -0.03746084 0.06439483
000110 95 6c 2e 3e 9b ae a5 bb 68 89 02 3d c6 c7 14 3e
       0.17033608 -0.005056215 0.031869322 0.14529333
000120 15 b9 55 bb d1 1d 7b 3d 2c 6b a4 3d e0 46 2a 3d
       -0.0032611538 0.061307732 0.08028254 0.041571498
000130 6d a7 9a 3d 77 9d 08 3d 1d b1 11 bd ba 4f 86 bd
       0.07551465 0.033353295 -0.0355693 -0.065581754
000140 ed 0c c1 bd b4 dd 04 3e 9c 39 b5 bd 65 fd d2 3d
       -0.094262935 0.12975198 -0.08848879 0.103022374
000150 bf d9 a1 bc 78 19 1c 3c 2c c4 7c 3d 4e 42 87 bd
       -0.01975715 0.009527557 0.06171052 -0.066044435
000160 0b 9c f7 3d 51 57 7a 3d dd 01 18 bd 6b be f4 bc
       0.1209031 0.061118428 -0.037111152 -0.029875955
000170 61 00 21 3e e5 b0 c0 bd c2 7a d4 3c d9 51 d7 3d
       0.15722801 -0.0940874 0.025937442 0.10513658
000180 4c b9 1b 3d 41 66 7e 3d c1 32 44 bd e9 65 28 3e
       0.03801851 0.062109236 -0.047899965 0.16445126
000190 a6 aa 3f bd d1 94 ae 3d 46 06 fe bd 4e d8 4e 3c
       -0.046793602 0.08524478 -0.1240354 0.012624813
0001a0 f0 55 8a bd 31 ce 22 3e 08 4c de bc fe 8c 82 3d
       -0.067546725 0.15898968 -0.027135864 0.063745484
0001b0 30 30 8c 3d 59 4d 87 bd 58 68 9a bc e1 f6 11 3e
       0.068451285 -0.0660655 -0.018848583 0.14254333
0001c0 aa e5 a7 3d 0e 23 90 3b 6f fb 27 bc 6f 8f 90 3c
       0.08198102 0.00439871 -0.0102528175 0.01764652
0001d0 28 b2 8a 3d fa c8 6f 3d 30 f7 fc 3d 0c 8f 09 3e
       0.06772262 0.058541276 0.12351835 0.13433474
0001e0 bb e2 d1 3d 38 fc 00 3e 35 7d 1b bb f1 ae 9c bd
       0.102483235 0.12596214 -0.0023725752 -0.07650555
0001f0 28 53 c7 3c d0 49 19 3d d3 2a cf bb e9 9f 15 3e
       0.024331644 0.03742391 -0.0063222437 0.14611782
000200 cb 2f 9f bd b4 15 db bd 0f d6 37 3b 07 da f1 3d
       -0.07772788 -0.10697499 0.0028051173 0.118091635
000210 44 44 93 3c c5 86 35 bd 17 6a 7c 3a a7 1d 76 3d
       0.017976888 -0.04431798 0.0009628846 0.060086872
000220 fe 57 b7 bd a9 03 d5 ba 7b 93 60 bd 86 cb b4 3d
       -0.0895233 -0.0016251701 -0.05482815 0.088278815
000230 0c d3 46 3d 4f ab 9d 3d d0 65 c7 3d b3 2c 81 3d
       0.048541114 0.0769869 0.09736216 0.06307354
000240 e6 11 a8 bd 67 44 eb 3d cc e4 7e bd 40 c4 f5 3b
       -0.08206539 0.11487656 -0.062229916 0.0075002015
000250 9d 41 9f bd 32 98 53 3d 80 bc 23 bc f6 65 01 bd
       -0.077761866 0.051658817 -0.009993672 -0.03159138
000260 d5 df 7c bd 9f e4 ec 3d f0 e7 fb bd 2e a4 f3 bb
       -0.0617369 0.115670435 -0.12300098 -0.007435343
000270 89 2e bf 3d d5 5f dd bc 01 10 f1 3d 26 be c0 3c
       0.09335048 -0.027023235 0.11770631 0.02352817
000280 d0 ba a1 3d 26 a1 a3 bd 40 35 5a bd 48 22 a6 bd
       0.0789696 -0.07989721 -0.05327344 -0.081120074
000290 20 75 31 bc c5 f6 7a 3d 20 43 9c 3d 06 27 d6 bd
       -0.010831147 0.061270494 0.076299906 -0.10456662
0002a0 53 c7 be 3b 4c 3c 2c 3c 37 47 c3 3d 04 f5 f9 3d
       0.005822101 0.010512423 0.095350675 0.12204936
0002b0 fc cc ee bd c4 1b ad 3d 44 98 21 bd 84 3d 69 bd
       -0.116601914 0.084525615 -0.039451852 -0.05694343
0002c0 f4 63 f5 3d e0 d2 6b 3c e7 00 46 bd 20 61 db bd
       0.11981955 0.014393538 -0.048340704 -0.107118845
0002d0 e4 2c ec bd 43 d1 e5 bd 89 e6 b1 3d 85 13 e2 bd
       -0.11532 -0.11221554 0.08686549 -0.11038879
0002e0 b1 a2 3e 3d 3c 0c ea 3d 43 60 aa bd ea 5a 57 bc
       0.046541873 0.11428115 -0.08319142 -0.013144234
0002f0 d4 f7 b8 3d 40 1b eb bb 5f ab ba bd f0 82 26 bc
       0.090316445 -0.0071748793 -0.09114718 -0.010163054
000300 de 75 eb 3c 44 6d f6 bd 6c 2a e2 bd 29 2a dd bd
       0.028742727 -0.120325595 -0.110432476 -0.10799057
000310 8b 56 7e bc d9 95 d0 bd 77 63 6d 3d ae 05 fe bd
       -0.015523563 -0.10184831 0.057956185 -0.12403427
000320 90 16 6e bc 96 00 4c bd 6a ce 27 bc bd 0f 56 3b
       -0.0145317465 -0.049805246 -0.010242084 0.003266319
000330 d2 c3 ab 3d 04 fc 1c bc 11 2a e1 3d 01 8a 96 bc
       0.08386959 -0.00958157 0.10994352 -0.018376352
000340 03 01 f2 3b 72 f8 56 3d c7 7f 08 3e b6 dd ed bd
       0.0073853745 0.05248303 0.13329993 -0.11614554
000350 e4 8e 98 3d 81 c0 b0 3a c3 d9 6c 3d 66 f2 72 bd
       0.07449129 0.0013485105 0.05782486 -0.0593132
000360 f6 e3 0a 3d 03 a2 37 3d 4c 4c c0 bd fc 89 72 bb
       0.033908807 0.04483224 -0.093895525 -0.0037008515
000370 4c 6d aa 3d 3e dc 2c 3e 0b c7 0b 3d e9 d3 a8 3b
       0.08321628 0.1688089 0.03412537 0.005152215
000380 aa ca af 3d 10 bf 83 3d d4 c8 06 3e 5a 97 ec bc
       0.08583577 0.06432927 0.13162547 -0.028880764
000390 9a 3c f8 bd 93 9e bb 3d dc 6a 18 3e c1 e9 d6 3d
       -0.12120934 0.09161105 0.14884514 0.10493804
0003a0 27 30 90 bd 1d f2 e7 bd eb 3c 04 3e 21 d3 99 3d
       -0.07040434 -0.11325476 0.12913863 0.07510973
0003b0 90 18 91 bd a2 d8 6c 3d 68 a5 e8 3c 65 42 5d bd
       -0.07084763 0.057823785 0.028399184 -0.054018397
0003c0 75 0c 0c 3e 81 6b a5 bc a5 1c 78 bc 5c 67 ca 3d
       0.13676627 -0.020192863 -0.015143548 0.098829955
0003d0 b5 35 df bd 2e 18 17 bc 9f 7b 6f bd a6 c0 39 3d
       -0.10898916 -0.0092220735 -0.058467504 0.04534974
0003e0 5d d9 82 3d f5 87 aa 3d dd b1 df 3d 74 b1 cb 3d
       0.06389115 0.08326713 0.109225966 0.09945956
0003f0 06 08 e2 bd 78 fd ca bc dd be c3 3c 2e 43 38 3d
       -0.110366866 -0.024779066 0.023894722 0.044985943

net.6.bias f4 [64]
000000 fd f9 d9 bd c1 4a 7d bc 30 a8 a7 bd 36 24 b6 3d
       -0.106433846 -0.015459717 -0.08186376 0.088936254
000010 68 9c 04 3e d5 2a fb 3d 93 08 17 bd 2b 66 ff 3c
       0.12950289 0.12264029 -0.03687341 0.031176647
000020 c8 ad 8b bd 20 d8 9e 3d 7d 96 53 3c f1 9f 0b be
       -0.068202555 0.07756066 0.012914297 -0.13635232
000030 f4 f0 7e 3d 70 f6 ac bd 72 3b ef 3d 2f 03 c7 bd
       0.06224151 -0.08445442 0.1168126 -0.09717404
000040 e8 cd 83 3c 68 f7 91 bd e9 a1 56 3d f9 37 a1 3d
       0.016089395 -0.07127267 0.052400503 0.07872004
000050 15 b9 f1 3d 98 41 aa bd bf c9 13 be 2e a5 b2 bd
       0.1180288 -0.08313292 -0.14432429 -0.08722912
000060 53 cc e5 bd 51 d7 75 bd 50 d6 98 bd 75 07 e3 bc
       -0.112206124 -0.060019795 -0.07462752 -0.027713517
000070 99 00 b6 3c 95 93 2a bc 9c 09 ba 3d 70 7e 37 bd
       0.022217082 -0.010411163 0.09083864 -0.044798315
000080 a4 d6 12 bd 13 21 dd bc bf 8e 14 3d e4 39 c6 bd
       -0.03584923 -0.02699331 0.036268946 -0.096790105
000090 78 f7 0f 3e eb 17 95 bd dd 6d bb 3d 81 84 37 bd
       0.14059246 -0.072799526 0.09151814 -0.0448041
0000a0 04 e4 5c bd a5 da 40 3d af df ba ba f4 e6 62 3c
       -0.05392839 0.047083516 -0.0014257337 0.013849009
0000b0 1c 1d b2 3d 7c 65 4d 3d ee ef e7 3d b2 52 7e 3d
       0.086969584 0.05014561 0.1132506 0.062090583
0000c0 18 9e 53 bd 35 b9 7c 3b 6e d4 e3 bd 99 02 61 bd
       -0.05166444 0.003856254 -0.11124502 -0.054934118
0000d0 cb 8e 7c bd 76 57 9f 3a 47 23 9b bd 65 87 b3 3c
       -0.061659615 0.0012156803 -0.07575088 0.021915147
0000e0 db f4 fa 3d 09 28 ab bd 41 63 d6 3d a3 2c 8c bd
       0.12253734 -0.083572455 0.1046815 -0.06844451
0000f0 e0 8c 10 bc d0 1a c1 bd 60 49 04 3e 57 2e 44 bc
       -0.00882265 -0.09428942 0.12918615 -0.011973939

net.8.weight f4 [1, 64]
000000 fd 0f 20 be a2 9d 29 3d 66 7d 57 3c 34 92 30 bd
       -0.15631099 0.041410096 0.013152456 -0.04310818
000010 ad e2 d4 3d 59 82 b2 bd 28 69 a7 bd f5 d6 fb bd
       0.103947975 -0.08716268 -0.08174354 -0.12296859
000020 53 0f 8a 3d 98 a7 96 3d a5 8d 44 3e 90 4c 96 3d
       0.06741204 0.07356185 0.19194658 0.07338822
000030 b4 d8 96 3d 17 d7 1d be ce 45 0c 3e 0d 1e c1 3d
       0.073655516 -0.15414082 0.13698503 0.0942956
000040 61 57 43 bd 17 ff 45 be 1f 4d 4c bd 9e 9a 16 be
       -0.047690753 -0.1933559 -0.049878236 -0.1470742
000050 f4 b1 9d 3d c4 16 ed 3d b7 4d ba bd dc 42 12 be
       0.076999575 0.11576608 -0.09096854 -0.14283317
000060 64 66 7c bd 89 05 02 3e 24 8b 01 be 7b a7 22 3e
       -0.061621085 0.12697424 -0.12650734 0.15884201
000070 79 46 49 bd a6 e3 f1 3d 6b 24 ca 3d 68 0d 53 bd
       -0.049139474 0.118109986 0.098702274 -0.051526457
000080 2e 2b b0 bd 5a de 04 3e 37 14 17 bd be 1c c2 bd
       -0.08601986 0.12975445 -0.036884513 -0.094781384
000090 5c 67 5e bd 6d 1a b3 bd e1 59 ed bb 5b 3c 07 3e
       -0.05429779 -0.08745275 -0.0072433804 0.13206618
0000a0 45 05 07 be 82 d2 83 3d 92 a6 8a bd af 68 b7 3d
       -0.13185604 0.064366356 -0.06770052 0.08955514
0000b0 f0 14 aa 3d 22 f6 df 3d 3b 5b 9f bd 09 1b af 3d
       0.08304775 0.10935618 -0.07781073 0.085500784
0000c0 89 d7 12 3d ed a9 0e be d7 0f e1 bd 20 b2 09 3e
       0.03585008 -0.13932009 -0.10989349 0.13446856
0000d0 b4 ec d9 3d e7 81 10 3e 8a c5 3f 3d 23 99 03 be
       0.10640851 0.14112054 0.046819247 -0.12851386
0000e0 2d ea f2 3d 71 89 70 bd ce dd a1 3d 87 8a 2a 3e
       0.11861072 -0.058724824 0.07903634 0.16654406
0000f0 80 97 b4 bd e3 44 17 3e 1a 0f 77 bd 7b 1c e2 bd
       -0.08817959 0.14772372 -0.060317136 -0.110405885
