models/nf/baseline/flow_state.pt (torch, 33506 bytes, 14 tensors)

0.unnormalized_widths f4 [3, 8]
000000 e6 19 c1 3f 4f a4 5f 3f 2c 2a 70 3f 97 06 26 c0
       1.5086029 0.8736009 0.9381435 -2.5941522
000010 3f bc 3b 3f 20 f1 f9 be 94 90 82 3f 8f 87 96 be
       0.73334116 -0.48816776 1.0200372 -0.29400298
000020 06 cd 95 3e a8 9c 42 bf fa d2 20 bf 93 09 00 3f
       0.29257983 -0.7602029 -0.62821925 0.5001461
000030 e7 a5 8c bf 92 23 d4 3d 43 83 13 c0 73 ae 51 be
       -1.0988129 0.10358347 -2.3048866 -0.20476703
000040 95 a2 35 be 01 d7 95 be b8 3b f7 3e 42 95 be be
       -0.17737801 -0.29265597 0.4828775 -0.3722325
000050 e9 30 01 3f d6 ba d1 bc 0e 71 46 bf d7 80 ca 3e
       0.50465256 -0.025601786 -0.7751626 0.39551422

0.unnormalized_heights f4 [3, 8]
000000 ae b9 60 3e 73 38 fb 3f eb 21 43 40 14 13 ab bf
       0.21945831 1.9626602 3.0489452 -1.3365197
000010 24 3d 78 3e 1f 57 43 bf f2 f1 26 c0 32 36 00 c0
       0.24242073 -0.7630481 -2.6085172 -2.0033078
000020 4c 0b 9d 3f 3c 6d 21 3f 06 97 ff 3f 15 74 c9 3e
       1.2269073 0.63057303 1.9967964 0.39346376
000030 98 0d 2f 3f 8b 2e 0f 3e 9d a9 37 bf 53 bd ce 3f
       0.6838012 0.13982598 -0.71743184 1.6151527
000040 b0 77 09 bf 62 57 08 3e af 8c 8c be e2 1a 44 3f
       -0.53698254 0.13314584 -0.27451083 0.7660352
000050 07 85 7e 3f 89 8f 3d bd f7 90 bd bf 7f 8c fe bd
       0.99421734 -0.046279464 -1.4809865 -0.12429141

0.unnormalized_derivatives f4 [3, 7]
000000 4d 8e b4 bf 2d 66 21 40 1f 74 0c 3f 82 7a a5 3f
       -1.4105927 2.5218613 0.54864687 1.2928011
000010 50 ba 11 c0 22 3c 33 c0 51 4e 2c 40 b6 bc a8 be
       -2.2769966 -2.8005452 2.69228 -0.32956475
000020 51 56 27 bf 32 68 f8 3e 4f bc 3f 3f 4d 1b f4 3e
       -0.65366083 0.48516995 0.7489671 0.4767708
000030 60 0d a2 be 2e f7 a2 3f 98 ee 37 be 29 09 2a bf
       -0.3165083 1.2731683 -0.1796211 -0.6642023
000040 6f c9 17 bf 9d 21 ca 3f 5b 49 98 3f e6 6b fa 3e
       -0.5929174 1.5791508 1.1897386 0.48910445
000050 b1 e2 6d bd
       -0.058077518

0.unnormalized_lambdas f4 [3, 8]
000000 02 38 11 c0 fc 6f 25 40 9a e7 91 3f 9c dc 68 bf
       -2.2690434 2.58496 1.1398804 -0.90961623
000010 8d a5 b3 3d 11 b5 46 c0 b6 bc d1 3f 0d d1 8c 40
       0.08771811 -3.1048014 1.6385715 4.400519
000020 13 50 9c 3e 3f be e9 3e 58 05 6e 3e d5 e4 9c 3e
       0.30529842 0.4565296 0.23244226 0.30643335
000030 c7 a4 95 3f 7b 21 6e 3f ec e1 27 3f 40 e1 9c 3d
       1.1690911 0.9301984 0.65579104 0.076601505
000040 d2 f3 79 3f 43 75 09 3f 20 da 88 3f 86 f7 80 bf
       0.97637665 0.5369455 1.0691566 -1.0075538
000050 09 86 54 3f 0f 28 45 3f 47 d8 f5 3e ad 24 4f 3f
       0.8301702 0.7701425 0.4801657 0.8091534

1.nn.layers.0.weight f4 [30, 1]
000000 c7 16 4d bf f4 67 27 3f 43 3b 0c bf 48 d1 30 be
       -0.8011288 0.65392995 -0.54777926 -0.17267334
000010 26 95 a8 3d 77 e9 02 3f e4 32 f1 3d c9 93 19 3f
       0.08231573 0.5113749 0.11777285 0.5999113
000020 88 61 1b bf c6 e0 77 3e 82 6d 41 be 70 f4 5a be
       -0.60695696 0.24206838 -0.1888943 -0.21382308
000030 fe 25 48 bf 64 1b 21 3f 90 5a 1a 3d c7 c4 ba 3e
       -0.7818297 0.6293242 0.037684023 0.36478254
000040 1a 4f a7 3e 46 ab b9 3e c6 40 e8 be 1b c6 21 3f
       0.32677537 0.36263484 -0.45361918 0.6319291
000050 d8 63 a8 3e 81 18 a8 bd 6d 5f 29 bf 84 e3 67 3d
       0.32888675 -0.08207799 -0.66161233 0.05661346
000060 ca 68 7b bd 35 bd 3d be d1 9c 61 3f 28 8b ad bc
       -0.06137923 -0.18529208 0.8812991 -0.021184519
000070 ae 8f 29 bf 41 7e 14 bf
       -0.6623486 -0.5800515

1.nn.layers.0.bias f4 [30]
000000 15 48 f4 bd 9c e7 ad 3e 06 f5 ea be 32 11 12 bf
       -0.11927811 0.33965766 -0.45890063 -0.5705749
000010 80 f1 db be 74 21 5c bf 60 7f 92 3d 94 ec 19 3f
       -0.42957687 -0.85988545 0.07153201 0.60126615
000020 7d bf 8f bf 54 3f 39 3e 17 19 01 3f 21 2b 24 3e
       -1.1230313 0.18090564 0.5042891 0.16032077
000030 67 01 ce be 6a f8 2d 3e e9 ee a9 3e 44 44 f5 3e
       -0.40235445 0.16989294 0.33190086 0.47903645
000040 ae 05 5c be 32 41 86 be 20 5d 1d 3d 2a 62 e0 bd
       -0.21486542 -0.26221615 0.03841889 -0.10956223
000050 03 4d 60 be 16 04 de 3e 3b 83 8c 3f d7 4e 9a bd
       -0.21904378 0.43362492 1.0977548 -0.07534569
000060 9e 05 9f be 7d 80 41 be 06 72 da 3d a7 05 79 bd
       -0.31058973 -0.1889667 0.106662795 -0.060796406
000070 e6 00 dd 3e 38 94 35 bf
       0.43164748 -0.7092929

1.nn.layers.1.weight f4 [4, 30]
000000 57 4d 81 be 04 fd 5b 3e 43 74 b0 bd a0 c7 14 bc
       -0.25254318 0.21483237 -0.08615925 -0.009080797
000010 97 50 b9 bd cf 7a 6d 3e c5 fc 9b 3c 9a bc a8 3d
       -0.090485744 0.23191379 0.019041428 0.08239098
000020 20 f2 35 bc b7 00 17 3e 33 12 15 bc 20 02 87 be
       -0.01110509 0.14746366 -0.009098577 -0.2636881
000030 b4 a9 8e be 05 3d 3f 3d 49 01 18 3d 8e e8 17 3e
       -0.27863848 0.046689052 0.0371106 0.14834806
000040 eb 93 12 3e 37 59 6a 3e e3 80 25 be bb 2e a8 3d
       0.14314239 0.22885595 -0.16162448 0.08212038
000050 23 c2 9c 3e a0 8e 19 be 48 8d 20 be 03 94 91 3c
       0.30616865 -0.14995813 -0.15678895 0.017770773
000060 14 f8 19 3d c4 18 0b 3c 6a 0d 53 3e 6c e3 16 be
       0.0375901 0.008489791 0.20610586 -0.14735192
000070 8d 2b 9e be 4b 7a 0b be 64 aa 8d 3e f0 63 0a 3d
       -0.30892602 -0.1362087 0.2766906 0.033786714
000080 3c 69 f3 3d 94 e1 c3 3d 09 c0 e9 3d 60 9b f5 bd
       0.11885306 0.0956451 0.11413581 -0.11992526
000090 03 bf 39 be 35 71 84 be 14 8b 33 bf 1b c0 fc bc
       -0.18139271 -0.2586762 -0.7013409 -0.030853322
0000a0 64 53 a3 be ee f5 2a be 1b 12 67 3e 91 39 5d bd
       -0.3189956 -0.16695377 0.225655 -0.054009978
0000b0 01 a0 a3 be 90 3c 49 be ba a7 1c 3e 6c df e0 3d
       -0.3195801 -0.19652009 0.15298358 0.10980114
0000c0 49 ed 0c 3e 73 be 4c bc ba ab 54 3d f7 30 5a be
       0.13762392 -0.0124965785 0.051921584 -0.21307741
0000d0 e2 ac a5 be 63 4d 3b bd d5 23 71 be 50 b1 86 3d
       -0.32358462 -0.0457281 -0.23548825 0.065767884
0000e0 dd 66 bc bd 24 71 c1 3c 64 26 9e 3d 8c c6 dd 3e
       -0.09199307 0.02361352 0.07722166 0.43315542
0000f0 bf a1 03 be e6 2c 22 3d 17 ca f9 3c 48 bf 8a 3d
       -0.1285467 0.0395936 0.030491872 0.06774765
000100 a1 45 23 3e 75 d9 8b 3d 45 37 e7 bc 81 55 0c be
       0.1594453 0.06828586 -0.028224597 -0.13704492
000110 e1 31 8e 38 bd 7a 8d bd f2 f8 6f be 45 54 85 3d
       6.780378e-05 -0.06908176 -0.23434809 0.06510214
000120 bd cb 5b 3e 30 29 fe 3d 40 bd de bd da cf 84 be
       0.21464439 0.124102 -0.1087594 -0.25939828
000130 89 97 b7 3d de b5 19 3e 8f c9 07 be 8e 5f fe 3c
       0.0896445 0.15010783 -0.13260482 0.031051423
000140 a6 5a e4 bd f3 37 f0 bd 55 60 23 be bb f2 ab bc
       -0.11150102 -0.117294215 -0.15954717 -0.020989766
000150 c2 27 ca 3c e3 d5 b2 bd 97 34 17 3e fa ee 1c 3e
       0.024677161 -0.08732202 0.14766155 0.15325537
000160 f1 a0 84 bd ed fa 89 3e c8 fd 76 be 63 00 23 bc
       -0.0647601 0.26949254 -0.24120247 -0.009948823
000170 c5 19 88 bd b0 f7 8a 3d 8a c3 fa bc dc 5d ba be
       -0.0664554 0.06785524 -0.030610818 -0.36399734
000180 ff e4 05 3e 74 5f eb 3d 4d f0 91 be 71 cc 31 3e
       0.13075636 0.114928156 -0.28503647 0.17363144
000190 c2 dd 7d 3e 2b 66 2d 3e 54 c6 42 be cf 76 bb bc
       0.24791625 0.16933505 -0.19020969 -0.0228838
0001a0 ab 33 ef 3e 92 e2 da 3d 8c e0 5f bd c6 6f 72 be
       0.46719107 0.10687746 -0.054657504 -0.2367545
0001b0 c8 b8 e8 bd 8a 33 33 3e 7c ef de be 71 b2 5d 3d
       -0.11363369 0.1750013 -0.43542087 0.054125253
0001c0 62 13 b5 3e e8 90 63 3e cb c1 00 3e cb f6 0e 3e
       0.3536635 0.22223246 0.12573926 0.13961332
0001d0 fd 19 77 3e df 8d b7 3d 9c d2 e3 3d ac 03 a8 be
       0.24131007 0.08962607 0.11124155 -0.328153

1.nn.layers.1.bias f4 [4]
000000 75 5c 11 be a4 a5 d3 bd f1 bf ea bc 70 c1 0e 3e
       -0.14195426 -0.10334328 -0.028655978 0.13940978

2.nn.layers.0.weight f4 [40, 3]
000000 ca 12 02 bf 89 16 e1 be eb 73 ae be f5 3d 9f be
       -0.5080992 -0.43962505 -0.34072813 -0.31101957
000010 37 32 0a bc 72 f8 1e 3f 81 0c 3a 3e 8c 47 b5 be
       -0.008434824 0.6209785 0.18168832 -0.35406148
000020 80 5d 98 be 54 b0 e9 3e 5b 40 85 be 4e ea 01 3e
       -0.29758835 0.4564234 -0.26025662 0.12687036
000030 7e cd 8d 3e 0d cf 88 be 20 ee 80 bd 0d 58 62 3b
       0.2769584 -0.26720467 -0.06295419 0.0034537346
000040 5d 79 a9 bd 90 57 9e be d0 5d d0 be ef d1 b7 be
       -0.08275101 -0.3092618 -0.40696573 -0.35902354
000050 40 83 bc be 2a 5c 35 3f 67 46 03 be a5 bf 03 bc
       -0.36818886 0.70843756 -0.12819825 -0.008041297
000060 80 41 06 3e 09 bc 19 3e ab 4a 2c 3d e7 ee c0 3e
       0.13110924 0.15013136 0.042063396 0.37682268
000070 13 c5 84 3e 8f e6 95 be 64 51 06 3d ac a1 a9 3e
       0.25931606 -0.29277465 0.032792464 0.33131158
000080 a7 ee dc 3d 0c bc f8 be 0e 26 cf 3e 37 56 df be
       0.10787707 -0.48580968 0.4045872 -0.43620464
000090 dc bf 28 be 27 8f b6 be 2c 3f 0c bc 29 77 8c 3e
       -0.16479439 -0.35656092 -0.008559983 0.27434662
0000a0 4d b2 15 3e bf 17 68 3d 5b 2a 93 be 35 0d c7 be
       0.14618798 0.05666327 -0.28743252 -0.38877264
0000b0 06 67 06 3e d6 7f cf 3e 6c d1 58 3e d9 d1 94 bd
       0.13125238 0.4052722 0.21173638 -0.07266588
0000c0 79 44 88 3d 88 53 91 be 2b 66 e0 bd 75 b4 05 3e
       0.06653685 -0.28384042 -0.10956987 0.1305712
0000d0 98 4c ae 3e 88 7c 40 3e 6c 3e 10 bf 2a 72 b4 3e
       0.3404281 0.18797505 -0.5634525 0.3524335
0000e0 45 0b f0 be ba e9 b4 3d b4 99 b8 3e 15 60 01 bc
       -0.46883598 0.08833642 0.36054766 -0.007896443
0000f0 57 eb a1 3e 75 6a 33 bf 9c f7 a1 be f6 fd 2b 3f
       0.31624863 -0.70084316 -0.31634223 0.6718439
000100 9c 6b 56 3e 7d c9 4a 3d d4 bc 87 bd c3 8c 12 3f
       0.20939487 0.04950856 -0.06627813 0.57246035
000110 db 71 01 3f b6 51 ad 3e 6c 0f 2f be d1 58 21 be
       0.50564355 0.33851403 -0.17095727 -0.15756537
000120 ee 2a 9c 3d 50 4b 3d 3e c8 0a 94 bd 97 29 01 be
       0.07625376 0.1848576 -0.07228619 -0.12613522
000130 a0 bc d9 3e 9e 02 2f bc 48 ff f4 3d fc c5 46 bd
       0.42526722 -0.010681776 0.119627535 -0.048528656
000140 5f aa a3 be 49 81 82 be 54 b0 45 3c c1 90 b4 bd
       -0.3196592 -0.25489262 0.012065966 -0.08816672
000150 a5 f3 eb 3d 60 57 6e be 9f 86 af bd 0d 93 2c 3f
       0.11521081 -0.23275518 -0.08570599 0.6741188
000160 c1 34 a6 3e b2 d6 7b 3e 25 68 6a bd 8f 83 5e bc
       0.32462123 0.24593619 -0.057228226 -0.013581171
000170 22 8c 38 3e b5 35 c6 be 4f 85 c2 be 62 43 be bd
       0.18022206 -0.3871285 -0.3799233 -0.09290196
000180 a6 03 f6 bd 7f 01 af be 33 64 a3 3e 88 20 0c 3f
       -0.12012415 -0.3418083 0.31912383 0.5473714
000190 1c 0e 35 3e 2a a2 17 be 4e 85 95 be 29 b2 04 3d
       0.17681164 -0.14807954 -0.29203266 0.03239647
0001a0 d4 46 70 3c b5 c7 9a 3e 22 a9 31 bd 6c 1a b9 bb
       0.014665324 0.3023049 -0.04337419 -0.0056489017
0001b0 3d f5 c7 3e 30 1e c8 be 93 dd 07 3f 69 88 78 be
       0.3905429 -0.3908553 0.5307247 -0.24270786
0001c0 08 8f 22 bc 16 46 c3 be ec 29 5d 3e 4f 1f e9 bc
       -0.009921797 -0.3813941 0.21598023 -0.028457312
0001d0 6c ed ba 3e e8 09 88 bc 8b b9 e5 3e 86 ad 17 3f
       0.36509264 -0.016606286 0.4486812 0.5924915

2.nn.layers.0.bias f4 [40]
000000 8f 61 82 be ec c0 3b bf 33 dc bc 3e 66 3f cb 3e
       -0.25465056 -0.7334125 0.3688675 0.39696807
000010 06 b5 e1 be 40 0a 0a be 55 bc 08 bf ee 76 83 bf
       -0.44083422 -0.13480473 -0.5341237 -1.027067
000020 20 39 96 bb b0 20 9e bd b1 89 85 bd 04 36 b4 be
       -0.0045844465 -0.077210784 -0.06520403 -0.3519746
000030 bc 91 09 3f ca 68 f2 3d 78 52 fd be fc db ca bd
       0.53738 0.11836393 -0.4947698 -0.0990524
000040 ba 4f 6a 3d 46 58 13 3e d8 48 74 bf ec 08 5e 3e
       0.05720494 0.14389142 -0.9542365 0.21683091
000050 51 4b 1c bf 86 4c 21 bf 11 c5 91 bf 8b 2e f9 3e
       -0.61052424 -0.6300739 -1.1388265 0.48668322
000060 8f f9 ae 3e 1d 8c 10 3e e5 9c 88 3e d4 76 97 3e
       0.34174773 0.14115949 0.266822 0.29582846
000070 38 c7 ef be bb a7 f4 be ac 58 78 3e 3e d6 e0 be
       -0.4683168 -0.47784218 0.24252576 -0.43913454
000080 05 b8 34 bf 0b ef ad be ea ef 11 3e 41 18 11 3e
       -0.7059329 -0.33971438 0.14251676 0.14169408
000090 87 3a 52 bf 0e a1 c5 be 9c 7c 11 3e 63 d1 5b bf
       -0.82120556 -0.38599437 0.14207691 -0.85866374

2.nn.layers.1.weight f4 [40, 40]
000000 23 7f 2b be 78 1c 36 3b ea e9 c9 bd e0 0a 86 3d
       -0.16747718 0.0027787965 -0.09859069 0.06545043
000010 7b 80 1d 3e a0 e8 96 bc 84 f4 04 bc 46 b0 dd bc
       0.15381043 -0.018421471 -0.008114938 -0.027061593
000020 f5 f3 a7 bd f5 db a8 bd 3b 49 97 bd 3e 20 c3 bb
       -0.08200828 -0.082450785 -0.073870145 -0.0059547713
000030 c0 08 8f 3d 01 07 f5 bd 71 bf 0d be b8 21 e2 bd
       0.06984091 -0.119642265 -0.1384256 -0.110415876
000040 2d e9 17 be f7 99 6a bd c0 70 6d 3d bd 6e 44 3d
       -0.14835043 -0.05727574 0.057968855 0.04795717
000050 06 71 4d 3c 4a 65 36 be 64 78 36 be e5 ec dc bd
       0.012539154 -0.17812076 -0.17819363 -0.107873715
000060 a1 de d4 bd d4 a4 88 bd e6 45 5c be b9 4b d4 bc
       -0.103940256 -0.066720635 -0.21511039 -0.025915014
000070 3a 5b 3a be db d6 36 be 44 f7 58 be 01 71 91 3d
       -0.18198863 -0.17855398 -0.21188074 0.07101632
000080 aa 21 66 be 96 26 40 3d 08 fd a8 bd 85 bb bd bd
       -0.2247378 0.0469118 -0.08251387 -0.09264282
000090 6f 63 88 3c a3 eb 98 bd d1 5a 3f 3c 92 0a 03 3d
       0.016648976 -0.07466819 0.011679367 0.031992503
0000a0 83 1c 4a bf e4 a5 9c 3a 74 8a c1 bc 89 e2 e1 bd
       -0.78949755 0.0011951295 -0.02362559 -0.11029536
0000b0 20 19 bd 3c fd ac 31 3e 11 95 29 bf ec b4 51 3e
       0.02308327 0.17351146 -0.6624308 0.20479172
0000c0 6f 0c c9 3d f8 28 84 3e 78 8e b2 b9 3a 58 19 3e
       0.09816825 0.25812507 -0.00034056953 0.14975062
0000d0 35 91 40 be ca f6 6c bd 0c 42 8a 3d 39 20 07 3d
       -0.18805392 -0.057852544 0.06750879 0.032989714
0000e0 ad ed f5 bd 07 71 18 be 09 e8 03 3f a3 39 5c 3e
       -0.12008224 -0.14886867 0.5152593 0.21506362
0000f0 55 4d 8b bd e5 72 4d 3e 0c b3 ba be 42 34 27 3e
       -0.06801859 0.2006336 -0.36464727 0.16328529
000100 4e 20 9e 3a 77 e4 a3 3c 73 8e 31 3e 69 ab 54 be
       0.0012064071 0.020006401 0.17339496 -0.20768513
000110 b7 e4 e4 3c 2b b2 4b bc 45 a1 e7 be 1a 09 fa 3a
       0.027941091 -0.012432615 -0.45240226 0.0019076199
000120 1b 4d 10 bd 32 40 6f 3e b1 d9 4a bd cd 87 38 3e
       -0.035229784 0.23364332 -0.049524013 0.18020554
000130 1a 7d 8c 3d 03 77 12 3e 97 a0 2e bf e0 6e b4 be
       0.06859799 0.14303212 -0.6821379 -0.3524084
000140 8e 65 29 be 84 ae 0e be be 5f 1e be f8 4d 62 be
       -0.16542646 -0.1393376 -0.1546621 -0.22100055
000150 1e 61 15 be dd 1c 29 be 71 9d 1f be a0 6a 2f be
       -0.14587829 -0.16514917 -0.15587403 -0.17130518
000160 a4 53 56 bc b9 94 69 3d 41 e2 f9 bd 8c ba f6 bd
       -0.013081465 0.0570266 -0.12201358 -0.120473
000170 97 a4 c7 3c 3d 41 1c be 80 1c 99 bd 98 fd ba 3c
       0.024370475 -0.15259261 -0.07476139 0.022826001
000180 76 99 52 be 04 0b 57 bd b5 67 8f 3d 4f f3 3f bd
       -0.20566353 -0.05250074 0.070022024 -0.046862897
000190 b2 96 cd bc 09 46 12 be 04 ce 8b bd 53 01 8a bd
       -0.025096271 -0.14284529 -0.06826404 -0.06738534
0001a0 3f 5b 14 bd 6b 8a 4a bc 09 9a 80 3d 80 2a 3f be
       -0.03621983 -0.012362103 0.0627938 -0.18668556
0001b0 67 84 8e bd 77 c6 1b be ed 90 3d be b0 71 4f bc
       -0.069588475 -0.15212427 -0.18512316 -0.012661383
0001c0 97 84 0e be 95 54 14 3d e8 02 96 3c 58 8a 24 be
       -0.13917767 0.036213476 0.018311933 -0.16068399
0001d0 d3 ec b8 3c 1e 3c 19 be 19 e9 f8 bd a4 95 cb bd
       0.022573864 -0.14964339 -0.12153835 -0.09940651
0001e0 f7 94 09 be 5e e9 cd bd 0c 5b a2 bd fc 31 88 3d
       -0.13435732 -0.10054277 -0.07927522 0.06650159
0001f0 05 59 1c 3e 62 08 ce 3d ea 5b c1 bd 1c d9 d3 bd
       0.15268333 0.10060193 -0.09441359 -0.10344145
000200 58 16 ad 3d 38 17 21 3b 1d ce 49 bd a0 4a af 3c
       0.08451527 0.002458049 -0.04926883 0.021397889
000210 1c e0 38 be 9e 9f d9 bd 2d db 1b 3e 71 5e bd bd
       -0.18054241 -0.10626148 0.15220328 -0.09246529
000220 b0 f3 01 bc dd 30 3d be 4a 25 b5 bd be 3c 68 bd
       -0.007931635 -0.18475671 -0.08845003 -0.056698553
000230 62 24 c9 bd 30 a0 a0 bc c8 c7 83 3d cd 20 55 be
       -0.098213926 -0.019607633 0.064345896 -0.20813294
000240 7b 42 d5 bb f6 ce 21 be 23 c5 05 be 89 c8 e9 3d
       -0.006508169 -0.15801606 -0.13063483 0.11415202
000250 a1 bc 00 3e bc 01 c6 bd f1 72 f2 bd 51 67 12 be
       0.12571956 -0.096682996 -0.118383296 -0.14297225
000260 95 fa a6 bd f2 84 44 be 74 39 14 bd 58 b7 ad bc
       -0.081532635 -0.1919134 -0.036187604 -0.02120559
000270 31 b0 17 be 57 5d 0d 3e 3a 50 3b 3d 70 3a 55 be
       -0.14813305 0.13805138 0.045730807 -0.20823073
000280 ab 9f 1a be 71 91 75 3c 36 07 c0 bd 49 98 4a bd
       -0.15099971 0.014988289 -0.093763754 -0.049461637
000290 64 35 92 bd 4b 48 63 3d 3d ee 25 be 6e ff 5a 3d
       -0.0713909 0.055488866 -0.16204162 0.053466253
0002a0 b8 62 e4 3d 4c 8f 64 bd 9d a5 ea 3c 48 12 d8 bd
       0.111516416 -0.05580072 0.028643424 -0.10550362
0002b0 bf 7b ee bd a4 50 b5 bd 52 d8 8e 3d 22 9d 52 be
       -0.116446964 -0.088532716 0.069748536 -0.20567754
0002c0 ae 44 cb bc 1e ff a1 bd ca 88 98 3c 61 ab 24 bd
       -0.024813022 -0.07909988 0.018619914 -0.040202502
0002d0 d0 73 84 bd ad ba ce 3c c5 d2 89 3d c0 dc e4 3c
       -0.06467402 0.025235498 0.06729654 0.027937293
0002e0 38 9d 52 be c7 5f 56 bd a8 f0 92 bb 0d 62 eb 3d
       -0.20567787 -0.052337434 -0.004484255 0.11493311
0002f0 54 d3 c1 3a 91 d6 50 be 2a a0 d5 3d f1 dc 9b bd
       0.0014787712 -0.2039435 0.104309395 -0.076105006
000300 98 de 6a bd 86 5b 6d be 28 40 48 bd af b3 b1 3c
       -0.05734119 -0.23179445 -0.04888931 0.021692125
000310 8f cb 42 3d 31 f9 fc bd f3 d2 67 3d 19 88 1c 3c
       0.04755741 -0.12352217 0.05659766 0.009553933
000320 e1 3d 0c 3e 63 df 99 be 68 58 b6 bd 8c cc 87 be
       0.1369548 -0.30053243 -0.08903581 -0.26523244
000330 d8 0e 7f bd 77 06 03 3e 74 12 ee 3d fd dc 6e bd
       -0.062270015 0.12795435 0.116246134 -0.05831622
000340 fe 7d 99 3d 16 3c 58 bd e7 22 e9 3b 29 d0 95 3d
       0.07494734 -0.052791677 0.0071147564 0.07315094
000350 14 de d5 3d a4 84 2f be 1c 52 c5 3d 1c 4f 16 3c
       0.10442749 -0.17140442 0.09634802 0.009174135
000360 34 b0 7e bd c2 ae 22 be fd 8e cd be 60 9e 35 bd
       -0.06217976 -0.15886977 -0.40148154 -0.04434049
000370 75 b3 74 bf d3 d8 32 bd 2b 8e 79 bd aa d2 6b be
       -0.9558633 -0.04366381 -0.060926598 -0.2302958
000380 88 71 34 be 81 b2 b6 bd 18 69 6f bc c3 e1 91 3d
       -0.17621434 -0.08920766 -0.014612459 0.07123139
000390 35 1c 86 be d3 30 4a 3d 09 56 94 3d d3 09 5b 3d
       -0.26193395 0.04936297 0.072429724 0.053476166
0003a0 d1 13 34 bf fd b1 17 be 23 9f b2 bd cc 02 01 be
       -0.7034274 -0.14813991 -0.08721759 -0.12598723
0003b0 89 e0 5a bd 5a 62 c2 3d e0 03 3a be 28 98 1b be
       -0.05343679 0.09491415 -0.1816554 -0.15194762
0003c0 e8 aa 61 bd e3 ad 1b c0 b9 fe 9a be 11 3c ab 3d
       -0.05509463 -2.4324882 -0.30272463 0.08361066
0003d0 75 06 a8 bd 4a 3f ce bc 74 c8 74 be 38 5c 69 be
       -0.082043566 -0.025176663 -0.23904592 -0.22789085
0003e0 31 23 35 3e 44 6a 04 3e a7 ac 55 3e fb 26 b5 bd
       0.17689206 0.12931162 0.20866643 -0.088453256
0003f0 94 d9 11 c0 79 1f 71 3e f5 cc 0c 3e fc 9c fb 3d
       -2.278905 0.23547162 0.1375006 0.12285802

2.nn.layers.1.bias f4 [40]
000000 a5 75 34 3d 6a 49 2c be 4e 18 39 be b5 e9 36 3d
       0.044057507 -0.1682488 -0.18075678 0.044656474
000010 1b 36 d5 bd a5 ac ab bd 4a 13 57 3e ad cb 45 3d
       -0.104107104 -0.08382539 0.21003452 0.048289943
000020 13 c2 11 3e 07 da 28 3d e0 16 36 be c5 83 8f 3c
       0.1423419 0.041223552 -0.17782164 0.017518887
000030 c7 7a a3 3d 63 93 a6 3d be 24 bd bd 68 84 83 3e
       0.07982402 0.081335805 -0.09235524 0.25686955
000040 ee c0 cb 3d 0a 29 9b 3c f1 b3 aa bd eb e4 ba bd
       0.09948908 0.018940467 -0.08335102 -0.09125694
000050 ac c8 07 3e 43 f1 65 be e3 80 54 3e b5 f4 99 bd
       0.13260144 -0.22455315 0.20752291 -0.07517377
000060 a7 80 bd bd 0d 43 51 3e 49 a9 86 bd b2 32 d4 bd
       -0.09253054 0.20435734 -0.06575257 -0.10361232
000070 bb a5 50 3d f0 9b 0a 3e 14 f2 75 3d ea 6d c0 3d
       0.050939303 0.13536048 0.060045317 0.093959644
000080 e1 d1 54 3d 87 f2 5a 3d 7a b1 c7 bc a5 39 aa 3d
       0.05195797 0.05345395 -0.02437662 0.08311776
000090 49 ac 97 3d 1a 3a 8e 3e b4 02 7d 3d f1 a7 04 3e
       0.07405908 0.27778703 0.061770156 0.1295469

2.nn.layers.2.weight f4 [124, 40]
000000 ab 9d 61 3d b3 8c f6 3d f6 7b 49 be 11 d1 80 3d
       0.055082005 0.12038555 -0.19676194 0.06289876
000010 e2 3f a7 3c 5b 49 fb 3d 9d 1c da bd 62 0e a2 bb
       0.020416204 0.12269851 -0.10649989 -0.004945562
000020 c3 60 8e 3d b4 26 19 bd 57 4a b5 bd 85 39 19 3e
       0.069520496 -0.037390426 -0.0885207 0.14963348
000030 a6 e5 88 be 38 03 44 be df da 45 bd fc 35 f2 3d
       -0.26737708 -0.19141853 -0.048304435 0.11826703
000040 1d 0a da bc ab 5e a0 3d 10 b1 cb 3d df d2 16 3e
       -0.02661615 0.078305565 0.09945881 0.14728878
000050 e1 63 3a 3e 54 d1 65 3d 3c 0e d6 bd 32 08 2c 3e
       0.18202163 0.056107834 -0.10451934 0.16800001
000060 f0 57 8f 3d c3 a5 93 3d f0 b2 c0 bd 09 d8 cc 3c
       0.069991946 0.07209351 -0.094091296 0.025005357
000070 f4 b9 09 be ba ef c2 bd 4d e7 d9 3d bb 84 14 3e
       -0.13449842 -0.095183805 0.1063982 0.14503758
000080 17 fd 20 3d f2 a4 1a be ac 99 26 bd 58 a5 6c bd
       0.039303865 -0.15101984 -0.040673897 -0.05777487
000090 6a 9f 08 be 9f 85 61 3e df f2 1a bd 65 14 87 3e
       -0.13342062 0.22023629 -0.037829276 0.26382747
0000a0 d3 44 60 3d bd 4a e2 bd c9 da f2 bd a6 15 6d 3d
       0.054753136 -0.110494114 -0.11858136 0.057881974
0000b0 55 11 80 3d 25 d1 17 3e 24 83 3f be 8d e1 7b 3c
       0.06253306 0.14825876 -0.1870237 0.0153736
0000c0 ce 71 d2 bd cc 60 fd 3d e9 c8 34 be 76 f1 0a 3e
       -0.10275613 0.12371978 -0.17654766 0.13568673
0000d0 db 2f fb bd 6e a3 5c be 64 2b 85 3d 74 2c 71 bd
       -0.12264987 -0.21546718 0.06502417 -0.058880284
0000e0 d1 8f 29 3d 77 e9 62 bd 0a 56 40 be 50 34 af 3d
       0.04139692 -0.05539843 -0.18782821 0.085549
0000f0 c2 fb e2 3d 1f 0d 83 bd 49 cf 1f 3e ef 0a ad bd
       0.11083175 -0.06398987 0.15606417 -0.08449351
000100 96 87 c5 bd 12 19 e3 bb 49 bc d2 3a 06 84 31 3d
       -0.096450016 -0.006930479 0.0016077842 0.043338798
000110 97 f7 ea bd a7 a3 3a be 67 e6 36 be d1 63 c2 3d
       -0.11473005 -0.18226491 -0.17861329 0.09491695
000120 77 07 86 bd 2f 3b 22 bd 25 a1 2d 3e 52 27 87 3e
       -0.065443926 -0.039607223 0.16956003 0.26397187
000130 16 bc e4 bd 81 c3 32 bd f2 bc 03 be 81 01 66 3c
       -0.11168687 -0.04364348 -0.12865046 0.0140384445
000140 13 b3 f3 3d d3 51 07 bd c9 11 5e 3d 52 4f 11 3c
       0.1189939 -0.033037018 0.05421618 0.008869009
000150 1a c6 dd bd 5b ff 3b 3a c6 d5 e3 bd 43 e4 73 3d
       -0.108288005 0.0007171535 -0.111247584 0.05954386
000160 44 e0 a9 3d 61 78 18 be 7e de 40 bd 9d d8 26 bd
       0.082947284 -0.14889671 -0.047087185 -0.040733922
000170 c0 5e a1 be c1 ad 50 be 7e 78 5e 3d 70 6f b8 3c
       -0.315176 -0.20378782 0.05431413 0.022514075
000180 11 ae 68 3d 8f b5 aa bc 56 37 ff bc 68 6d 84 bb
       0.056806628 -0.020838527 -0.031154316 -0.0040413626
000190 37 c8 22 3c 6b f4 90 bc b5 62 0a 3e 35 ac 12 3e
       0.00993543 -0.017694673 0.13514216 0.14323504
0001a0 5d 1b 92 bd 0a f8 91 3d 3d 83 29 bd dc f4 11 3d
       -0.071341254 0.07127388 -0.041384924 0.035633907
0001b0 3d 94 4a be 6a 99 45 be 53 aa 16 be 66 62 2c 3e
       -0.19783111 -0.19296804 -0.14713411 0.16834411
0001c0 89 95 50 3d 1a 28 44 be a8 77 1e be 52 33 7c 3d
       0.050923858 -0.19155923 -0.15475333 0.06157238
0001d0 d4 d1 ee bd 36 37 f8 3d ec 46 49 be 1d c2 ef 3d
       -0.11661115 0.12119906 -0.19655961 0.11706946
0001e0 f1 03 57 be 90 29 17 be 01 97 1f be 49 25 c0 3c
       -0.20997597 -0.14761949 -0.15584947 0.023455279
0001f0 0c e7 a2 3d 30 1b 92 3a 8e 9a d7 3c 14 8d cc bc
       0.07954225 0.0011147019 0.026318815 -0.024969615
000200 dc 1b ab be f7 5e 9b 3e 1e 58 10 bc 94 67 b6 bd
       -0.33419693 0.3034589 -0.008810071 -0.08906475
000210 8c 14 61 bc b8 3a 2c 3e c0 75 19 be 21 66 7f 3e
       -0.013737809 0.16819274 -0.14986324 0.24941303
000220 df 5a 3b be f2 ff 88 3e 68 92 a0 be a1 0a 96 3c
       -0.18296383 0.2675777 -0.313617 0.018315615
000230 4e 4b f3 bc 19 87 96 3d 7d 86 30 bb 72 de a5 3d
       -0.029698994 0.073499866 -0.002693563 0.08099069
000240 0b 61 b2 3d 10 9c 84 be 51 7c 21 3d 0a 8f 94 3d
       0.08709916 -0.25900316 0.039425198 0.07253845
000250 54 34 de 3d 72 7a 18 be 4d 52 27 be b6 5b f3 bd
       0.108498245 -0.14890459 -0.16339989 -0.11882727
000260 7f 23 42 be 62 37 af 3d 92 b4 57 be e3 34 28 be
       -0.18958853 0.08555485 -0.21064976 -0.16426425
000270 6d a5 24 3c 43 88 0e bf 7a f7 a9 bd 7d 96 9b be
       0.010049206 -0.5567667 -0.082991555 -0.3038825
000280 50 87 2e be 3e 96 d1 be b2 2a 07 be a4 ed 05 3c
       -0.17043805 -0.40934938 -0.1319988 0.008174334
000290 e2 6c 04 3e 39 c2 aa 3c ba 7c 11 be 47 71 b0 be
       0.1293216 0.020844566 -0.14207736 -0.34461424
0002a0 a4 c3 a9 bd c2 71 c6 bb bb e0 d4 3c bc df 98 3c
       -0.082892686 -0.0060560415 0.025986066 0.018661372
0002b0 06 a3 d8 3d ca e7 52 3e f9 bf 72 3d c6 b7 6e be
       0.10577969 0.20596233 0.05926511 -0.23312292
0002c0 7b ca 3d be 40 68 08 be 43 39 48 be 91 bb 31 bd
       -0.18534271 -0.13321018 -0.19553094 -0.043391768
0002d0 25 7b 01 be 2c 1f f9 bd 6b 14 67 be 95 ab cb bd
       -0.12644632 -0.12164149 -0.22566383 -0.09944836
0002e0 13 21 99 3d 34 76 be bd 77 51 a2 bd 6d 33 ed bc
       0.074770115 -0.09299889 -0.079256944 -0.028955186
0002f0 4e 17 35 bd a1 e6 e9 3d 93 ed 5f 3d 8d 2e a9 be
       -0.04421168 0.11420942 0.054669928 -0.33043328
000300 c4 6c 33 be 7d 75 e3 3c 36 8e 65 be 6b c6 dc 3d
       -0.1752196 0.027765984 -0.2241753 0.10780033
000310 31 16 af 3e 1e 75 0d bd a3 cf 4f 3d 3a f4 cc be
       0.34196618 -0.03453552 0.050735127 -0.4003008
000320 ac d9 79 bd 5e 65 01 3f 8c 42 12 bd 47 46 65 bd
       -0.060998604 0.505453 -0.035707995 -0.055975225
000330 83 6c ab bc b4 43 19 be c3 b8 d7 3c 07 0d 61 be
       -0.020925766 -0.14967233 0.026333218 -0.21977626
000340 e6 ca 19 3e 62 7a b9 3d 0a ba f0 bd dd ce 8e bc
       0.15018806 0.09056546 -0.11754234 -0.017432624
000350 3c 42 20 3e 39 bf 86 3d 35 5a b0 3d b0 22 20 3e
       0.15650266 0.065794416 0.086109556 0.15638232
000360 05 2e 11 3d 02 0c e1 bd 1b e9 ae 3c 9e cd 8c 3c
       0.03544428 -0.109886184 0.021351388 0.01718789
000370 4f 6e 77 bd c5 5a b1 3d ed c1 0b 3e 10 0d f0 bd
       -0.060407933 0.08659891 0.13648196 -0.117212415
000380 09 d7 dd bd 93 77 bd bd 11 af f6 bc 40 4d 89 bc
       -0.1083203 -0.092513226 -0.030112775 -0.016760468
000390 19 a8 49 3e c4 63 9a 3e ec cd e3 bd 55 e9 35 3d
       0.1969303 0.3015424 -0.11123261 0.044411976
0003a0 66 e9 5c bb fd 4c 74 3d 57 c2 45 3c e9 15 e4 bd
       -0.0033708452 0.059643734 0.01207026 -0.111369915
0003b0 ee a3 7a be 9a df 63 3c ce 52 d3 39 6c 8d 9a 3e
       -0.24476597 0.013908291 0.0004030675 0.3018602
0003c0 69 61 20 3e 95 7f a5 bd dd e2 59 3e 25 ec e6 bc
       0.15662159 -0.08080975 0.21277948 -0.028188774
0003d0 fd 7e 4a 3e d5 cb b2 3d 65 21 74 be f4 f0 84 be
       0.19775005 0.08730284 -0.23840864 -0.25965083
0003e0 96 b8 27 bb 80 d5 64 bd a0 ce f9 3d 62 4a 50 be
       -0.00255922 -0.055867672 0.12197614 -0.20340875
0003f0 79 a1 fd 3b b0 d0 42 3e af 63 b2 bc 32 c4 9c bd
       0.0077401963 0.1902492 -0.021776048 -0.07654609

2.nn.layers.2.bias f4 [124]
000000 61 af 24 3e 5f bf e2 3d 7c f4 92 3c d4 47 12 be
       0.16082527 0.110716574 0.017938845 -0.14285213
000010 3f 56 04 be 63 77 00 3b de ce eb 3a e7 78 18 3b
       -0.12923525 0.001960241 0.0017990728 0.0023265423
000020 01 3b 30 3c f0 6a 77 bd 13 51 ab bd ee 08 d2 bd
       0.010756255 -0.060404718 -0.08365073 -0.102556095
000030 9f 11 2a bd 73 37 dc be 91 9a 64 bc 6a d0 57 3e
       -0.04152071 -0.43011054 -0.013952867 0.21075597
000040 05 36 96 3e d7 81 a3 3c ea 63 b1 be fd 22 27 bd
       0.2933809 0.019959373 -0.3464654 -0.04080485
000050 3c 3f 74 bd b9 c8 9f bd e6 48 02 3e 1a 52 3c 3e
       -0.059630617 -0.07801957 0.12723121 0.18390694
000060 d5 de d0 3d 48 63 c6 3d ba e3 ea 3d 27 cd 1c 3d
       0.10198752 0.09686905 0.11469217 0.038281586
000070 52 35 20 bf fc 33 b3 be 55 bb 07 bf a3 de 0f 3e
       -0.6258136 -0.35000598 -0.5302022 0.14049773
000080 b7 cf 44 be 28 e3 33 3a 68 85 dc 3d 1a 3a 2e 3c
       -0.19219862 0.0006862157 0.10767633 0.01063397
000090 6d 48 ed 3d 40 95 e9 3d 76 1a 00 be 93 d1 bd bd
       0.1158608 0.1140542 -0.12510094 -0.09268489
0000a0 ee fb 91 be f4 32 97 be 73 ed b6 be 06 5f 04 3e
       -0.2851252 -0.29531062 -0.35728034 0.12926874
0000b0 90 33 95 3e 61 b4 38 3e bb fe 0a 3e c3 b9 ab be
       0.29140902 0.18037559 0.13573734 -0.33540162
0000c0 90 04 dd be af c3 6e be a7 4b 83 3e b2 00 9d 3e
       -0.43167543 -0.23316835 0.25643656 0.30664593
0000d0 da d0 80 3d 85 a1 bc 3c 8e 4c 79 be f6 a0 03 be
       0.06289835 0.023026237 -0.2434561 -0.1285437
0000e0 90 b0 2f be 52 13 4e bd 87 fa 4f be ef b3 e9 be
       -0.17157197 -0.050311394 -0.20310412 -0.4564509
0000f0 0c 34 fc 3d 58 8c 96 3e 38 e4 9e 3e c3 f4 31 3e
       0.12314615 0.2940395 0.31033492 0.17378525
000100 7d d4 8a 3c dc bd 4e bf 69 b3 0e be 61 49 29 3f
       0.016947025 -0.8075845 -0.13935627 0.6612759
000110 65 b6 45 3e ba c7 50 3e 6a ec 3f 3f c3 28 1c bc
       0.19307859 0.2038869 0.74970114 -0.009531203
000120 a7 99 35 bd 50 fd f3 3e b3 a2 43 3f f5 95 d8 3e
       -0.044335987 0.476542 0.76420134 0.42301908
000130 4d 48 33 3f ee 74 b8 be 33 83 ab be 24 fd d0 be
       0.700322 -0.3602671 -0.33498535 -0.4081813
000140 29 7c 92 3f bc 63 79 bd a0 35 9a 3e 32 0a 99 bc
       1.1444141 -0.06088613 0.30119038 -0.01868162
000150 2c 85 9a bd 6c f2 18 be 35 e5 a0 3d 5c 25 40 bd
       -0.07544932 -0.14936227 0.07856218 -0.04691063
000160 39 aa 49 3f 35 b4 97 3f 89 92 85 3f aa 2d c3 3f
       0.78775364 1.185187 1.0435344 1.524831
000170 02 9b a5 bd 7a 43 f8 bb 9c 17 fc 3d db b1 57 bd
       -0.08086206 -0.007576403 0.12309191 -0.05265985
000180 20 21 a8 3d f9 34 02 3e 6c 6c 8c ba 4b de f8 3e
       0.08209443 0.1271552 -0.0010713465 0.48607096
000190 44 1e 86 bd cd 18 42 3d 78 cc 74 be 02 0d cf 3d
       -0.065487415 0.047386933 -0.23906124 0.10109903
0001a0 dd e7 23 3c 21 40 c7 be 8f ea de 3d 74 67 7a 3e
       0.010004011 -0.38916114 0.10884582 0.24453527
0001b0 4f cd 3e be 98 a0 f9 bb d4 58 54 3f c9 aa 61 be
       -0.18633007 -0.007618021 0.8294804 -0.22037806
0001c0 4d 81 91 bf e5 08 ab be 07 5c c8 b9 f8 4b 29 be
       -1.1367584 -0.33405223 -0.00038215538 -0.16532886
0001d0 3a ad 83 3d 75 28 e6 bd c9 ca e9 3d 4f 14 67 3e
       0.06429525 -0.11238185 0.11415631 0.22566341
0001e0 52 d5 bc bf 1d 3c 7f be 84 81 f3 3e 2a 71 a5 3f
       -1.47526 -0.24925275 0.4755975 1.292516
