Self project/models/nf/nf_halo_aagn1/flow_state.pt (torch, 34805 bytes, 14 tensors)

0.unnormalized_widths f4 [4, 8]
0	0x3fb1eada	1.3899796
1	0x3f503079	0.81323963
2	0x3e6401b6	0.22266278
3	0xbe439123	-0.19098334
4	0x3f8781aa	1.0586445
5	0xbf3ade4c	-0.7299545
6	0x3f2fb24e	0.68631446
7	0xbf59aff0	-0.85034084
8	0xbf9ba31c	-1.2159152
9	0x3f97ac3b	1.1849436
10	0xbf5b33ca	-0.856259
11	0xbfcbf35a	-1.593364
12	0x3e78ff4c	0.24316138
13	0xc00f17c6	-2.235826
14	0x3d29c91c	0.04145156
15	0x3fb69cab	1.4266561
16	0x3fe3310f	1.7749346
17	0xbcce0793	-0.025150096
18	0xbf30084e	-0.6876267
19	0x3ec0c45e	0.37649816
20	0xbe8bf5c3	-0.2733594
21	0x3f95b132	1.1694701
22	0x3f17cc3b	0.59296006
23	0x3fbbbf70	1.4667797
24	0x3f93fa9b	1.1560854
25	0x3f963735	1.1735598
26	0x3f1fc90b	0.6241614
27	0xbec84431	-0.39114526
28	0x3f7024b7	0.9380602
29	0x3efc2f4b	0.49254832
30	0x3e31a055	0.17346318
31	0x3fa46130	1.2842159

0.unnormalized_heights f4 [4, 8]
0	0xbe9ab16b	-0.30213484
1	0x400b8a37	2.180311
2	0x401d59b5	2.4586003
3	0x401f3a1c	2.4879217
4	0xbf7fa58b	-0.99861974
5	0xc029ac35	-2.6511357
6	0xbfefcfe1	-1.8735315
7	0xc03a3e14	-2.910039
8	0xbf9f316e	-1.243696
9	0x3fa79e1c	1.3095126
10	0xbf10df52	-0.5659076
11	0xbeb191ca	-0.3468154
12	0xbf47f480	-0.7810745
13	0x3fcc44b9	1.5958472
14	0x3e3e276b	0.18569724
15	0x3f87fb6a	1.06236
16	0xbfa7340b	-1.3062757
17	0xbf8ff852	-1.1247656
18	0xbe84a805	-0.2590944
19	0x3f50f567	0.81624454
20	0x3dc69268	0.096958935
21	0x3f9d237e	1.2276456
22	0xbf20b881	-0.6278153
23	0xbf1cbdec	-0.612273
24	0xbf94b3b7	-1.1617345
25	0x3e962040	0.2932148
26	0x3e6a4ec2	0.22881606
27	0x3fb19f49	1.3876735
28	0x3dd5e7fe	0.104446396
29	0x3fa0b0e9	1.2553989
30	0xbfdfacfe	-1.7474668
31	0x3f5a42fe	0.8525847

0.unnormalized_derivatives f4 [4, 7]
0	0xc069459c	-3.6448736
1	0x401fb038	2.4951305
2	0x40b5c2fb	5.6800513
3	0x4003ca7f	2.0592344
4	0xbf86762e	-1.0504816
5	0x3f907027	1.1284226
6	0xc06872ec	-3.6320143
7	0x3fa3955c	1.2779956
8	0xbe30529c	-0.17219013
9	0x3f74046c	0.9531925
10	0xbf92990c	-1.1452956
11	0x3f0a5c97	0.5404753
12	0xbf5fbb46	-0.8739513
13	0x415f3e8b	13.952769
14	0xbedb192d	-0.42792645
15	0xc068b43c	-3.6360006
16	0x3f562c81	0.8366166
17	0x403b9b92	2.9313703
18	0x400bbe81	2.1835024
19	0x3f793d9a	0.9735962
20	0x3fe79e6a	1.8095219
21	0xbfbed469	-1.4908572
22	0x3f6c064b	0.921971
23	0xc0411275	-3.0167515
24	0xc0313847	-2.76906
25	0x3fb5a03b	1.4189523
26	0x3de7d5ac	0.113200516
27	0x3e85ee80	0.26158524

0.unnormalized_lambdas f4 [4, 8]
0	0xbfbdf09f	-1.4839057
1	0x3f819a8b	1.0125288
2	0x40a3f8a7	5.124103
3	0x3fc47eec	1.5351233
4	0x4040abb4	3.01048
5	0x40005c90	2.0056496
6	0xbe807e2a	-0.25096256
7	0xbf08196a	-0.5316378
8	0x3f1403f8	0.57818556
9	0x3d75ebd0	0.06003934
10	0x3e91b24e	0.28456348
11	0xbe8c297c	-0.273754
12	0x3f467543	0.7752268
13	0xbe6c884a	-0.23098865
14	0x3ffdf64d	1.984079
15	0x3e250db8	0.16118515
16	0x3db12ced	0.08651147
17	0xbe25809a	-0.16162339
18	0x4010b9df	2.2613447
19	0xbfba8d3f	-1.4574355
20	0x3f2a7732	0.6658813
21	0x3f7d088e	0.9884118
22	0x3f852437	1.0401677
23	0x3f3a3153	0.7273151
24	0x3cb568e0	0.022144735
25	0x3f354aa5	0.70817024
26	0xc0313a95	-2.7692006
27	0x3e00e128	0.1258589
28	0x403bc9b1	2.9341853
29	0xbec79993	-0.38984355
30	0x3f34dd9d	0.70650655
31	0x3ea19482	0.31558615

1.nn.layers.0.weight f4 [40, 2]
0	0x3dae9b1d	0.08525679
1	0xbec3b5cd	-0.3822464
2	0x3bf0ddb0	0.007350646
3	0xbdf074e4	-0.11741045
4	0xbd66524a	-0.05623082
5	0x3daa9b77	0.08330434
6	0x3d798512	0.06091792
7	0x3e1bcb20	0.15214205
8	0x3e61680e	0.2201235
9	0xbe8b4bec	-0.2720636
10	0xbbbe06a1	-0.00579913
11	0xbb3f8da1	-0.0029228705
12	0xbbb9c73a	-0.0056695016
13	0xbcb11bb5	-0.021619657
14	0x3cd2a03e	0.025711175
15	0xbe4f1886	-0.20224199
16	0x3def4557	0.116831474
17	0x3d8d4583	0.06898024
18	0x3dd98020	0.10620141
19	0xbe88fc34	-0.26754916
20	0x3e0f21c1	0.1397772
21	0x3c4d2a12	0.012522237
22	0x3b246bec	0.002508874
23	0xbd6c0ca3	-0.05762924
24	0xbae18161	-0.0017204696
25	0xbc349849	-0.011022636
26	0xbd2643eb	-0.040592115
27	0x3f3be7b1	0.7340041
28	0x3c02267e	0.007943748
29	0xbca515a0	-0.020151913
30	0xbae510c1	-0.0017476307
31	0x3b8d1a33	0.0043061017
32	0x3c63c258	0.013901316
33	0xbe396365	-0.18104322
34	0xbe5e3b26	-0.21702251
35	0xbe4ed2fe	-0.20197675
36	0xbe931694	-0.28728163
37	0x3d121149	0.035661016
38	0x3deb467f	0.114880554
39	0xbee7dbfd	-0.45285025
40	0xbb120732	-0.002228212
41	0x3d80fc34	0.06298104
42	0x3dafbf82	0.08581449
43	0xbd142f0c	-0.03617768
44	0x3cc6ce8d	0.024268413
45	0x3e4ae6eb	0.1981465
46	0x3d88c1ad	0.06677566
47	0x3bf6e9d1	0.0075351973
48	0x3c23dc9c	0.010001328
49	0x3d4c2d40	0.04984784
50	0xbd2d961f	-0.042379495
51	0xbe0598d0	-0.13046575
52	0x3cce629a	0.025193501
53	0x3edd6484	0.4324075
54	0x3d0cbaf3	0.034357976
55	0x3c49edc6	0.012324756
56	0x3c290e00	0.010318279
57	0xbd2cef00	-0.042220116
58	0x3d7f994c	0.062402055
59	0x3d1f200a	0.038848914
60	0xbe15ed40	-0.14641285
61	0xbe0bccd7	-0.13652359
62	0x3d82ecb2	0.06392802
63	0x3ea0978d	0.31365624
64	0xbaabac4a	-0.0013097611
65	0xbe965737	-0.29363415
66	0xbe08b7b2	-0.13351324
67	0xbed42229	-0.41432312
68	0xbe01726f	-0.12641309
69	0x3db29661	0.08720089
70	0x3e30defa	0.17272559
71	0x3d03b442	0.03215433
72	0x3a9d076d	0.0011980362
73	0xbd464909	-0.048409496
74	0xbd1d1675	-0.038351495
75	0x3f797003	0.9743654
76	0x3ce2215e	0.027603801
77	0x3cd5ade7	0.0260839
78	0x3d16e132	0.036835857
79	0xbd89747d	-0.067116715

1.nn.layers.0.bias f4 [40]
0	0xbf297776	-0.6619791
1	0xbdd65061	-0.1046455
2	0xbec59e70	-0.3859744
3	0xbf2796f9	-0.6546474
4	0xbf8ad6d3	-1.0846809
5	0xbd31f62f	-0.04344767
6	0xbcd64b96	-0.026159089
7	0xbe79e7db	-0.24404852
8	0xbf461fd6	-0.7739233
9	0xbf507903	-0.8143465
10	0xbf50ee66	-0.8161377
11	0xbd461207	-0.048357036
12	0xbcd080dc	-0.02545207
13	0x3f4e45ca	0.8057524
14	0xbd5de485	-0.05417301
15	0xbc68bff9	-0.014205926
16	0xbe235866	-0.1595169
17	0xbf10acc6	-0.5651363
18	0xbf5dd404	-0.86651635
19	0xbf5c0b44	-0.8595469
20	0xbdbb7b6d	-0.09154401
21	0xbf090ff3	-0.5353996
22	0xbea5996c	-0.32343614
23	0xbf0eecb7	-0.5582995
24	0xbea4bfba	-0.32177526
25	0xbf13d932	-0.5775329
26	0xbf252e31	-0.6452361
27	0xbe5193ff	-0.20466612
28	0xbe573174	-0.21014959
29	0x3b026577	0.0019896904
30	0xbefd2e6d	-0.49449483
31	0xbf02ea6b	-0.51138943
32	0xbe84dc2a	-0.25949222
33	0xbf0edd33	-0.55806273
34	0xbebba77e	-0.36651224
35	0xbf6e2a11	-0.9303294
36	0xbd395fa3	-0.045257222
37	0xbe499f4c	-0.19689673
38	0xbd092b38	-0.033488482
39	0xbe100e8f	-0.14068054

1.nn.layers.1.weight f4 [4, 40]
0	0xbd33762f	-0.04381388
1	0xbe286c1d	-0.16447492
2	0x3d5ce0a3	0.053925168
3	0xbd956b19	-0.07295818
4	0xbe653c75	-0.22386344
5	0xbcec7c71	-0.028867932
6	0xbdd639f9	-0.10460276
7	0x3c256a8d	0.0100962045
8	0xbd3a9bf5	-0.04555889
9	0xbe59f415	-0.21284516
10	0x3d5a885a	0.05335269
11	0xbec0c2ac	-0.37648523
12	0x3dd88387	0.10571962
13	0x3e977339	0.29580095
14	0x3d0de937	0.03464624
15	0x3de7322b	0.11288866
16	0xbd7ed1cc	-0.062211797
17	0x4015fdeb	2.343623
18	0xbec4d7c7	-0.38445875
19	0xbebcbc76	-0.36862534
20	0x3c1c4ae0	0.009539336
21	0xbf669a56	-0.9007925
22	0xbe6bf34d	-0.2304203
23	0xbc55b94d	-0.013044667
24	0xbcf05058	-0.029335186
25	0xbca36ccb	-0.019949337
26	0xbe941f25	-0.2893001
27	0x3d8e5d98	0.06951445
28	0x3e07bba9	0.1325518
29	0xbf605dad	-0.8764294
30	0x3e988b95	0.29793993
31	0xbee83cc8	-0.45358872
32	0xbe789aaa	-0.2427775
33	0x3ed0eebd	0.40807143
34	0x3e2d49e1	0.16922714
35	0xbdcb71d6	-0.09933822
36	0xbe0ce352	-0.13758591
37	0x3ea230e1	0.31677917
38	0xbefd3cde	-0.494605
39	0xbdc73fae	-0.09728943
40	0x3bb3b969	0.005484749
41	0xbc264cc9	-0.010150143
42	0x3ca879e2	0.02056593
43	0xbca20e15	-0.019782105
44	0xbb8a8808	-0.004227642
45	0x3dace7c3	0.084426425
46	0x39b71afd	0.00034924588
47	0x3c5bb84a	0.013410637
48	0xbc86cd4d	-0.016455317
49	0xbdabb6bc	-0.08384463
50	0x3c51d301	0.012806655
51	0xbb6e44ef	-0.0036357006
52	0x3c404fdb	0.011737789
53	0x3e8fac40	0.28061104
54	0x3d8edff1	0.06976307
55	0xbac1345f	-0.0014740339
56	0x3cf2a6e8	0.029620603
57	0xbc84be75	-0.016204098
58	0xbd0415dc	-0.03224741
59	0xbb4efdeb	-0.0031584452
60	0xbb54de77	-0.0032481232
61	0xbd1d27c6	-0.03836801
62	0x3bc747e9	0.0060815704
63	0x3c6f3481	0.01459992
64	0x3c8f4e98	0.017493531
65	0xbe4d57c4	-0.20053011
66	0xba9d31c4	-0.0011992981
67	0xbd9edba4	-0.07756737
68	0xbdf9deb8	-0.12200683
69	0x3b77088d	0.0037694306
70	0x3c9ada2a	0.018902857
71	0x3be92e59	0.007116121
72	0x3cfcabc0	0.030843616
73	0xbbce0128	-0.006286759
74	0x3d548bc1	0.051891092
75	0xbafaec09	-0.001914383
76	0xb9900b14	-0.00027474074
77	0x3ee03be2	0.43795687
78	0x3b2c84a7	0.0026324184
79	0x3b424998	0.0029645916
80	0xbe92ec3c	-0.28695858
81	0x3c9ac2a1	0.018891634
82	0xbc85908f	-0.016304282
83	0xbdb05837	-0.08610576
84	0xbe6b848d	-0.22999783
85	0x3e3d0cfb	0.18461983
86	0x3f08e0d9	0.5346809
87	0xbd36de27	-0.044645455
88	0xbdc0dd8c	-0.09417257
89	0x3db64a16	0.089008495
90	0xb85a7e28	-5.2092742e-05
91	0x3f171876	0.590217
92	0x3e3cadb8	0.18425643
93	0x3e88949a	0.26675874
94	0x3d205410	0.03914267
95	0x3e51ae45	0.20476635
96	0x3e0ba1ce	0.13635942
97	0xbf6624e5	-0.89900047
98	0xbdde4d77	-0.10854619
99	0x3d4218ac	0.04738681
100	0x3b8bf73d	0.0042714165
101	0xbfd0589d	-1.6277043
102	0xbd453536	-0.04814645
103	0x3d9ddd09	0.07708175
104	0x3e675a08	0.22592938
105	0x3bfa0159	0.007629555
106	0x3dfcc427	0.123421006
107	0xbcc1cd70	-0.02365753
108	0xbe173453	-0.14766054
109	0x3cd7c316	0.026338141
110	0x3d296a49	0.041361127
111	0x3e3d9ba0	0.18516397
112	0x3e096d94	0.13420707
113	0x3d31c4db	0.043400627
114	0xbc9a7e1e	-0.018858965
115	0xbd72942c	-0.05922334
116	0x3e6c9c00	0.23106384
117	0xbe672d61	-0.22575904
118	0x3e7309da	0.23734227
119	0xbdc16cc8	-0.094445765
120	0x3d24bd4e	0.040219598
121	0xbbc25bbd	-0.005931346
122	0xbca6f150	-0.020378739
123	0x3e32001f	0.17382859
124	0xbbd3c44d	-0.00646261
125	0x3d91204d	0.07086239
126	0x39aa67bd	0.00032502218
127	0x3c753200	0.014965534
128	0x3def1bf8	0.116752565
129	0x3d80313b	0.0625939
130	0x3d576128	0.05258289
131	0xbb565592	-0.0032704812
132	0x3c2275cc	0.00991578
133	0xbb841d95	-0.0040318468
134	0x3d67599d	0.056481946
135	0x3ba6a2c1	0.0050853197
136	0x3cc65d29	0.024214344
137	0x3b83f067	0.004026461
138	0xbce736a6	-0.0282243
139	0x3cbc52d4	0.022988714
140	0xbd97cecc	-0.0741249
141	0x3dc566a7	0.0963872
142	0x3dee393d	0.11632011
143	0x3db24f94	0.087065846
144	0xbc897821	-0.016780915
145	0xbd889ced	-0.06670556
146	0xbdf52c81	-0.11971379
147	0xbd8e0e2c	-0.06936297
148	0xbda49a6d	-0.08037267
149	0x3c4286a5	0.011872922
150	0x3c7f8946	0.015596693
151	0x3d085470	0.03328365
152	0x3d01d671	0.031698648
153	0xbb84faf0	-0.0040582344
154	0x3e22aa84	0.15885359
155	0xbb8dc697	-0.0043266523
156	0x39943036	0.0002826468
157	0xbe3498ef	-0.17636465
158	0x3b02166d	0.0019849793
159	0x3b42dbe7	0.0029733123

1.nn.layers.1.bias f4 [4]
0	0xbe4fefe0	-0.20306349
1	0x3dfdeeb4	0.12399045
2	0x3ecb5a71	0.3971744
3	0xbe0bb0b9	-0.13641633

2.nn.layers.0.weight f4 [40, 4]
0	0x3eb64d83	0.35606012
1	0x3ea3db7e	0.32003397
2	0xbd1ec1b6	-0.038758956
3	0xbecfa025	-0.40551868
4	0x3e157e89	0.1459905
5	0xbd7f764a	-0.06236867
6	0x3e996143	0.29957017
7	0xbeb3145b	-0.34976467
8	0x3cd83236	0.02639113
9	0x3e834703	0.25640115
10	0xbdf68ae5	-0.12038211
11	0x3e88b5fe	0.2670135
12	0xbe93c42b	-0.28860602
13	0xbe2f9db1	-0.17149998
14	0xbee194a4	-0.44058716
15	0x3e131a63	0.14365534
16	0x3d773abc	0.060358748
17	0x3e9f93ec	0.31167543
18	0xbcf98b7f	-0.030462025
19	0x3ea15175	0.3150746
20	0x3e8fdcd0	0.28098154
21	0xbe10186e	-0.14071819
22	0xbde5daf5	-0.11223403
23	0x3ebde1b9	0.37086275
24	0x3e10ee5e	0.1415343
25	0xbee8ed3c	-0.45493495
26	0x3ea96507	0.3308489
27	0xbe410345	-0.18848903
28	0xbe60af16	-0.2194179
29	0x3d1f6784	0.03891708
30	0x3d9ebac1	0.07750464
31	0x3d8edde1	0.06975914
32	0xbe3ebd49	-0.18626894
33	0x3e982d55	0.29722086
34	0x3ed6d482	0.41959006
35	0xbebf65cb	-0.3738235
36	0xbe4261fa	-0.18982688
37	0x3e1b7b15	0.15183671
38	0x3e1598d6	0.14609084
39	0xbf05cbec	-0.52264285
40	0x3ea8b2f3	0.32949027
41	0xbc470e14	-0.012149353
42	0xbef04d01	-0.4693375
43	0xbe593250	-0.21210599
44	0x3ecfd242	0.405901
45	0x3e70b336	0.23505864
46	0x3e11e294	0.14246589
47	0x3e6573ba	0.22407427
48	0x3ea2ab14	0.31771147
49	0xbda5411a	-0.08069058
50	0xbe3402d4	-0.17579204
51	0x3e88aed4	0.26695883
52	0xbf2e370d	-0.6805275
53	0xbec75663	-0.38933095
54	0xbe614f31	-0.22002865
55	0x3e79ed45	0.24406917
56	0x3db27c03	0.087150596
57	0xbe1123fd	-0.14173885
58	0xbc088697	-0.00833287
59	0x3e0df3ce	0.13862535
60	0xbd68411f	-0.05670273
61	0xbea33766	-0.31878203
62	0x3d54fbae	0.051997833
63	0xbced91e4	-0.02900023
64	0x3eba06ec	0.36333406
65	0x3eab164c	0.3341545
66	0x3d30b19c	0.04313813
67	0xbd0c6bcd	-0.034282494
68	0x3cf973d2	0.030450735
69	0x3ac91c43	0.0015343506
70	0xbd1d8158	-0.03845343
71	0xbd0ed4a7	-0.03487077
72	0x3f059ad5	0.5218938
73	0x3ebdf7e0	0.37103176
74	0xbd372112	-0.044709273
75	0xbe237ebf	-0.15966319
76	0xbdcd57f3	-0.100265406
77	0xbf0ef294	-0.55838895
78	0x3e8573f1	0.2606502
79	0x3eaf59c5	0.34248176
80	0x3ea7a2dd	0.32741442
81	0x3e47c959	0.19510402
82	0xbec318bf	-0.38104817
83	0xbee5bf1f	-0.44872376
84	0xbca93f6e	-0.020660128
85	0x3db11bcc	0.0864788
86	0x3da374dc	0.079812735
87	0xbe9125d8	-0.28349185
88	0x3dde072f	0.10841214
89	0xbe20c19b	-0.15698855
90	0xbe5f5c62	-0.21812585
91	0xbeea5201	-0.4576569
92	0x3efd2845	0.49444786
93	0xbed974e7	-0.42472002
94	0x3cd4d976	0.0259826
95	0xbd9deaf7	-0.077108316
96	0x3e089bdb	0.13340704
97	0x3cb7c3ac	0.02243217
98	0xbd794ba0	-0.060863137
99	0x3e6b3156	0.22968039
100	0x3e914cd8	0.2837894
101	0xbf034bfb	-0.5128781
102	0x3e03e8d8	0.12881792
103	0x3e4a8293	0.19776373
104	0x3e293d85	0.16527374
105	0x3cd37f2b	0.025817474
106	0x3c3906bd	0.01129311
107	0xbdf53e6a	-0.11974795
108	0x3e0676a1	0.13131191
109	0x3ec7e6b6	0.39043206
110	0x3e00f9e0	0.1259532
111	0xbdd0cc9a	-0.10195275
112	0xbf11925c	-0.5686395
113	0xbc8b8dc0	-0.017035365
114	0xbeb0045c	-0.34378326
115	0x3e8de9d5	0.27717462
116	0xbe0b3ebb	-0.13598149
117	0xbd3cb3ab	-0.046069782
118	0xbde0e7a1	-0.1098168
119	0x3d297192	0.041368075
120	0x3ed432bb	0.41444954
121	0xbe12e3cb	-0.14344709
122	0x3d9411ba	0.072299436
123	0x3e39e737	0.18154608
124	0x3eb05341	0.34438518
125	0xbf0730f8	-0.52809095
126	0xbc24da56	-0.010061821
127	0x3e9eab21	0.30989936
128	0xbbdfba8d	-0.0068276585
129	0x3eb67ff4	0.35644495
130	0xbe93a5cd	-0.28837433
131	0xbee12dd9	-0.4398029
132	0x3e4a5405	0.19758613
133	0x3d32b759	0.043631885
134	0x3e43e064	0.19128567
135	0x3ed4428a	0.41457015
136	0x3f008d14	0.5021527
137	0x3ebe59cf	0.37177894
138	0x3d0312dc	0.032000408
139	0xbedf6d5e	-0.43638128
140	0xbe8280c7	-0.25488874
141	0xbebbd0e8	-0.3668282
142	0xbe4eac88	-0.20183003
143	0x3c7da368	0.015480854
144	0xbeccd566	-0.4000656
145	0xbeb6b4a8	-0.35684705
146	0xbcfac209	-0.030610101
147	0xbe8b7e13	-0.27244624
148	0xbeb78407	-0.35842916
149	0x3d7c66ae	0.06162136
150	0x3ede609c	0.43433082
151	0xbe91ed5a	-0.28501397
152	0xbe7a171d	-0.2442288
153	0x3e878e3c	0.26475704
154	0xbf05ad5a	-0.5221764
155	0xbc960e87	-0.018317474
156	0x3eef6b7a	0.46761686
157	0xbf0b20d0	-0.5434694
158	0x3d81211a	0.06305142
159	0x3f1e24e4	0.6177504

2.nn.layers.0.bias f4 [40]
0	0x3a408b56	0.00073449814
1	0xbc88e176	-0.01670907
2	0xbec4136d	-0.3829607
3	0xbd90ed0d	-0.07076464
4	0xbd9510ab	-0.0727857
5	0x3dd92e3f	0.10604524
6	0xbc00bf16	-0.007858058
7	0x3e7810f4	0.24225217
8	0xbf378ac5	-0.7169612
9	0xbe27183c	-0.16317838
10	0xbf41b72f	-0.7567014
11	0xbf0eea6f	-0.5582647
12	0xbcdafd1c	-0.02673202
13	0xbee5e52a	-0.449014
14	0x3b0c31cb	0.0021391984
15	0xbd2ca38f	-0.04214817
16	0xbec5496d	-0.38532582
17	0x3d84088b	0.06446942
18	0xbf3c11b2	-0.734645
19	0xbe88525d	-0.26625338
20	0xbe169538	-0.1470536
21	0xbf19b1c6	-0.60036886
22	0xbf09d097	-0.5383391
23	0xbe082088	-0.1329366
24	0x3e8ff05f	0.28113076
25	0x3efc4731	0.49273065
26	0x3e60205e	0.21887347
27	0xbec789c9	-0.3897231
28	0xbf0d73c3	-0.55254763
29	0x3e9490d6	0.2901675
30	0x3e25abce	0.1617882
31	0xbe6de38c	-0.23231333
32	0xbda85383	-0.082190536
33	0xbf0be5b9	-0.54647404
34	0xbe9bcf18	-0.30431437
35	0x3e8d5c30	0.27609396
36	0xbe695750	-0.22787213
37	0xbeab1fed	-0.33422795
38	0xbfa812e0	-1.313076
39	0xbf26b238	-0.6511569

2.nn.layers.1.weight f4 [40, 40]
0	0xbb539740	-0.0032286197
1	0xbe3bdc8f	-0.18345855
2	0xbe0bc84d	-0.13650627
3	0x3cdf0e7e	0.02722859
4	0xbe87f7ae	-0.26556152
5	0xbce75e1b	-0.028243115
6	0xbdf86ef2	-0.12130536
7	0xbde0da88	-0.109791815
8	0x3d78a218	0.06070146
9	0x3db8691b	0.09004422
10	0xbe22f58f	-0.15913986
11	0xbd84f308	-0.06491667
12	0xbe867a68	-0.26265264
13	0xbdee2705	-0.11628536
14	0xbe59cac1	-0.2126875
15	0xbd84e8f1	-0.064897425
16	0x3d042740	0.032263994
17	0xbe42943c	-0.1900186
18	0x3e0d5d57	0.13805138
19	0x3ce9b96f	0.028530804
20	0xbe94e340	-0.29079628
21	0xbd9aaa72	-0.07552041
22	0x3e44c0c3	0.19214158
23	0xbd051010	-0.03248602
24	0xbd8205e0	-0.06348777
25	0xbdf2c5b4	-0.11854115
26	0x3db8a7e0	0.090163946
27	0xbdb50365	-0.08838538
28	0x3d651261	0.05592573
29	0xbcca6872	-0.024708007
30	0xbd53af41	-0.051680807
31	0x3ce58183	0.028015858
32	0x3ddd4073	0.10803308
33	0xbdb85cf9	-0.09002108
34	0xbcd17d40	-0.02557242
35	0x3dc240bc	0.09485003
36	0xbe0ee159	-0.13953151
37	0xbd4a4d2f	-0.049390014
38	0xbd8fc5f0	-0.070201755
39	0x3da9c730	0.08289945
40	0x3ce40772	0.027835581
41	0x3ce36a5e	0.02776068
42	0x3d8db280	0.06918812
43	0xbe56055e	-0.20900485
44	0x3e2449d9	0.16043796
45	0xbded76a0	-0.115948915
46	0xbc89e62e	-0.016833391
47	0x3dc64f54	0.096830994
48	0x3d1cc1bd	0.0382707
49	0x3e3b5169	0.18292774
50	0x3de9f586	0.11423783
51	0x3db0ec90	0.08638871
52	0x3cc17d53	0.02361933
53	0x3d74681d	0.059669603
54	0xbcd4a414	-0.025957145
55	0xbdb9fd21	-0.09081484
56	0x3df7bd31	0.12096632
57	0x3d8e1e63	0.069393896
58	0xbe0c8397	-0.13722073
59	0xbe3bd3e6	-0.18342552
60	0xbe0078a6	-0.12546024
61	0x3e86dc58	0.26339984
62	0xbddcd2cd	-0.107823946
63	0x3e00cc75	0.12577994
64	0xbd6a1ba2	-0.05715526
65	0xbd9a85ed	-0.075450756
66	0x3d9d021d	0.07666419
67	0x3e0aed52	0.13567093
68	0xbdc76e35	-0.09737817
69	0x3e2d128e	0.1690161
70	0x3c873af1	0.016507598
71	0xbe4dbe11	-0.20092036
72	0x3cbfb6e6	0.023402642
73	0x3ddb11d1	0.106967576
74	0xbf221676	-0.6331552
75	0x3e57cdbf	0.2107458
76	0x3d8bd1c0	0.06827116
77	0xbe291cd5	-0.16514905
78	0xbc6bb7a6	-0.014387047
79	0xbfb862e7	-1.4405183
80	0x3e18a8fc	0.14908212
81	0xbecf3fd4	-0.40478384
82	0xbe4e30ba	-0.20135775
83	0xbf3cf773	-0.7381508
84	0xbf01a83e	-0.5064734
85	0xbd13051d	-0.03589355
86	0xbe0ceca8	-0.13762152
87	0xbc50dbaa	-0.0127476845
88	0xbe449843	-0.19198708
89	0xbf7aa690	-0.97910404
90	0xbe6bc388	-0.23023808
91	0x3e9330e4	0.28748238
92	0x3df7bcb4	0.12096539
93	0xbe1fcdf6	-0.15605912
94	0xbdd967e5	-0.106155194
95	0xbe6def77	-0.2323588
96	0x3de2d56a	0.11075862
97	0x3dbb2849	0.09138543
98	0x3ef53ae1	0.47896484
99	0x3cda82dc	0.026673727
100	0x3eaf1808	0.34198022
101	0x3c95f8bb	0.01830708
102	0x3de01378	0.10941213
103	0x3d50d43c	0.050983652
104	0xbf0c150b	-0.5471961
105	0xbe289930	-0.16464686
106	0x3dbdb01f	0.09262108
107	0xbee90fb0	-0.4551978
108	0xbe571d6e	-0.2100732
109	0xbe7ae8dd	-0.24502893
110	0x3d99e167	0.07513695
111	0x3e0b6a78	0.13614833
112	0xbf4360cd	-0.7631958
113	0xbef4a080	-0.47778702
114	0x3ed5b03a	0.41736013
115	0xbdc7cf66	-0.09756355
116	0x3d1cb5b1	0.038259212
117	0xbcc06306	-0.023484718
118	0xbd6e8a44	-0.05823733
119	0x3e18cd9c	0.14922184
120	0xbe208fdf	-0.15679882
121	0xbced2ccd	-0.028952027
122	0x3e990294	0.2988478
123	0xbe54228c	-0.20716304
124	0xbcf610c5	-0.030037293
125	0x3e23e1cf	0.16004108
126	0x3ddddf85	0.108336486
127	0xbcfcbf90	-0.030853063
128	0xbe9d5aa8	-0.30733228
129	0xbe1c6115	-0.15271409
130	0xbde4c8d8	-0.111711204
131	0xbeaacefb	-0.3336104
132	0x3daada59	0.08342428
133	0xbc0f461a	-0.008744741
134	0xbcf2b548	-0.029627457
135	0x3e8f7f8f	0.28027007
136	0xbc24794a	-0.010038683
137	0x3d821084	0.06350806
138	0xbdf7fc86	-0.12108712
139	0xbe2af74a	-0.16695896
140	0xbdd3fc04	-0.103508025
141	0x3d81b55a	0.06333418
142	0x3d188639	0.03723738
143	0xbe0b4c86	-0.1360341
144	0x3cfa49a9	0.030552702
145	0x3e69c69c	0.2282967
146	0x3e2b0d29	0.16704239
147	0x3d0a9edd	0.03384291
148	0xbe1c6869	-0.15274204
149	0x3ce69a6b	0.028149804
150	0x3d92fa54	0.071766526
151	0xbdd50aae	-0.104024276
152	0x3da159d5	0.07878462
153	0xbdcf4527	-0.10120612
154	0xbe05f527	-0.130818
155	0x3d9e7b14	0.07738319
156	0x3e16262b	0.14662997
157	0x3c5e7a06	0.013578897
158	0xbf0b7373	-0.54473037
159	0xbed2a72e	-0.41143173
160	0xbe6d3453	-0.23164491
161	0x3e0f7117	0.14007984
162	0x3d3f2f40	0.04667592
163	0x3da6a1c9	0.08136327
164	0xbd2c70d3	-0.042099785
165	0x3c8034a2	0.015650097
166	0xbdecaad8	-0.11556023
167	0x3db1f228	0.08688766
168	0xbdbafba0	-0.09130025
169	0xbe3991aa	-0.18121973
170	0xbdbde38d	-0.092719175
171	0xbe307a55	-0.17234166
172	0xbe1b289f	-0.15152214
173	0xbde15845	-0.11003164
174	0xbd6fc6c9	-0.058539186
175	0x3e12534f	0.14289592
176	0xbe00c9fc	-0.12577051
177	0x3dfbfab5	0.12303678
178	0xbf713c46	-0.94232595
179	0x3c901b60	0.017591178
180	0xbd8b525c	-0.06802818
181	0xbd8c9b3c	-0.06865546
182	0xbda58b9a	-0.080832675
183	0xbe8540a9	-0.26025894
184	0x3e41b816	0.1891788
185	0x3c825cfe	0.015913483
186	0xbd68f5f5	-0.056875188
187	0x3d14804c	0.036255166
188	0xbe01ef8b	-0.12689035
189	0x3cfef24a	0.031121392
190	0xbda12c39	-0.07869763
191	0xbf197f93	-0.5996029
192	0x3db94375	0.090460695
193	0x3e06e407	0.13172923
194	0xbf8aafe9	-1.0834934
195	0x3e4b05b0	0.19826388
196	0xbb8e48c0	-0.0043421686
197	0x3d5d1691	0.0539766
198	0x3e62e8b3	0.2215908
199	0xbfa13472	-1.259413
200	0xbdf49021	-0.11941553
201	0x3ea744fb	0.32669815
202	0x3bf75557	0.007548015
203	0xbe3654f5	-0.17805846
204	0xbcf81a7a	-0.030286063
205	0x3e291634	0.16512376
206	0x3e06a5c8	0.13149178
207	0xbd6c1591	-0.057637755
208	0xbefe60b4	-0.49683154
209	0xbe9e0dc1	-0.30869868
210	0x3df4fd51	0.11962379
211	0x3c094298	0.008377694
212	0xbde27136	-0.110567495
213	0x3d67b248	0.056566507
214	0x3e12f08a	0.14349571
215	0xbce86e69	-0.02837296
216	0x3c117d1f	0.008879929
217	0xbd614154	-0.054993942
218	0xbec70056	-0.38867444
219	0xbed84be3	-0.42245397
220	0xbd0e3794	-0.034720972
221	0xbd457fe7	-0.04821768
222	0xbe06fe89	-0.13183035
223	0xbe8220e0	-0.25415707
224	0x3dde2df8	0.108486116
225	0x3e94b7f6	0.290466
226	0x3e16fb76	0.14744362
227	0xbde5ac57	-0.11214512
228	0xbdc83a32	-0.09776725
229	0x3d7aa829	0.061195526
230	0x3e00b89c	0.12570423
231	0x3e1d208c	0.15344447
232	0x3d000019	0.031250093
233	0x3d1635e8	0.036672503
234	0x3e542ff5	0.20721419
235	0x3e6da7ad	0.23208494
236	0x3ded01a9	0.11572582
237	0xbec4f84e	-0.3847069
238	0x3e8145a9	0.2524846
239	0xbed56ffb	-0.41686997
240	0xbe17ce01	-0.14824678
241	0x3d2b9b3f	0.0418961
242	0x3d080dfe	0.03321647
243	0xbd54cd21	-0.05195344
244	0xbda1bcba	-0.07897325
245	0xbe50c439	-0.20387353
246	0xbdc143d1	-0.09436763
247	0x3d787ce6	0.060665987
248	0xbd94f0b9	-0.07272477
249	0xbd9035f5	-0.070415415
250	0xbdee04f4	-0.116220385
251	0xbe0d9b4d	-0.13828774
252	0x3cc84bfa	0.024450291
253	0xbdd63123	-0.10458591
254	0x3ce23a32	0.02761564
255	0xbde5b883	-0.112168334

2.nn.layers.1.bias f4 [40]
0	0xbdd15eb0	-0.10223138
1	0x3e20cf67	0.15704118
2	0xbe4e38b3	-0.20138817
3	0x3e8b30bb	0.27185616
4	0x3e62d44e	0.221513
5	0xbdae93de	-0.08524297
6	0xbda64806	-0.08119206
7	0xbe2114d5	-0.15730603
8	0xbda68d1f	-0.081323855
9	0xbe00ae08	-0.12566388
10	0x3d3d46dd	0.04621016
11	0xbdb82a30	-0.089924216
12	0x3e6759e5	0.22592886
13	0x3e0fcadc	0.14042228
14	0x3c63586c	0.013876062
15	0xbeceb2b6	-0.4037072
16	0xbe02f8f7	-0.12790285
17	0xbe4a5e74	-0.19762594
18	0x3d73ccd5	0.059521515
19	0xbe3de1e1	-0.18543197
20	0x3d12986e	0.0357899
21	0xbd8f0eab	-0.069852196
22	0xbce81f97	-0.028335376
23	0xbcb93d54	-0.022612251
24	0x3de35e98	0.11102027
25	0x3d110e9b	0.03541432
26	0xbe453282	-0.19257548
27	0xbe3653c3	-0.1780539
28	0xbe519a2d	-0.2046897
29	0xbe53b843	-0.20675759
30	0xbdd861c4	-0.10565522
31	0x3e7d287d	0.24722476
32	0x3df2f106	0.11862378
33	0xbe03fbfb	-0.12889092
34	0xbd79e8ed	-0.06101315
35	0xbe3f44cb	-0.18678586
36	0xbce18fcb	-0.027534386
37	0x3d93b98e	0.07213126
38	0x3e222d6a	0.15837637
39	0xbdfd8f9a	-0.123809054

2.nn.layers.2.weight f4 [124, 40]
0	0x3cb376f1	0.021907302
1	0xbd69f6e9	-0.057120237
2	0x3d676f26	0.056502484
3	0xbe02b1f4	-0.12763196
4	0x3e44b38f	0.19209121
5	0x3e344b88	0.17606938
6	0x3d9aa5a7	0.07551127
7	0x3d25c91a	0.04047499
8	0x3e064a4e	0.13114282
9	0x3da0d880	0.07853794
10	0xbe26a279	-0.16272916
11	0xbe4551e5	-0.19269522
12	0xbe10e587	-0.14150058
13	0xbd89f2b6	-0.067357466
14	0xbcfbd6ee	-0.030742135
15	0xbe83dcca	-0.25754386
16	0xbe752f96	-0.23943934
17	0x3cdde667	0.027087403
18	0xbe0ec98c	-0.13944072
19	0xbdd3fb35	-0.10350648
20	0xbdabcc0f	-0.083885305
21	0xbdb7372d	-0.08946071
22	0xbda3ab27	-0.07991629
23	0xbea5edb2	-0.3240791
24	0x3d876f08	0.066129744
25	0x3c52063c	0.012818869
26	0x3a859ee4	0.0010194448
27	0x3d195473	0.037434053
28	0xbd4745aa	-0.04865042
29	0xbc9dd890	-0.019268304
30	0x3da54a0d	0.08070765
31	0x3d881d2b	0.06646188
32	0x3e2286ab	0.15871684
33	0xbc52b328	-0.012860097
34	0xbdb72a34	-0.089435965
35	0xbe537029	-0.20648254
36	0x3dcd00f3	0.10009947
37	0x3d5e9f2f	0.054351028
38	0xbd60dd43	-0.05489851
39	0xbd3fa2c4	-0.046786085
40	0xbd24ca03	-0.040231716
41	0xbdd9aee1	-0.10629059
42	0xbcf24510	-0.029573947
43	0xbdf85bbc	-0.12126872
44	0x3d040969	0.032235537
45	0x3e29cfb9	0.16583146
46	0x3e0ed8e7	0.13949929
47	0xbda15450	-0.078774095
48	0x3d22122e	0.03956812
49	0x3d80f26c	0.06296238
50	0xbe4ada6c	-0.19809884
51	0xbe0cb897	-0.1374229
52	0xbd9af391	-0.07565988
53	0xbca13b47	-0.019681586
54	0xbd5a942d	-0.053363968
55	0xbe984b31	-0.29744866
56	0xbe033c12	-0.12815884
57	0x3d11bd15	0.035580713
58	0x3e3714f1	0.17879082
59	0x3cca2dc5	0.024680028
60	0xbcfabeae	-0.030608501
61	0x3d9f014b	0.077639185
62	0xbe799869	-0.24374546
63	0xbe237bf3	-0.15965252
64	0xbdb656c4	-0.08903268
65	0xbe31b5ab	-0.17354457
66	0xbe2f2794	-0.17104942
67	0x3cad37bc	0.02114474
68	0xbd7aaede	-0.061201923
69	0x3dfbb6de	0.122907385
70	0x3e43d5eb	0.19124572
71	0xbdb412b6	-0.08792631
72	0x3e0c9c9b	0.13731615
73	0x3d1c84f7	0.038212743
74	0x3d5e4c0a	0.054271735
75	0xbd7087bf	-0.058723208
76	0x3e8c75ee	0.27433723
77	0x3dddc451	0.1082846
78	0xbd805768	-0.062666714
79	0x3ca7cec1	0.02048433
80	0x3ca6c341	0.020356776
81	0x3cfdbc88	0.030973688
82	0x3e837b42	0.25679976
83	0xbd0625c7	-0.03275087
84	0xbcb68286	-0.022279035
85	0xbdc8eae2	-0.09810425
86	0x3a3f5a35	0.00072995137
87	0xbd0bd319	-0.034136865
88	0x3cbe748c	0.023248933
89	0x3df7f622	0.12107493
90	0xbe5513e8	-0.20808375
91	0xbd93b6f4	-0.0721263
92	0x3d9aa37f	0.07550716
93	0x3e0f0105	0.13965233
94	0xbcee72f3	-0.029107546
95	0x3e45dbd7	0.19322143
96	0xbd6664ce	-0.05624848
97	0xbcbef653	-0.023310816
98	0x3c2f2170	0.010689124
99	0xbe0df5f9	-0.13863362
100	0x3d038fb2	0.03211946
101	0x3e2caaf8	0.16862094
102	0xbdaf29fb	-0.08552929
103	0xbb218b69	-0.0024649745
104	0xbbb32696	-0.0054672463
105	0x3d55e714	0.052222326
106	0x3b900d18	0.004396092
107	0x3d2874ee	0.041127138
108	0xbd9bab73	-0.07601061
109	0x3c13eb02	0.009028198
110	0x3c8d7322	0.017266814
111	0xbd2473ee	-0.04014962
112	0xbd9c7ffb	-0.07641598
113	0x3da1e183	0.07904341
114	0xbbbb7833	-0.005721116
115	0xbddf139e	-0.108924136
116	0x3d94d62f	0.07267415
117	0x3cd25e61	0.025679769
118	0xbe058804	-0.13040167
119	0xbac93ca3	-0.0015353154
120	0x3df25854	0.118332535
121	0x3e2ba2b1	0.1676128
122	0x3e0beee6	0.13665351
123	0xbe026e7e	-0.12737462
124	0x3df032b2	0.11728419
125	0x3de41454	0.1113669
126	0xbe47a5b8	-0.1949681
127	0xbd893ec0	-0.06701422
128	0xbdc366b5	-0.09541074
129	0xbe0b7176	-0.136175
130	0xbe8b7e33	-0.2724472
131	0xbea1f941	-0.31635478
132	0x3e38cb32	0.18046263
133	0x3d9baadf	0.076009504
134	0x3e989829	0.2980359
135	0x3dc0e1c3	0.09418061
136	0xbd34939d	-0.044086087
137	0x3ead7f28	0.33886075
138	0xbd3f46ce	-0.046698384
139	0xbbca0998	-0.0061656944
140	0x3f19a63b	0.6001927
141	0x3e11ddfb	0.14244835
142	0xbd3e6f6f	-0.04649299
143	0xbe1c57c6	-0.15267858
144	0x3d861682	0.06547262
145	0x3e0b06af	0.13576768
146	0x3cdfc837	0.02731715
147	0xbca60cb4	-0.02026973
148	0x3e0ced32	0.13762358
149	0xbe0a0cb2	-0.13481405
150	0xbe349ead	-0.17638655
151	0xbd16b02e	-0.03678911
152	0x3cdfd97c	0.027325384
153	0x3d9756de	0.073896155
154	0xbe09edb4	-0.13469583
155	0x3c28dead	0.010306996
156	0x3e33df07	0.17565547
157	0xbdc60df3	-0.09670629
158	0xbdbe4a81	-0.09291554
159	0xbc902abf	-0.017598508
160	0x3e0555fd	0.13021083
161	0xbe27ea60	-0.16398
162	0x3dc12209	0.0943032
163	0xbdcbf8b5	-0.099595465
164	0xbeae68ed	-0.34064427
165	0xbddd8173	-0.10815706
166	0xbd91daa4	-0.071217805
167	0xbe56d3f9	-0.20979299
168	0xbe58c6e6	-0.21169624
169	0x3ddde65a	0.10834952
170	0xbe0dff48	-0.13866913
171	0x3e4175ca	0.18892589
172	0xbdbb2ae7	-0.09139042
173	0xbc8728c9	-0.01649894
174	0xbd9ae2f8	-0.07562822
175	0xbd4627d1	-0.048377816
176	0xbead7032	-0.3387466
177	0x3e35d5c7	0.17757331
178	0x3d90a64f	0.07062971
179	0xbd4eb336	-0.050463878
180	0xbd7ff74e	-0.062491708
181	0xbd8e32b7	-0.06943267
182	0x3dc63d18	0.096796215
183	0x3efb84a5	0.49124637
184	0xbb455605	-0.0030111086
185	0x3b759d67	0.0037477852
186	0x3ddea692	0.108716145
187	0x3d5f3be0	0.05450046
188	0x3dd38745	0.10328535
189	0xbd090de9	-0.03346053
190	0xbe2316d7	-0.15926681
191	0xbde54bde	-0.11196111
192	0x3e61ad54	0.22038776
193	0x3d4127ee	0.04715722
194	0x3d01199f	0.031518575
195	0xbe421f38	-0.18957222
196	0x3e23b35d	0.1598639
197	0xbe6674e3	-0.22505526
198	0x3cce6963	0.025196737
199	0x3d6f26b0	0.058386505
200	0x3d800795	0.06251446
201	0xbd60e045	-0.05490138
202	0xbeda8c16	-0.42685002
203	0xbcb93834	-0.022609808
204	0x3d023501	0.03178883
205	0xbe5d10fd	-0.21588512
206	0xbe015a6f	-0.12632154
207	0xbd9fc44d	-0.07801113
208	0xbde90561	-0.11377979
209	0x3d897fbc	0.067138165
210	0xbe661bf7	-0.22471605
211	0xbe5bee1e	-0.21477553
212	0x3d7f2b93	0.062297415
213	0x3d927a3a	0.07152219
214	0xbd56cfe3	-0.05244435
215	0x3d8a5055	0.06753603
216	0xbe256989	-0.1615354
217	0xbe576c9c	-0.21037525
218	0x3df12195	0.117739834
219	0x3d51a1d3	0.05117972
220	0xbd3c629d	-0.045992482
221	0xbe1099e9	-0.14121212
222	0x3d2811e2	0.04103268
223	0x3def7eba	0.11694093
224	0x3e5b0f9d	0.21392675
225	0x3d89ce33	0.067287825
226	0x3da313b2	0.07962741
227	0x3dac70f4	0.084199816
228	0xbe3e4050	-0.18579221
229	0xbdf7fa0d	-0.1210824
230	0xbdcf3228	-0.101169884
231	0xbcc0c90c	-0.023533367
232	0xbdd18d43	-0.10232022
233	0xbaba8a38	-0.0014231866
234	0x3d5f9f54	0.054595307
235	0xbd93f95b	-0.07225295
236	0xbe26b885	-0.16281326
237	0xbe08411b	-0.13306086
238	0xbc1bbab8	-0.009504966
239	0xbe0caa49	-0.13736834
240	0xbdca7253	-0.09885087
241	0xbcad489e	-0.02115279
242	0xbe450861	-0.19241478
243	0xbd14a08d	-0.036285926
244	0x3d953b2d	0.072866775
245	0xbe42bfeb	-0.19018523
246	0xbe44f4b6	-0.19233975
247	0x3e506437	0.20350729
248	0x3b43a1d2	0.002985109
249	0x3d9a50e6	0.075349614
250	0x3eaa7b1d	0.33297053
251	0xbc22f2d6	-0.009945592
252	0xbda3a16b	-0.079897724
253	0x3da064c1	0.07831717
254	0x3e875519	0.26432112
255	0xbd4b0baf	-0.04957169

2.nn.layers.2.bias f4 [124]
0	0x3e09783d	0.13424774
1	0x3dc7a48f	0.09748184
2	0xbdd4f992	-0.10399164
3	0xbdbe357f	-0.09287547
4	0xbe5aea08	-0.21378338
5	0x3d86873e	0.06568764
6	0xbd68b4f6	-0.056813203
7	0x3da0757b	0.078349076
8	0x3d1fc240	0.03900361
9	0x3f14c264	0.58109117
10	0xbf96c27f	-1.1778105
11	0xbf0893c1	-0.53350455
12	0x3e3e2522	0.18568853
13	0xbd95a083	-0.07306006
14	0x3d0cb874	0.034355596
15	0xbe537f0d	-0.20653935
16	0x3d9ad67e	0.075604424
17	0x3df89b50	0.121389985
18	0xbdc53e34	-0.09631005
19	0x3bac0c86	0.0052505163
20	0xbe3fd028	-0.18731749
21	0xbefd9b7a	-0.49532682
22	0xbee2ec21	-0.44320777
23	0x3e87e5da	0.2654255
24	0x3ed92631	0.4241195
25	0xbe4b8fa2	-0.1987901
26	0xbebe7b6e	-0.37203544
27	0xbe83fef1	-0.25780442
28	0xbdbaf9f7	-0.09129708
29	0x3d114326	0.03546443
30	0x3e087b63	0.13328318
31	0x3da97f9a	0.08276291
32	0x3d97c34b	0.07410296
33	0x3bdc2f70	0.006719522
34	0xbc2f605b	-0.010704125
35	0x3dec0e08	0.11526114
36	0xbd447227	-0.047960427
37	0x3d3a6c55	0.04551347
38	0x3dfa3937	0.12217944
39	0xbd120ae2	-0.03565491
40	0xbe5993ca	-0.21247783
41	0xbd8b1049	-0.067902155
42	0x3ef0c992	0.47028786
43	0x3dfe6f63	0.12423589
44	0xbe09135e	-0.13386294
45	0xbdec7a10	-0.11546719
46	0xbd9d16f5	-0.07670394
47	0x3cd30b8f	0.025762348
48	0xbe07a3be	-0.13246056
49	0xbdaecea3	-0.085355066
50	0x3c5027d3	0.012704807
51	0x3efecebd	0.49767104
52	0x3e7b06df	0.2451434
53	0x3e0291b0	0.12750888
54	0xbeb2ca28	-0.34919858
55	0xbf039b7e	-0.5140914
56	0xbe53c8a2	-0.20682004
57	0xbf013213	-0.5046703
58	0x3e8fbf65	0.2807571
59	0x3e6b6b91	0.22990252
60	0x3e844729	0.2583554
61	0xbd52b385	-0.051440734
62	0xbe2231ac	-0.15839261
63	0xbd38252e	-0.044957332
64	0x3e001ce9	0.12511028
65	0x3d234858	0.039863914
66	0xbf08fec8	-0.53513765
67	0x3e519c65	0.20469816
68	0x3f2bf256	0.6716665
69	0xbe2a9681	-0.16658975
70	0xbdd3154c	-0.103067964
71	0x3f90e10b	1.1318678
72	0xbeafa5a6	-0.34306067
73	0x3e8afc17	0.27145454
74	0xbd163f72	-0.0366816
75	0x3d6211e1	0.055192832
76	0x3e588c45	0.21147259
77	0xbdbe5995	-0.0929443
78	0xbcbcaebe	-0.023032542
79	0xbe85c8fb	-0.26129898
80	0x3edce612	0.4314428
81	0x3f3a400c	0.7275398
82	0x3ee64726	0.44976157
83	0x3fd7aea6	1.6850173
84	0x3f91f2d5	1.1402231
85	0x3d229399	0.03969154
86	0x3f3420a7	0.70362324
87	0x3f6cea65	0.9254516
88	0x3f746e5a	0.95480883
89	0x3f1378a9	0.5760599
90	0x3f11bb1d	0.5692614
91	0xbe649c9b	-0.22325365
92	0xbc0b9440	-0.008519232
93	0xbd4f83b1	-0.0506627
94	0xbd67c96f	-0.056588586
95	0xbdbed895	-0.093186535
96	0xbe2f5dcc	-0.17125624
97	0xbe5b50af	-0.21417497
98	0xbe88fe07	-0.26756307
99	0x3eafddfd	0.3434905
100	0x3dea9482	0.11454107
101	0x3f1cf16f	0.613059
102	0x3f7145bf	0.9424705
103	0xbfb709e6	-1.4299896
104	0xbe49bc3c	-0.19700712
105	0x3c89b495	0.016809741
106	0xbdd34eae	-0.10317741
107	0x3d573e38	0.05254957
108	0xbd93b596	-0.07212369
109	0x3bf0f2cc	0.0073531624
110	0x3f0bc612	0.54599106
111	0xbec762d7	-0.38942596
112	0xbd1aa69c	-0.037756547
113	0xbe4177f2	-0.18893412
114	0x3f15bdb0	0.58492565
115	0x3ed68c07	0.41903707
116	0x3d8ea69a	0.069653705
117	0x3e93ff23	0.2890559
118	0x3f6d8bbe	0.92791355
119	0xbece14c1	-0.4025021
120	0xbe8dd574	-0.27701914
121	0xbe8d4c62	-0.27597338
122	0xbd127ee9	-0.035765562
123	0xbdae0b4e	-0.0849825
