Self project/models/nn/smogn/Colour/model.pt (torch, 54492 bytes, 9 tensors)

net.0.weight f4 [64, 3]
0	0x3cbe8014	0.023254432
1	0x3d6671dc	0.05626093
2	0x3f00afbd	0.50268155
3	0xbef2ef46	-0.47448176
4	0xbf12b812	-0.5731212
5	0x3ecf7a0d	0.40522805
6	0xbea35ee1	-0.31908324
7	0xbeedf507	-0.46476004
8	0x3e18f523	0.14937262
9	0xbf237908	-0.63856554
10	0x3e82b0d5	0.25525537
11	0xbe8e4795	-0.27788988
12	0x3eca5e69	0.39525154
13	0xbf17db43	-0.5931894
14	0xbf14840c	-0.5801399
15	0xbe93581e	-0.28778166
16	0x3ed9d021	0.42541602
17	0xbf03c845	-0.5147746
18	0xbe9834d7	-0.29727814
19	0x3f140b06	0.5782932
20	0x3f14becd	0.5810364
21	0xbcdf4a50	-0.027257115
22	0xbf0e2312	-0.55522263
23	0x3edd61af	0.4323859
24	0x3ea2e74e	0.31817096
25	0x3ee736f6	0.4515912
26	0x3e38d1dd	0.18048806
27	0xbebae88d	-0.36505547
28	0xbefcacc0	-0.49350548
29	0xbec6102a	-0.38684207
30	0x3f1eca51	0.6202746
31	0x3e519111	0.20465495
32	0x3ec01064	0.37512505
33	0xbe3cc526	-0.18434581
34	0x3f0bae81	0.54563147
35	0x3e9c3d65	0.3051559
36	0x3f053407	0.5203251
37	0x3ecf4d3e	0.4048862
38	0xbe1ff0fb	-0.1561927
39	0x3edc32c0	0.4300747
40	0xbead1218	-0.33802867
41	0x3eb61bd6	0.35568112
42	0x3d579bfd	0.052638996
43	0xbe6b8c88	-0.23002827
44	0x3f034111	0.5127116
45	0x3e9b31a4	0.3031131
46	0x3dc343d1	0.09534419
47	0xbeff582f	-0.49871966
48	0x3ea048c2	0.3130551
49	0x3ebb3422	0.36563212
50	0xbea5aa84	-0.32356656
51	0x3e7b47bc	0.24539083
52	0xbe2661c2	-0.16248229
53	0x3edecec8	0.43517137
54	0xbee54cca	-0.44785148
55	0x3e5b9861	0.21444847
56	0xbeec2361	-0.46120742
57	0x3dedde15	0.116146244
58	0x3e803c5c	0.2504605
59	0x3eeaf837	0.45892498
60	0x3ea41200	0.32044983
61	0x3f2b9a2f	0.6703214
62	0xbed911c0	-0.42396355
63	0xbe0f6e05	-0.14006813
64	0xbe0a1c51	-0.13487364
65	0x3f295ea8	0.6616006
66	0x3e3ea222	0.18616536
67	0xbe3f5cf7	-0.18687807
68	0x3ec9d81c	0.3942269
69	0x3d1e6d7f	0.038678642
70	0xbf0b3c16	-0.5438856
71	0x3d03fd17	0.032223787
72	0xbebd3930	-0.36957693
73	0xbf0289f5	-0.50991756
74	0x3d5d66fb	0.054053288
75	0x3e7d0537	0.2470902
76	0xbf126bab	-0.5719554
77	0x3f0edea3	0.55808467
78	0x3cf73184	0.030174978
79	0x3d46ff19	0.048583124
80	0xbf12b6f8	-0.5731044
81	0x3e018fb9	0.12652482
82	0x3e976fdc	0.2957753
83	0xbf067065	-0.5251525
84	0xbec46c7d	-0.3836402
85	0x3e32cfe9	0.17462124
86	0x3c123ab1	0.008925126
87	0x3f213b23	0.6298086
88	0x3da4c65f	0.08045649
89	0x3da6c498	0.08142966
90	0xbe92d722	-0.28679758
91	0xbe2b58a3	-0.16733031
92	0x3eb41b2d	0.35176983
93	0xbf0377cc	-0.5135467
94	0x3d88e2ee	0.066839084
95	0x3ec447ea	0.38336116
96	0xbe8c2890	-0.27374697
97	0xbf235cfc	-0.6381376
98	0xbef0f85a	-0.47064477
99	0xbea4fbe1	-0.32223418
100	0x3d004a18	0.03132066
101	0x3ebe089e	0.3711595
102	0x3f2a917e	0.66628253
103	0x3eb4b270	0.35292387
104	0xbd5b4c9f	-0.05353987
105	0x3dad0a3d	0.084492184
106	0x3c35e465	0.011101817
107	0xbd93900f	-0.07205211
108	0x3e364c0d	0.17802449
109	0x3d91fb1e	0.07127975
110	0x3ee0ff8e	0.43944973
111	0x3e8d69eb	0.27619871
112	0x3ee9ba0c	0.45649755
113	0x3da9c81b	0.0829012
114	0xbe77be5f	-0.24193715
115	0xbf234038	-0.63769865
116	0xbed77b7b	-0.42086396
117	0xbec9f705	-0.39446273
118	0x3e57cd0c	0.21074313
119	0xbe97416b	-0.29542097
120	0x3ed0933e	0.40737337
121	0xbe52c589	-0.20583166
122	0xbf27b4ce	-0.6551026
123	0xbeb1b71c	-0.34710014
124	0xbe8fa31d	-0.28054133
125	0xbea16e47	-0.31529447
126	0xbe9ded7c	-0.3084525
127	0x3ea7d521	0.32779792
128	0xbe928619	-0.28617933
129	0xbe8f4ebc	-0.27989757
130	0x3f0be49f	0.54645723
131	0x3b92021a	0.004455817
132	0xbdcd7f0f	-0.10034
133	0x3eae7438	0.34073043
134	0x3f28025c	0.656286
135	0x3db63717	0.08897226
136	0x3f170ef8	0.59007215
137	0x3e62b558	0.2213949
138	0xbed019b7	-0.4064462
139	0x3ebe8bff	0.37216184
140	0xbe7474d5	-0.23872693
141	0xbeaf6590	-0.34257174
142	0xbeec5056	-0.4615504
143	0x3f1fa18d	0.6235588
144	0x3e8c62a6	0.27419013
145	0x3d07bc99	0.033138845
146	0xbe233c45	-0.1594096
147	0xbec6707b	-0.3875769
148	0x3eeed91f	0.46650025
149	0x3ed584ba	0.41702825
150	0x3dac9467	0.08426743
151	0xbe0f535d	-0.13996644
152	0x3e278e7f	0.16362952
153	0x3dadc930	0.08485639
154	0x3e02fb69	0.12791218
155	0xbc978227	-0.018494679
156	0xbe613bc0	-0.21995449
157	0x3e11d20d	0.14240284
158	0x3ebc4f3a	0.36779195
159	0xbf04a40b	-0.5181281
160	0xbe82cdec	-0.2554773
161	0xbdec8a67	-0.11549836
162	0xbe5b5ce3	-0.21422152
163	0x3e58a86f	0.21158002
164	0xbe8c7690	-0.27434206
165	0x3df66788	0.12031466
166	0x3f103a4d	0.5633896
167	0xbee2fed1	-0.44335034
168	0x3ef5b1a5	0.47987095
169	0x3dd03462	0.10166241
170	0xbe1fc415	-0.15602143
171	0x3eac0016	0.33593816
172	0xbdeffb9e	-0.11717914
173	0x3eb591c3	0.3546277
174	0xbe650b0e	-0.22367498
175	0xbe2fb22a	-0.17157808
176	0xbee868cc	-0.45392454
177	0x3eea5600	0.45768738
178	0x3edfc775	0.4370686
179	0xbee9db56	-0.45675153
180	0x3f3a0701	0.7266694
181	0x3dedae5a	0.116055205
182	0xbd7176df	-0.058951255
183	0xbe7c842d	-0.24659796
184	0x3ee84c04	0.45370495
185	0x3e1bcd1b	0.1521496
186	0x3e53c6af	0.2068126
187	0x3e88c442	0.26712233
188	0xbe5606bc	-0.20901006
189	0xbe29ad28	-0.1656996
190	0xbe572482	-0.2101002
191	0x3d5995b0	0.05312127

net.0.bias f4 [64]
0	0x3e56e227	0.20984708
1	0xbe73a1a7	-0.23792134
2	0xbf1cfb56	-0.6132101
3	0x3eec8004	0.46191418
4	0xbddc1ff3	-0.10748281
5	0xbeded00d	-0.43518105
6	0x3c242132	0.01001768
7	0xbd58c7da	-0.05292497
8	0xbf0c1c18	-0.5473037
9	0xbefb6829	-0.49102905
10	0x3ef1d61e	0.4723367
11	0xbdd66e07	-0.10470205
12	0x3ee8886d	0.45416585
13	0xbea92667	-0.3303711
14	0xbe6e24c7	-0.23256217
15	0xbeabe4e9	-0.33573082
16	0x3e65c8b8	0.2243985
17	0xbed85e19	-0.4225929
18	0x3cbf6270	0.023362368
19	0xbed4c419	-0.4155586
20	0xbe3b3cc3	-0.18284898
21	0xbd560716	-0.05225285
22	0x3eb66af2	0.35628468
23	0x3d215f19	0.039397333
24	0x3e39da8d	0.18149777
25	0xbedcb38c	-0.43105733
26	0xbe8badf7	-0.27281162
27	0x3d9734ce	0.073831186
28	0x3e3e7182	0.18597987
29	0xbe048925	-0.12942941
30	0xbe9d920c	-0.30775487
31	0xbe4c4512	-0.19948223
32	0x3dc9018b	0.098147474
33	0x3e93a4c1	0.28836635
34	0xbca7c982	-0.020481829
35	0xbf06b0ae	-0.5261334
36	0x3eab77a2	0.3348971
37	0xbe0801c2	-0.1328192
38	0xbe141f33	-0.14465027
39	0xbe6ee55f	-0.23329686
40	0xbe2c0c84	-0.1680165
41	0x3f1c19f6	0.60977113
42	0xbe90ddc7	-0.28294203
43	0xbf0f1217	-0.5588698
44	0x3e05952e	0.13045189
45	0xbf050260	-0.5195675
46	0x3f0fabd5	0.5612157
47	0x3ea90fb7	0.33019802
48	0x3f062891	0.5240565
49	0xbecf1f5e	-0.4045362
50	0x3f101e0e	0.5629586
51	0x3e844b8d	0.2583889
52	0x3f07d781	0.5306321
53	0x3d28a0d6	0.04116901
54	0xbe1300c9	-0.14355768
55	0x3f188953	0.5958454
56	0xbe255abc	-0.16147894
57	0x3d3b84a1	0.04578078
58	0x3e881f97	0.265866
59	0x3eba7db7	0.36424038
60	0xbbbe5a1c	-0.0058090817
61	0xbe1b4581	-0.15163232
62	0x3e645871	0.22299363
63	0xbe8d9557	-0.27653

net.2.weight f4 [64, 64]
0	0xbd261312	-0.04054553
1	0x3cf3751e	0.029718932
2	0x3e14bc72	0.14525011
3	0xbe07a52a	-0.13246599
4	0xbcc4b738	-0.024013147
5	0xbd792690	-0.06082779
6	0x3cbbd300	0.022927761
7	0x3ddc35ed	0.10752473
8	0xbd6b1ad0	-0.057398617
9	0x3d58cdfa	0.05293081
10	0x3e83ef29	0.25768402
11	0x3e20279c	0.1564011
12	0xbd8d4c1f	-0.068992846
13	0x3d817556	0.06321208
14	0xbe4c7287	-0.19965564
15	0x3d511b3c	0.051051363
16	0xbd09bfad	-0.033630062
17	0x3dccceee	0.10000406
18	0x3d02070d	0.031745005
19	0x3e099752	0.1343663
20	0x3dc524b6	0.09626143
21	0xbd55029d	-0.052004445
22	0x3d3061a0	0.043061852
23	0x3de857b9	0.11344857
24	0xbd8b54e8	-0.06803304
25	0x3be34b7d	0.006936489
26	0xbcbb1edd	-0.022841865
27	0xbd06ecdb	-0.032940727
28	0x3d148088	0.03625539
29	0x3e2c2941	0.16812612
30	0x3d32f68f	0.043692168
31	0xbdaa9046	-0.08328299
32	0x3db8d937	0.090258054
33	0xbe0f0989	-0.13968481
34	0x3d491127	0.049088623
35	0xbd18fe58	-0.037351936
36	0xbdd12456	-0.10212009
37	0x3d36b9ce	0.04461079
38	0x3db5f10a	0.08883865
39	0xbe007dfd	-0.1254806
40	0x3a83c1f1	0.0010052306
41	0x3d4d27a3	0.05008663
42	0xbd8fe4a9	-0.07026035
43	0xbd1d2c19	-0.038372133
44	0x3df064ae	0.11737953
45	0x3d8f9954	0.07011667
46	0x3d180397	0.0371128
47	0x3da821bb	0.082095586
48	0xbd9934c5	-0.07480768
49	0x3d058b3c	0.032603487
50	0x3d5e2729	0.054236565
51	0xbd8f72c3	-0.07004311
52	0xbd3389cd	-0.04383259
53	0x3d072b33	0.033000182
54	0xbc8a9f96	-0.0169218
55	0x3cefdf23	0.029281205
56	0xbca77069	-0.020439344
57	0xbc7f5d30	-0.0155861825
58	0xbd4f3f4c	-0.050597474
59	0x3d6de41f	0.05807888
60	0xbcc1f48e	-0.023676183
61	0x3e10f83b	0.14157192
62	0xbd7c77cc	-0.061637685
63	0x3cba5ac4	0.022748359
64	0x3d61291b	0.05497084
65	0x3dfd0117	0.123537235
66	0xbe25c82b	-0.1618964
67	0x3de96d8a	0.11397846
68	0xbea29738	-0.31755996
69	0xbc2d4b71	-0.010577069
70	0xbd843231	-0.06454886
71	0xbd2709ad	-0.040780712
72	0xbde63d42	-0.11242153
73	0xbecdddb2	-0.40208203
74	0xbd7a75ce	-0.061147504
75	0xbe4f9a90	-0.20273805
76	0x3e0ce47e	0.13759038
77	0xbe074dd2	-0.1321328
78	0x3daf699e	0.08565067
79	0xbe163b80	-0.14671135
80	0xbbbf55f8	-0.0058391057
81	0x3d521845	0.051292676
82	0xbc725c14	-0.014792461
83	0xbe3a91de	-0.18219706
84	0xbd78c663	-0.06073607
85	0x3e134d0a	0.14384857
86	0x3dc4f70c	0.09617433
87	0x3e25b43d	0.16182037
88	0xbdda55b2	-0.10660876
89	0xbe038fb5	-0.12847789
90	0xbd3c02ce	-0.045901112
91	0x3d9f056c	0.07764706
92	0x3cdde21d	0.027085358
93	0xbe4d65f4	-0.20058423
94	0x3e2a373b	0.16622631
95	0x3e2b55cf	0.16731952
96	0xbddebb6f	-0.10875594
97	0x3ccbacfb	0.024862757
98	0x3ddc1a70	0.1074723
99	0x3dddf5fe	0.10837935
100	0x3a1ea128	0.0006051236
101	0x3be57919	0.0070029614
102	0x3df372e4	0.11887148
103	0xbde70ad1	-0.1128136
104	0xbf07b74b	-0.5301406
105	0x3df7bca4	0.12096527
106	0xbe5a15f2	-0.21297434
107	0x3d5c0338	0.053714007
108	0x3ca17280	0.019707918
109	0xbe2a0229	-0.16602387
110	0xbd91a4bc	-0.07111499
111	0x3e32b318	0.17451131
112	0xbd9c3855	-0.07627932
113	0x3d5e10a6	0.054215096
114	0x3e06188a	0.13095298
115	0x3ddac0bf	0.10681295
116	0x3e1b47b8	0.15164077
117	0x3ca13dfe	0.01968288
118	0xbc9d2442	-0.019182328
119	0xbd956d5d	-0.0729625
120	0x39416301	0.00018442796
121	0xbd6f4d78	-0.05842349
122	0xbe12914e	-0.14313242
123	0x3d2d37cf	0.04228955
124	0x3cf1d8ff	0.029522417
125	0xbe276919	-0.16348685
126	0xbe1dd681	-0.15413858
127	0xbdd3902d	-0.10330234
128	0x3d0b9b06	0.03408339
129	0x3ddd1cf0	0.10796535
130	0x3e097812	0.1342471
131	0x3cf21cc3	0.02955473
132	0xbd6c62a7	-0.05771127
133	0xbdf70c6d	-0.12062917
134	0xbe24b70e	-0.16085455
135	0x3e11bb6f	0.14231656
136	0xbdd0f3cf	-0.10202753
137	0x3e13fc6f	0.14451765
138	0x3e0863a9	0.13319267
139	0xbd70d42b	-0.05879609
140	0xbdc38b26	-0.09548025
141	0xbe0f9fe5	-0.14025839
142	0xbe63cd98	-0.22246397
143	0x3df8a54d	0.121409036
144	0xbd7a308b	-0.06108145
145	0xbe3cc655	-0.18435033
146	0xbdaf17e4	-0.08549479
147	0xbda0bee4	-0.078489095
148	0x3dec1347	0.11527114
149	0xbe3afffb	-0.18261711
150	0xbc43c7cd	-0.011949492
151	0xbb3ce5f3	-0.0028823584
152	0x3d0a2f0a	0.033736266
153	0xbce29f3e	-0.027663823
154	0xbda9a8dc	-0.082841605
155	0x3da0f908	0.07859999
156	0x3d9d0b46	0.07668166
157	0x3db483c4	0.08814195
158	0x3da26b99	0.07930679
159	0xbcec9fd8	-0.028884813
160	0xbd78f08c	-0.06077628
161	0x3c0d246a	0.008614639
162	0xbe0f4842	-0.13992408
163	0x3d182971	0.037148897
164	0x3c48d5c1	0.012257994
165	0xbbfc3d03	-0.007697703
166	0xbe1d16a2	-0.15340665
167	0xbe0200a4	-0.12695557
168	0x3db5c56d	0.088755466
169	0x3de7a43e	0.113106236
170	0xbde39d23	-0.11113956
171	0xbe1ba721	-0.15200473
172	0x3caf720f	0.021416692
173	0xbb0ad50d	-0.0021184117
174	0x3cb4b9bc	0.022061221
175	0x394244ec	0.00018526957
176	0x3e21c05b	0.15796034
177	0xbe12dcc5	-0.1434203
178	0x3df09d02	0.11748697
179	0x3cd830d4	0.02639047
180	0x3e1cf02e	0.15325996
181	0x3d4ff03b	0.05076621
182	0x3b36f8e7	0.0027919353
183	0x3dd5fe4a	0.104488924
184	0xbc1bb39d	-0.009503272
185	0xbe0c6468	-0.13710177
186	0xbda8b566	-0.08237724
187	0x3e08395b	0.1330313
188	0x3d330163	0.043702494
189	0xbd9bd116	-0.07608239
190	0xbda14fdc	-0.0787656
191	0x3dbe98ea	0.0930651
192	0x3d995129	0.07486183
193	0xbdfd94c2	-0.12381889
194	0x3cfa500d	0.03055575
195	0xbcb1ffba	-0.021728385
196	0x3d8ccc97	0.0687496
197	0xbc7590f1	-0.01498817
198	0xbd96f639	-0.07371182
199	0xbc4b3401	-0.012402535
200	0xbc11eb59	-0.008906209
201	0xbd9f6bb7	-0.07784217
202	0x3d4b83bb	0.049686175
203	0x3db8c6b2	0.09022273
204	0x3dcd61c4	0.10028413
205	0x3d678426	0.05652251
206	0xbd95e13a	-0.07318349
207	0x3d0b4432	0.034000583
208	0xbd8994da	-0.06717844
209	0xbc108c6b	-0.008822541
210	0xbda9ce6f	-0.08291327
211	0xbd78a73e	-0.06070637
212	0xbde9d29f	-0.11417126
213	0x3a3c5b89	0.00071852707
214	0xbc2eacb8	-0.010661297
215	0x3dc32bad	0.09529815
216	0x3d1562bb	0.03647111
217	0x3d670e65	0.056410212
218	0xbd7e5a40	-0.062097788
219	0xbc60e9f3	-0.013727653
220	0xbcea21f9	-0.028580653
221	0xbc02d2e5	-0.0079848515
222	0xbd91829f	-0.07104992
223	0x3d82fd24	0.06395939
224	0x3de2230c	0.11041841
225	0x3d3e77f8	0.04650113
226	0x3850e013	4.979975e-05
227	0x3b4335db	0.002978674
228	0xbdedfb43	-0.1162019
229	0xbdc6ff58	-0.09716672
230	0xbd859c25	-0.06523923
231	0xbd6ff606	-0.058584236
232	0xbe07b3b8	-0.13252151
233	0x3c54a7b6	0.0129794385
234	0x3c2f5e28	0.010703601
235	0x3bd46add	0.0064824657
236	0x3d0f3bc0	0.03496909
237	0xbdd3eaf5	-0.10347549
238	0xbdb1145d	-0.08646462
239	0xbdd27d91	-0.10277856
240	0xbd489631	-0.04897136
241	0xbd95e807	-0.07319646
242	0x3d651d2c	0.055936024
243	0xbc078ad4	-0.008272845
244	0xbd88923e	-0.066685185
245	0x3cea0a3c	0.028569333
246	0xbc09ac09	-0.008402833
247	0xbcf98baf	-0.030462114
248	0x3d4d4714	0.050116614
249	0xbb6c3a98	-0.0036045667
250	0x3ca0c557	0.019625349
251	0x3da4bfe6	0.08044414
252	0x3d8cdc5c	0.06877968
253	0xbdcaf1a7	-0.09909373
254	0xbd4ec0ab	-0.05047671
255	0xbda57468	-0.08078843

net.2.bias f4 [64]
0	0x3d031fff	0.032012936
1	0x3b381464	0.0028088326
2	0x3e2cf27e	0.16889378
3	0xbd639f0c	-0.0555716
4	0x3dcc2b4c	0.09969196
5	0xbd95d843	-0.07316639
6	0xbe0b4530	-0.13600612
7	0xbd183842	-0.037163027
8	0xbddcda72	-0.10783853
9	0xbdee21eb	-0.11627563
10	0x3d1aecc8	0.03782347
11	0xbc4842fc	-0.012223002
12	0xbcbb1309	-0.022836225
13	0xbd0670c1	-0.032822374
14	0x3d4be5f8	0.049779862
15	0xbc966120	-0.01835686
16	0xbdff2c26	-0.124595925
17	0xbcc07422	-0.023492876
18	0xbdf855d0	-0.121257424
19	0xbe22d267	-0.15900575
20	0x3cc3a9c6	0.023884665
21	0xbd981ca8	-0.07427341
22	0x3b2d97d1	0.0026488195
23	0x3db7227a	0.08942123
24	0xbe3e0450	-0.18556333
25	0xbc205cd7	-0.00978776
26	0x3e091da4	0.13390213
27	0xbdf310ee	-0.118684635
28	0xbdb9a577	-0.09064763
29	0x3e057f9e	0.13036963
30	0x3d9154ed	0.070962764
31	0x3d269202	0.040666588
32	0x3d2acd39	0.04169962
33	0xbd7af2b8	-0.06126663
34	0x3df9ba9d	0.12193797
35	0xbde289ba	-0.110614255
36	0x3d6ab158	0.057298034
37	0xbd4a2f51	-0.04936153
38	0xbd924f57	-0.07144039
39	0x3ddd276c	0.10798535
40	0x3cdd5f7e	0.027023073
41	0xbdf157ea	-0.117843464
42	0x3d88e58b	0.06684407
43	0xbdb30f31	-0.08743132
44	0xbd2c572f	-0.042075332
45	0x3e1aa906	0.1510354
46	0x3e368297	0.17823254
47	0xbe08346b	-0.13301246
48	0xbd5630a7	-0.052292492
49	0xbd06aec6	-0.03288152
50	0x3d69364e	0.056936555
51	0xbd40a420	-0.04703152
52	0xbd741dd6	-0.059598766
53	0x3cb04403	0.021516806
54	0x3d71fb03	0.059077274
55	0x3e46a5bc	0.1939916
56	0x3daff89b	0.085923396
57	0xbc9f5870	-0.01945135
58	0x3e2b5731	0.1673248
59	0x3e0a21f6	0.13489518
60	0xbcb0e088	-0.02159144
61	0xbe2700ab	-0.16308849
62	0x3d750f0e	0.05982881
63	0x3d8abfbe	0.06774853

net.4.weight f4 [64, 64]
0	0x3d440f32	0.047866054
1	0xbdb37e2e	-0.08764301
2	0xbde52264	-0.111882
3	0xbd957e71	-0.072995074
4	0x3cbd8d94	0.023138799
5	0x3cbce971	0.023060532
6	0x3d5925f6	0.053014718
7	0x3e014f1b	0.12627833
8	0xbde16479	-0.11005492
9	0x3e439228	0.19098723
10	0xbde19e76	-0.11016552
11	0xbea47049	-0.32116917
12	0xbddd4808	-0.108047545
13	0x3e0f8290	0.1401465
14	0x3da638c8	0.08116299
15	0xbd7a4f74	-0.06111093
16	0x3df062d6	0.117376015
17	0xbc66fba8	-0.014098085
18	0x3dd5aedd	0.10433743
19	0x3de2adb7	0.1106829
20	0x3dbc87ef	0.09205615
21	0x3c9b50c5	0.018959412
22	0xbe209e7c	-0.15685457
23	0xbcfaa0cc	-0.030594252
24	0x3e174290	0.14771485
25	0xbd91d29e	-0.0712025
26	0x3cb05e74	0.021529414
27	0x39e70400	0.00044062734
28	0x3d176794	0.036964014
29	0xbdb7ce65	-0.089749135
30	0xbe05f9d9	-0.1308359
31	0xbb84cad7	-0.0040525007
32	0x3c8225f4	0.015887238
33	0x3d479156	0.048722588
34	0xbddc060a	-0.10743339
35	0xbdf4c8a6	-0.11952333
36	0x3dafae75	0.08578197
37	0x3d07a9eb	0.03312103
38	0xbd298c56	-0.0413936
39	0xbe29f70f	-0.16598152
40	0x3cffed24	0.031241007
41	0x3d128bda	0.035777904
42	0x3cbb0019	0.022827195
43	0xbc7aa6f7	-0.015298597
44	0x3d9616a5	0.07328538
45	0x3dbf9879	0.09355254
46	0xbdeac18e	-0.11462699
47	0x3e034ce0	0.12822294
48	0xbdd44c28	-0.10366088
49	0xbe5cf304	-0.21577078
50	0x3e17d482	0.14827159
51	0xbbd071fd	-0.0063612447
52	0x3e1f16c7	0.15536033
53	0x3d7a411a	0.061097242
54	0xbd053796	-0.032523714
55	0xbe08bb50	-0.13352704
56	0xbe1b18cf	-0.15146182
57	0x3c5bebd0	0.013422921
58	0xbe288c9e	-0.16459891
59	0x3cc719ee	0.024304356
60	0x3df8a1f2	0.121402636
61	0x3d604799	0.05475578
62	0x3d3e90fa	0.04652498
63	0x3d30f560	0.043202758
64	0xbd85cd49	-0.06533296
65	0x3da47a0c	0.08031091
66	0xbcc4079e	-0.023929413
67	0x3d03f931	0.03222007
68	0xbe43ce46	-0.19121656
69	0xbe8d0430	-0.27542257
70	0xbbc21112	-0.005922445
71	0x3e3c429f	0.18384789
72	0xbe7351cd	-0.23761673
73	0x3e3e2acd	0.18571015
74	0xbea032d8	-0.3128879
75	0xbea2b345	-0.31777397
76	0x3d9884c6	0.074471995
77	0xbddd160f	-0.10795223
78	0x3d483017	0.048873987
79	0xbc81fb40	-0.015866876
80	0x3d8abe0c	0.0677453
81	0xbc05d92b	-0.008169453
82	0x3d1d97f2	0.038474984
83	0xbda49867	-0.08036881
84	0x3e0b645d	0.13612504
85	0x3b05221a	0.0020314516
86	0x3d139b8a	0.036037005
87	0x3d911a1c	0.07085058
88	0x3e579a14	0.2105487
89	0x3d5b333b	0.053515654
90	0x3ca765da	0.020434309
91	0xbd6c3f30	-0.057677448
92	0x3d886a43	0.06660893
93	0xbe04c1e3	-0.12964587
94	0x3ce2f5f4	0.02770517
95	0x3e385062	0.17999414
96	0x3cd84c85	0.026403675
97	0xbd602540	-0.054723024
98	0xbd416b30	-0.047221363
99	0xbdb6e75e	-0.089308485
100	0xbca69470	-0.020334452
101	0xbebe752a	-0.37198764
102	0xbd2e1b9a	-0.04250679
103	0xbb60452d	-0.003422092
104	0x3db268ae	0.08711372
105	0xbe2a9052	-0.16656616
106	0x3c71a941	0.014749826
107	0xbdb53b05	-0.08849148
108	0x3d40f6b0	0.04711026
109	0x3de43338	0.11142582
110	0xbd59d677	-0.053183045
111	0x3ceea552	0.029131565
112	0xbcbf13e9	-0.023324924
113	0xbe5b055e	-0.21388766
114	0x3d49dfc7	0.049285676
115	0x3da1e197	0.07904356
116	0x3dab30ea	0.08358939
117	0x3de51b8d	0.111868955
118	0xbe564d88	-0.20928013
119	0xbd007707	-0.031363513
120	0xbe74ecb0	-0.23918414
121	0xbd11cf10	-0.03559786
122	0xbd5a2a13	-0.05326278
123	0x3d4efa69	0.05053178
124	0xbd3cd249	-0.04609898
125	0xbe344e98	-0.17608106
126	0xbdc232b9	-0.09482331
127	0xbe02d9fc	-0.12778467
128	0xbde5dc13	-0.112236165
129	0xbd965f3b	-0.073423825
130	0xbde453df	-0.1114881
131	0x3d6b8534	0.05750008
132	0xbd8ad611	-0.06779111
133	0xbca74695	-0.020419398
134	0x3c923131	0.017845722
135	0x3d32c468	0.04364434
136	0xbc0ec40a	-0.008713732
137	0xbd02e9dc	-0.031961307
138	0x3d860bbb	0.06545206
139	0x3d9dee34	0.07711449
140	0xbccf8a68	-0.025334552
141	0x3dde6ab4	0.10860196
142	0xbc403c75	-0.011733164
143	0x3d335900	0.04378605
144	0x3c83abd8	0.016073152
145	0xbd46bf22	-0.048522122
146	0xbd9d3096	-0.07675283
147	0x3d331f43	0.043730985
148	0xbd563d40	-0.052304506
149	0xbe090378	-0.1338023
150	0x3db3deed	0.08782754
151	0x3d7aab23	0.061198365
152	0x3dd71ff7	0.10504144
153	0xbda899b5	-0.08232442
154	0x3db22c34	0.08699837
155	0x3b28a500	0.0025733113
156	0x3cdb5ea1	0.026778521
157	0x3cb7ada1	0.02242166
158	0xbded639b	-0.11591264
159	0xbdc3b413	-0.09555831
160	0xbd44ee3f	-0.04807877
161	0xbcf65483	-0.030069595
162	0xbdb924c0	-0.09040213
163	0x3b909ea0	0.004413441
164	0xbd66d00d	-0.056350756
165	0x3da48a1c	0.08034155
166	0x3c7c3f10	0.015395895
167	0x3ce7570d	0.028239751
168	0x3d2a7836	0.04161855
169	0x3ddaf6ce	0.106916055
170	0x3c6787b8	0.014131479
171	0xbc2148dd	-0.009844032
172	0x3c64559a	0.013936425
173	0xbe08e872	-0.13369921
174	0x3d8d15a7	0.068888955
175	0x3d769074	0.060196355
176	0x3d932646	0.071850345
177	0x3de1bd02	0.110223785
178	0xbdde6d38	-0.108606756
179	0x3d1d37a8	0.038383156
180	0xbd2dbce7	-0.04241648
181	0xbdfa702f	-0.122284286
182	0x3d899ff4	0.06719962
183	0xbd7cb8de	-0.06169974
184	0x3cdc4d96	0.026892465
185	0x3d05fef0	0.03271383
186	0xbd4c8cc8	-0.049938947
187	0x3cb0fef3	0.021605944
188	0x3daafec2	0.083493724
189	0xbe05dfa8	-0.130736
190	0x3b88d6cc	0.0041759964
191	0xbdb2430e	-0.08704196
192	0x3d2600d3	0.04052813
193	0xbb5cb95f	-0.0033679826
194	0xbd23982f	-0.039940055
195	0xbe02811b	-0.12744562
196	0x3db022a4	0.08600357
197	0x3d3b632e	0.045748882
198	0x3e36b666	0.17843017
199	0x3d39fa22	0.04540456
200	0xbe151fba	-0.14562884
201	0x3dbfbdd1	0.093623765
202	0xbdb773b1	-0.08957613
203	0xbe7b17cc	-0.24520797
204	0x3cd24a69	0.025670247
205	0x3d89bb50	0.0672518
206	0x3c972b48	0.018453255
207	0xbd4ea134	-0.050446704
208	0x3de7c934	0.11317673
209	0x3d39da95	0.04537447
210	0xbdb88edf	-0.090116255
211	0x3c78c893	0.015184539
212	0x3e17cc1a	0.14823952
213	0x3e017017	0.12640415
214	0x3bd09d98	0.006366443
215	0x3e129c00	0.14317322
216	0x3e0d5fa7	0.1380602
217	0x3d7e4c85	0.062084693
218	0xbd59cbdc	-0.05317293
219	0x3ddc2b68	0.107504666
220	0x3df2aed2	0.118497506
221	0xbda01540	-0.07816553
222	0x3d3ae6cb	0.045630258
223	0xbda137d2	-0.07871975
224	0x3d4b2f86	0.04960587
225	0x3db6d59f	0.08927464
226	0xbd98fcd9	-0.07470102
227	0xbd83d5f2	-0.06437291
228	0x3e072906	0.13199243
229	0x3bd563d4	0.0065121446
230	0x3da83159	0.08212537
231	0xbce59ee4	-0.028029867
232	0x3dc26a10	0.09492886
233	0xbd68e39f	-0.0568577
234	0xbcf2e3e8	-0.02964969
235	0x3d8e9067	0.06961136
236	0x3db806d6	0.08985679
237	0xbd1fbd0e	-0.038998656
238	0x3e385dfe	0.18004605
239	0x3da36ccf	0.07979738
240	0xbdcb5087	-0.09927469
241	0x3c88d2f1	0.016702147
242	0xbbc359d5	-0.0059616365
243	0x3da8c19e	0.082400545
244	0x3d72ec17	0.059307184
245	0xba585336	-0.00082521455
246	0x3c4779ff	0.012175082
247	0xbde01746	-0.10941939
248	0xbe7fac0b	-0.24967973
249	0xbd3d5d94	-0.04623182
250	0x3dbd576e	0.092451915
251	0x3df9f155	0.122042336
252	0xbda3eec0	-0.08004522
253	0xbc0e1adf	-0.008673399
254	0xbd9bf088	-0.07614237
255	0x3dff2bec	0.12459549

net.4.bias f4 [64]
0	0x3bd31680	0.006441891
1	0x3d66eff5	0.056381185
2	0xbddfd04a	-0.109284
3	0xbd418a17	-0.047250833
4	0x3d034dee	0.03205674
5	0x3da8c27c	0.0824022
6	0xbb06e94a	-0.0020585828
7	0x3dd4baa2	0.1038716
8	0x3dd461da	0.10370226
9	0x3e0ca114	0.13733321
10	0xbde7e1a2	-0.11322333
11	0xbd7a9160	-0.061173797
12	0xbc6f09e5	-0.014589761
13	0x3d22914b	0.039689343
14	0x3e17d3c3	0.14826874
15	0x3dd907a9	0.10597164
16	0x3b777bbf	0.0037762967
17	0x3de46463	0.1115196
18	0x3e53b320	0.206738
19	0xbd2e0f2d	-0.04249494
20	0x3e07fae4	0.13279301
21	0x3bdfd6ab	0.0068310103
22	0x3e172ada	0.1476244
23	0x3d078fbe	0.033096068
24	0x3ce574cd	0.028009797
25	0xbdbb79d6	-0.09154098
26	0x3e02f7d8	0.12789857
27	0x3c8b33ca	0.016992468
28	0xbb8220a7	-0.0039711776
29	0x3d2048f1	0.039132062
30	0x3df04993	0.11732783
31	0xbd5fce8f	-0.05464035
32	0x3dfd585c	0.12370369
33	0x3d5373a8	0.05162397
34	0x3d0a9a7f	0.033838745
35	0x3e40da62	0.18833306
36	0x3d60d258	0.0548881
37	0xbcb91227	-0.022591664
38	0x3dfb62e8	0.12274724
39	0xbd5ce1fa	-0.053926446
40	0x3dcaffb0	0.0991205
41	0x3e311f27	0.1729704
42	0x3dd48fc1	0.103789814
43	0x3dd8b454	0.1058127
44	0x3d6f745f	0.05846059
45	0x3e21b59c	0.15791935
46	0x3de980da	0.114015296
47	0x3e0c5da0	0.1370759
48	0xbd619849	-0.05507687
49	0xbd6a5bf4	-0.0572166
50	0x3cf7c0c3	0.030243283
51	0x3d1c64c6	0.038182043
52	0xbdd28f64	-0.10281256
53	0xbd668092	-0.056274958
54	0x3e0a631a	0.13514367
55	0xbd6f3921	-0.05840409
56	0x3cbd1b61	0.023084344
57	0x3dc60825	0.09669522
58	0xbcfa3e73	-0.030547356
59	0xbd282804	-0.041053787
60	0xbda8040f	-0.08203899
61	0x3d7c4b3c	0.061595187
62	0xbd27259d	-0.040807355
63	0xbd05b2e1	-0.032641295

net.6.weight f4 [64, 64]
0	0x3d9092a7	0.07059222
1	0x3e346f93	0.17620687
2	0xbc920063	-0.01782245
3	0x3e242dca	0.16033092
4	0xbbb33093	-0.005468437
5	0xbd334905	-0.04377081
6	0xbd320831	-0.043464843
7	0x3e285275	0.16437705
8	0x3e228b13	0.15873365
9	0xbe7ee0d2	-0.2489045
10	0x3e1bb9b2	0.15207556
11	0xbd94e7da	-0.07270785
12	0x3d72638c	0.059176967
13	0x3df03355	0.11728541
14	0x3cdbdb44	0.026837952
15	0x3c94c91d	0.018162305
16	0x3eb24ca0	0.34824085
17	0xbdb5c996	-0.0887634
18	0xbe3e26dd	-0.18569513
19	0xbbf87dad	-0.007583341
20	0x3d1999b6	0.037500106
21	0x3d2b37ec	0.041801378
22	0x3e27c8b3	0.16385154
23	0x3e26d555	0.16292317
24	0xbd243b55	-0.040095646
25	0x3d5695fe	0.052389137
26	0x3da7b9c1	0.081897266
27	0x3e49c40b	0.1970369
28	0x3dc3d26c	0.09561619
29	0xbe846300	-0.2585678
30	0x3dd31a23	0.103077196
31	0x3d244f95	0.040114958
32	0x3e3ea939	0.18619241
33	0x3d431f6c	0.047637388
34	0x3ed29420	0.41128635
35	0xbd092139	-0.03347895
36	0xbdba94f6	-0.09110443
37	0x3dc1c445	0.094612636
38	0x3e5ab3e9	0.21357693
39	0x3e27df7c	0.16393846
40	0xbd963ac1	-0.07335425
41	0xbd34e30b	-0.044161838
42	0x3e24ad84	0.16081816
43	0x3b7cb98b	0.003856274
44	0x3e07da0d	0.13266774
45	0x3e1e5515	0.15462144
46	0x3e0c4a9c	0.13700336
47	0x3d8de879	0.06929106
48	0x3ddcd653	0.107830666
49	0xbc99bf6b	-0.018768033
50	0xbea0f84c	-0.31439435
51	0xbe801797	-0.25017998
52	0x3d9ad688	0.0756045
53	0x3df58367	0.11987954
54	0x3da897a5	0.08232049
55	0xbd85f874	-0.06541529
56	0x3c83e43a	0.016100038
57	0x3d4b51e2	0.049638636
58	0x3c672153	0.014107066
59	0xbe1c6f81	-0.1527691
60	0x3e006b6a	0.12540975
61	0xbea7edc6	-0.32798594
62	0xbd33f15f	-0.04393136
63	0x3dc30418	0.09522265
64	0xbdf0c20b	-0.11755761
65	0xbe32c3f4	-0.17457563
66	0xbd528b80	-0.05140257
67	0xbbaac853	-0.005211869
68	0xbdc4e7cc	-0.09614524
69	0x3ca5c9d4	0.02023784
70	0x3d361313	0.044451784
71	0xbca3a996	-0.019978326
72	0xbdbc7a2b	-0.09202989
73	0x3ddefae1	0.10887695
74	0xbcdae88e	-0.026722219
75	0xbdf29a5a	-0.118458465
76	0xbd658c2c	-0.05604188
77	0x3d0418bb	0.032250147
78	0x3d1f28d6	0.038857304
79	0xbda1dc93	-0.07903399
80	0xbe6b46b3	-0.22976188
81	0x3c23e498	0.0100032315
82	0x3df41079	0.119172044
83	0x3d22b20a	0.039720573
84	0x3c3219fb	0.010870452
85	0x3b59c8c1	0.003323123
86	0x3d066c75	0.032818276
87	0xbd28a9b8	-0.04117748
88	0xbd852ce8	-0.06502706
89	0x3db4fdfa	0.08837505
90	0x3c90e842	0.017688874
91	0x3d46b9f4	0.048517182
92	0x3cd0391c	0.025417857
93	0xbbd90502	-0.0066229114
94	0x3b328ab8	0.0027243327
95	0xbe082172	-0.13294008
96	0x3d84393c	0.06456229
97	0xbdafce15	-0.08584229
98	0xbe9bb563	-0.30411825
99	0x3da18dd0	0.07888377
100	0x3dc32c8a	0.095299795
101	0x3d0b054f	0.03394061
102	0xbdd8aa7f	-0.105793945
103	0xbd9ecf2a	-0.07754357
104	0x3e0c0978	0.13675487
105	0x3dd58e6c	0.104275554
106	0xbe03a91c	-0.12857479
107	0xbcef96f2	-0.029246781
108	0xbde7b8fc	-0.1131458
109	0x3cd4b44e	0.025964882
110	0xbe29d0c2	-0.16583541
111	0xbe38ece3	-0.18059115
112	0xbcf7d8f8	-0.030254826
113	0x3db05f22	0.08611895
114	0x3dfbb119	0.12289638
115	0x3e2c24d5	0.16810925
116	0xbe0202b5	-0.12696345
117	0x3c1571f1	0.009121404
118	0x3cd9738f	0.02654436
119	0xbd4b7469	-0.049671564
120	0x3ce3716b	0.027764043
121	0x3d995a2c	0.07487902
122	0xbf2749a0	-0.6534672
123	0x3c851749	0.016246455
124	0xbc6bb8cf	-0.0143873235
125	0x3da0b006	0.07846074
126	0x3d810f16	0.063017055
127	0xbe0d1340	-0.13776875
128	0x3e5568d8	0.20840776
129	0x3e585b12	0.2112849
130	0xbc9e783f	-0.019344447
131	0xbc8d214c	-0.017227791
132	0x3ccab5a9	0.024744825
133	0x3d981778	0.07426351
134	0x3db48ff7	0.088165216
135	0x3dbab771	0.0911702
136	0x3e561c68	0.20909274
137	0xbe8cace5	-0.27475658
138	0xbd4f86c5	-0.050665636
139	0x3c0f3960	0.008741707
140	0xbda3426e	-0.07971655
141	0x3d5765db	0.05258737
142	0x3d1d7278	0.038439244
143	0xbcb951f0	-0.022622079
144	0x3e5eee94	0.21770698
145	0xbd1f4571	-0.038884584
146	0xbd0bbfb2	-0.03411836
147	0x3e44cb90	0.19218278
148	0xbdbfca3e	-0.093647465
149	0x3d757baf	0.059932407
150	0x3e705b25	0.23472269
151	0x3eac5ff4	0.33666956
152	0xbde3b8f9	-0.11119265
153	0x3d258c1f	0.040416833
154	0xbd642ae8	-0.05570498
155	0x3e7e2e8a	0.2482244
156	0x3ca05782	0.019572977
157	0xbeb3a3c0	-0.3508587
158	0x3dc3f73c	0.095686406
159	0x3dff2b4a	0.124594286
160	0x3e514a7c	0.2043857
161	0xbc81de4a	-0.015853066
162	0x3e86806e	0.2626986
163	0x3dc90a88	0.09816462
164	0x3d4cdd06	0.050015472
165	0x3da7dad0	0.08196032
166	0x3ddf2c16	0.108970806
167	0xbd9167ba	-0.070998624
168	0x3d674875	0.056465585
169	0xbe12e1de	-0.14343974
170	0xbcf7c64a	-0.030245919
171	0xbdd316e5	-0.10307101
172	0x3defee2a	0.11715348
173	0x3e2a90e2	0.16656831
174	0x3e10352b	0.14082782
175	0x3e5c85dc	0.21535438
176	0xbc3b6e56	-0.01143988
177	0x3d78d26f	0.06074756
178	0xbe159e74	-0.14611226
179	0xbe40d263	-0.18830256
180	0x3e3231e0	0.17401838
181	0x3c69eacb	0.01427717
182	0xbd8fa401	-0.07013703
183	0xbda08fba	-0.07839914
184	0x3d905470	0.07047355
185	0x3dc7c2e3	0.097539686
186	0x3e90f5f1	0.28312638
187	0xbe84fde5	-0.25974956
188	0x3d22a54f	0.03970843
189	0xbe9b5dbd	-0.30344954
190	0x3db835e2	0.08994652
191	0x3dc38fdb	0.09548923
192	0x3dd426da	0.10358973
193	0x3e72d645	0.2371455
194	0xbe03e1c3	-0.1287909
195	0x3c1828a6	0.009287035
196	0x3d9df0ef	0.0771197
197	0xbda29621	-0.07938791
198	0xbe7b69b0	-0.24552035
199	0x3e1820d3	0.14856271
200	0x3dc1ee5e	0.09469293
201	0xbe6512d5	-0.22370465
202	0xbdfa8f1f	-0.122343294
203	0x3bf743e0	0.007545933
204	0x3d849b8c	0.06474981
205	0xbe312c82	-0.17302135
206	0xbc539782	-0.01291454
207	0xbd8de3b1	-0.06928194
208	0x3e51a100	0.20471573
209	0xbd970c9a	-0.073754504
210	0xbd20ce99	-0.039259527
211	0x3c88110f	0.016609697
212	0x3d0a43a2	0.033755906
213	0x3cb86029	0.02250679
214	0x3e4f5e83	0.20250897
215	0x3e832c09	0.25619534
216	0xbde2f95d	-0.110827185
217	0xbb92c6f1	-0.004479282
218	0xbda39321	-0.07987047
219	0x3db26470	0.08710563
220	0x3dffa82a	0.124832466
221	0xbe3a9874	-0.18222219
222	0x3d6811ad	0.056657482
223	0xbc9b3dfc	-0.018950455
224	0x3e6255fe	0.22103116
225	0x3e0cff40	0.13769245
226	0x3ec03c88	0.37546182
227	0xbc9d4718	-0.01919894
228	0x3c7214db	0.01477548
229	0xbe52b504	-0.20576864
230	0x3c928092	0.017883573
231	0x3e059488	0.13044941
232	0x3c43aaf9	0.0119426185
233	0x3d0f58f5	0.034996945
234	0x3dc944b5	0.09827558
235	0xbe4a7397	-0.19770657
236	0xbcb8979a	-0.022533227
237	0x3e1c648a	0.15272728
238	0x3dc43e0f	0.09582149
239	0x3e00aef0	0.12566733
240	0x3d81e328	0.06342155
241	0xbe6de805	-0.2323304
242	0xbd9aec7b	-0.07564636
243	0xbdb4a6ec	-0.088209
244	0xbd10d433	-0.03535862
245	0x3d8b9464	0.06815413
246	0xbda6853f	-0.081308834
247	0xbd9bad37	-0.076013975
248	0xbdc96c26	-0.09835081
249	0x3d8db6aa	0.06919606
250	0xbcf57383	-0.029962307
251	0xbe06dba6	-0.13169727
252	0xbd05d670	-0.032675207
253	0xbe4e3141	-0.20135976
254	0x3d8c1e91	0.068417676
255	0xbbf22935	-0.007390166

net.6.bias f4 [64]
0	0xbe1316d9	-0.14364184
1	0xbd8b11e3	-0.06790521
2	0xbe01862e	-0.12648842
3	0x3dfef1e0	0.12448478
4	0x3c92bd49	0.017912524
5	0x3de1fea5	0.11034898
6	0xbdbe441f	-0.09290337
7	0x3d89f91b	0.06736966
8	0x3dc593e9	0.09647352
9	0x3d50d99a	0.05098877
10	0x3ccc4639	0.024935829
11	0xbda1ce3c	-0.07900664
12	0x3db5bf22	0.08874346
13	0x3e2284d2	0.1587098
14	0xbd1fbcd1	-0.03899843
15	0x3e3ec151	0.18628432
16	0x3bc61557	0.0060450244
17	0x3ca06592	0.019579682
18	0x3d985146	0.07437377
19	0x3d118553	0.03552754
20	0x3d5ab410	0.053394377
21	0x3cc4d634	0.024027921
22	0xbd7a9bb3	-0.061183643
23	0x3cf8d978	0.030377135
24	0x3cde21f7	0.027115805
25	0x3d208b89	0.03919557
26	0x3da83701	0.08213616
27	0x3d1a9b2f	0.03774565
28	0x3e1fee19	0.15618171
29	0xbde36ede	-0.111051306
30	0xbc4be299	-0.012444162
31	0xb99aa4b8	-0.00029495894
32	0x3dd462bb	0.10370394
33	0xbd3e698b	-0.046487372
34	0x3cd4fdaa	0.025999863
35	0xbdd33790	-0.10313332
36	0x3cc7cf5d	0.02439087
37	0xbdcdfb0a	-0.100576475
38	0x3e0fb16a	0.14032522
39	0x3da6c8b0	0.08143747
40	0x3dd51074	0.10403529
41	0xbdf990bc	-0.12185809
42	0x3dff89f2	0.12477483
43	0xbe026f83	-0.12737851
44	0x3cf6e9fc	0.03014087
45	0x3d8f93a7	0.07010584
46	0xbd330140	-0.043702364
47	0xbdfefed9	-0.12450952
48	0x3c23a462	0.009987922
49	0x3d471eaf	0.048613247
50	0xbd2fe92c	-0.04294698
51	0x3d53020b	0.05151562
52	0x3d87f13e	0.0663781
53	0xbd0c0f59	-0.034194324
54	0xbdcd752b	-0.10032114
55	0x3c445372	0.011982786
56	0xbd9e3aab	-0.07726034
57	0x3d69b993	0.057061743
58	0xbd2018ec	-0.039086267
59	0x3e06e905	0.13174827
60	0x3d48a5ac	0.048986122
61	0xbe1bad1f	-0.15202759
62	0xbe09ae0c	-0.134453
63	0xbcaa6a8e	-0.020802762

net.8.weight f4 [1, 64]
0	0xbec3d506	-0.3824846
1	0x3d5602d9	0.05224881
2	0xbe7fb062	-0.24969628
3	0xbea6113a	-0.32435018
4	0xbdcd368b	-0.10020169
5	0x3e2abaa3	0.16672759
6	0xbd69fd24	-0.05712618
7	0xbef10039	-0.47070482
8	0x3e4567ac	0.19277829
9	0xbe53a0f0	-0.20666862
10	0xbe90277c	-0.28155124
11	0x3e9a4c1f	0.301362
12	0xbe27dade	-0.16392085
13	0x3e3585ae	0.17726776
14	0xbea46398	-0.32107234
15	0x3e072941	0.13199331
16	0xbb9eb90f	-0.004843838
17	0xbe99dbfb	-0.30050644
18	0xbe519583	-0.2046719
19	0x3d951097	0.07278555
20	0xbe70d7a7	-0.23519765
21	0x3e048551	0.12941481
22	0x3df9453f	0.12171411
23	0xbe9d29cb	-0.30695948
24	0xbe51cbf2	-0.20487955
25	0xbeabfef8	-0.33592963
26	0x3e203de2	0.15648606
27	0x3d8d01fc	0.06885144
28	0x3e2a8f00	0.16656113
29	0x3cfcfdd3	0.030882752
30	0xbe68bd91	-0.22728564
31	0xbdfe914e	-0.124300584
32	0x3de6d291	0.11270631
33	0xbd9c9f5c	-0.07647583
34	0xbe213ec6	-0.15746602
35	0x3d81efdc	0.06344578
36	0xbe801261	-0.25014022
37	0xbe6e6ab3	-0.2328289
38	0x3e29f5b5	0.16597636
39	0xbe4656f8	-0.19369113
40	0xbe8fc7fa	-0.28082258
41	0xbe1dbc04	-0.15403754
42	0x3d67b2db	0.056567054
43	0xbe9735f3	-0.29533347
44	0xbe8e430e	-0.27785534
45	0xbeb6bfda	-0.35693246
46	0x3db8c7dc	0.09022495
47	0xbdac1586	-0.08402543
48	0xbe916c7d	-0.28403082
49	0xbe367a33	-0.17820053
50	0x3e571006	0.21002206
51	0xbe984c26	-0.29745597
52	0xbe3b9e90	-0.18322206
53	0xbd2cf3d4	-0.04222472
54	0xbea1efbf	-0.31628224
55	0xbc0e82bf	-0.0086981645
56	0xbd0aa4b0	-0.033848464
57	0x3dbeceb1	0.09316767
58	0xbc11be6c	-0.008895498
59	0x3dfb0eba	0.12258668
60	0xbeb08e00	-0.34483337
61	0xbe979ff9	-0.29614237
62	0xbd55c6f7	-0.0521917
63	0x3e2a2e0b	0.16619126
