Self project/models/nn/raw/SFR/model.pt (torch, 54492 bytes, 9 tensors)

net.0.weight f4 [64, 3]
0	0x3b758280	0.0037461817
1	0x3ef8a0a3	0.48560056
2	0x3eb4ab3c	0.3528689
3	0xbf17de3c	-0.5932348
4	0xbecd46eb	-0.4009317
5	0x3d568719	0.052374933
6	0x3e9ed4ff	0.31021878
7	0xbe929a34	-0.28633273
8	0xbf186fef	-0.595458
9	0xbda422af	-0.08014428
10	0x3e9b5e0f	0.303452
11	0xbeb0f279	-0.34559992
12	0xbefd417f	-0.49464032
13	0x3d9d2e95	0.076749004
14	0x3f13f231	0.5779143
15	0xbee69817	-0.4503791
16	0x3e114767	0.14187394
17	0x3f05e7a8	0.52306604
18	0xbd55c7bb	-0.05219243
19	0xbec210d8	-0.37903476
20	0xbe8b4b85	-0.27206054
21	0xbed5d2b2	-0.4176231
22	0x3b867b52	0.0041040564
23	0xbe9f69c5	-0.31135383
24	0x3d2423d5	0.040073235
25	0xbdda23f7	-0.10651391
26	0xbef6d036	-0.48205727
27	0x3f130e71	0.5744391
28	0x3e1b10bd	0.15143104
29	0x3e807df2	0.2509609
30	0x3eb19623	0.34684858
31	0x3e734697	0.23757397
32	0xbdfa3f2e	-0.12219082
33	0xbe570f54	-0.21001941
34	0xbeb3c475	-0.35110822
35	0xbf1828a7	-0.5943703
36	0xbecb1e31	-0.39671472
37	0xbe33fe0f	-0.17577384
38	0x3f241828	0.6409936
39	0xbf1c6262	-0.6108762
40	0xbed8df12	-0.4235769
41	0xbeebf828	-0.46087766
42	0xbec77052	-0.3895288
43	0x3ef97188	0.4871943
44	0xbf16ed80	-0.58956146
45	0xbed2718f	-0.41102263
46	0xbeabd6a6	-0.335622
47	0x3e8c192d	0.27362958
48	0xbe8565ab	-0.2605413
49	0xbeedd3e4	-0.46450722
50	0x3f08bc3a	0.5341221
51	0x3e0ea749	0.13931002
52	0xbebdcffc	-0.37072742
53	0xbea4dd6d	-0.32200184
54	0x3ec92d76	0.39292496
55	0x3e7d0b6f	0.24711393
56	0xbe90276d	-0.2815508
57	0xbead03d9	-0.33791998
58	0xbe8abddb	-0.27097973
59	0x3e62e2b1	0.22156788
60	0xbef7ab2d	-0.48372784
61	0x3f04dcc7	0.5189938
62	0x3d195344	0.037432924
63	0x3e69878a	0.2280561
64	0x3e2cf715	0.1689113
65	0x3ee7ab3e	0.45247835
66	0xbe1840f0	-0.14868522
67	0xbe363fef	-0.17797826
68	0xbee66a94	-0.45003188
69	0x3f0061f9	0.50149494
70	0xbc8f296d	-0.017475808
71	0xbcb145a1	-0.021639647
72	0x3f16caf2	0.5890342
73	0xbd859aa5	-0.06523637
74	0xbdca2e7b	-0.09872147
75	0xbe9240b0	-0.28564978
76	0x3e92f87d	0.28705207
77	0x3deca8fe	0.1155567
78	0xbea255e7	-0.31706163
79	0x3ebdce8e	0.3707165
80	0x3ee6458c	0.44974935
81	0xbd8012ab	-0.06253561
82	0x3e4f350b	0.20235078
83	0xbf305dd6	-0.6889318
84	0xbedb0883	-0.4277993
85	0xbe6ad1e7	-0.22931634
86	0x3e0231a1	0.12714244
87	0xbe0e470e	-0.13894293
88	0x3ed116e3	0.40837774
89	0xbf48990c	-0.7835853
90	0x3ecc08ae	0.39850372
91	0xbf146e50	-0.57980824
92	0xbe9828e8	-0.2971871
93	0x3f162a36	0.5865816
94	0xbe0b180e	-0.13583395
95	0xbe22b3ad	-0.15888853
96	0x3eaec488	0.34134316
97	0xbe8f4ea8	-0.27989697
98	0x3e0fdd1c	0.1404919
99	0xbe519b44	-0.20469385
100	0x3e6a2781	0.22866632
101	0xbee5f149	-0.44910648
102	0xbf0e09c4	-0.5548365
103	0xbf22d86e	-0.63611495
104	0xbea132b7	-0.31484005
105	0x3f26886f	0.6505193
106	0x3ed185d0	0.40922403
107	0xbec09a6b	-0.37617812
108	0x3ea0ca63	0.3140441
109	0x3f0c5094	0.5481045
110	0x3f0decc2	0.5543939
111	0xbcc9ad8a	-0.024618883
112	0x3d93555d	0.07194016
113	0x3f090083	0.53516406
114	0x3f129bda	0.5726906
115	0x3d16e958	0.036843628
116	0xbe4e2e15	-0.20134766
117	0x3f0275d3	0.50961035
118	0xbde9c218	-0.114139736
119	0x3f12e4d0	0.5738039
120	0x3ee82fcf	0.45348975
121	0x3e00dca0	0.12584162
122	0xbf1789e2	-0.5919477
123	0x3f037487	0.5134968
124	0x3ead52c5	0.3385221
125	0x3e07ed03	0.13274007
126	0x3e128c12	0.14311245
127	0x3e945b5d	0.28975955
128	0x3eda1b75	0.42599073
129	0xbee5f6b8	-0.44914794
130	0xbf071c9d	-0.52778035
131	0x3ed945fd	0.4243621
132	0xbe8bbc3e	-0.27292055
133	0xbf0a2837	-0.53967613
134	0x3ee85d22	0.45383555
135	0xbef176d3	-0.47160968
136	0xbe62a92f	-0.22134851
137	0xbef8924e	-0.48549122
138	0x3eff4a26	0.49861258
139	0xbd9dae5f	-0.07699274
140	0xbea2b4f6	-0.31778687
141	0x3ef442af	0.47707126
142	0x3f084868	0.53235483
143	0x3ea588f1	0.3233104
144	0x3ede042d	0.4336256
145	0xbf09dc20	-0.5385151
146	0xbf158b01	-0.5841523
147	0x3e85ae56	0.2610957
148	0xbe3c7b79	-0.18406476
149	0x3ee68ddb	0.45030102
150	0x3f11d283	0.5696184
151	0xbdca59ec	-0.098804325
152	0xbea4d9d6	-0.32197446
153	0x3f08e65f	0.5347652
154	0xbe90e612	-0.2830053
155	0xbee0f807	-0.4393923
156	0x3ef3ed34	0.4764191
157	0xbc2fa498	-0.010720395
158	0xbead98e0	-0.33905697
159	0x3e4ae7ba	0.19814959
160	0xbe99593b	-0.2995089
161	0x3d589ec7	0.052885797
162	0xbf02f106	-0.5114902
163	0xbe48bab7	-0.19602476
164	0x3edc5247	0.43031523
165	0x3ca3e142	0.020004872
166	0xbe10b461	-0.14131309
167	0x3f07a634	0.5298798
168	0x3eb27d60	0.3486128
169	0x3eb848f1	0.3599315
170	0x3eb4666a	0.35234386
171	0xbe80b64a	-0.25139076
172	0xbf1157e1	-0.5677472
173	0xbed336ca	-0.41252738
174	0xbeb241ad	-0.34815732
175	0x3e1f9ab4	0.15586358
176	0x3f094be7	0.5363144
177	0x3f06a3e7	0.52593845
178	0x3ee8bf48	0.45458436
179	0x3e63f7e7	0.22262536
180	0x3eccbbac	0.39986932
181	0x3cff6199	0.031174468
182	0x3e8bbd90	0.27293062
183	0xbed77900	-0.42084503
184	0x3f0479a2	0.51748097
185	0x3e1f2c9b	0.1554436
186	0xbc903e03	-0.017607694
187	0xbe7dad80	-0.24773216
188	0x3dc7eed3	0.09762349
189	0xbd8c08e7	-0.068376355
190	0xbec044ab	-0.3755239
191	0xbee336f2	-0.44377857

net.0.bias f4 [64]
0	0xbe722e24	-0.23650414
1	0x3e21fa14	0.15818053
2	0xbee7f2d8	-0.45302463
3	0x3ecb8564	0.39750206
4	0xbea39eda	-0.31957132
5	0x3ed05e8b	0.4069713
6	0x3dd46883	0.103714965
7	0x3a48ca29	0.0007659519
8	0x3e0fed3f	0.14055346
9	0xbdc5efec	-0.09664902
10	0x3ea71d89	0.3263972
11	0xbcd3d280	-0.02585721
12	0xbe34677c	-0.17617601
13	0x3ddd04cc	0.107919306
14	0xbebe5449	-0.3717368
15	0x3e8e0e96	0.27745503
16	0x3e836756	0.25664777
17	0x3ec2a368	0.38015294
18	0xbdc71ba3	-0.09722068
19	0x3ada3946	0.0016649149
20	0xbe978491	-0.29593328
21	0xbe5a4b7c	-0.21317858
22	0xbe357d84	-0.17723662
23	0x3e9c5186	0.30530947
24	0xbe85244f	-0.26004264
25	0x3f00dc79	0.50336415
26	0xbebd535d	-0.36977664
27	0xbc8ecc7c	-0.01743149
28	0x3f062ce5	0.52412254
29	0x3c93fa50	0.018063694
30	0x3eaebfd1	0.3413072
31	0xbdc64797	-0.096816234
32	0x3ed3a30d	0.41335335
33	0x3d9785f1	0.07398594
34	0xbe776652	-0.24160126
35	0xbec16d8e	-0.37778896
36	0x3ec6b7db	0.38812146
37	0x3e52a172	0.20569399
38	0xbd041866	-0.03224983
39	0xbda017be	-0.078170285
40	0xbe576f71	-0.21038605
41	0xbedd5472	-0.4322849
42	0x3e4ddbaf	0.20103334
43	0xbf03e04b	-0.5151412
44	0xbd40309f	-0.04692137
45	0x3efa1847	0.48846647
46	0x3e88eb59	0.26742056
47	0x3ec24b01	0.37947848
48	0x3e480ec2	0.1953688
49	0xbed41675	-0.41423383
50	0x3eb4d27a	0.3531683
51	0x3ee9d587	0.4567072
52	0x3e50dd8b	0.20397012
53	0x3ef0c6d5	0.47026697
54	0xbf0da129	-0.55324036
55	0xbf14656a	-0.57967246
56	0xbe195fc6	-0.14977941
57	0x3e04c50b	0.12965791
58	0x3ed00178	0.4062612
59	0xbe6d8eff	-0.2319908
60	0xbea72b5f	-0.32650277
61	0x3ee13e46	0.43992823
62	0xbd679df4	-0.05654712
63	0x3cadf0d6	0.021233004

net.2.weight f4 [64, 64]
0	0xbdf440f2	-0.1192645
1	0xbc3e3b40	-0.011610806
2	0x3d4b1995	0.049584944
3	0x3de17f11	0.11010564
4	0x3c3ed280	0.011646867
5	0x3d933b17	0.07189005
6	0x3bbb80bd	0.005722134
7	0xbde21f42	-0.11041118
8	0xbc7a9a85	-0.015295629
9	0xbd4f7175	-0.05064531
10	0xbce064c5	-0.0273918
11	0xbd780a91	-0.060556952
12	0x3dbf5ff0	0.093444705
13	0xbde75895	-0.112961926
14	0xbdb0b479	-0.086281724
15	0xbd252e26	-0.040327214
16	0x3dd67ad4	0.10472646
17	0xbd172785	-0.036902923
18	0x3d25f473	0.040516328
19	0x3d7b0598	0.06128463
20	0x3ddb1d82	0.106989875
21	0xbceb4770	-0.028720587
22	0x3c3bd166	0.011463499
23	0xbd9218ea	-0.07133658
24	0xbca17070	-0.019706935
25	0xbdf0def5	-0.11761276
26	0xbdd0e190	-0.10199273
27	0x3cbbc115	0.022919217
28	0xbdd6d1c6	-0.1048923
29	0x3d5f7436	0.054554187
30	0x3da6bf90	0.081420064
31	0x3d08ad2c	0.033368275
32	0x3d19d6b6	0.03755828
33	0xbdfee61c	-0.12446234
34	0xbd6cc480	-0.057804585
35	0xbdce06d8	-0.10059899
36	0xbe022612	-0.12709835
37	0x3d41ccb2	0.047314353
38	0x3c97a17e	0.018509623
39	0x3df39422	0.118934885
40	0xbd380d5d	-0.04493462
41	0xbdadfbe5	-0.08495311
42	0xbdeca879	-0.11555571
43	0x3bfc3c00	0.0076975822
44	0xbd8c4c80	-0.06850529
45	0x3c2dff2b	0.010619919
46	0x3d93bb89	0.07213504
47	0x3dc6fd2b	0.09716257
48	0xbd008b87	-0.031383064
49	0xbda6779a	-0.08128281
50	0xbda0ab32	-0.07845153
51	0x3d8cbf26	0.06872396
52	0x3cb2a6f5	0.021808127
53	0xbb352990	-0.0027643181
54	0xbdf8b9c4	-0.12144807
55	0x3d89e3b4	0.06732884
56	0x3d962b74	0.07332507
57	0x3ac0beb7	0.0014705275
58	0xbcf4021b	-0.02978616
59	0xbd8cd70b	-0.06876954
60	0xbb9fc7d5	-0.0048761168
61	0xbb56e3ca	-0.0032789581
62	0x3d106e64	0.035261527
63	0xbc8c5b68	-0.01713343
64	0x3e4853f8	0.19563282
65	0x3da03a9d	0.078236796
66	0x3d9ae003	0.07562258
67	0xbdfc7494	-0.12326923
68	0xbdbd2c55	-0.09236971
69	0x3cdf5a68	0.027264789
70	0xbe7b57bb	-0.24545185
71	0xbdf7ace4	-0.12093523
72	0xbd61a51f	-0.055089112
73	0x3a78e374	0.00094943424
74	0x3d283040	0.04106164
75	0x3d719f94	0.058990076
76	0x3d423932	0.047417827
77	0x3d23c878	0.039986104
78	0x3e5f4e61	0.21807243
79	0x3dfac492	0.12244524
80	0xbd9cd5e0	-0.07657981
81	0xbd8b668d	-0.068066694
82	0x3bd12a7a	0.0063832374
83	0x3dcc80ce	0.09985505
84	0x3d590130	0.052979648
85	0x3dc5b679	0.096539445
86	0x3e3648c2	0.17801192
87	0xbdad7937	-0.084703855
88	0x3cf7b40a	0.030237217
89	0x3bad182c	0.0052824225
90	0x3de50d47	0.11184173
91	0x3c92a4d0	0.017900854
92	0xbd076bae	-0.033061676
93	0x3e8480bd	0.2587947
94	0xbdf65eb0	-0.12029779
95	0x3d4ffc29	0.050777588
96	0xbd728dc0	-0.059217215
97	0xbe1c768b	-0.15279596
98	0xbe78be98	-0.24291456
99	0x3e1c9481	0.15291025
100	0x3e27bde5	0.16381033
101	0x3ddcd621	0.10783029
102	0x3e082b69	0.1329781
103	0x3e202c5c	0.15641922
104	0x3dad65e8	0.08466703
105	0xbcc91eb0	-0.024550766
106	0x3d16981f	0.036766168
107	0xbc2be122	-0.010490688
108	0x3d4a9c1c	0.049465284
109	0xbe256650	-0.1615231
110	0xbac9d7fe	-0.0015399454
111	0xbd0cc3ad	-0.0343663
112	0xbe4bddfd	-0.199089
113	0x3dc1ef96	0.094695255
114	0x3df21c11	0.118217595
115	0xbd08987b	-0.03334854
116	0xbdd6bbe8	-0.10485059
117	0xbc1ed03c	-0.009693202
118	0x3d295407	0.0413399
119	0x3eedea87	0.46467993
120	0x3e3f1e9f	0.18664025
121	0xbc237c0e	-0.009978307
122	0xbd6efafc	-0.058344826
123	0xbd0bc054	-0.034118965
124	0xbb0e0be0	-0.0021674559
125	0xbd9d8565	-0.076914586
126	0x3d79d457	0.06099352
127	0xbc465767	-0.012105799
128	0x3dbf49db	0.09340259
129	0x3dcae3aa	0.09906705
130	0xbd37c8bd	-0.044869173
131	0x3d55b760	0.052176833
132	0x3da3ebd5	0.08003966
133	0x3db9800a	0.09057625
134	0x3d9e3d97	0.07726591
135	0xbdb8a29b	-0.090153895
136	0x3c9397e3	0.018016761
137	0x39e21331	0.00043120378
138	0x3db44b6a	0.088034466
139	0x3d8cd0ef	0.068757884
140	0x3dd5676f	0.10420119
141	0x3e08f336	0.13374028
142	0xbdf06c53	-0.11739411
143	0x3d41e872	0.047340818
144	0x3e1b17e8	0.15145838
145	0x3d87fcf8	0.06640047
146	0x3ced6d7f	0.028982876
147	0x3da5bf0c	0.0809308
148	0xbcf00bbb	-0.029302469
149	0x3d36392c	0.044488117
150	0xbd7b1ade	-0.06130492
151	0x3dea3341	0.11435557
152	0xbd1cc7c1	-0.038276438
153	0x3e124040	0.14282322
154	0xbe8a75db	-0.27043042
155	0xbdf597d8	-0.119918525
156	0x3d1d1705	0.03835203
157	0xbc89e59f	-0.016833125
158	0xbcc3561a	-0.023844767
159	0x3cd5b863	0.026088899
160	0xbd1b7665	-0.037954707
161	0x3e06c904	0.13162619
162	0xbdb9c73b	-0.09071203
163	0x3cb0ea34	0.021596052
164	0xbd9baa60	-0.07600856
165	0x3d58b710	0.052908957
166	0x3def68a2	0.11689879
167	0x3cc9ef37	0.0246502
168	0x3c2d0420	0.0105600655
169	0xbd8e2394	-0.0694038
170	0xbd9625c1	-0.0733142
171	0xbd7b84f3	-0.061406087
172	0x3dc5c40d	0.09656534
173	0x3cbd0f90	0.02307871
174	0x3ccb2190	0.024796277
175	0xbdddf4f3	-0.10837736
176	0xbda2ad92	-0.07943262
177	0xbea6a9c4	-0.32551396
178	0xbdb448da	-0.08802958
179	0xbc212783	-0.0098360805
180	0xbd54aedd	-0.051924575
181	0x3dbd0756	0.09229915
182	0xbca7a51b	-0.02046447
183	0x3e1bf403	0.15229802
184	0xbd857dd9	-0.06518144
185	0xbdb5ff5b	-0.08886596
186	0x3e058be1	0.13041641
187	0xbdfbbeb4	-0.12292233
188	0xbd0402a3	-0.032229077
189	0x3cd54116	0.026032012
190	0xbcc39764	-0.0238759
191	0x3cbc6392	0.022996698
192	0xbdfbbda6	-0.12292032
193	0x3de63446	0.11240439
194	0xbda6308e	-0.0811473
195	0x3d9c1596	0.07621305
196	0xbd9760b6	-0.07391493
197	0xbcfc27b0	-0.030780643
198	0xbb41bd40	-0.0029562265
199	0xbd49cd5c	-0.04926811
200	0xbd5dd03c	-0.054153666
201	0xbdd77bb4	-0.105216414
202	0xbdafd474	-0.08585444
203	0xbbc02ec0	-0.005864948
204	0xbd15ab74	-0.036540464
205	0xbc8fce68	-0.017554477
206	0x3d029c78	0.0318875
207	0xbc834700	-0.016025066
208	0xbdf256e8	-0.11832982
209	0xbd3c4dbc	-0.04597257
210	0x3d1cb6a0	0.038260102
211	0x3d3844e4	0.044987574
212	0x3d77c2dc	0.060488567
213	0x3be2d2e0	0.006922111
214	0x3daf0590	0.08545983
215	0xbdaf2f02	-0.08553888
216	0xbdd6d5c4	-0.10489991
217	0xbd088328	-0.033328205
218	0x3a5cfc00	0.0008429885
219	0x3db9dfd0	0.09075892
220	0xbd93a1ee	-0.0720862
221	0xbdb34a8a	-0.087544516
222	0xbb5d9fc0	-0.0033817142
223	0x3d023394	0.03178747
224	0xbde97de4	-0.11400965
225	0xbd4e63f8	-0.050388306
226	0xbdc919ac	-0.0981935
227	0x3cef4cf0	0.029211491
228	0x3c3f0c50	0.01166065
229	0xbde3a57c	-0.11115548
230	0xbdaa7792	-0.083235875
231	0x3bbd67c0	0.00578019
232	0xbd07acd8	-0.03312382
233	0xbdc601e4	-0.09668329
234	0xbd1b2650	-0.037878335
235	0xbdeb1b1a	-0.114797786
236	0xbc69da50	-0.014273241
237	0xbc6eb770	-0.014570102
238	0x3bd6b4a0	0.006552294
239	0x3c2df2e0	0.010616988
240	0xbcb25e40	-0.021773458
241	0x3dcc4c62	0.09975506
242	0xbd37503c	-0.04475425
243	0x3d676118	0.05648908
244	0x3d414e38	0.047193736
245	0xbc7b06f0	-0.015321478
246	0xbdbb9b5e	-0.09160493
247	0xbdd7b51a	-0.10532589
248	0x3d0db9a0	0.034600854
249	0x3d1c895c	0.038216934
250	0x3d9b4402	0.07581331
251	0xbd62a264	-0.05533065
252	0x3dceb0a6	0.10092287
253	0x3dfff7c2	0.12498428
254	0xbca2deb0	-0.019881576
255	0xbd47859c	-0.048711404

net.2.bias f4 [64]
0	0xbdbd18e3	-0.092332624
1	0xbdb4986d	-0.088181354
2	0x3def1ac7	0.11675029
3	0xbd9cec78	-0.0766229
4	0xbc786021	-0.015159638
5	0x3e1a7bdd	0.15086313
6	0xbdf00c7f	-0.117211334
7	0xbdeae992	-0.11470331
8	0x3ce39288	0.027779832
9	0x3dd6d72d	0.1049026
10	0xbe0ebdd4	-0.13939601
11	0x3d52bd49	0.051450048
12	0xbdcfed78	-0.101527154
13	0x3d6af9c7	0.057367112
14	0x3dfe67aa	0.12422116
15	0x3daa3621	0.083111055
16	0x3e404276	0.18775353
17	0x3cef1a2d	0.029187286
18	0xbd6c501d	-0.05769359
19	0x3c81b66b	0.015834054
20	0x3d6b5feb	0.05746452
21	0xbc1697bf	-0.0091914525
22	0xbdfbafd1	-0.12289394
23	0xbd3e648d	-0.04648261
24	0x3dc90f2b	0.09817346
25	0x3d1ef89b	0.038811307
26	0xbcd98c08	-0.02655603
27	0x3e0b58a9	0.1360804
28	0xbd47cfe8	-0.04878226
29	0x3cacf9a5	0.021115134
30	0x3db1daeb	0.086843334
31	0xbd9d488a	-0.07679851
32	0x3e5c1e9f	0.21496056
33	0xbd7ba588	-0.06143716
34	0x3cb5063a	0.022097696
35	0x3d05641c	0.032566175
36	0xbd2e74dc	-0.042591915
37	0x3e22447a	0.15846434
38	0xbd261eaa	-0.040556587
39	0x3d4df6c4	0.050284162
40	0x3e207982	0.15671352
41	0xbda7a910	-0.08186543
42	0x3dac3701	0.08408929
43	0x3c9e06a2	0.019290272
44	0xbda72170	-0.081606746
45	0x3e1eb4c9	0.15498652
46	0xbb4f0198	-0.0031586643
47	0xbdc7c4ca	-0.097543314
48	0xbc1e351b	-0.009656216
49	0x3dffa99e	0.12483524
50	0x3de10c3e	0.10988663
51	0x3daf1031	0.0854801
52	0x3e12a8a0	0.14322138
53	0x3c643090	0.013927594
54	0xbe1ac3d1	-0.1511376
55	0x3db75ddc	0.08953449
56	0x3dde852e	0.10865246
57	0x3c9b086d	0.018924916
58	0x3d0c1995	0.034204084
59	0x3e0d0bbd	0.13774009
60	0xbd51bc24	-0.051204816
61	0x3e05448d	0.13014431
62	0x3e27b8eb	0.16379134
63	0x3df45994	0.11931148

net.4.weight f4 [64, 64]
0	0x3d080524	0.033208027
1	0x3d62837d	0.05530118
2	0x3d918204	0.07104877
3	0xbdeaa7a4	-0.11457756
4	0xbd5f1a71	-0.054468576
5	0xbc778455	-0.015107234
6	0xbdb1bf61	-0.08679081
7	0xbda97761	-0.08274723
8	0xbd24e3fc	-0.040256485
9	0xbae69832	-0.0017592965
10	0xbdfea2bf	-0.12433385
11	0x3d5c9267	0.053850558
12	0x3df329e2	0.11873223
13	0xbd2f01ef	-0.042726453
14	0x3d1408b5	0.036141116
15	0xbbd0b5b6	-0.006369318
16	0x3d248fc2	0.04017616
17	0xbd0feb25	-0.03513636
18	0x3def80de	0.11694501
19	0x3dd85516	0.10563104
20	0x3e0862d7	0.13318954
21	0xbdcdab01	-0.10042382
22	0xbe05691b	-0.13028376
23	0x3df4e173	0.119570635
24	0x3c4f3d84	0.012648944
25	0xbdc24071	-0.094849475
26	0xbd9720a8	-0.073792756
27	0x3d8101a7	0.06299143
28	0xbb7802eb	-0.0037843536
29	0xbdd6863c	-0.10474822
30	0x3e329bd0	0.1744225
31	0xbdf971a6	-0.1217988
32	0x3daf7426	0.085670754
33	0x3d7f2884	0.062294498
34	0x3cb4708b	0.02202632
35	0x3de00f3f	0.10940408
36	0x3d3155f5	0.043294866
37	0x3ddc9f6d	0.107725956
38	0xbc958f5a	-0.018256832
39	0x3d9afe72	0.07568063
40	0xbb323e56	-0.00271978
41	0x3d7cbaa2	0.061701424
42	0x3cb28960	0.021794021
43	0x3da1b117	0.07895105
44	0xbc9b33cd	-0.018945599
45	0x3e185490	0.14876008
46	0xbda2005c	-0.07910225
47	0x3dbee13f	0.09320306
48	0x3e0db29d	0.13837667
49	0x3d8a5576	0.06754582
50	0x3d280fad	0.041030575
51	0xbd49e655	-0.049291927
52	0x3cb7aa1f	0.022419987
53	0xbde41b3c	-0.11138007
54	0xbe3adbc1	-0.18247892
55	0x3e5d5c4f	0.21617244
56	0x3cae683a	0.021289933
57	0x3d5df5e3	0.054189574
58	0xbd50d56a	-0.050984778
59	0xbd129558	-0.035786957
60	0x3d863455	0.0655295
61	0x3d0b05b9	0.033941004
62	0x3db30010	0.08740246
63	0x3dbd2578	0.09235662
64	0x3df363e1	0.11884285
65	0x3b28a7ef	0.0025734862
66	0xbe282403	-0.16419987
67	0x3b6b1900	0.0035873055
68	0x3ddeb7b9	0.10874886
69	0x3e165546	0.14680967
70	0xbc05c10f	-0.008163705
71	0xbe31329a	-0.17304459
72	0xbdd80020	-0.10546899
73	0x3db8d5be	0.09025143
74	0xbdf7840e	-0.12085734
75	0xbd35d843	-0.044395696
76	0xbd9a6588	-0.07538897
77	0xbc999636	-0.018748384
78	0x3d8a55eb	0.06754669
79	0x3decd945	0.115648784
80	0xbbe6f853	-0.0070486455
81	0x3dd90df2	0.10598363
82	0x3d301aa7	0.042994168
83	0xbcef410a	-0.029205818
84	0xbd84bb64	-0.064810544
85	0x3da55af0	0.080739856
86	0x3d0acf5e	0.033889167
87	0xbd3ea1ff	-0.04654121
88	0x3dfe1499	0.124062724
89	0xbdcb17f8	-0.09916681
90	0x3e30f03d	0.17279144
91	0xbe19bcd5	-0.1501344
92	0x3de07ad9	0.10960931
93	0x3dda09e2	0.10646416
94	0x3d94e12d	0.07269511
95	0xbd14e447	-0.036350515
96	0x3da8047f	0.082039826
97	0xbdca3114	-0.09872642
98	0xbe000565	-0.12502058
99	0x3dee03a1	0.11621786
100	0xbce95920	-0.02848488
101	0xbdf2942b	-0.11844667
102	0xbd5c4559	-0.053777073
103	0xbe3fcb52	-0.18729904
104	0xbe0c1b78	-0.13682353
105	0x3c4e4b61	0.012591214
106	0xbde1b782	-0.110213295
107	0xbe468e01	-0.19390108
108	0xbdcdf98a	-0.100573614
109	0xbe0db8d8	-0.13840044
110	0xbd848581	-0.06470776
111	0x3d589e58	0.052885383
112	0xbe2427f1	-0.16030861
113	0xbcb2a1db	-0.021805694
114	0xbd0ee01e	-0.034881704
115	0x3dfd945e	0.123818144
116	0x3cfee3bc	0.031114452
117	0xb9f374c3	-0.00046435566
118	0xbc24ea9b	-0.0100657
119	0xbda5ab2c	-0.08089289
120	0x3c469a2f	0.012121721
121	0x3dbd55e0	0.09244895
122	0xbdea1100	-0.11429024
123	0xbd86ed47	-0.06588226
124	0x3c5f249e	0.01361957
125	0x3d977f58	0.07397336
126	0xbc96c2a3	-0.018403357
127	0x3c368529	0.011140146
128	0x3d517255	0.051134426
129	0x3e23646a	0.15956274
130	0x3dda4c4d	0.106590845
131	0xbcf85bd0	-0.030317217
132	0x3a6dee23	0.00090763177
133	0xbd27dedf	-0.04098403
134	0x3dcef5a4	0.10105446
135	0x3dd43833	0.10362282
136	0xbde703dc	-0.11280033
137	0x3dfeb6f3	0.124372385
138	0x3def3893	0.116807126
139	0x3d8c72f4	0.06857863
140	0xbe08622f	-0.13318704
141	0x3cec82c7	0.028870953
142	0x3d14bba6	0.036311768
143	0xbd08c9ba	-0.033395506
144	0x3db8bef8	0.090207994
145	0x3e0fe1ca	0.14050975
146	0x3d83134b	0.06400164
147	0xbd99a15b	-0.07501479
148	0x3dbd3b06	0.092397735
149	0xbddeeb2f	-0.108847015
150	0xbe77826d	-0.24170847
151	0xbd7ff752	-0.062491722
152	0x3dfe73b0	0.124244094
153	0x3e15abda	0.14616337
154	0x3dfbde90	0.1229831
155	0x3dcf9090	0.10134995
156	0xbe0275ea	-0.12740293
157	0xbdae4651	-0.085095055
158	0xbd380a19	-0.044931505
159	0xbe1a1f6b	-0.15051048
160	0xbd9eafd1	-0.07748378
161	0xbdb6c9be	-0.08925198
162	0xbdd0947e	-0.10184573
163	0x3cf3a6b9	0.029742585
164	0x3cee66a4	0.029101677
165	0x3d722d48	0.059125215
166	0xbb3396b6	-0.0027403063
167	0x3d754cbb	0.05988763
168	0xbd608b28	-0.05482021
169	0xbddc172d	-0.10746608
170	0xbdce44f5	-0.10071746
171	0x3e107fd4	0.14111263
172	0x3ce09344	0.027413972
173	0xbda10755	-0.078627266
174	0xbd6d1ff1	-0.05789179
175	0x3d3737ad	0.04473083
176	0xbd1f9bfa	-0.03896711
177	0x3e02fa8d	0.1279089
178	0x3e04660a	0.1292955
179	0x3d12d4e4	0.03584756
180	0x3bba3b06	0.0056833057
181	0x3d816140	0.06317377
182	0xbd8abafd	-0.067739464
183	0x3d61b391	0.05510289
184	0x3d1b6b13	0.03794391
185	0xbceee5a7	-0.029162241
186	0x3d8633e1	0.06552864
187	0x3d518fa7	0.05116239
188	0x3e86971b	0.2628716
189	0x3dba7c01	0.09105683
190	0x3e120f78	0.14263713
191	0xbd04438a	-0.032290973
192	0x3c2806b0	0.010255501
193	0xbdbc86b8	-0.09205383
194	0x3ddbc798	0.10731429
195	0xbbbf34c0	-0.0058351457
196	0xbddd3a82	-0.10802175
197	0x3da5f29c	0.08102915
198	0x3c718550	0.014741257
199	0xbd13948c	-0.036030337
200	0x3de506d4	0.11182943
201	0xbd86d4b2	-0.06583537
202	0xbd7e0670	-0.062017858
203	0xbd2fc47c	-0.04291199
204	0x3c6a96b0	0.014318153
205	0xbdc6ef8a	-0.09713657
206	0x3cdd6f08	0.027030483
207	0xbdf7b60e	-0.12095271
208	0xbd89fba2	-0.06737448
209	0xbd95bf18	-0.07311839
210	0xbdba023c	-0.090824574
211	0x3cea9b48	0.028638497
212	0x3d60ee48	0.054914743
213	0xbcfa61c8	-0.030564204
214	0xbd19d068	-0.037552267
215	0x3b2d8800	0.0026478767
216	0xbdcf7faa	-0.10131772
217	0xbdf2fc08	-0.118644774
218	0xbda5d04a	-0.080963686
219	0xbdb996b8	-0.090619504
220	0x3c906b78	0.01762937
221	0x3dce9eb0	0.10088861
222	0x3db6aa46	0.08919196
223	0xbd9d9960	-0.076952696
224	0x3d8e6eae	0.06954704
225	0x3de08728	0.10963279
226	0xbcd8a3f8	-0.026445374
227	0xbd26f388	-0.040759593
228	0xbdf1d92a	-0.11808999
229	0xbc139200	-0.009006977
230	0xbd465b8c	-0.04842715
231	0x3d01332c	0.031542942
232	0xbdeb0aaa	-0.114766434
233	0xbc441f50	-0.011970356
234	0x3cb41990	0.021984845
235	0xbcfebc40	-0.031095624
236	0xbc9d6280	-0.019212008
237	0x3df2fde6	0.118648335
238	0x3d5eba5c	0.054376945
239	0xbdbe82d2	-0.09302296
240	0xbd67d01c	-0.056594953
241	0x3d6c32ec	0.05766575
242	0x3d5f0e28	0.05445686
243	0xbdd79fe8	-0.105285466
244	0xbdaefb4c	-0.08544025
245	0xbd53bce4	-0.051693812
246	0xbc795b70	-0.015219554
247	0x3bf4dfe0	0.007472977
248	0x3cfc6e38	0.030814275
249	0xbd6eb904	-0.058281913
250	0xbd8ef1da	-0.06979723
251	0x3d8f5e8e	0.07000457
252	0xbdc7b970	-0.09752166
253	0xbcb49dd0	-0.022047907
254	0xbde59b66	-0.112112805
255	0xbdc2c1ca	-0.095096186

net.4.bias f4 [64]
0	0x3d8a7db0	0.06762254
1	0x3e1c6441	0.15272619
2	0xbc0f3e3a	-0.008742863
3	0xbd96e7ce	-0.07368432
4	0xbe056993	-0.13028555
5	0x3d1b326a	0.037889875
6	0xbd9a72b6	-0.075414106
7	0x3cbcc2d7	0.023042126
8	0x3e142b35	0.14469607
9	0xbd7b7082	-0.061386593
10	0x3e27352d	0.16328879
11	0x3dca35ca	0.09873541
12	0x3c6e2798	0.014535807
13	0x3dd2089c	0.10255548
14	0xbc374208	-0.011185177
15	0x3d202ef9	0.039107297
16	0xbe0c0feb	-0.13677947
17	0x3dce0997	0.10060423
18	0x3dbf55fb	0.09342571
19	0x3e012510	0.12611794
20	0xbda537f6	-0.08067314
21	0x3df40671	0.11915291
22	0x3df8bc74	0.121453196
23	0xbd35315e	-0.044236533
24	0x3db102e4	0.086431295
25	0x3ccde21c	0.025132231
26	0xbd91d074	-0.071198374
27	0x3d1e3c80	0.038631916
28	0x3dabbc80	0.08385563
29	0xbdf4d085	-0.119538344
30	0xbd5350a4	-0.051590577
31	0xbe1b1209	-0.15143599
32	0x3e0738e1	0.13205291
33	0x3d30759f	0.043080922
34	0xbdf3ee74	-0.11910716
35	0x3d82f165	0.063936986
36	0x3d9b18f1	0.075731166
37	0x3b68fe41	0.0035551938
38	0x3d995545	0.07486967
39	0xbdfb795c	-0.12279007
40	0x3c9f8399	0.01947193
41	0xbc8e6c32	-0.017385576
42	0xbd5e5276	-0.05427786
43	0xbddb6e96	-0.10714452
44	0x3b94e215	0.0045435526
45	0xbe05f35b	-0.13081114
46	0xbe26e5eb	-0.16298644
47	0x3df1ad29	0.11800606
48	0x3df35e2a	0.11883195
49	0xbd3fef18	-0.046858877
50	0xbd585a00	-0.052820206
51	0xbd6b4666	-0.057440184
52	0x3d96e4ee	0.073678836
53	0xbd0905b1	-0.033452693
54	0x3dd87aad	0.105702735
55	0x3cdbe677	0.026843293
56	0x3dad9e65	0.08477477
57	0xbd9cf272	-0.0766343
58	0xbd3e08b5	-0.046395022
59	0x3d536063	0.051605593
60	0x3dd72d26	0.10506658
61	0xbd60ee3a	-0.05491469
62	0x3dea537c	0.11441705
63	0x3ce4b386	0.027917635

net.6.weight f4 [64, 64]
0	0x3de9750a	0.113992766
1	0xbdc3c00d	-0.09558115
2	0x3dff4b33	0.12465515
3	0x3d526fd4	0.05137618
4	0x3de7c9fb	0.113178216
5	0xbc60027c	-0.013672467
6	0x3daba9ee	0.08382021
7	0x3cd39603	0.025828367
8	0xbd243d82	-0.04009772
9	0xbd6ff856	-0.05858644
10	0xbbec2c3c	-0.0072074216
11	0x3e02f6c9	0.12789454
12	0x3ddd3f54	0.108030945
13	0xbd417d9e	-0.04723894
14	0xbd052e72	-0.032514997
15	0x3d845c24	0.06462887
16	0xbce5ccd7	-0.028051777
17	0xbd243ea3	-0.040098798
18	0x3d5b96d4	0.053610638
19	0xbd36780b	-0.044548076
20	0xbdd3cba3	-0.10341575
21	0x3d67760e	0.05650907
22	0xbdc98227	-0.09839278
23	0xbd8a19dc	-0.067432135
24	0x3d0c5fdb	0.034271102
25	0xbda92c63	-0.08260419
26	0x3d806b04	0.062704116
27	0xbcb37052	-0.021904144
28	0x3ccb79e3	0.024838394
29	0xbca74e16	-0.020422976
30	0x3d10ccf4	0.03535171
31	0xbe8e68ed	-0.27814427
32	0xbd64338a	-0.055713214
33	0x3d57dd37	0.0527012
34	0xbd9e82dc	-0.07739803
35	0xbd96aed5	-0.07357565
36	0x3d0713f2	0.032978006
37	0x3cbdc3da	0.023164678
38	0xbcb3d555	-0.02195231
39	0x3ba07600	0.004896879
40	0xbdf3afa5	-0.11898736
41	0x3c832621	0.016009392
42	0x3d9259c9	0.071460314
43	0xbdd49ca4	-0.10381439
44	0xbd9f6ea0	-0.07784772
45	0x3ca1f380	0.01976943
46	0x3e11924e	0.14215967
47	0x3c1e7856	0.009672245
48	0x3dfc0f57	0.12307613
49	0xbdd1be9e	-0.102414355
50	0x3dd2b364	0.10288122
51	0x3e04b3fd	0.12959285
52	0xbe0c45c0	-0.13698483
53	0x3d3b29a4	0.04569401
54	0xbd6fc18f	-0.0585342
55	0x3e13e96b	0.1444451
56	0xbd337c2a	-0.043819584
57	0xbde100c5	-0.10986475
58	0xbdbd1682	-0.09232809
59	0x3d378fda	0.044814922
60	0xbbb1172e	-0.0054043746
61	0xbdc3e4ae	-0.095651016
62	0xbda04a16	-0.07826631
63	0x3d02690f	0.031838473
64	0xbd455ddf	-0.048185226
65	0xbd365db7	-0.044522967
66	0xbd70e8ff	-0.058815952
67	0xbd47cd10	-0.048779547
68	0xbdb377ea	-0.08763106
69	0x3b5b0d0e	0.003342453
70	0x3dcc54a0	0.099770784
71	0xbbed14fc	-0.0072351675
72	0x3e1eb6a9	0.15499367
73	0xbe165d29	-0.14683975
74	0x3c45d8c6	0.012075609
75	0xbc074ee9	-0.00825856
76	0xbd7ba906	-0.06144049
77	0x3d323410	0.043506682
78	0xbd8f7d2e	-0.07006298
79	0xbe113794	-0.14181358
80	0xbe42ab14	-0.19010574
81	0xbde80fb5	-0.11331121
82	0xbc950df2	-0.018195126
83	0xbd869adc	-0.06572506
84	0xbe661c00	-0.22471619
85	0xbc53b3ae	-0.012921257
86	0x3b56b8a4	0.0032763863
87	0x3d1a17d9	0.0376204
88	0xbcb989df	-0.02264875
89	0x3d773102	0.060349472
90	0xbc969478	-0.018381342
91	0xbd27c10a	-0.04095558
92	0xbde6aeef	-0.11263835
93	0x3d785ec8	0.060637265
94	0xbcac27a0	-0.021014988
95	0x3f07c1f9	0.53030354
96	0x3d8f5ff8	0.070007265
97	0x3deda4f1	0.11603726
98	0xbdb40b9a	-0.08791275
99	0x3d74d98a	0.059777774
100	0x3dcf6aea	0.10127814
101	0x3e81bea6	0.25340766
102	0x3d7b2d41	0.061322454
103	0xbd21250c	-0.03934197
104	0xbe5f4748	-0.21804535
105	0x3e32b7c7	0.17452918
106	0xbdcd2472	-0.10016717
107	0xbecc63a0	-0.39919758
108	0xbb9075e7	-0.0044085863
109	0x3d892ab1	0.06697596
110	0xbf090d78	-0.53536177
111	0x3d9ec35b	0.07752105
112	0xbe1d366b	-0.1535279
113	0xbcf4f570	-0.02990219
114	0x3d3636c3	0.04448582
115	0x3a97cc29	0.001158123
116	0x3e2c3bc7	0.16819678
117	0xbe25b796	-0.16183314
118	0x3dd890ef	0.10574519
119	0xbd040b2a	-0.03223721
120	0x3dd734cf	0.10508119
121	0xbcd83396	-0.026391786
122	0x3df89fa3	0.12139823
123	0xbcd3fdb8	-0.025877818
124	0x3e1562a0	0.14588404
125	0xbe197a64	-0.14988095
126	0xbe1d2823	-0.15347342
127	0x3e0f54cd	0.13997193
128	0x3cfe58e2	0.031048242
129	0x3dc73d81	0.09728528
130	0x3dd97b0f	0.10619175
131	0xbc67e400	-0.0141534805
132	0x3c84ba52	0.016202126
133	0x3db3b867	0.08775406
134	0x3e125673	0.1429079
135	0x3cfb07e5	0.030643413
136	0x3d558537	0.052128997
137	0xbdd9a9e5	-0.10628108
138	0x3d8f9215	0.07010285
139	0x3db5fbab	0.088858925
140	0x3c9a645e	0.018846687
141	0x3d73a977	0.059487786
142	0xbcf8cde8	-0.030371621
143	0xbe67568a	-0.22591606
144	0xbe40e033	-0.18835525
145	0xbce52ff0	-0.02797696
146	0xbe103a3c	-0.14084715
147	0x3be3a2ef	0.0069469134
148	0xbe6e7e11	-0.23290278
149	0xbd4e83aa	-0.050418533
150	0xbbbc611e	-0.005748882
151	0x3c75319d	0.014965442
152	0x3debfec9	0.11523206
153	0x3e0df64e	0.13863489
154	0xbd35eec0	-0.044417143
155	0xbca37525	-0.01995332
156	0xbe148cf6	-0.14506897
157	0xbb02ca1b	-0.001995689
158	0x3d88ce8a	0.06680019
159	0x3ee145ee	0.43998665
160	0x3db92f76	0.090422556
161	0x3e7deeac	0.24798077
162	0x3dd03dbe	0.101680264
163	0x3e360291	0.17774417
164	0x3dc3a302	0.09552576
165	0x3e7e0d86	0.24809846
166	0x3c6315ca	0.013860175
167	0xbdf279b8	-0.11839622
168	0xbe3cceee	-0.18438312
169	0x3e196461	0.14979698
170	0xbcf5098c	-0.029911779
171	0xbe0d5e19	-0.13805427
172	0xbdec9d7c	-0.11553475
173	0xbc896e56	-0.016776245
174	0xbdcfa2af	-0.10138451
175	0xbdc4ca89	-0.09608943
176	0xbd9f8142	-0.07788326
177	0x3d64443c	0.055729136
178	0xbe097e97	-0.13427196
179	0xbd808f29	-0.06277306
180	0xbb3433f1	-0.002749678
181	0x3c5c321d	0.013439682
182	0xbb937c0e	-0.0045008725
183	0xbcb4e799	-0.02208309
184	0x3dd1c044	0.1024175
185	0xbdff2a77	-0.124592714
186	0xbdf960fa	-0.121767
187	0x3de52fc0	0.11190748
188	0xbd614b63	-0.055003535
189	0x3d2406c7	0.040045526
190	0xbda36af1	-0.07979382
191	0x3e4881cc	0.19580764
192	0xba2f5984	-0.0006689059
193	0xbd114184	-0.03546287
194	0x3e0a31ad	0.13495512
195	0xbd3aa54c	-0.045567796
196	0xbcccc215	-0.02499489
197	0x3d0a554c	0.03377275
198	0x3d53d222	0.05171407
199	0xbd4150f3	-0.04719634
200	0x3ce04ed4	0.027381338
201	0xbcd92f99	-0.026511954
202	0xbdb24dbf	-0.08706235
203	0xbdbfb62f	-0.09360921
204	0x3e1631c0	0.14667416
205	0x3dad0988	0.084490836
206	0xbd822aa9	-0.06355793
207	0xbe35ec53	-0.17765932
208	0xbde0fab2	-0.10985316
209	0x3d1aa791	0.03775746
210	0x3dde442e	0.10852848
211	0x3d0ce4cf	0.034397896
212	0xbf0882ea	-0.5332476
213	0xbcb6291f	-0.022236405
214	0x3e016177	0.12634836
215	0x3b75b0e6	0.0037489473
216	0x3d32ae97	0.043623533
217	0x3e4a52af	0.19758104
218	0x3d807a76	0.062733576
219	0xbda20b60	-0.07912326
220	0x3dede472	0.11615838
221	0x3da39ce0	0.07988906
222	0xbddd9cd6	-0.1082093
223	0x3f08abd3	0.5338718
224	0xbd839e12	-0.06426634
225	0x3e90ae4f	0.28257987
226	0x3c9ae4f8	0.018908009
227	0xbe39c1e7	-0.18140374
228	0x3cc1fce1	0.023680152
229	0xbde77225	-0.11301068
230	0xbd298200	-0.041383743
231	0xba3d5a00	-0.0007223189
232	0xbe9d285d	-0.30694857
233	0x3e4edef5	0.20202239
234	0xbdab7dcf	-0.083736055
235	0x3c86b058	0.01644151
236	0x3bf40d72	0.007447892
237	0xbd53b707	-0.05168822
238	0xbd83464f	-0.06409895
239	0xbd099162	-0.033585913
240	0xbe1bac73	-0.15202503
241	0x3c6a8c10	0.01431562
242	0x3d8f4086	0.06994729
243	0x3dd0be61	0.10192562
244	0xbe0870b5	-0.13324244
245	0xbb90a37b	-0.0044140196
246	0xbe3a16cb	-0.18172757
247	0xbd72cd8c	-0.059278056
248	0x3d499328	0.049212605
249	0xbd4b23ac	-0.049594566
250	0xbe8b7a3d	-0.27241698
251	0x3d5c1164	0.053727522
252	0x3ca1cfc3	0.019752389
253	0x3d2e972f	0.04262465
254	0x3dcfd009	0.101471014
255	0x3dfe12de	0.124059424

net.6.bias f4 [64]
0	0x3d9c27c7	0.076247744
1	0x3db4d8ad	0.0883039
2	0x3c976db6	0.018484931
3	0xbcd5cdfc	-0.026099198
4	0xbcc5d844	-0.024150975
5	0x3d5228b5	0.051308353
6	0x3cfb4b7c	0.030675642
7	0x3d9263e2	0.071479574
8	0x3d81bd4d	0.063349344
9	0xbddf55c8	-0.10905033
10	0xbdb68ae3	-0.08913209
11	0x3e1a42a4	0.15064484
12	0xbd981fdb	-0.07427951
13	0x3c8a600f	0.016891507
14	0x3e27810d	0.16357823
15	0xbda6db4e	-0.08147298
16	0x3d7a18b7	0.061058726
17	0x3d9d60a6	0.0768445
18	0xbde1a5a3	-0.11017921
19	0xbd8e02c8	-0.06934124
20	0xbda339a7	-0.07969981
21	0xbdfe02a6	-0.12402849
22	0xbd36f97c	-0.04467152
23	0x3d8bcbcd	0.06825981
24	0x3e24bc1b	0.16087382
25	0xbddc97ab	-0.10771116
26	0xba3e159d	-0.00072511454
27	0xbdb30576	-0.08741276
28	0x3d9178e8	0.07103139
29	0xbe0bde14	-0.13658935
30	0xbcdb4812	-0.026767764
31	0xbd23b534	-0.03996773
32	0xbc624eef	-0.013812765
33	0x3ddae560	0.10688281
34	0xbd82b324	-0.063818246
35	0xbe0c8cbd	-0.13725562
36	0xbde8f35f	-0.11374544
37	0xbd37ecc1	-0.04490352
38	0x3de4a9fd	0.11165235
39	0x3c3ae39e	0.011406807
40	0xbc8ee65e	-0.017443832
41	0x3e14f454	0.14546329
42	0x3de6d473	0.1127099
43	0x3da07dad	0.07836471
44	0x3c9e8aa8	0.019353226
45	0xbc1f22b8	-0.009712867
46	0xbe0c69fa	-0.13712302
47	0x3d9141d1	0.070926316
48	0x3e07ab8b	0.13249032
49	0x3e0d2e7e	0.13787267
50	0xbc3ef5c0	-0.011655271
51	0xbc84c59b	-0.016207507
52	0x3e28a786	0.16470155
53	0xbe096339	-0.13416757
54	0x3e1cd51b	0.15315668
55	0x3e23f9d1	0.16013266
56	0x3e013b49	0.12620272
57	0x3daaf8fa	0.0834827
58	0x3d57e93d	0.052712668
59	0x3db975ca	0.090556696
60	0xbcaaf9f8	-0.020871148
61	0xbcf090db	-0.029365947
62	0xbda3207c	-0.0796518
63	0x3d05e16f	0.032685693

net.8.weight f4 [1, 64]
0	0xbc01abff	-0.007914542
1	0x3e5e08a3	0.21682982
2	0x3e3e1948	0.18564332
3	0x3e53389a	0.2062706
4	0xbe221503	-0.15828328
5	0x3e06c27a	0.13160124
6	0x3e58290e	0.21109411
7	0x3e1ff365	0.15620191
8	0xbe223830	-0.15841746
9	0xbe95fe4e	-0.29295582
10	0x3e1319bb	0.14365284
11	0x3e3d3c15	0.1847995
12	0x39277ea6	0.00015973541
13	0xbddf5374	-0.10904589
14	0x3e22e877	0.15908991
15	0x3e3b94ca	0.18318477
16	0x3df93081	0.121674545
17	0x3e265779	0.16244306
18	0xbef8046b	-0.4844087
19	0xbe2f0cc3	-0.17094712
20	0x3d79bf78	0.060973614
21	0xbd8bba58	-0.068226516
22	0xbe2c54f2	-0.16829279
23	0xbe1aabad	-0.15104552
24	0x3e33cee5	0.17559393
25	0x3ce91758	0.028453514
26	0x3e2fd869	0.17172398
27	0x3d8ae7a3	0.067824624
28	0xbe836ca7	-0.25668833
29	0xbe95510f	-0.29163405
30	0x3e189425	0.14900263
31	0x3ddcf028	0.10787994
32	0x3e37a289	0.17933096
33	0xbdeec83f	-0.11659288
34	0x3e7e980e	0.24862692
35	0xbe347952	-0.17624405
36	0x3dc8da1b	0.09807225
37	0x3e544e68	0.20733035
38	0xbe229eee	-0.1588094
39	0xbbac5fa0	-0.005260423
40	0x3dbff685	0.09373192
41	0x3e4c9ee1	0.19982482
42	0xbd809b11	-0.062795766
43	0x3e4dce32	0.20098189
44	0xbde653ed	-0.11246476
45	0x3e10bbd1	0.14134146
46	0x3bf7d955	0.00756375
47	0x3ddfba73	0.10924234
48	0x3e3c6f5a	0.18401852
49	0x3dda5d10	0.106622815
50	0x3d83a60c	0.06428155
51	0x3db3f17b	0.08786293
52	0x3e1a4c5a	0.15068188
53	0x3e0611af	0.13092683
54	0x3e621128	0.22076857
55	0x3e308845	0.17239483
56	0xbe3aa819	-0.18228187
57	0xbe227207	-0.1586381
58	0x3e240444	0.16017252
59	0x3e105ac5	0.14097126
60	0x3e4bd11a	0.19903985
61	0xbcdb437c	-0.026765577
62	0xbdf61983	-0.12016585
63	0xbe3ac3ff	-0.18238829
