models/nn/raw/SM/model.pt (torch, 54492 bytes, 9 tensors)

net.0.weight f4 [64, 3]
0.44802994 0.48582298 -0.19429058 0.54637516 -0.11048888 0.1140512 -0.23000896 0.39014658
0.5191373 -0.42127264 0.5041141 0.24110007 0.39314526 0.044778645 0.34172323 -0.0695186
0.45706862 0.066992946 -0.21959728 0.19709843 -0.32020864 -0.05640197 -0.22320141 0.38498124
-0.4853997 -0.29579437 -0.1901087 -0.31803527 0.083596334 -0.5664218 0.5411685 -0.4706843
0.39421308 0.12549321 -0.15806104 0.3019092 0.11564894 0.4921418 0.029497208 -0.31805563
0.019145776 -0.2644043 0.24960038 0.5220878 0.37001282 -0.25240168 0.3332839 0.103303134
0.27799037 -0.36710215 -0.5766762 -0.2540276 -0.47380245 0.47780728 0.19790667 0.2707588
0.15085074 0.007421198 0.46930504 -0.43672618 -0.18558043 -0.61596984 0.14956877 -0.19004264
0.1856912 -0.109056704 0.4992072 -0.32183987 -0.38800633 -0.32568944 0.5379536 0.14986914
0.54767406 -0.48437157 -0.5840624 -0.44828779 -0.38498473 0.25432193 0.22858834 0.50158304
-0.28516468 -0.4021573 0.29777527 -0.23852138 0.36127546 -0.12614731 0.408321 -0.46977508
-0.31254727 0.15825298 0.13108137 -0.13816327 0.36131865 0.43365997 -0.3775142 -0.34136516
0.541773 -0.18169996 -0.16670428 -0.57274145 -0.3447265 0.09838023 -0.0540127 -0.3968788
0.01999719 -0.4162432 -0.511678 -0.31163922 -0.4471073 -0.30947998 0.63968116 0.11140822
0.18027799 -0.5478812 -0.4490751 -0.2619785 -0.05617752 -0.5065537 -0.24728955 -0.29175293
-0.02803473 -0.24444668 -0.12018249 -0.34516537 -0.35021085 -0.28121012 -0.19066347 -0.4487262
0.4204999 -0.09441384 0.5169124 0.16526648 -0.45879835 0.429611 -0.1711361 -0.23689872
-0.49482194 -0.5892465 0.17728448 -0.11417204 0.3245845 -0.4927041 0.4097436 -0.49318457
-0.07572085 0.14455515 0.31390557 0.50377417 0.5636102 -0.4389804 0.14260042 -0.25101554
-0.10890886 -0.4325593 0.52546567 -0.3994214 0.33277443 0.2271113 0.18376978 -0.2313997
0.60552275 0.0068504703 0.043019492 -0.5400345 0.2867018 -0.0928111 -0.27069056 0.50479025
0.11766901 -0.3304885 -0.34488317 -0.016278576 0.3336628 -0.1601748 -0.34488705 -0.21317334
-0.4621565 0.2316942 0.4726787 -0.57852185 0.15672964 0.32089067 0.15841578 -0.23890756
0.2680547 0.34168658 0.2380575 -0.0792868 -0.2179988 0.04344011 -0.12034203 -0.17981085
00000000: 2e64 e53e cabd f83e 1cf4 46be 3edf 0b3f
00000010: fe47 e2bd ad93 e93d 7887 6bbe 4bc1 c73e
00000020: 2fe6 043f 0cb1 d7be 9f0d 013f f0e2 763e
00000030: 564a c93e d069 373d 59f6 ae3e c55f 8ebd
00000040: e604 ea3e 9933 893d 1cde 60be 2cd4 493e
00000050: 63f2 a3be c105 67bd e98e 64be 431c c53e
00000060: 4f86 f8be 5c72 97be dbab 42be 85d5 a2be
00000070: 8e34 ab3d 0501 11bf 058a 0a3f 88fd f0be
00000080: 4cd6 c93e 4b81 003e c1da 21be d893 9a3e
00000090: 5ad9 ec3d 03fa fb3e 21a4 f13c 30d8 a2be
000000a0: 9ad7 9c3c 0060 87be 3e97 7f3e 8ca7 053f
000000b0: 5272 bd3e cb3a 81be 30a4 aa3e 9890 d33d
000000c0: c154 8e3e d0f4 bbbe 0da1 13bf e80f 82be
000000d0: 3c96 f2be 28a3 f43e 0ca8 4a3e e6a0 8a3e
000000e0: 9e78 1a3e 852d f33b c048 f03e 939a dfbe
000000f0: cc08 3ebe 33b0 1dbf 8e28 193e 8a9a 42be
00000100: d525 3e3e 1f59 dfbd 1698 ff3e 32c8 a4be
00000110: c4a8 c6be c4c0 a6be 54b7 093f 4c77 193e
00000120: 5e34 0c3f 8dff f7be 1d85 15bf fa85 e5be
00000130: b81c c5be 7c36 823e 1013 6a3e bf67 003f
00000140: 1b01 92be 90e7 cdbe 0076 983e f33e 74be
00000150: 19f9 b83e c32c 01be 730f d13e 5c86 f0be
00000160: 3206 a0be 120d 223e 323a 063e ac7a 0dbe
00000170: c2fe b83e ae08 de3e 8b49 c1be 6ac7 aebe
00000180: a3b1 0a3f 8e0f 3abe 87b4 2abe 2f9f 12bf
00000190: fe7f b0be 937b c93d 6c3c 5dbd b333 cbbe
000001a0: 26d1 a33c d41d d5be 54fd 02bf 2d8f 9fbe
000001b0: 3feb e4be 2974 9ebe 25c2 233f fe29 e43d
000001c0: cb9a 383e f141 0cbf 2ced e5be 0c22 86be
000001d0: 661a 66bd 81ad 01bf 7939 7dbe a460 95be
000001e0: 17a9 e5bc 3b50 7abe 3d22 f6bd 84b9 b0be
000001f0: d64e b3be c6fa 8fbe 493d 43be 71bf e5be
00000200: c34b d73e 0b5c c1bd 5f54 043f 9e3b 293e
00000210: 9ee7 eabe f9f5 db3e 4d3e 2fbe 9495 72be
00000220: 4d59 fdbe dcd8 16bf 108a 353e 08d3 e9bd
00000230: f12f a63e b643 fcbe eac9 d13e b082 fcbe
00000240: 8813 9bbd 4406 143e 3bb8 a03e 58f7 003f
00000250: c248 103f 0ac2 e0be d805 123e 1c85 80be
00000260: 9c0b dfbd 6a78 ddbe eb84 063f f680 ccbe
00000270: 6961 aa3e dd8f 683e 252e 3c3e 0bf4 6cbe
00000280: 8a03 1b3f e979 e03b 3535 303d b33f 0abf
00000290: 94ca 923e bf13 bebd f497 8abe ef39 013f
000002a0: 73fc f03d ca35 a9be 8794 b0be a65a 85bc
000002b0: dad5 aa3e dd04 24be 0995 b0be 1d4a 5abe
000002c0: c79f ecbe 3f41 6d3e f102 f23e 021a 14bf
000002d0: bc7d 203e c84b a43e bf37 223e 2fa4 74be
000002e0: 773e 893e 8bf1 ae3e 58c5 733e 1e61 a2bd
000002f0: 143b 5fbe 42ee 313d e275 f6bd 5620 38be

net.0.bias f4 [64]
0.3866584 0.53126484 -0.040727686 -0.11148032 0.006768773 -0.023947962 0.18990338 0.13385756
-0.49975574 -0.23938611 0.5418451 0.2901652 -0.008444967 -0.35682377 -0.3423909 -0.5171712
-0.1882935 0.23628877 0.4104683 0.31969365 -0.44348165 -0.36394247 -0.047825806 0.5959147
0.13015226 -0.15267602 0.29208508 -0.22318633 -0.34208062 0.42877594 -0.28792566 -0.07754764
-0.5767406 0.4273826 0.50048316 0.22465916 -0.47881353 -0.5621347 -0.509484 0.5084405
0.3222716 0.61308736 0.3561425 0.1966131 -0.03805858 -0.45977536 -0.58892053 -0.42888576
0.25901994 -0.2124716 -0.12053997 -0.37755647 -0.0823861 -0.6337409 -0.3430359 0.24230814
-0.12503906 0.38794366 -0.16268335 -0.3841503 -0.076863706 -0.29442555 -0.11597468 -0.5891314
00000000: 17f8 c53e f900 083f 13d2 26bd cb4f e4bd
00000010: 95cc dd3b 842e c4bc 0876 423e f511 093e
00000020: fcdf ffbe a221 75be 5cb6 0a3f 8890 943e
00000030: c25c 0abc 9bb1 b6be dc4d afbe 5565 04bf
00000040: 03d0 40be aff5 713e e728 d23e e3ae a33e
00000050: 0710 e3be ab56 babe fee4 43bd de8d 183f
00000060: a246 053e 1a57 1cbe 2d8c 953e f58a 64be
00000070: 3125 afbe 8588 db3e fe6a 93be 4cd1 9ebd
00000080: 46a5 13bf e4d1 da3e aa1f 003f 0d0d 663e
00000090: 0c27 f5be 0fe8 0fbf 8b6d 02bf 2829 023f
000000a0: c800 a53e 4bf3 1c3f 4f58 b63e f254 493e
000000b0: 50e3 1bbd ad67 ebbe 7fc3 16bf ea96 dbbe
000000c0: 439e 843e 2892 59be a9dd f6bd 154f c1be
000000d0: 0bba a8bd d83c 22bf 67a2 afbe a01f 783e
000000e0: 3d0a 00be 8da0 c63e 7796 26be 59af c4be
000000f0: b86a 9dbd f2be 96be 2284 edbd 51d1 16bf

net.2.weight f4 [64, 64]
0.09232835 -0.062308114 0.09006751 0.05666102 0.110355705 -0.07695116 0.12519853 -0.03718239
0.14626572 0.17120858 0.009096155 0.022577597 -0.008287344 -0.06148382 0.07691513 -0.12408973
0.10845893 0.08117993 0.14209415 -0.006188728 -0.3114239 0.036765363 0.092525 -0.09730138
0.0033397488 -0.04366748 0.012352135 -0.048504665 -0.060598705 -0.035381973 -0.044692308 0.13061967
0.0814519 -0.011996961 -0.033520106 -0.046768572 -0.11643902 -0.11971317 0.16053227 -0.065502845
-0.096114665 -0.027303552 -0.036855586 -0.018169139 0.038756836 -0.01948781 0.19354422 -0.024668632
-0.067866646 0.124721706 -0.0573225 0.034764543 -0.023616653 -0.10551135 0.3914842 0.077743724
-0.059170783 0.07451252 0.15952721 0.05067037 0.10234528 0.164946 -0.0076162377 0.103143916
-0.051808555 0.01756879 0.08476249 0.14307857 -0.054024808 -0.09962879 -0.0532319 -0.10352105
-0.124798395 -0.018355759 0.12520023 0.047543716 -0.09789716 -0.239857 0.06129099 -0.09298016
0.009154232 0.08730212 -0.016862312 0.033938546 -0.0042331684 -0.03992722 -0.033511244 -0.06927234
-0.079663396 -0.04786422 0.1550756 -0.07735717 0.018453453 0.056041338 0.009599961 0.09230093
0.15596804 0.09316592 -0.091304615 0.0339249 0.098172165 0.03013541 -0.120958425 0.14517967
-0.009231996 -0.04047416 -0.086849175 0.038675714 0.07815989 0.045706432 0.095496446 -0.10953965
-0.100990154 0.012309395 0.09436937 0.109384954 -0.06848293 0.23335847 -0.09109102 -0.040085316
0.03431944 0.11214028 0.11412444 -0.101049624 0.08436069 -0.13507168 0.065498374 0.017397296
-0.013659934 0.11551409 -0.12250789 -0.023257008 0.04941118 -0.048583854 0.015510311 -0.029327324
0.07401883 0.09222534 0.07552267 -0.04267952 -0.12276572 -0.18765248 -0.00038791515 -0.057713985
-0.01788519 0.114350855 0.0032341003 0.008580859 -0.008018258 -0.16971315 -0.13237578 -0.035065737
-0.05615235 0.061993416 -0.05383399 -0.057992462 0.15232113 0.0724054 0.09523536 -0.04722806
-0.0721554 0.07346701 -0.04915939 -0.055201173 0.021799695 -0.06762409 -0.11725833 0.104246445
0.13755903 0.054081134 0.0074159536 -0.13548234 -0.018258007 0.056134466 0.3102899 -0.0065541505
-0.03604899 0.041122433 -0.11465333 0.063495725 -0.07696296 -0.0140026305 -0.011584845 0.03818054
-0.010132845 0.09630724 0.01786351 0.06501366 0.09360533 -0.09266337 -0.13593622 -0.06540991
0.12990482 -0.057818543 0.016438222 -0.1255042 -0.07276903 0.052328996 0.0722426 0.058568563
-0.07040789 0.12043675 0.061444864 -0.034704216 0.022167744 0.06544314 0.069819815 -0.088385105
0.056231387 -0.046574116 -0.06839285 -0.036129456 -0.04634792 0.11490566 0.13855824 0.115792826
0.13118823 -0.015386372 -0.036199912 0.06227526 -0.0727627 -0.049440727 -0.052102916 0.047858126
0.056112688 -0.013375987 -0.04303995 0.047281925 -0.11344273 -0.072556816 0.013855666 0.013439315
0.13987081 0.14761995 0.06724474 0.07492757 0.041947182 -0.05110994 -0.15796147 0.029859658
0.09271716 0.14400147 -0.07467877 -0.050170258 -0.0016888293 -0.15084183 -0.004046552 0.1275362
0.086621985 0.09417219 -0.09521251 -0.04173685 0.00045689364 0.0033957574 0.03036295 -0.016516354
00000000: a516 bd3d cb36 7fbd 5175 b83d 6315 683d
00000010: 2c02 e23d 9298 9dbd 0b34 003e 904c 18bd
00000020: aec6 153e 4d51 2f3e 0a08 153c a7f4 b83c
00000030: a4c7 07bc 75d6 7bbd ae85 9d3d c222 febd
00000040: b71f de3d aa41 a63d 2181 113e d0ca cabb
00000050: f472 9fbe 4797 163d bf7d bd3d f245 c7bd
00000060: b0df 5a3b acdc 32bd 9c60 4a3c d4ac 46bd
00000070: 5936 78bd b0ec 10bd 480f 37bd 2ac1 053e
00000080: 41d0 a63d e78e 44bc 614c 09bd 6790 3fbd
00000090: 9577 eebd 2e2c f5bd 9262 243e 5b26 86bd
000000a0: c4d7 c4bd b3ab dfbc e2f5 16bd 72d7 94bc
000000b0: 7dbf 1e3d e6a4 9fbc 7530 463e df15 cabc
000000c0: abfd 8abd 186e ff3d ffca 6abd 4465 0e3d
000000d0: b677 c1bc 5616 d8bd 9e70 c83e 1a38 9f3d
000000e0: 105d 72bd 059a 983d 1a5b 233e bc8b 4f3d
000000f0: 679a d13d 9be7 283e a291 f9bb 1e3d d33d
00000100: 3535 54bd 6cec 8f3c f597 ad3d 3083 123e
00000110: 1e49 5dbd 2e0a ccbd b109 5abd d802 d4bd
00000120: 4d96 ffbd d15e 96bc 7d34 003e 33bd 423d
00000130: 4e7e c8bd 139d 75be 430c 7b3d 626c bebd
00000140: a2fb 153c 74cb b23d d522 8abc 2503 0b3d
00000150: 64b6 8abb ba8a 23bd 1643 09bd a8de 8dbd
00000160: 9026 a3bd 460d 44bd 23cc 1e3e 706d 9ebd
00000170: b22b 973c 9a8b 653d 2849 1d3c 4508 bd3d
00000180: 16b6 1f3e c6cd be3d eafd babd d6f4 0a3d
00000190: 7d0e c93d 89de f63c 0db9 f7bd fba9 143e
000001a0: cc41 17bc 3cc8 25bd fbdd b1bd 6d6a 1e3d
000001b0: 4b12 a03d ab36 3b3d a493 c33d 5356 e0bd
000001c0: edd3 cebd 58ad 493c ba44 c13d 3805 e03d
000001d0: c740 8cbd 86f5 6e3e ee8d babd 8030 24bd
000001e0: 8b92 0c3d cea9 e53d 13ba e93d 1bf3 cebd
000001f0: 4cc5 ac3d 3b50 0abe 0324 863d c684 8e3c
00000200: eacd 5fbc a792 ec3d 6be5 fabd 7b85 bebc
00000210: 6163 4a3d ddff 46bd f61e 7e3c db3f f0bc
00000220: 2f97 973d a4e0 bc3d a1ab 9a3d b8d0 2ebd
00000230: 986c fbbd f927 40be 1761 cbb9 8065 6cbd
00000240: f683 92bc c830 ea3d 33f3 533b bb96 0c3c
00000250: 035f 03bc 49c9 2dbe 848d 07be 17a1 0fbd
00000260: 0200 66bd cfec 7d3d 0881 5cbd 8189 6dbd
00000270: 12fa 1b3e 4849 943d c20a c33d 3672 41bd
00000280: 36c6 93bd df75 963d 5b5b 49bd a01a 62bd
00000290: 4695 b23c 807e 8abd 2325 f0bd 297f d53d
000002a0: 46dc 0c3e 2e84 5d3d 8701 f33b e2bb 0abe
000002b0: d191 95bc 41ed 653d 51de 9e3e 33c4 d6bb
000002c0: 1ba8 13bd ff6f 283d 5dcf eabd 0c0a 823d
000002d0: c29e 9dbd 4a6b 65bc 5dce 3dbc 3363 1c3d
000002e0: 3b04 26bc bb3c c53d 7f56 923c e225 853d
000002f0: 27b4 bf3d 4bc6 bdbd dd32 0bbe a2f5 85bd
00000300: c505 053e 23d3 6cbd 73a9 863c 2c84 00be
00000310: ee07 95bd ee56 563d eef3 933d 97e5 6f3d
00000320: 0332 90bd 8ba7 f63d 9cad 7b3d 0226 0ebd
00000330: 2199 b53c 0e07 863d b1fd 8e3d 4003 b5bd
00000340: e252 663d 80c4 3ebd 8d11 8cbd 7bfc 13bd
00000350: 51d7 3dbd a953 eb3d 36e2 0d3e ca24 ed3d
00000360: 3556 063e 1f17 7cbc 5c46 14bd 5814 7f3d
00000370: 9c04 95bd 5c82 4abd de69 55bd e206 443d
00000380: 6bd6 653d f526 5bbc a94a 30bd b1aa 413d
00000390: a954 e8bd ab98 94bd e002 633c 9330 5c3c
000003a0: 4b3a 0f3e af29 173e 9cb7 893d a073 993d
000003b0: cfd0 2b3d a858 51bd a7c0 21be 3e9c f43c
000003c0: 7fe2 bd3d 1f75 133e 2ff1 98bd 547f 4dbd
000003d0: b55b ddba 4876 1abe f098 84bb da98 023e
000003e0: de66 b13d 59dd c03d c7fe c2bd 42f4 2abd
000003f0: 3a8b ef39 5b8b 5e3b b9bb f83c 4e4d 87bc

net.2.bias f4 [64]
0.030262565 0.09517832 0.05145242 -0.042280875 0.027473805 0.13811804 -0.043202095 -0.039488465
-0.059841167 -0.032703385 0.03836016 0.057466313 0.027432913 -0.049357496 0.12043025 0.052885547
-0.037687123 -0.03308125 -0.030209618 -0.07155976 -0.14340775 0.078557946 -0.053724375 0.09012142
0.13114195 -0.10495949 -0.14861016 -0.09876707 0.054674387 0.062128004 -0.022411497 0.0755101
0.078104444 -0.11294231 0.024585282 -0.05626794 0.0055386038 0.06216494 0.0306322 -0.09675637
0.099467695 -0.08486163 0.002849575 0.09139266 0.13626914 0.12989676 -0.004408881 0.041712075
-0.12668994 -0.03945048 -0.05790991 0.06979898 -0.08260995 0.018414535 0.110709116 0.15374005
0.014166586 0.15379389 -0.061986923 0.010136706 0.04738936 0.07819538 0.105572246 -0.056227274
00000000: 33e9 f73c daec c23d c6bf 523d b62e 2dbd
00000010: bf10 e13c d16e 0d3e aef4 30bd a8be 21bd
00000020: 031c 75bd fcf3 05bd 8b1f 1d3d cc61 6b3d
00000030: fdba e03c 162b 4abd 23a4 f63d 849e 583d
00000040: d05d 1abd 3480 07bd 297a f7bc ec8d 92bd
00000050: 7bd9 12be fde2 a03d 170e 5cbd 9491 b83d
00000060: 134a 063e 00f5 d6bd 432d 18be 6446 cabd
00000070: 40f2 5f3d ef79 7e3d 5198 b7bc 0aa5 9a3d
00000080: 39f5 9f3d 4c4e e7bd 1367 c93c 3679 66bd
00000090: 2d7d b53b aaa0 7e3d 61f0 fa3c 3428 c6bd
000000a0: b8b5 cb3d efcb adbd efbf 3a3b 132c bb3d
000000b0: 238a 0b3e a803 053e 6078 90bb 48da 2a3d
000000c0: 02bb 01be d496 21bd f132 6dbd c5f2 8e3d
000000d0: 682f a9bd 14da 963c 76bb e23d 086e 1d3e
000000e0: f81a 683c 257c 1d3e 00e6 7dbd 6d14 263c
000000f0: 581b 423d e624 a03d 4336 d83d 924e 66bd

net.4.weight f4 [64, 64]
0.076966554 -0.117315575 -0.08570978 -0.008501023 -0.12143837 -0.11881611 -0.11096656 0.1004986
0.027419373 -0.03988391 -0.005137354 -0.10895233 -0.11805633 -0.08717239 -0.12092981 0.08223908
-0.043741375 -0.033743024 -0.1076432 0.02070263 -0.018754274 -0.08509846 0.080145076 0.10536371
-0.089097425 0.07082254 -0.02029711 -0.0011801273 0.05320607 -0.022789717 0.10620542 0.07690823
-0.08114149 -0.07607031 -0.12385 0.04002075 -0.09402335 -0.104772374 -0.08012089 -0.12358397
-0.101780385 0.111495614 0.069823176 0.11075325 -0.060635135 -0.051268935 -0.043858483 0.0024413168
-0.08972068 0.018325254 -0.08011235 0.019752517 0.11449969 0.021112382 0.09118052 -0.08902614
-0.017640471 -0.07718481 -0.013868362 -0.04972461 -0.070973545 -0.120742574 -0.04634911 0.0167398
-0.032054447 -0.11641814 0.0938973 0.08241162 -0.082875594 0.012706906 0.072959244 -0.11870603
-0.12074815 0.0587118 -0.0024757683 0.039804757 -0.061673377 0.022663817 0.07289618 -0.040846184
-0.050226655 -0.119023636 -0.01928854 0.06907136 -0.12822539 -0.009655833 0.091116846 -0.045737762
-0.04618354 -0.04690488 -0.060583584 0.014960781 -0.12770285 0.037713766 -0.03760643 -0.015914813
-0.013667564 0.069829315 -0.08783388 -0.11374797 -0.10005293 -0.09169881 -0.066850245 0.09872694
-0.106285065 -0.083936214 -0.112409495 -0.0728407 -0.014199764 -0.076220706 0.0013212562 0.042242363
-0.02126731 0.053932488 0.028683454 0.12075098 -0.013418521 0.10834491 0.09356159 0.04973284
0.0707417 -0.08807271 -0.08371821 0.04328041 0.04538767 0.10248831 -0.026441904 -0.033818312
0.09017451 0.021379787 0.13470289 -0.04815186 -0.012224067 0.07133081 0.08936317 -0.08088671
-0.03322668 0.11686643 0.052048363 0.18293288 -0.041534744 -0.06420831 -0.07116193 -0.051806025
-0.08693168 0.06194617 0.039827857 -0.080394745 0.0632551 0.050406184 0.08374052 -0.03770299
0.11059136 -0.0968675 -0.06954462 -0.06792675 0.054141536 -0.034508165 0.11305604 -0.1048339
0.003582079 -0.033739537 -0.07409858 -0.012481913 -0.025055865 0.006360198 0.11439193 -0.027757
0.122993 -0.028294755 -0.055304687 0.004580878 0.007914321 0.07430012 0.14507776 0.042798758
-0.08843948 -0.029837579 -0.034356058 -0.1176401 0.09841551 0.101376384 0.07543697 0.0088232625
0.014050818 -0.024287518 -0.02280501 0.12631531 -0.064265296 0.041548643 -0.06288495 7.115473e-05
-0.009469948 -0.10456051 0.019037584 -0.12552358 -0.044296112 0.0793755 0.101342276 -0.023688193
-0.10629897 -0.115496054 -0.036767833 -0.07749792 0.08316231 -0.08329656 0.060328837 0.007139669
-0.055118173 0.10189341 0.059171516 -0.021898927 -0.10206292 -0.05027793 0.027131647 0.094124444
-0.055324607 -0.061135173 -0.13312046 0.07683049 0.10607008 0.07031452 -0.08004595 0.08954726
-0.054498725 0.06535238 0.05553106 -0.11250672 0.013628326 0.043167338 -0.09245812 0.10687035
0.08114677 0.09650688 -0.018156536 -0.08302385 -0.085509695 0.027319565 -0.03990754 0.09935224
0.093634784 -0.0024117217 -0.11661382 0.033282023 0.101502396 -0.041200217 -0.08067955 -0.04469288
0.0016238173 -0.10986729 0.05209326 0.036417797 -0.047791466 -0.063766696 -0.07159009 0.087366
00000000: a4a0 9d3d 2643 f0bd 9c88 afbd e047 0bbc
00000010: aeb4 f8bd dc55 f3bd 7042 e3bd 36d2 cd3d
00000020: 989e e03c 505d 23bd 4057 a8bb 6622 dfbd
00000030: 84c7 f1bd 7087 b2bd 0caa f7bd f66c a83d
00000040: 282a 33bd 2036 0abd 0a74 dcbd 9098 a93c
00000050: 90a2 99bc 1a48 aebd 1a23 a43d eec8 d73d
00000060: b678 b6bd 680b 913d 2046 a6bc 80ae 9aba
00000070: 9cee 593d 80b1 babc 3a82 d93d 1082 9d3d
00000080: 822d a6bd c0ca 9bbd 12a5 fdbd ccec 233d
00000090: 508f c0bd e692 d6bd 6c16 a4bd 9819 fdbd
000000a0: 3c72 d0bd d057 e43d 74ff 8e3d 9ad2 e23d
000000b0: 8c5c 78bd 60ff 51bd f4a4 33bd 80fe 1f3b
000000c0: 7abf b7bd d81e 963c f211 a4bd 08d0 a13c
000000d0: d07e ea3d e0f3 ac3c dabc ba3d 5653 b6bd
000000e0: c082 90bc 1213 9ebd 2038 63bc 08ac 4bbd
000000f0: 945a 91bd e247 f7bd 90d8 3dbd e821 893c
00000100: 864b 03bd a26c eebd 3a4d c03d 6cc7 a83d
00000110: aeba a9bd a030 503c a86b 953d 261c f3bd
00000120: ce4a f7bd c97b 703d 8040 22bb 500a 233d
00000130: 399d 7cbd 78a9 b93c 984a 953d 544e 27bd
00000140: 77ba 4dbd aac2 f3bd 0003 9ebc 4975 8d3d
00000150: 844d 03be 8033 1ebc 789b ba3d 8557 3bbd
00000160: f42a 3dbd 551f 40bd 7e26 78bd 101e 753c
00000170: 89c4 02be c079 1a3d 3309 1abd c85f 82bc
00000180: ebed 5fbc ac02 8f3d 40e2 b3bd b2f4 e8bd
00000190: 8de8 ccbd 96cc bbbd c8e8 88bd 5a31 ca3d
000001a0: fcab d9bd c0e6 abbd f336 e6bd 812d 95bd
000001b0: 20a6 68bc 9a19 9cbd 002e ad3a 5406 2d3d
000001c0: c838 aebc 50e8 5c3d 90f9 ea3c 4a4c f73d
000001d0: 5bd9 5bbc f0e3 dd3d 389d bf3d aab4 4b3d
000001e0: 06e1 903d 775f b4bd 7474 abbd cd46 313d
000001f0: 6ce8 393d 64e5 d13d b19c d8bc 1285 0abd
00000200: 6aad b83d aa24 af3c 8eef 093e e23a 45bd
00000210: 7447 48bc e315 923d 0a04 b73d eea7 a5bd
00000220: b318 08bd ab57 ef3d aa30 553d c252 3b3e
00000230: 5620 2abd a57f 83bd 59bd 91bd 8e32 54bd
00000240: 3d09 b2bd 44bb 7d3d 8922 233d 00a6 a4bd
00000250: e48b 813d b776 4e3d 2680 ab3d 736e 1abd
00000260: b97d e23d 7862 c6bd 696d 8ebd 2e1d 8bbd
00000270: 84c3 5d3d 6f58 0dbd ed89 e73d 28b3 d6bd
00000280: 50c1 6a3b 7832 0abd ffc0 97bd f080 4cbc
00000290: f541 cdbc 3569 d03b 5146 ea3d a662 e3bc
000002a0: c1e3 fb3d 67ca e7bc 2b87 62bd 311b 963b
000002b0: 11ab 013c a92a 983d 448f 143e c04d 2f3d
000002c0: c21f b5bd f06d f4bc f0b8 0cbd 4bed f0bd
000002d0: 128e c93d 6c9e cf3d b37e 9a3d 728f 103c
000002e0: 6735 663c 9ef6 c6bc 93d1 babc cd58 013e
000002f0: 869d 83bd e92e 2a3d d3c9 80bd e838 9538
00000300: d727 1bbc d223 d6bd b5f4 9b3c 4189 00be
00000310: d76f 35bd 9f8f a23d 8a8c cf3d be0d c2bc
00000320: 46b3 d9bd 3289 ecbd de99 16bd 3bb7 9ebd
00000330: 0051 aa3d 6397 aabd 5f1b 773d e2f3 e93b
00000340: 98c3 61bd 7ead d03d d55d 723d 6165 b3bc
00000350: 5d06 d1bd 3bf0 4dbd 3043 de3c 51c4 c03d
00000360: 0e9c 62bd e068 7abd bb50 08be 4e59 9d3d
00000370: 453b d93d 0f01 903d 22ef a3bd 8e64 b73d
00000380: 0e3a 5fbd 78d7 853d 8974 633d ec69 e6bd
00000390: 5849 5f3c 3cd0 303d af5a bdbd d8de da3d
000003a0: 4730 a63d 66a5 c53d 04bd 94bc 6908 aabd
000003b0: b51f afbd 48cd df3c 1776 23bd 3079 cb3d
000003c0: 98c3 bf3d fa0d 1ebb 3ad3 eebd bb52 083d
000003d0: 7de0 cf3d 8fc1 28bd 523b a5bd e20f 37bd
000003e0: 44d6 d43a 1a02 e1bd be5f 553d d42a 153d
000003f0: fcc0 43bd 1d98 82bd d39d 92bd f2ec b23d

net.4.bias f4 [64]
-0.019038916 -0.07951468 0.05332555 -0.08586267 0.12180181 0.10045694 0.06323764 0.014861727
0.03443832 0.08772947 -0.052023344 0.011360532 -0.060686115 -0.09657952 -0.08943783 -0.085473105
0.14109534 0.11164912 -0.09795688 -0.07512178 0.15760167 0.074490145 0.1001016 0.052304663
-0.04670587 -0.085912906 0.06725277 -0.13087292 -0.10401504 0.07104556 0.00083468686 0.061547183
0.10884121 -0.048440218 -0.08366566 -0.05206508 -0.070037484 0.032054383 0.12119862 0.0440177
0.10441065 -0.027430357 0.027587714 -0.09386206 0.039167624 0.073528886 -0.008311577 0.14929238
0.07603703 0.10464811 0.13751407 0.09131422 -0.009820312 0.068850055 0.16761377 -0.085206784
-0.0046291663 0.06879801 -0.036302254 -0.114190616 -0.031380605 -0.079078995 0.10181275 0.077924415
00000000: 80f7 9bbc 98d8 a2bd e46b 5a3d c4d8 afbd
00000010: 3a73 f93d 5ebc cd3d bc82 813d 9a7e 733c
00000020: 320f 0d3d 82ab b33d 6e16 55bd 8621 3a3c
00000030: 0192 78bd 7ccb c5bd 2e2b b7bd 860c afbd
00000040: 4c7b 103e 4ba8 e43d 9e9d c8bd 73d9 99bd
00000050: 5562 213e 4a8e 983d 1102 cd3d 6a3d 563d
00000060: a84e 3fbd 1bf3 afbd d2bb 893d 8d03 06be
00000070: d605 d5bd 5680 913d e3ce 5a3a e618 7c3d
00000080: 24e8 de3d 4069 46bd e758 abbd 3142 55bd
00000090: d06f 8fbd 754b 033d fb36 f83d e74b 343d
000000a0: 40d5 d53d a1b5 e0bc a1ff e13c c03a c0bd
000000b0: 3b6e 203d 5096 963d 482d 08bc 1ae0 183e
000000c0: 4db9 9b3d c051 d63d 7dd0 0c3e f302 bb3d
000000d0: 60e5 20bc 4201 8d3d f2a2 2b3e e580 aebd
000000e0: 43b0 97bb f9e5 8c3d acb1 14bd c5dc e9bd
000000f0: f388 00bd 2bf4 a1bd 3483 d03d d696 9f3d

net.6.weight f4 [64, 64]
-0.014225066 -0.10228123 0.019375406 0.04950459 -0.008745476 0.08134161 -0.015675625 0.078221194
0.12583709 0.09964934 0.49350536 0.15909535 0.0024809095 -0.104654096 0.089851305 0.116232336
0.09619504 0.1502276 0.096686535 0.069167875 0.07567171 -0.0604223 0.037360698 -0.011546902
0.03438592 -0.09245344 0.007389769 0.048903182 -0.046448335 -0.044820804 -0.07555433 0.0684282
-0.09584889 -0.018755594 0.040735442 0.05694309 -0.06921679 0.06495434 -0.048091996 0.023139415
-0.05175143 -0.069566146 0.04441338 0.021226302 0.14379595 0.15171103 0.1273722 0.08402649
0.10437617 0.054802384 -0.07670024 0.12918665 0.015176147 -0.026824765 -0.0028387692 0.1292431
0.1126418 0.025156664 -0.04072488 -0.079021 0.10808492 -0.059181377 -0.04719438 -0.031217331
0.03629443 0.095821336 0.010961942 0.046593145 -0.114079565 -0.09082161 -0.08702634 -0.09398022
-0.055797994 -0.07578261 -0.04089944 -0.0914154 0.03723374 -0.01066098 0.006361127 0.052997425
-0.1239403 -0.06278553 -0.018518664 -0.11679798 0.052534457 -0.093860954 0.07147195 0.12370473
0.02576086 -0.06084059 0.088221356 -0.081947714 0.005918324 0.06443593 0.10338802 -0.0014209833
-0.023362892 -0.025272157 -0.13427918 0.0078655565 -0.11305873 -0.0029465437 -0.0435207 0.0650009
-0.05005026 0.076761305 -0.04146083 -0.02417615 -0.12594299 0.09616104 0.01081185 -0.1240801
-0.0068910494 0.037557688 -0.040176917 0.08786589 0.06113571 -0.029882492 0.124969795 0.088156715
-0.029094085 -0.01079753 0.038362578 -0.04612974 0.06417729 -0.120262295 -0.06696808 0.043408398
-0.119971424 -0.03282245 -0.09433834 0.081901416 0.03457427 -0.049478482 0.1345577 -0.024206106
0.022070963 0.07943656 0.42815214 0.023541717 -0.04233197 -0.065992296 -0.045342743 0.08200325
-0.020367017 -0.104812846 -0.00905886 0.06650858 -0.032325584 0.0441306 0.16318303 -0.0037920787
-0.111552104 -0.10514274 0.03240642 0.05244158 0.0017664135 -0.14011046 -0.12978369 -0.052414134
0.04985748 -0.016047612 -0.04276415 -0.13259289 0.10125025 0.026665535 0.10067226 -0.06715819
-0.0620515 0.0485281 0.09455245 0.08256967 0.16062853 0.11229289 0.09044318 -0.042022556
0.09808205 -0.09148278 0.12287186 0.073660396 -0.07409163 -0.040233225 0.021504272 0.12206411
0.08266523 0.06382541 -0.06507065 0.024156323 0.1376225 -0.07414582 0.13492164 0.052553587
0.06914495 0.042877316 0.069226414 -0.1063488 0.047853243 -0.08746932 -0.016014898 0.08923954
-0.09401415 -0.08135193 -0.054785177 -0.0035585496 -0.0061766133 -0.10829395 0.016287193 -0.03140092
-0.060223393 -0.007140084 0.0322838 0.022780968 -0.09125631 0.094628654 0.015696963 -0.029510463
0.108198985 0.025197744 0.065001845 0.08838345 -0.0022276193 0.09420507 -0.009648617 0.10390286
0.006451839 0.04823099 0.04761068 -0.07893706 0.099965036 -0.0047478587 0.03724343 -0.10018417
-0.02891738 0.06962061 -0.09323053 0.017317832 0.1010856 -0.1296969 0.0024838704 0.02531437
0.07297923 -0.051256664 -0.13066226 -0.085884824 0.037515894 -0.10094531 -0.09032192 -0.0028666202
0.022731876 -0.06342992 -0.048550814 0.0792939 -0.097610846 -0.10281898 -0.037809335 0.09305072
00000000: 4010 69bc d278 d1bd 2cb9 9e3c 53c5 4a3d
00000010: 2f49 0fbc 6e96 a63d 2b6a 80bc 6f32 a03d
00000020: 70db 003e f414 cc3d bcac fc3e e4e9 223e
00000030: c196 223b e354 d6bd f603 b83d 380b ee3d
00000040: e801 c53d 44d5 193e 9703 c63d e3a7 8d3d
00000050: c5f9 9a3d 607d 77bd 8807 193d 382f 3dbc
00000060: 40d8 0c3d 3b58 bdbd e025 f23b b44e 483d
00000070: 9c40 3ebd 0596 37bd 3bbc 9abd 1624 8c3d
00000080: 6c4c c4bd 55a5 99bc 35da 263d 283d 693d
00000090: 88c1 8dbd c806 853d 1dfc 44bd df8e bd3c
000000a0: 4ff9 53bd b278 8ebd ceea 353d c8e2 ad3c
000000b0: 3f3f 133e 235a 1b3e dc6d 023e 1516 ac3d
000000c0: 2cc3 d53d 7778 603d 0415 9dbd 8149 043e
000000d0: 60a5 783c 9cbf dbbc a50a 3abb 4e58 043e
000000e0: beb0 e63d 5915 ce3c 22cf 26bd c3d5 a1bd
000000f0: a05b dd3d 2c68 72bd e54e 41bd 7dbb ffbc
00000100: 78a9 143d fa3d c43d b899 333c 74d8 3e3d
00000110: 8ca2 e9bd ae00 babd de3a b2bd b478 c0bd
00000120: 708c 64bd ea33 9bbd 2c86 27bd ff37 bbbd
00000130: 6882 183d 64ab 2ebc 0071 d03b d413 593d
00000140: 69d4 fdbd b395 80bd 74b4 97bc c833 efbd
00000150: 5f2e 573d 2c3a c0bd e35f 923d e858 fd3d
00000160: 7008 d33c fc33 79bd 66ad b43d 34d4 a7bd
00000170: 80ee c13b fcf6 833d 19bd d33d 4a40 baba
00000180: 8963 bfbc 8e07 cfbc 7b80 09be 89de 003c
00000190: 568b e7bd cd1a 41bb c342 32bd 311f 853d
000001a0: 8001 4dbd 0835 9d3d d5d2 29bd 100d c6bc
000001b0: 33f7 00be 14f0 c43d 3024 313c b51d febd
000001c0: 50ce e1bb 17d6 193d 8d90 24bd 08f3 b33d
000001d0: 7069 7a3d 21cc f4bc 2af0 ff3d 828b b43d
000001e0: b856 eebc 20e8 30bc 1422 1d3d 8af2 3cbd
000001f0: 626f 833d 144c f6bd 9026 89bd 01cd 313d
00000200: 94b3 f5bd d570 06bd 7634 c1bd eebb a73d
00000210: c09d 0d3d f3a9 4abd 7ec9 093e e24b c6bc
00000220: 2ace b43c a3af a23d c236 db3e 8fda c03c
00000230: 4a64 2dbd f826 87bd 50b9 39bd 52f1 a73d
00000240: bbd8 a6bc 1ea8 d6bd 9d6b 14bc a735 883d
00000250: d567 04bd 4ac2 343d 7419 273e 8684 78bb
00000260: 6e75 e4bd 1455 d7bd 98bc 043d fbcc 563d
00000270: 0087 e73a 1e79 0fbe 04e6 04be 34b0 56bd
00000280: 5b37 4c3d 4876 83bc 7629 2fbd 6ec6 07be
00000290: 4b5c cf3d ae71 da3c 422d ce3d 3c8a 89bd
000002a0: b729 7ebd 67c5 463d b7a4 c13d 4a1a a93d
000002b0: ce7b 243e d1f9 e53d 463a b93d d81f 2cbd
000002c0: 3edf c83d 535b bbbd 3ea4 fb3d 43db 963d
000002d0: 5abd 97bd 98cb 24bd ba29 b03c c0fc f93d
000002e0: 634c a93d e6b6 823d c343 85bd 7be3 c53c
000002f0: eaec 0c3e c4d9 97bd e628 0a3e 6e42 573d
00000300: de9b 8d3d 20a0 2f3d 94c6 8d3d 66cd d9bd
00000310: c301 443d 1d23 b3bd ad31 83bc 38c3 b63d
00000320: 7e8a c0bd d79b a6bd 6c66 60bd 8e36 69bb
00000330: 3065 cabb 38c9 ddbd b86c 853c 409e 00bd
00000340: ceac 76bd 5ef7 e9bb 053c 043d 279f ba3c
00000350: 97e4 babd abcc c13d eb96 803c edbf f1bc
00000360: 6e97 dd3d 806b ce3c b01f 853d 6202 b53d
00000370: 40fd 11bb 96ee c03d 3c15 1ebc 06cb d43d
00000380: f369 d33b dc8d 453d 6b03 433d c1a9 a1bd
00000390: 78ba cc3d ed93 9bbb 918c 183d 5c2d cdbd
000003a0: 24e4 ecbc 4095 8e3d a6ef bebd 20de 8d3c
000003b0: f805 cf3d 44cf 04be 6ec8 223b 1560 cf3c
000003c0: 2276 953d 82f2 51bd 54cc 05be 62e4 afbd
000003d0: 44aa 193d 6abc cebd b3fa b8bd e8dd 3bbb
000003e0: 3338 ba3c 8ce7 81bd 38dd 46bd d764 a23d
000003f0: 32e8 c7bd c292 d2bd f6dd 1abd 6091 be3d

net.6.bias f4 [64]
-0.07048042 -0.11433871 0.09308492 -0.08364835 0.15460928 0.02564292 -0.00856404 -0.09504854
-0.03736891 0.07195751 -0.027914781 -0.080865964 0.012619064 0.028090104 -0.08547788 -0.08128144
0.14996837 -0.059085086 0.03133536 -0.02936082 -0.105594404 -0.0802048 0.15517437 0.025018755
0.08746751 0.073676094 0.08886539 0.079649724 0.11909222 0.13201256 0.06452357 0.06540422
0.082788676 -0.06721586 0.106953025 0.041273877 0.03164064 0.0026477624 0.09964579 0.042457934
-0.040935628 0.022200301 -0.0050021806 -0.018366322 0.16401006 0.051155128 0.02429924 0.03406227
0.069260016 -0.09249689 -0.07781822 0.14928725 0.0006811619 0.0548197 -0.025561366 -0.1045043
0.07003519 0.08907307 -0.1177326 -0.13289066 -0.004476615 0.12218167 -0.11169103 0.14123672
00000000: 0a58 90bd 6a2a eabd 4ea3 be3d d34f abbd
00000010: e551 1e3e 1a11 d23c 3050 0cbc cfa8 c2bd
00000020: 2410 19bd 765e 933d 8aad e4bc 0e9d a5bd
00000030: 31c0 4e3c 381d e63c 070f afbd e276 a6bd
00000040: 4f91 193e 3403 72bd 8259 003d 1a86 f0bc
00000050: e141 d8bd 6a42 a4bd 08e6 1e3e 22f4 cc3c
00000060: 2a22 b33d 7ee3 963d 0fff b53d 651f a33d
00000070: 9fe6 f33d 4d2e 073e ef24 843d a6f2 853d
00000080: 1c8d a93d 78a8 89bd 300a db3d cc0e 293d
00000090: 9e99 013d 1586 2d3b 1813 cc3d 5fe8 2d3d
000000a0: 1eac 27bd 68dd b53c 55e9 a3bb f874 96bc
000000b0: 41f2 273e 0a88 513d 330f c73c e184 0b3d
000000c0: 32d8 8d3d 026f bdbd 295f 9fbd c2de 183e
000000d0: 0090 323a 9f8a 603d 1266 d1bc 5a06 d6bd
000000e0: 9c6e 8f3d f16b b63d ca1d f1bd 7d14 08be
000000f0: 92b0 92bb 623a fa3d 44be e4bd 5ca0 103e

net.8.weight f4 [1, 64]
0.1476238 -0.014448043 0.04506422 0.009166358 0.1616975 0.049366426 0.067193605 -0.026095556
-0.0015267283 -0.028673513 0.042168878 -0.037297625 -0.0005087364 0.011863459 -0.12897131 0.058020245
0.1043068 0.08805245 0.07429028 0.06607781 0.095675714 0.09354041 0.11497523 -0.062484805
0.09600379 -0.039742667 0.09138255 0.08604528 -0.114582494 -0.092866056 -0.12289539 -0.06445915
0.07873606 0.060804058 0.13333769 -0.10152093 0.012105138 0.13290173 -0.1110503 -0.12825033
0.020130385 -0.08140686 0.057742972 -0.06041591 0.055334955 -0.12911707 0.13146006 -0.10860927
-0.14716254 -0.04495303 -0.006986119 0.144759 0.026135102 -0.052843913 -0.12177632 0.044537745
0.035505425 -0.065375 -0.035053506 0.016783794 0.09192889 -0.11532839 -0.030191764 0.09590823
00000000: b22a 173e 7cb7 6cbc 4295 383d 7e2e 163c
00000010: 0894 253e 7334 4a3d cd9c 893d 59c6 d5bc
00000020: 801c c8ba b7e4 eabc 46b9 2c3d 65c5 18bd
00000030: b95c 05ba f45e 423c 0e11 04be a3a6 6d3d
00000040: ce9e d53d d854 b43d 8125 983d ce53 873d
00000050: a1f1 c33d 1d92 bf3d 2278 eb3d 11f0 7fbd
00000060: a39d c43d 35c9 22bd c626 bb3d 8238 b03d
00000070: 3aaa eabd 8f30 bebd 94b0 fbbd 2903 84bd
00000080: 5f40 a13d ad0d 793d ad89 083e 35ea cfbd
00000090: a154 463c 6417 083e 576e e3bd 0e54 03be
000000a0: 7ae8 a43c a4b8 a6bd e583 6c3d ac76 77bd
000000b0: e8a6 623d 4437 04be 779d 063e 896e debd
000000c0: c7b1 16be ab20 38bd d0eb e4bb b43b 143e
000000d0: 4819 d63c dc72 58bd dd65 f9bd 366d 363d
000000e0: 236e 113d 54e3 85bd 4494 0fbd 2b7e 893c
000000f0: 3745 bc3d 4a31 ecbd b854 f7bc 896b c43d
