Self project/models/nn/raw/SR/model.pt (torch, 54492 bytes, 9 tensors)

net.0.weight f4 [64, 3]
0	0x3ee28622	0.4424296
1	0xbeb17b54	-0.34664404
2	0xbe8b597a	-0.27216703
3	0x3e15cab9	0.14628114
4	0x3e18a2ce	0.14905855
5	0x3f0eb0a4	0.5573828
6	0xbe810634	-0.25200045
7	0x3e6a9cca	0.22911373
8	0xbefad36c	-0.48989427
9	0x3ebb10d7	0.36536285
10	0x3e98caa6	0.29842108
11	0xbdc16555	-0.09443156
12	0x3f020023	0.5078146
13	0x3eff146c	0.49820268
14	0xbe818c63	-0.2530242
15	0xbf13f86b	-0.5780093
16	0x3e53ca21	0.20682575
17	0xbf0b1320	-0.5432606
18	0x3d79e02b	0.0610048
19	0x3d17cd15	0.037060816
20	0x3e623e03	0.22093968
21	0x3e93c274	0.28859293
22	0xbe9d8fba	-0.30773717
23	0x3d136a20	0.03598988
24	0xbeb1243c	-0.34597957
25	0x3ecdc529	0.40189484
26	0x3ea6c12a	0.32569247
27	0x3f12d90c	0.5736244
28	0x3f067ad7	0.5253119
29	0x3e7d1a21	0.24716999
30	0x3ed61ca5	0.4181873
31	0x3d5b9f4c	0.053618714
32	0xbee52da3	-0.4476138
33	0xbe8421c5	-0.25807014
34	0xbe7d8f76	-0.24761757
35	0xbe707147	-0.23480712
36	0xbec37974	-0.381786
37	0xbf273fed	-0.6533192
38	0x3e96b7d2	0.2943712
39	0xbef3dc84	-0.47629178
40	0xbf1d0799	-0.6133972
41	0x3e66c84d	0.22537346
42	0xbf14e9db	-0.58169335
43	0x3dac9013	0.084259175
44	0xbdd0640e	-0.10175334
45	0x3ed467c0	0.41485405
46	0x3f16a301	0.58842474
47	0x3ea45d39	0.32102373
48	0xbefed222	-0.49769694
49	0xbdb7745f	-0.08957743
50	0x3eb52014	0.35376036
51	0xbefb4e47	-0.49083158
52	0xbf1874a8	-0.59553003
53	0xbf104405	-0.5635379
54	0xbf170499	-0.5899139
55	0x3db9e13c	0.09076163
56	0xbe8a61aa	-0.27027637
57	0x3e4f7fd3	0.20263605
58	0xbead77c9	-0.3388045
59	0xbe323127	-0.17401563
60	0x3c3a358c	0.011365306
61	0x3f2708b9	0.65247685
62	0x3dacf482	0.08445074
63	0xbf006b4c	-0.5016372
64	0x3ed4f49a	0.41592866
65	0x3c07ea8e	0.008295668
66	0x3f0878c8	0.533093
67	0x3be561fd	0.0070002065
68	0xbf035f0a	-0.51316893
69	0x3d66091b	0.056161027
70	0xbeb619f7	-0.35566685
71	0xbedaf960	-0.42768383
72	0x3d6abbe7	0.057308104
73	0x3e5b544a	0.21418872
74	0xbe9bf3a2	-0.30459315
75	0xbe71271e	-0.23550078
76	0xbe9748e8	-0.2954781
77	0x3f030e15	0.5119336
78	0x3e0d97db	0.1382746
79	0xbe054571	-0.13014771
80	0xbeb0328b	-0.3441356
81	0xbe80025d	-0.25001803
82	0xbd756c9c	-0.05991803
83	0x3d62952d	0.055318046
84	0xbe8d418d	-0.27589074
85	0xbe962136	-0.29322213
86	0xbefeee41	-0.49791148
87	0x3f17467b	0.5909192
88	0xbe2ac4fe	-0.16676709
89	0x3f1216ff	0.5706634
90	0xbd44dc97	-0.048061933
91	0xbdfa0abe	-0.1220908
92	0xbe99e758	-0.30059314
93	0xbd0acff9	-0.033889744
94	0xbd503b5e	-0.050837867
95	0x3e33a915	0.17544968
96	0xbe8fbf3b	-0.28075585
97	0x3efaca0b	0.48982272
98	0x3db5addb	0.08871051
99	0xbe56febb	-0.2099561
100	0xbf02a7c7	-0.5103726
101	0x3dba8f4d	0.09109364
102	0xbd522c69	-0.051311884
103	0xbddbd65c	-0.10734245
104	0xbf1859f4	-0.5951226
105	0x3e98248a	0.29715377
106	0x3e13b3d1	0.14424063
107	0x3ed6e478	0.41971183
108	0xbeb235e8	-0.34806752
109	0x3ea63a72	0.32466465
110	0x3f0a8c23	0.5412008
111	0x3e659c62	0.22422937
112	0x3f073964	0.52821946
113	0xbf017f7c	-0.5058515
114	0x3ed4a396	0.41531056
115	0xbe10aa25	-0.14127405
116	0x3e91258c	0.28348958
117	0x3f027e71	0.50974184
118	0x3e292798	0.1651901
119	0x3dd76b87	0.10518556
120	0x3e992b45	0.29915825
121	0x3f197d06	0.59956396
122	0xbecc940b	-0.39956698
123	0x3f23e562	0.64021885
124	0x3e461faf	0.19348024
125	0x3ed50408	0.41604638
126	0xbe0c9a53	-0.13730745
127	0xbe74104b	-0.2383434
128	0xbe635675	-0.2220095
129	0xbe30e11b	-0.17273371
130	0xbf0b5b49	-0.54436165
131	0x3f04f475	0.5193551
132	0x3e4da34f	0.20081829
133	0xbf2891ab	-0.6584727
134	0x3ededc21	0.4352732
135	0xbed1a2fc	-0.4094466
136	0xbe5b37f8	-0.21408069
137	0x3f1c38b5	0.6102403
138	0xbdd4ac56	-0.10384433
139	0x3ea1a6a7	0.31572458
140	0x3e8a8cb0	0.2706046
141	0xbca36d0e	-0.019949462
142	0xbf20b382	-0.6277391
143	0x3edcaa5c	0.43098724
144	0xbeb876cf	-0.36028144
145	0xbefe8e0c	-0.49717748
146	0xbe51189f	-0.20419548
147	0x3eeae96c	0.45881212
148	0xbe28197d	-0.16415973
149	0x3e8f744b	0.28018412
150	0xbccf52e2	-0.025308076
151	0xbebab649	-0.36467198
152	0x3de38501	0.11109353
153	0x3f0c5040	0.5480995
154	0x3f105d89	0.56392723
155	0x3da29053	0.07937684
156	0x3dd133c4	0.10214952
157	0x3eca960c	0.39567602
158	0xbe6073e0	-0.21919203
159	0xbd5e6413	-0.054294657
160	0x3eb6e4e6	0.3572151
161	0x3efb562e	0.49089187
162	0x3de601fe	0.11230849
163	0xbc81022d	-0.015748108
164	0xbf1de5b3	-0.6167862
165	0xbdb874ce	-0.09006654
166	0xbedba7a8	-0.4290135
167	0xbd0c9ee8	-0.034331232
168	0xbd502ef2	-0.05082602
169	0x3e3838b5	0.17990382
170	0x3f34a767	0.70567936
171	0x3d88704b	0.06662043
172	0x3def258a	0.11677082
173	0xbeeaf76c	-0.45891893
174	0xbefa6a73	-0.4890934
175	0xbf15ad4c	-0.58467555
176	0x3e4e2df5	0.20134719
177	0x3c1805a6	0.00927869
178	0x3edf5300	0.4361801
179	0x3ee19e49	0.44066074
180	0xbd0e300c	-0.03471379
181	0xbe75923d	-0.23981567
182	0x3ec9bf41	0.39403728
183	0xbf126fe4	-0.5720198
184	0xbdb4a78e	-0.08821021
185	0x3e6441e9	0.22290768
186	0xbf226b9c	-0.6344545
187	0x3ec0c2ab	0.3764852
188	0xbe1a4bd4	-0.15067989
189	0x3ee2a664	0.4426757
190	0xbe1c6aa0	-0.15275049
191	0xbee93589	-0.45548657

net.0.bias f4 [64]
0	0x3ea5b478	0.3236425
1	0xbea4b87c	-0.32172
2	0xbee4719e	-0.44617933
3	0xbe93c157	-0.28858444
4	0x3ecfb908	0.40570855
5	0x3e377e62	0.17919305
6	0x3ef3720d	0.4754795
7	0xbe493dde	-0.19652507
8	0x3ced2daa	0.028952438
9	0xbdbdfe3c	-0.09277007
10	0x3f15ea9f	0.5856113
11	0x3d934faf	0.07192933
12	0xbefc9d5c	-0.49338806
13	0x3dafe829	0.08589203
14	0xbefeefb9	-0.4979227
15	0x3e087f2b	0.1332976
16	0x3e2ff336	0.17182621
17	0xbeb85178	-0.35999656
18	0xbf092117	-0.53566116
19	0xbd26bcf0	-0.04070753
20	0xbeafb0ae	-0.34314483
21	0x3f1a0259	0.6015983
22	0xbe853ac0	-0.26021385
23	0xbe3d9cb2	-0.18516806
24	0x3ee59250	0.4483819
25	0xbae8137b	-0.0017706001
26	0x3c8d6c43	0.017263537
27	0xbf2dfd3b	-0.67964524
28	0x3e406546	0.18788633
29	0x3eda3611	0.42619374
30	0xbf22bc71	-0.6356879
31	0x3f0f0f0b	0.5588233
32	0x3ed9f02e	0.42566055
33	0x3e9463cd	0.28982392
34	0xbdd3cdc6	-0.103419825
35	0xbd62c786	-0.05536606
36	0x3f19b297	0.6003813
37	0x3e960125	0.29297748
38	0xbed4f4f6	-0.4159314
39	0xbeaa44b4	-0.3325554
40	0x3ef96521	0.48709968
41	0xbe85c35d	-0.26125613
42	0xbe987aaf	-0.297811
43	0xbed40e5e	-0.4141721
44	0x3e6272a4	0.22114044
45	0x3c33b7f6	0.010969153
46	0x3f15cc0a	0.58514464
47	0xbe8007ad	-0.25005856
48	0x3e832acf	0.25618598
49	0xbeedfdb8	-0.46482635
50	0xbee9c0c7	-0.4565489
51	0xbed920ee	-0.42407936
52	0xbc0287ad	-0.007966918
53	0x3e35c213	0.17749815
54	0x3e9488eb	0.2901071
55	0x3f180287	0.59378856
56	0x3e89e218	0.26930308
57	0x3d3f9d00	0.046780586
58	0x3e9266bd	0.28594008
59	0xbf2273c1	-0.63457876
60	0x3f16ce17	0.5890822
61	0xbefb943c	-0.4913653
62	0x3ed9b34c	0.42519605
63	0xbeaed7f6	-0.3414914

net.2.weight f4 [64, 64]
0	0x3e2483c4	0.1606589
1	0x3e061054	0.13092166
2	0x3d898855	0.067154564
3	0x3d2f039a	0.042728044
4	0xbd8dc0ca	-0.06921537
5	0x3c8a9d60	0.016920745
6	0x3d4514eb	0.048115652
7	0x3d1d1a6c	0.038355276
8	0x3dcdc8e8	0.100480855
9	0x3daa3b59	0.08312101
10	0xbbdba3fa	-0.006702897
11	0xbda2206e	-0.07916342
12	0x3e3d0024	0.18457085
13	0x3e227518	0.1586498
14	0xbe61d515	-0.2205394
15	0xbdf278d6	-0.11839454
16	0x3d72f793	0.059318136
17	0x3cfe712d	0.031059826
18	0xbdce8f36	-0.10085909
19	0x3da2735a	0.07932158
20	0xbde72893	-0.11287036
21	0x3db050d5	0.086091675
22	0xbd336912	-0.043801375
23	0x3d7f46a5	0.06232323
24	0xbccc5306	-0.024941932
25	0xbdbf60d3	-0.0934464
26	0x3d9d8528	0.07691413
27	0x3ef7445c	0.48294342
28	0xbab1a57c	-0.0013553347
29	0x3dd1d9a4	0.1024659
30	0x3e94a860	0.2903471
31	0xbd008aef	-0.031382497
32	0xbd4217cf	-0.047385987
33	0x3d022019	0.031768892
34	0xbd0ca5d3	-0.03433783
35	0xbdf0c6e4	-0.117566854
36	0xbd49b046	-0.049240373
37	0xbda08024	-0.07836941
38	0xbdae7b7c	-0.085196465
39	0xbbd1506b	-0.0063877604
40	0x3d89de1b	0.067318164
41	0xbcfbd92e	-0.030743208
42	0x3d79a41e	0.06094753
43	0xbd867c21	-0.065666445
44	0x3c9ff407	0.019525541
45	0x3befbe66	0.0073163984
46	0x3d191d86	0.03738167
47	0x3e2b3b49	0.16721834
48	0x3df2bdd3	0.11852612
49	0xbcd91438	-0.026498899
50	0x3ebf7f3e	0.37401766
51	0x3dc62e2a	0.09676774
52	0x3e01745e	0.12642047
53	0x3d8152d8	0.06314629
54	0xbd4a164d	-0.049337674
55	0x3dfcad27	0.12337714
56	0x3cb81874	0.022472598
57	0x3dac20f5	0.084047236
58	0x3db3e03c	0.08783004
59	0x3cdbb1c8	0.026818171
60	0x3d40e205	0.04709055
61	0xbcecfc4d	-0.0289289
62	0x3df98677	0.1218385
63	0x3dba8993	0.091082714
64	0xbdda8332	-0.10669555
65	0x3d7ed83c	0.062217936
66	0x3dce6cbe	0.10079335
67	0xbd84d5b8	-0.06486076
68	0xbde006de	-0.1093881
69	0x3d862326	0.06549673
70	0x3c6932d0	0.014233306
71	0x3dd1b802	0.10240175
72	0x3d56f1d8	0.052476734
73	0x3dc356ac	0.09538016
74	0xbdd63346	-0.104589984
75	0xbd1ccd08	-0.03828147
76	0xbdf337fc	-0.118759125
77	0x3c9e5d68	0.019331649
78	0x3da8e7f8	0.082473695
79	0xbdb4c434	-0.08826485
80	0x3da97cdc	0.08275768
81	0xbde06ea0	-0.109586
82	0x3dacaa00	0.084308624
83	0xbdd5e930	-0.104448676
84	0xbdc743d6	-0.097297356
85	0xbd820c48	-0.06349999
86	0x3d116634	0.03549786
87	0xbde7d422	-0.11319758
88	0x3d72436c	0.05914633
89	0xbdf05058	-0.11734074
90	0xbc24f540	-0.010068238
91	0xbd23d484	-0.039997593
92	0xbcbed3d8	-0.023294374
93	0xbda49c16	-0.080375835
94	0x3df95c80	0.12175846
95	0x3debee28	0.11520034
96	0xbdff6a10	-0.12471402
97	0xbc8f97e8	-0.01752849
98	0xbdc66efc	-0.09689137
99	0xbdd90720	-0.10597062
100	0xbd2cf38c	-0.042224452
101	0x3da2163c	0.07914397
102	0xbdecf8be	-0.11570881
103	0x3ded25a4	0.11579445
104	0x3de19826	0.11015348
105	0x3d562358	0.0522798
106	0x3dbfca6a	0.09364779
107	0x3ca727d0	0.020404726
108	0x3d7cc79c	0.0617138
109	0x3d843afa	0.064565614
110	0xbde464d0	-0.11152041
111	0x3d033438	0.03203222
112	0xbb950b60	-0.004548475
113	0xbdf744d4	-0.12073675
114	0x3dc6bd66	0.09704094
115	0xbd216cfc	-0.039410576
116	0x3c8d2dc0	0.01723373
117	0xbd811d90	-0.06304467
118	0x3da3209c	0.07965204
119	0x3bff1660	0.0077846497
120	0xbd409054	-0.047012642
121	0xbd65b578	-0.056081265
122	0x3d005b24	0.03133692
123	0xbde03fe6	-0.10949688
124	0x3d596d68	0.053082854
125	0xbdd86e16	-0.10567872
126	0xbda0f006	-0.07858281
127	0x3c8c2068	0.017105296
128	0xbd89cf3c	-0.0672898
129	0x3d25c080	0.040466785
130	0xbda4b49a	-0.080422595
131	0xbd267c00	-0.0406456
132	0x3d4cc084	0.049988285
133	0x3d853024	0.06503323
134	0xbcec0b48	-0.028813973
135	0x3d303fa4	0.043029442
136	0xbdc775fa	-0.09739299
137	0xbcce0ae8	-0.025151685
138	0x3da03498	0.078225315
139	0xbc328c70	-0.010897741
140	0xbddfe4c2	-0.10932304
141	0xbc477780	-0.012174487
142	0xbc98f4d0	-0.018671423
143	0x3d2fbb3c	0.04290317
144	0xbcd46878	-0.02592872
145	0xbdb0937c	-0.086218804
146	0x3cca6398	0.024705693
147	0x3dbce326	0.092230126
148	0xbcf2d9b8	-0.029644832
149	0x3d1455dc	0.036214694
150	0x3caa47c8	0.020786181
151	0x3ca1cde8	0.019751504
152	0xbc9b2238	-0.018937215
153	0xbbfbdd60	-0.007686302
154	0xbdf69f22	-0.12042071
155	0x3d97cf84	0.07412627
156	0xbd99816c	-0.074953884
157	0xbdc76450	-0.0973593
158	0xbd99aa2e	-0.07503162
159	0x3d126abc	0.03574632
160	0xbccdf3c8	-0.025140658
161	0xbd95f870	-0.07322776
162	0x3d8e511c	0.06949064
163	0xbd7baf84	-0.06144668
164	0xbdb32e98	-0.087491214
165	0x3d76a908	0.060219795
166	0xbd5607f4	-0.05225368
167	0xbda829c6	-0.08211093
168	0xbd1abbd0	-0.03777677
169	0xbd7acc54	-0.06123002
170	0x3abe8a00	0.0014536977
171	0xbd5d5760	-0.054038405
172	0x3b8d4f00	0.004312396
173	0xbbfd0260	-0.0077212304
174	0x3db02224	0.08600262
175	0x3da025cc	0.07819709
176	0xbd790344	-0.06079413
177	0x3d438154	0.04773076
178	0xbde3e784	-0.111281425
179	0xbdc89cda	-0.09795542
180	0xbdaeae82	-0.085293785
181	0xbd5b4b70	-0.05353874
182	0xbdf43006	-0.11923222
183	0x3d95083c	0.07276961
184	0x3dd6da92	0.10490908
185	0xbdc762de	-0.09735654
186	0xbdea0f2c	-0.11428675
187	0xbd1a2268	-0.03763047
188	0x3dc814da	0.09769602
189	0x3d0b044c	0.033939645
190	0x3be7da20	0.007075563
191	0x3df46514	0.119333416
192	0x3e17788d	0.1479208
193	0xbdb4858d	-0.08814535
194	0xbd416876	-0.047218762
195	0xbde937c3	-0.11387589
196	0xbd0429b9	-0.032266352
197	0x3d1bcab2	0.038035102
198	0x3d5e1e2c	0.054227993
199	0x3da0beac	0.07848868
200	0xbdb00e00	-0.0859642
201	0xbe8b2c06	-0.27182025
202	0xbd83b557	-0.06431072
203	0x3d1612ef	0.03663915
204	0xbdbe71c5	-0.092990436
205	0x3df2e8b3	0.1186079
206	0xbe1d938b	-0.15388314
207	0xbd875f09	-0.066099234
208	0x3c468a0e	0.012117876
209	0x3ddc9e4c	0.1077238
210	0xbc9867ea	-0.018604238
211	0x3dfd79a0	0.12376714
212	0xbe084077	-0.13305841
213	0x3dc00946	0.09376769
214	0x3e031aa9	0.12803139
215	0x3dbcd4ab	0.09220251
216	0x3dc6e212	0.09711088
217	0x3e0e85ba	0.139182
218	0x3d0ba99b	0.034097295
219	0x3ea13bb7	0.3149087
220	0x3e0d69f4	0.13809949
221	0xbe0453e3	-0.12922625
222	0xbca2edc6	-0.01988877
223	0xbd9569bf	-0.0729556
224	0xbd77d183	-0.06050254
225	0x3de60b69	0.11232645
226	0xbd18c38e	-0.03729587
227	0x3d7a0144	0.061036363
228	0x3e063a94	0.13108283
229	0xbd5ae595	-0.053441603
230	0xbe7b4768	-0.24538958
231	0xbe443269	-0.19159855
232	0xbdbe66fa	-0.09296985
233	0xbe1c3345	-0.15253933
234	0x3da81eab	0.082089745
235	0x3d3436b4	0.04399748
236	0x3d38b754	0.04509671
237	0x3c8f92f1	0.017526122
238	0xbd63a94f	-0.055581387
239	0x3d2b43f0	0.041812837
240	0x3db1ed2e	0.086878166
241	0x3bd1bdc6	0.0064007966
242	0x3e2c0e7e	0.16802403
243	0xbea62309	-0.32448605
244	0xbc3877ab	-0.011259
245	0x3c39ec60	0.01134786
246	0x3dfed45e	0.124428496
247	0xbc0259e5	-0.007956003
248	0xbd892168	-0.06695825
249	0x3df1b7b8	0.1180262
250	0x3e1f3af3	0.15549831
251	0xbe655723	-0.22396521
252	0xbd662267	-0.056185152
253	0x3cddee1f	0.027091084
254	0x3a55442d	0.0008135464
255	0x3e00f638	0.12593925

net.2.bias f4 [64]
0	0x3cd8de7e	0.02647328
1	0xbcbaffa0	-0.02282697
2	0xbdfdc8b6	-0.12391798
3	0xbc35feab	-0.011108081
4	0x3d95c183	0.073123
5	0xbd3de033	-0.04635639
6	0xbd2ef5a8	-0.042714745
7	0x3c78d0ea	0.015186528
8	0xbde38259	-0.11108846
9	0x3db248ef	0.08705317
10	0xbd0ba2aa	-0.034090675
11	0x3dc21568	0.09476739
12	0x3d8891b7	0.06668418
13	0xbc39369b	-0.011304523
14	0x3d56a6e2	0.052405246
15	0x3d576e73	0.052595567
16	0x3dfea577	0.12433904
17	0x3d5f4c2b	0.054516
18	0xbd77c999	-0.060494993
19	0x3e336f0f	0.17522834
20	0x3d5236b1	0.05132169
21	0x3c361236	0.01111274
22	0x3e0056b6	0.12533078
23	0x3991fc66	0.00027844607
24	0x3e017be3	0.12644915
25	0x3b332824	0.0027337158
26	0x3bdf2863	0.0068102344
27	0x3d889aa8	0.06670123
28	0x3cedfece	0.029052164
29	0x3c7f842b	0.015595476
30	0x3ddd540c	0.10807046
31	0x3d94a614	0.072582394
32	0xbdabab9c	-0.08382341
33	0x3e3172bf	0.17328928
34	0xbd68904b	-0.056778233
35	0xbd9a399d	-0.0753052
36	0x3d9cc179	0.076540895
37	0x3e0a7024	0.13519341
38	0x3ccc0f13	0.024909532
39	0xbd475ec6	-0.048674367
40	0xbdc3ee6a	-0.09566958
41	0x3d1dea71	0.03855366
42	0x3d945114	0.07242027
43	0xbc325897	-0.010885379
44	0xbd6523a4	-0.055942193
45	0xbd4a2e73	-0.049360704
46	0x3df2c78e	0.11854468
47	0x3dc11170	0.09427154
48	0xbdaa6828	-0.083206475
49	0x3d401887	0.04689839
50	0xbdb59e62	-0.088681
51	0x3da4f961	0.08055378
52	0xbcd8158f	-0.026377467
53	0xbd9426d9	-0.07233972
54	0x3c2df40b	0.010617266
55	0xbd9a0f38	-0.07522434
56	0xbe02fe1a	-0.12792245
57	0xbd1169f8	-0.03550145
58	0xbdb0bd5a	-0.08629866
59	0x3e02562a	0.12728181
60	0x3d6ea63e	0.05826401
61	0x3db06db7	0.086146764
62	0xbe017e4d	-0.12645836
63	0xbe158b44	-0.14603907

net.4.weight f4 [64, 64]
0	0xbe1869dc	-0.14884132
1	0xbdf224a0	-0.11823392
2	0xbd52e780	-0.051490307
3	0x3d02cac9	0.031931672
4	0x3d882430	0.06647527
5	0x3cef2a4f	0.029194979
6	0xbdff2c1c	-0.12459585
7	0x3daddbac	0.08489165
8	0x3de562f6	0.11200516
9	0x3db084e9	0.086191006
10	0xbddb0616	-0.1069452
11	0xbdbcbc47	-0.092155986
12	0xbda6e3ae	-0.08148895
13	0x3e93152b	0.28727087
14	0xbd69950e	-0.057026915
15	0x3db0ac23	0.086265825
16	0x3dd93320	0.106054544
17	0x3d8a9078	0.067658365
18	0x3d7036d3	0.058646034
19	0x3c96183d	0.018322105
20	0xbe32d13d	-0.1746263
21	0xbd9ba293	-0.07599368
22	0x3dcafa7e	0.09911059
23	0x3dae3664	0.08506468
24	0xbe07e7b6	-0.13271984
25	0x3d04edc2	0.032453306
26	0x3dc9218e	0.09820853
27	0x3eb157c0	0.3463726
28	0x3d7b37fd	0.06133269
29	0x3e028155	0.12744649
30	0x3d06c758	0.032904953
31	0xbdd63fdc	-0.10461399
32	0x3d1893da	0.037250377
33	0xbce53602	-0.027979854
34	0x3c3caa36	0.011515191
35	0xbe8a7cc0	-0.27048302
36	0xbdf3f793	-0.119124554
37	0x3d4fc0a2	0.05072082
38	0xbd73608c	-0.059418246
39	0xbd6548d0	-0.055977643
40	0x3d8c15d4	0.06840101
41	0xbcc87121	-0.024468007
42	0xbd509e10	-0.05093199
43	0x3dd34841	0.10316516
44	0x3c86ede0	0.01647085
45	0xbe76c482	-0.240984
46	0x3b8c4f29	0.0042818976
47	0x3e4fe1e3	0.20301013
48	0xbd8c1e7a	-0.068417504
49	0xbd9680e8	-0.07348806
50	0x3d800e5b	0.06252738
51	0xbde80c97	-0.11330526
52	0x3d935154	0.071932465
53	0xbdd9856c	-0.10621151
54	0xbd49025a	-0.04907451
55	0xbdd26f3f	-0.10275125
56	0x3e93472f	0.28765246
57	0xbdd0445d	-0.10169289
58	0x3e0b6bee	0.1361539
59	0x3d829ca9	0.06377537
60	0xbd99f72e	-0.07517849
61	0x3d5fcf10	0.05464083
62	0x3dcce1c9	0.100040026
63	0x3e487887	0.19577228
64	0xbdcb93ad	-0.09940276
65	0x3c220e20	0.009891063
66	0x3ccf0880	0.025272608
67	0xbd8d5805	-0.06901554
68	0xbd98c233	-0.074589156
69	0xbd912ace	-0.070882425
70	0x3c3cc550	0.011521652
71	0xbcf146b7	-0.029452665
72	0xbdb55458	-0.08853978
73	0x3d997a2f	0.07494008
74	0x3d1a7bea	0.03771583
75	0x3dbd9dcd	0.09258614
76	0xbe097d51	-0.1342671
77	0x3c96a16e	0.018387523
78	0x3dba1e20	0.09087777
79	0xbde4bf9a	-0.111693576
80	0x3da31e37	0.079647474
81	0xbdb5ca0b	-0.08876427
82	0x3d8b9d81	0.06817151
83	0xbd4b2f8b	-0.049605887
84	0x3c9e67fd	0.019336695
85	0xbdcd0ea6	-0.100125596
86	0xbc8d15d5	-0.017222324
87	0xbd2cc178	-0.042176694
88	0x3dbf6362	0.09345128
89	0xbdd2e621	-0.102978
90	0x3d6df5d6	0.058095776
91	0xbdc02df2	-0.093837634
92	0xbcea7f89	-0.028625267
93	0xbdcd49d0	-0.10023844
94	0x3d97fece	0.07421647
95	0xbc0748b4	-0.00825708
96	0x3d105a82	0.035242565
97	0x3c142988	0.009043105
98	0xb90d0400	-0.00013448298
99	0x3ca491a8	0.020088986
100	0xbd8c2a04	-0.06843951
101	0xbd76498d	-0.060128737
102	0xbd63f312	-0.05565173
103	0xbdb0cd36	-0.08632891
104	0x3d9fe8e4	0.07808092
105	0xbde79c7c	-0.11309144
106	0x3c94b2b8	0.018151626
107	0x3bc49880	0.0059996247
108	0xbd0080b0	-0.031372726
109	0xbcb60d28	-0.02222307
110	0x3c9766f6	0.018481713
111	0xbd49f2a4	-0.049303666
112	0xbdbdf80e	-0.09275828
113	0x3da01e44	0.07818273
114	0xbd0cdde3	-0.034391295
115	0xbdd9c60a	-0.10633476
116	0xbdcc4ada	-0.09975214
117	0x3d5eb0e0	0.0543679
118	0xbe0d9d8e	-0.13829634
119	0xbc5b9afb	-0.013403649
120	0x3dd7050e	0.10499011
121	0xbdc52b98	-0.096274555
122	0x3da9b394	0.08286205
123	0x3d70ad46	0.058758996
124	0x3d3f09ef	0.046640333
125	0x3d77bf0c	0.06048493
126	0xbd7eb223	-0.062181603
127	0x3d044389	0.03229097
128	0xbda94962	-0.0826595
129	0x3df8cbda	0.121482566
130	0x3c1b1b60	0.009466976
131	0x3c1ca890	0.009561673
132	0x3dc4fe1a	0.096187785
133	0xbd7e3a68	-0.06206742
134	0xbddea7ba	-0.10871835
135	0xbdb077be	-0.08616589
136	0x3d38515c	0.044999465
137	0x3d9a5522	0.07535769
138	0x3d31a03c	0.043365702
139	0xbd67d460	-0.05659902
140	0x3cc00d20	0.023443758
141	0xbdf11bb0	-0.11772859
142	0x3995fc00	0.0002860725
143	0xbaba7400	-0.0014225245
144	0xbd552e0c	-0.052045867
145	0xbddd77f2	-0.108138934
146	0xbd88c452	-0.0667807
147	0xbd0ee8b4	-0.03488989
148	0x3a89b780	0.0010506958
149	0xbbd31460	-0.006441638
150	0x3d514d4c	0.051099107
151	0xbdb77c06	-0.089592025
152	0x3d0bf644	0.034170404
153	0xbdff717a	-0.12472816
154	0x3d60f2bc	0.05491899
155	0xbd92123a	-0.07132383
156	0x3cf89e28	0.030348852
157	0xbb3e2f80	-0.0029020011
158	0xbcace378	-0.02110456
159	0x3dca6adc	0.09883663
160	0x3d77579c	0.060386285
161	0xbde4efde	-0.111785635
162	0x3db3706e	0.08761679
163	0x3c9a5cb0	0.018843025
164	0x3d50d088	0.05098012
165	0x3c2bb850	0.010480955
166	0x3dfc34ea	0.1231478
167	0x3d86e632	0.06586875
168	0xbc808818	-0.015689895
169	0xbdec4258	-0.115360916
170	0x3d8a4c78	0.067528665
171	0xbdeb0352	-0.11475243
172	0x3d876e1c	0.066127986
173	0x3cac8ad0	0.021062285
174	0x3d44907c	0.047989354
175	0x3d1ace2c	0.037794277
176	0xbdc2b802	-0.09507753
177	0xbd55cdf0	-0.05219835
178	0xbcddee08	-0.027091041
179	0xbdf07e74	-0.11742869
180	0x3daab9fe	0.083362564
181	0xbd75eaac	-0.060038254
182	0xbd728598	-0.059209436
183	0xbd3ce0c8	-0.046112806
184	0x3d88a9cc	0.06673011
185	0xba26d400	-0.0006363988
186	0x3d610fe0	0.05494678
187	0x3d849c44	0.06475118
188	0xbb1ff9c0	-0.0024410337
189	0x3dcbcc2c	0.09951052
190	0x3d7a3a30	0.06109065
191	0x3d92fbb2	0.07176913
192	0x3e14f769	0.14547504
193	0x3d4db470	0.050220907
194	0x3dcfb382	0.1014166
195	0x3cceb184	0.02523113
196	0xbc9732c5	-0.018456826
197	0xbb812309	-0.003940944
198	0xbd802cba	-0.06258531
199	0x3e0e2843	0.13882546
200	0x3d0132f8	0.03154275
201	0xbb9a49a2	-0.0047084847
202	0xbb60b8f8	-0.0034289937
203	0x3dd3cb1b	0.10341474
204	0x3cc883f8	0.02447699
205	0xbe385360	-0.18000555
206	0x3d136cce	0.035992436
207	0xbe20568c	-0.15658015
208	0xbe0e04ae	-0.13868973
209	0x3e1f51c2	0.15558532
210	0xbdb525c1	-0.088450916
211	0x3dddc694	0.108288914
212	0x3deb8727	0.11500388
213	0x3dae5b37	0.085134916
214	0x3d1544f9	0.03644273
215	0xbe147e8f	-0.14501403
216	0x3e162308	0.14661801
217	0xbe8cbdf7	-0.27488682
218	0x3d09d50e	0.03365045
219	0xbd91d705	-0.0712109
220	0x3e04bda3	0.12962966
221	0xbd68c179	-0.056825135
222	0x3c65ee4e	0.014033867
223	0x3d25161f	0.0403043
224	0xbe0e8a31	-0.13919903
225	0x3d48c8d6	0.049019657
226	0x3e0f94c9	0.14021601
227	0x3e9144f6	0.28372926
228	0xbd25336c	-0.040332243
229	0xbdc3d473	-0.09562006
230	0x3e39a6c2	0.1813002
231	0xbdbb7284	-0.091527015
232	0x3df1dae0	0.11809325
233	0x3cda35c0	0.026636958
234	0x3dc11e7b	0.09429642
235	0xbc7b0f91	-0.015323536
236	0x3dc52444	0.09626058
237	0xbd70d7b0	-0.058799446
238	0x3dc6a45e	0.09699319
239	0xbd418edb	-0.04725538
240	0x3d19531c	0.037432775
241	0xbd12a301	-0.035799984
242	0xbd7d14f4	-0.06178756
243	0x3d53a425	0.051670212
244	0xbe3f1177	-0.18659006
245	0x3c2da48b	0.010598312
246	0xbd124d34	-0.035718158
247	0xbd1090fb	-0.035294514
248	0xbd5585a6	-0.05212941
249	0x3daaf399	0.08347244
250	0xbe0e5f63	-0.13903575
251	0x3c9ef3d6	0.01940338
252	0xbd83108e	-0.06399642
253	0x3c1476f5	0.009061565
254	0xbe14da84	-0.14536482
255	0x3d79ec19	0.061016176

net.4.bias f4 [64]
0	0x3d99d136	0.07510607
1	0xbcc37e01	-0.023863794
2	0xbd76dd64	-0.06026973
3	0x3d9023ce	0.07038079
4	0x3d9529c7	0.07283359
5	0xbe650aa5	-0.22367342
6	0xbd6a8fd3	-0.057266068
7	0xbdca98c2	-0.098924175
8	0xbd2c78a0	-0.042107224
9	0x3e40794e	0.18796274
10	0xbe0ccbfa	-0.13749686
11	0xbe088501	-0.13331987
12	0x3c76ad79	0.015056008
13	0x3d9edd74	0.077570826
14	0x3dd9dbad	0.10637603
15	0x3d163bf4	0.03667827
16	0x3e092e4d	0.13396569
17	0x3d71abe8	0.059001833
18	0x3d975f5c	0.07391235
19	0xbd065e9e	-0.032805078
20	0xbddd3579	-0.10801215
21	0x3db45b97	0.08806532
22	0xbc148734	-0.009065438
23	0xbde6b1ca	-0.11264379
24	0x3db7a999	0.08967895
25	0xbd087cb5	-0.033322055
26	0x3d07aa30	0.033121288
27	0x3e0e2531	0.13881375
28	0x3db7642d	0.08954654
29	0xbb2110b3	-0.0024576604
30	0xbbc8a1c0	-0.0061227977
31	0x3c90ae93	0.017661368
32	0xbc7960d1	-0.015220837
33	0xbd022353	-0.03177197
34	0x3e129d58	0.14317834
35	0xbe4479f8	-0.19187152
36	0x3a51f200	0.0008008778
37	0xbd7f390c	-0.062310264
38	0x3da7b5b2	0.081889525
39	0xbd84896a	-0.06471522
40	0x3dd40b38	0.10353702
41	0xbdb552bc	-0.08853671
42	0xbdc8fe80	-0.09814167
43	0x3dcd6762	0.10029484
44	0xbc1c76e3	-0.009549829
45	0x3e34486d	0.17605753
46	0xbdbd998a	-0.09257801
47	0x3da4debf	0.08050298
48	0x3d0780b4	0.033081725
49	0x3dbfb42d	0.09360538
50	0xbd883525	-0.066507615
51	0x3cd243bb	0.025667062
52	0x3c2d6aa4	0.010584507
53	0xbdedad37	-0.11605304
54	0xbca052ed	-0.019570792
55	0xbd8c5e2b	-0.068538986
56	0x3d84c420	0.064827204
57	0x3dc31cd8	0.09526986
58	0xbbf4f9c9	-0.007476066
59	0xbce6ce6b	-0.0281746
60	0x3d95a5e7	0.07307034
61	0x3d2464a9	0.04013506
62	0x3d2903ce	0.041263394
63	0xbd4aeb5e	-0.04954087

net.6.weight f4 [64, 64]
0	0x3e3d458c	0.18483561
1	0xbc7491dd	-0.014927355
2	0x3de49404	0.11161044
3	0x3dbf919f	0.09353947
4	0x3db8b75e	0.090193495
5	0x3d1a96d8	0.037741512
6	0x3e400ea0	0.18755579
7	0xbb3cf59d	-0.002883292
8	0x3d021622	0.03175939
9	0xbe497b7d	-0.19676013
10	0x3df1456a	0.11780818
11	0xbeff3fd2	-0.4985338
12	0xbf0a59ad	-0.54043084
13	0xbd28fdaf	-0.041257557
14	0x3e3570af	0.17718767
15	0xbcc6bc7d	-0.0242598
16	0xbd1c1259	-0.038103435
17	0x3dfd1f38	0.1235947
18	0xbc865134	-0.016396143
19	0x3de48c03	0.111595176
20	0x3eb420d7	0.35181305
21	0xbde11300	-0.10989952
22	0x3e52b7a8	0.20577872
23	0x3dcbaff0	0.09945667
24	0xbe0c49c7	-0.13700019
25	0xbd62b776	-0.055350743
26	0x3e3c25d9	0.18373813
27	0xbdb0590c	-0.08610734
28	0xbe13710a	-0.1439859
29	0x3e544f73	0.20733432
30	0x3d431ef0	0.047636926
31	0x3cefd0bf	0.029274343
32	0x3ca887a8	0.020572498
33	0x3dd347be	0.10316418
34	0x3e126c11	0.14299037
35	0xbe116cd4	-0.14201671
36	0x3e26692a	0.16251054
37	0x3dd9f1a6	0.10641794
38	0x3de25afd	0.11052511
39	0xbd9e733e	-0.077368245
40	0xbdbaa707	-0.09113889
41	0xbbea3ada	-0.007148129
42	0x3e07e4c4	0.13270861
43	0x3e31b42d	0.17353888
44	0x3e80df10	0.25170183
45	0xbdf0fb5d	-0.11766694
46	0xbd2a0628	-0.041509777
47	0xbd324c4e	-0.0435298
48	0x3f27642e	0.6538724
49	0xbd9d32ac	-0.076756805
50	0x3e253a76	0.16135582
51	0x3d84b47e	0.06479739
52	0x3e1c9e33	0.15294723
53	0xbe27509b	-0.16339342
54	0xbd98b872	-0.07457055
55	0x3d513412	0.05107505
56	0x3bd478e5	0.0064841383
57	0xbce6e8d6	-0.028187197
58	0x3ba4bfcb	0.0050277463
59	0xbc472a20	-0.0121560395
60	0x3dce6006	0.10076909
61	0x3e006099	0.12536849
62	0x3e000f12	0.12505749
63	0xbd8613f5	-0.06546775
64	0xbdc66607	-0.09687429
65	0xbdda75e4	-0.10667017
66	0xbbd4ef60	-0.0064982623
67	0xbca0a108	-0.019608036
68	0x3dc6db40	0.09709787
69	0x3dbd31bf	0.09238004
70	0x3e9cfe6d	0.3066286
71	0x3e287413	0.16450529
72	0xbc52a09a	-0.012855673
73	0xbd9b57f4	-0.07585135
74	0x3e51136f	0.2041757
75	0xbe9a61cd	-0.3015274
76	0xbf14f377	-0.58184
77	0xbda9a347	-0.08283096
78	0x3e9fdf95	0.31225267
79	0xbc6888d2	-0.014192777
80	0x3d99eeb9	0.07516236
81	0xbdec845a	-0.115486816
82	0xbde2be91	-0.11071504
83	0x3e1052a6	0.14094028
84	0x3e9bfeaf	0.30467746
85	0xbb968db0	-0.004594527
86	0x3d873cb4	0.06603375
87	0x3db4f812	0.08836378
88	0xbda0b8ff	-0.07847785
89	0xbd7cbeec	-0.061705515
90	0x3e1365b1	0.14394261
91	0xbd171a80	-0.036890507
92	0xbcace694	-0.021106042
93	0x3db3fc2b	0.087883316
94	0xbdba762a	-0.09104569
95	0xbe1ae7ff	-0.15127562
96	0x3cb7a9be	0.022419807
97	0xbdaba72d	-0.083814956
98	0xbddae644	-0.10688451
99	0xbe685572	-0.22688845
100	0x3dc1a564	0.09455374
101	0xbc69495d	-0.014238683
102	0x3d977c15	0.07396714
103	0xbdf9eb36	-0.12203066
104	0xbdc4d67c	-0.09611222
105	0x3d5de623	0.054174554
106	0x3d40e5a2	0.047093995
107	0x3e291c3f	0.16514681
108	0x3e8b6104	0.27222455
109	0xbd700a72	-0.05860371
110	0xbc9db3df	-0.019250808
111	0xbdf38cc4	-0.11892083
112	0x3f1e208d	0.6176842
113	0x3d6de9be	0.058084242
114	0x3c462b7b	0.0120953275
115	0x3ddcba60	0.10777736
116	0x3de7059a	0.11280365
117	0xbda4312d	-0.08017192
118	0xbe3a961a	-0.18221322
119	0xbb1ec5bf	-0.0024226753
120	0x3b9a013e	0.004699855
121	0x3da8348c	0.082131475
122	0x3dabec16	0.08394639
123	0xbda6bee1	-0.08141876
124	0x3d7601e4	0.060060397
125	0x3d7c9627	0.061666634
126	0x3d24fe41	0.040281538
127	0x3dcc3f6e	0.09973036
128	0xbbfa8fe0	-0.007646546
129	0x3dffe44e	0.124947175
130	0xbd2e3568	-0.0425314
131	0x3d94addc	0.072597235
132	0x3afe2380	0.0019389242
133	0xbd45fa50	-0.04833442
134	0x3dc04f6a	0.09390147
135	0xbddbf9cc	-0.10741004
136	0xbc9bc649	-0.019015448
137	0x3c8d2ea3	0.017234152
138	0xbc8f4890	-0.017490655
139	0xbd8cfb66	-0.06883888
140	0xbd00bce8	-0.031430155
141	0x3da8f020	0.08248925
142	0xbc46f270	-0.012142763
143	0xbd71f2a6	-0.0590693
144	0xbd65f971	-0.05614609
145	0xbdce8517	-0.100839786
146	0x3d8a63b1	0.06757296
147	0xbdfaaf87	-0.122405104
148	0xbd57758c	-0.052602336
149	0x3c49f2a7	0.012325919
150	0x3dea6530	0.11445081
151	0xbdd1b952	-0.10240425
152	0x3c0b8c8a	0.008517394
153	0xbdc68cdd	-0.09694836
154	0x3da5e5e4	0.08100489
155	0x3dad3075	0.08456508
156	0x3d8b6ac1	0.06807471
157	0xbd822948	-0.0635553
158	0xbdc5719c	-0.0964081
159	0xbd934f38	-0.07192844
160	0xbd51d2e8	-0.051226526
161	0x3d444baf	0.04792374
162	0xbcea8478	-0.02862762
163	0x3dddf012	0.108368054
164	0xbdf16d40	-0.11788416
165	0x3bbbf540	0.005736023
166	0xbdddf37a	-0.10837455
167	0xbdf25c74	-0.1183404
168	0xbdcb6dbd	-0.0993304
169	0x3c670050	0.014099196
170	0xbdfa41ea	-0.12219603
171	0xbc7f0510	-0.015565172
172	0xbd62aad0	-0.05533868
173	0xbd9f449b	-0.07776757
174	0x3ddfa1a4	0.109195024
175	0xbd683e62	-0.056700118
176	0xbdf63488	-0.12021738
177	0x3db03d24	0.08605412
178	0xbe0857c0	-0.13314724
179	0xbc8723f1	-0.01649663
180	0xbdd7b5a9	-0.10532696
181	0x3d809bca	0.062797144
182	0x3d0e7092	0.034775324
183	0xbcc31c15	-0.023817101
184	0xbd39ef49	-0.045394216
185	0xbdc94920	-0.098284006
186	0xbdc56241	-0.09637881
187	0x3d444c58	0.04792437
188	0xbdb46596	-0.088084385
189	0xbd5c9f74	-0.053863004
190	0x3dc06cdd	0.09395764
191	0xbde9ee4a	-0.11422403
192	0xbbd657bc	-0.0065412205
193	0xbd23f0d8	-0.04002461
194	0x3d81450e	0.06311999
195	0xbd9b3caa	-0.0757993
196	0x3dcb6bea	0.09932692
197	0x3d7e6a6d	0.062113214
198	0xbdbdbe4e	-0.09264813
199	0x3d79b375	0.06096216
200	0xbd882374	-0.06647387
201	0xbd61ce8d	-0.055128623
202	0xbd5926e0	-0.05301559
203	0x3e461810	0.19345117
204	0x3ca924a0	0.020647347
205	0xbc7d979c	-0.015478041
206	0xbd8d837e	-0.06909846
207	0x3e249e71	0.16076066
208	0xbdd1b4a0	-0.102395296
209	0x3dcf0b0a	0.101095274
210	0xbe3342f4	-0.1750601
211	0xbd32f0ad	-0.043686558
212	0x3e827de2	0.25486666
213	0xbd12b5ef	-0.035818037
214	0xbce7c4f5	-0.028292159
215	0x3d586934	0.052834705
216	0xbeac91bc	-0.33704937
217	0x3dbd2b7a	0.09236808
218	0xbdadba92	-0.08482851
219	0x3bb5b844	0.005545648
220	0xbda42bcf	-0.08016168
221	0x3ddeff3d	0.108885266
222	0xbde6611e	-0.112489924
223	0x3b4fd118	0.0031710323
224	0xbd6ac1c4	-0.057313696
225	0x3de5d9a4	0.11223152
226	0xbd998061	-0.074951895
227	0xbe915532	-0.2838531
228	0x3d01ea4e	0.03171759
229	0xbbde06a0	-0.006775692
230	0xbd9e9832	-0.07743873
231	0xbdbcfb56	-0.09227626
232	0xbdad192e	-0.08452068
233	0x3ccf4400	0.02530098
234	0x3dc893d3	0.0979382
235	0xbdb4e07d	-0.0883188
236	0x3da85d89	0.082209654
237	0x3d8372be	0.0641837
238	0x3c94e418	0.01817517
239	0xbd8fc8cd	-0.070207216
240	0xbdd4d56b	-0.10392269
241	0xbd37cc00	-0.044872284
242	0xbdc4d46a	-0.09610827
243	0x3d835796	0.0641319
244	0x3ddef1bc	0.10885951
245	0x3db6c772	0.0892476
246	0xbd9f1379	-0.07767386
247	0xbd3216d5	-0.043478806
248	0xbbef586a	-0.007304241
249	0xbc99ec6d	-0.018789494
250	0x3def9d59	0.116999336
251	0xbded5414	-0.11588302
252	0x3df1dacf	0.118093126
253	0x3d3c7778	0.04601237
254	0x3e27cb30	0.16386104
255	0xbce175d9	-0.027522014

net.6.bias f4 [64]
0	0xbd59175d	-0.053000797
1	0x3c8d37f6	0.017238598
2	0xbc004316	-0.0078284945
3	0xbded6782	-0.11592008
4	0xbda8f176	-0.0824918
5	0x3ca3f852	0.02001587
6	0x3d28b6f1	0.04119009
7	0xbd825b6f	-0.06365096
8	0x3cc44b4a	0.023961682
9	0xbbec2a66	-0.0072072027
10	0x3daadd61	0.08343006
11	0xbd961a90	-0.07329285
12	0xbdde90aa	-0.10867436
13	0x3cfeacc6	0.031088244
14	0xbda9b5ac	-0.08286604
15	0xbcad2ae3	-0.021138614
16	0xbd833d4a	-0.06408174
17	0xbd97871a	-0.073988155
18	0xbe556e3a	-0.2084283
19	0xbd8058f6	-0.06266968
20	0x3de0e610	0.10981381
21	0x3d0bc0ba	0.034119345
22	0xbd87c94a	-0.0663019
23	0x3dfa6f75	0.1222829
24	0xbdd39121	-0.103304155
25	0xbd803c98	-0.06261557
26	0x3dbfb06d	0.093598224
27	0xbda911a2	-0.08255316
28	0xbd6a2122	-0.057160504
29	0x3dc7fb3b	0.09764715
30	0xbd0b1182	-0.033952244
31	0x3daacb6f	0.08339583
32	0x3dcecaed	0.10097299
33	0xbdc482fa	-0.09595294
34	0xbcc3b640	-0.023890615
35	0x3e147f65	0.14501722
36	0xbd6e3645	-0.058157224
37	0xbdde690c	-0.1085988
38	0x3dc5c667	0.09656983
39	0xbe05bca8	-0.13060248
40	0x3c7d775f	0.015470355
41	0xbd65b44d	-0.05608015
42	0xbe00f900	-0.12594986
43	0xbd7ed820	-0.06221783
44	0x3d103415	0.03520592
45	0x3d877e8c	0.06615934
46	0x3cd40640	0.025881886
47	0xbdc2daab	-0.09514364
48	0xba9fd195	-0.0012193198
49	0xbcb50fb0	-0.022102207
50	0x3dc739fd	0.09727857
51	0xbd6d57e0	-0.057945132
52	0xbd0cc851	-0.034370724
53	0x3d695a28	0.056970745
54	0xbd51539c	-0.051105127
55	0xbdcdbdab	-0.10045942
56	0x3d9c5600	0.07633591
57	0x3dd91813	0.10600295
58	0x3d2f846f	0.042850908
59	0xbd0883cc	-0.033328816
60	0xbdc93fe5	-0.0982664
61	0xbc96101e	-0.018318232
62	0x3d60c521	0.054875497
63	0xbdd5e767	-0.10444527

net.8.weight f4 [1, 64]
0	0x3e5a1304	0.21296316
1	0x3e066415	0.13124116
2	0x3d5c508c	0.053787753
3	0x3e573ddf	0.21019696
4	0x3e3ac8ed	0.1824071
5	0x3e739a64	0.23789364
6	0x3e13cf89	0.14434637
7	0x3df8349f	0.12119412
8	0x3e87e109	0.26538876
9	0x3e438103	0.19092183
10	0xbe1a9bdf	-0.15098523
11	0xbeadddb0	-0.33958197
12	0xbdd9de54	-0.10638109
13	0x3ea6987a	0.32538205
14	0x3e35e2c5	0.17762287
15	0xbe566c0a	-0.20939651
16	0x3e96fd87	0.294903
17	0x3da01b98	0.07817763
18	0xbf0086c6	-0.5020565
19	0x3e813139	0.25232866
20	0xbe470613	-0.19435911
21	0x3e119694	0.14217597
22	0xbd7a5350	-0.06111461
23	0xbe2153a6	-0.15754566
24	0x3eb57ae5	0.35445324
25	0xbc3eab00	-0.011637449
26	0xbe085087	-0.13311969
27	0xbd1f914c	-0.038956925
28	0x3dd27d67	0.10277825
29	0x3e194d9e	0.14971015
30	0xbe58cc1c	-0.21171612
31	0x3eeed408	0.46646142
32	0xbe4098b2	-0.18808249
33	0xbe7d5564	-0.24739605
34	0x3e97d145	0.29651847
35	0xbe491374	-0.19636327
36	0x3e8a68c1	0.27033046
37	0x3ef4f1c8	0.47840714
38	0x3e7679a7	0.24069844
39	0xbc97d83c	-0.018535726
40	0xbd207a8d	-0.039179374
41	0xbee2d9ef	-0.44306895
42	0x3c702fe8	0.014659859
43	0x3e4e2d23	0.20134406
44	0xbd31d0df	-0.043412086
45	0xbe087b66	-0.13328323
46	0x3e587797	0.2113937
47	0x3d8fddf7	0.07024758
48	0xbd9dc263	-0.07703092
49	0xbc6a4820	-0.0142994225
50	0xbe56de74	-0.20983297
51	0xbe3594a6	-0.17732486
52	0x3e1023c9	0.14076151
53	0x3e172577	0.14760385
54	0xbcbbc82b	-0.022922596
55	0xbd13b6fb	-0.036063176
56	0xbe055201	-0.13019563
57	0xbe8860fa	-0.26636487
58	0x3e499d57	0.19688927
59	0xbe14d1e9	-0.145332
60	0x3dc88c3f	0.09792375
61	0x3e17b563	0.14815287
62	0x3e20f57f	0.1571865
63	0xbd302eb8	-0.043013304
