Self project/models/nf/nf_halo_omega/flow_state.pt (torch, 34805 bytes, 14 tensors)

0.unnormalized_widths f4 [4, 8]
1.3899796 0.81323963 0.22266278 -0.19098334 1.0586445 -0.7299545 0.68631446 -0.85034084
-1.2159152 1.1849436 -0.856259 -1.593364 0.24316138 -2.235826 0.04145156 1.4266561
1.7798349 -0.022089075 -0.4376287 0.2577565 -0.1557646 1.2465041 0.5442667 1.415662
0.86272776 0.86310595 0.10893148 0.8942094 -1.5589513 1.5962386 -0.043865573 1.1101894
00000000: daea b13f 7930 503f b601 643e 2391 43be
00000010: aa81 873f 4cde 3abf 4eb2 2f3f f0af 59bf
00000020: 1ca3 9bbf 3bac 973f ca33 5bbf 5af3 cbbf
00000030: 4cff 783e c617 0fc0 1cc9 293d ab9c b63f
00000040: a1d1 e33f 26f4 b4bc de10 e0be a9f8 833e
00000050: c180 1fbe 728d 9f3f 1055 0b3f 6a34 b53f
00000060: badb 5c3f 83f4 5c3f 7817 df3d e8ea 643f
00000070: b78b c7bf 8c51 cc3f 63ac 33bd b01a 8e3f

0.unnormalized_heights f4 [4, 8]
-0.30213484 2.180311 2.4586003 2.4879217 -0.99861974 -2.6511357 -1.8735315 -2.910039
-1.243696 1.3095126 -0.5659076 -0.3468154 -0.7810745 1.5958472 0.18569724 1.06236
-0.8044949 -0.48489597 -0.12094435 0.4600256 -0.0052396134 1.1194773 -0.62334603 -0.6113095
-1.2379534 0.28450736 0.26521915 0.9112698 0.7072498 1.3510624 -1.325716 1.1926702
00000000: 6bb1 9abe 378a 0b40 b559 1d40 1c3a 1f40
00000010: 8ba5 7fbf 35ac 29c0 e1cf efbf 143e 3ac0
00000020: 6e31 9fbf 1c9e a73f 52df 10bf ca91 b1be
00000030: 80f4 47bf b944 cc3f 6b27 3e3e 6afb 873f
00000040: 61f3 4dbf 4944 f8be acb1 f7bd 7a88 eb3e
00000050: 10b1 abbb 084b 8f3f 9b93 1fbf c87e 1cbf
00000060: 4275 9ebf f3aa 913e ceca 873e fa48 693f
00000070: 530e 353f 9def ac3f 10b1 a9bf 6ba9 983f

0.unnormalized_derivatives f4 [4, 7]
-3.6448736 2.4951305 5.6800513 2.0592344 -1.0504816 1.1284226 -3.6320143 1.2779956
-0.17219013 0.9531925 -1.1452956 0.5404753 -0.8739513 13.952769 -0.41295788 -0.9601537
1.1675801 2.323603 1.8256412 1.3982952 1.8103012 -1.6350673 0.034682244 -1.8922268
-1.8533905 3.0000134 5.507493 0.46929252
00000000: 9c45 69c0 38b0 1f40 fbc2 b540 7fca 0340
00000010: 2e76 86bf 2770 903f ec72 68c0 5c95 a33f
00000020: 9c52 30be 6c04 743f 0c99 92bf 975c 0a3f
00000030: 46bb 5fbf 8b3e 5f41 376f d3be a2cc 75bf
00000040: 4473 953f e9b5 1440 9cae e93f 56fb b23f
00000050: f3b7 e73f e349 d1bf f80e 0e3d 7d34 f2bf
00000060: e63b edbf 3800 4040 623d b040 1c47 f03e

0.unnormalized_lambdas f4 [4, 8]
-1.4839057 1.0125288 5.124103 1.5351233 3.01048 2.0056496 -0.25096256 -0.5316378
0.57818556 0.06003934 0.28456348 -0.273754 0.7752268 -0.23098865 1.984079 0.16118515
0.063555725 0.2965238 2.8645303 -0.84964585 -0.9470012 1.0770602 1.0380156 0.72863454
-0.24810474 0.9762485 1.1797383 -0.64824647 2.4250493 -2.2467132 0.9278943 0.31454045
00000000: 9ff0 bdbf 8b9a 813f a7f8 a340 ec7e c43f
00000010: b4ab 4040 905c 0040 2a7e 80be 6a19 08bf
00000020: f803 143f d0eb 753d 4eb2 913e 7c29 8cbe
00000030: 4375 463f 4a88 6cbe 4df6 fd3f b80d 253e
00000040: 8129 823d f8d1 973e 7754 3740 6482 59bf
00000050: ac6e 72bf 1cdd 893f b2dd 843f cb87 3a3f
00000060: 2b0f 7ebe 6ceb 793f aa01 973f 7bf3 25bf
00000070: 0234 1b40 26ca 0fc0 7b8a 6d3f 720b a13e

1.nn.layers.0.weight f4 [40, 2]
0.10712129 -0.46722576 0.124369845 -0.5332343 -0.057080325 0.083970115 0.15475163 0.018488342
0.30208355 -0.41507208 -0.0072941617 -0.05446088 -0.026772022 -0.6377801 0.024305355 -0.24658321
0.10495168 0.179359 0.13212924 -0.29601732 0.24305604 0.1480635 0.10831973 -0.38399604
0.020008732 -0.06583815 -0.08056951 0.50931275 0.02723207 -0.16355872 -0.009703235 -0.100064255
0.01968274 -0.21229285 -0.21838407 -0.27791533 -0.38235533 0.027880767 0.23052731 -0.35093486
-0.011775472 0.08105384 0.15231767 -0.16860583 0.023845753 0.20564611 -0.085025795 0.7788706
-0.08308045 0.60334384 -0.04046839 -0.12641986 -0.00074442744 0.42904857 0.05788965 0.11342287
0.010318279 -0.042220116 0.044832572 0.013147452 -0.2821788 -0.23358175 0.13751195 0.11461235
-0.0022431565 -0.30513456 -0.15290752 -0.40458396 -0.09526816 0.12321167 0.13732435 0.27725956
-0.11947447 -0.43485835 -0.0006166063 1.0444287 0.012649676 -0.06235331 0.01906238 -0.09989274
00000000: 6862 db3d 3738 efbe 9eb5 fe3d 0b82 08bf
00000010: 0fcd 69bd 86f8 ab3d 3677 1e3e dd74 973c
00000020: b2aa 9a3e 5484 d4be dd03 efbb 5f12 5fbd
00000030: 0051 dbbc 8e45 23bf 061c c73c 4f80 7cbe
00000040: e8f0 d63d e3a9 373e e34c 073e 958f 97be
00000050: afe3 783e f59d 173e bcd6 dd3d 219b c4be
00000060: 5ae9 a33c 27d6 86bd a101 a5bd 5262 023f
00000070: ca15 df3c f07b 27be 51fa 1ebc 7dee ccbd
00000080: b33d a13c 4c63 59be 13a0 5fbe eb4a 8ebe
00000090: 14c4 c3be 3566 e43c 5a0f 6c3e bcad b3be
000000a0: e9ed 40bc 8eff a53d 2af9 1b3e 02a7 2cbe
000000b0: 2b58 c33c e594 523e 0122 aebd 1064 473f
000000c0: 1526 aabd be74 1a3f 2fc2 25bd 3574 01be
000000d0: ae25 43ba 41ac db3e b31d 6d3d 404a e83d
000000e0: 000e 293c 00ef 2cbd 5ca2 373d 6968 573c
000000f0: bd79 90be 0e30 6fbe efcf 0c3e e1b9 ea3d
00000100: ec01 13bb 993a 9cbe ca93 1cbe a125 cfbe
00000110: f41b c3bd 6656 fc3d c19e 0c3e f7f4 8d3e
00000120: 08af f4bd c1a5 debe c0a3 21ba d7af 853f
00000130: 9640 4f3c 2f66 7fbd b528 9c3c 9194 ccbd

1.nn.layers.0.bias f4 [40]
-0.57691896 0.21168956 -0.38530076 -0.49750978 -0.94835603 -0.0761122 0.6033623 -0.23547575
-0.782662 -0.7863376 -0.8387759 0.23790817 -0.09175143 0.4805916 -0.13460961 -0.0692218
-0.20488471 -0.48386794 -0.85880667 -1.0262078 -0.12896287 -0.60771763 -0.46096477 -0.04713941
0.24741487 -0.581956 -0.6894797 -0.10787554 -0.21014959 -0.07358257 -0.49307317 -0.9019273
-0.2461091 -0.56896913 -0.3621841 -0.891803 0.03799313 -0.12385541 0.0072167614 -0.17348762
00000000: f6b0 13bf 26c5 583e 2446 c5be 9ab9 febe
00000010: 76c7 72bf b7e0 9bbd f475 1a3f 8e20 71be
00000020: 895c 48bf 6c4d 49bf 04ba 56bf 339e 733e
00000030: 2ce8 bbbd 1a10 f63e 1ad7 09be 29c4 8dbd
00000040: 4ccd 51be 8abd f7be c1da 5bbf c75a 83bf
00000050: d80e 04be 6293 1bbf 9303 ecbe 4115 41bd
00000060: 535a 7d3e 12fb 14bf be81 30bf daed dcbd
00000070: 7431 57be 75b2 96bd 1674 fcbe b5e4 66bf
00000080: 0604 7cbe f6a7 11bf 3270 b9be 344d 64bf
00000090: af9e 1b3d e8a7 fdbd 957a ec3b bda6 31be

1.nn.layers.1.weight f4 [4, 40]
-0.023520492 -0.12322935 0.057763044 -0.14340132 -0.23437051 0.08400763 -0.023028748 0.03366988
-0.10670303 -0.23775333 -0.09645939 -0.17844139 0.09882405 0.23424348 0.13445567 0.032627884
-0.02908944 1.4991645 -2.205235 -0.5916964 0.005709511 -2.1268115 -0.0027152859 0.1886619
0.44348088 0.019179767 -0.14932021 -0.117743485 0.1325518 -0.06792358 0.7328627 -0.07304478
-0.2322294 -0.00649829 0.12621403 -0.094626315 -0.11108552 -0.2818159 -0.11870617 -0.06654864
0.014934438 -0.15726721 0.015933845 0.02158798 0.00027180454 0.12672135 -0.24219763 -0.01872844
0.03297613 -0.07684458 -0.00028430467 -0.111263014 -0.0033724983 0.1008437 0.00016711598 -0.017006632
-0.03042596 0.02728367 0.010711654 0.019898659 -0.045174114 0.024271643 0.02500928 0.1580268
0.30586213 -0.044571083 -0.018356208 -0.002189463 -0.12200683 0.007915656 0.0024739902 -0.024493145
0.011384906 -0.006205459 0.0994993 0.0010427588 -0.11693802 0.6178253 -0.028134732 -0.0887996
-0.39693117 0.029513009 -0.016124092 -0.12095364 -0.5139333 0.020900654 0.37392884 -0.059902262
-0.14208582 0.088470176 -0.054750524 0.24013956 0.11017699 0.22337265 -0.061632257 0.03450402
0.092183195 -0.41184184 0.04105186 -0.1657601 0.03572778 -2.7553177 -0.08067577 0.29022846
0.123459086 0.0061740573 0.07048743 -0.18851683 -0.14766054 0.041253008 -0.49560258 0.103846654
0.07416145 -0.13709243 -0.027372526 -0.05462551 0.13270758 0.06525194 0.21687436 -0.06606321
0.055634186 -0.2606097 0.12541553 0.15206309 0.01975124 0.14147873 -0.34793997 -0.065976985
0.24517995 0.062494062 0.14666313 -0.23688625 -0.003975041 0.09309498 0.005039855 -0.055360697
-0.069244586 0.050359927 0.029077291 -0.040247824 0.02745181 0.024697836 0.13505419 -0.6695824
-0.4296605 -0.22430314 0.05257438 -0.027688673 -0.08037267 0.07694618 -0.028498748 0.10978963
0.03256331 -0.02792043 0.25929654 0.18017629 -0.20226346 -0.23499885 -0.09198195 -0.112401016
00000000: 0cae c0bc ab5f fcbd f198 6c3d ccd7 12be
00000010: d3fe 6fbe 310c ac3d c9a6 bcbc 6ee9 093d
00000020: 1e87 dabd 9c75 73be 808c c5bd 57b9 36be
00000030: 4364 ca3d 86dd 6f3e bfae 093e d1a4 053d
00000040: fa4c eebc 9fe4 bf3f 9222 0dc0 6a79 17bf
00000050: da16 bb3b ae1d 08c0 f0f2 31bb 9630 413e
00000060: ed0f e33e e31e 9d3c 66e7 18be 7f23 f1bd
00000070: a9bb 073e 851b 8bbd e49c 3b3f 8098 95bd
00000080: 8bcd 6dbe 9cef d4bb 403e 013e 71cb c1bd
00000090: ce80 e3bd 2c4a 90be 381c f3bd a74a 88bd
000000a0: 93af 743c a80a 21be b287 823c 47d9 b03c
000000b0: fd80 8e39 3ec3 013e a802 78be 636c 99bc
000000c0: fa11 073d b160 9dbd ba0e 95b9 dddd e3bd
000000d0: 2205 5dbb 2487 ce3d db3b 2f39 7e51 8bbc
000000e0: dd3f f9bc 0182 df3c ef7f 2f3c 8302 a33c
000000f0: 7e08 39bd 53d5 c63c 43e0 cc3c c7d1 213e
00000100: f699 9c3e 2b90 36bd c25f 96bc 187d 0fbb
00000110: b8de f9bd abb0 013c ab22 223b d9a5 c8bc
00000120: c287 3a3c 2a57 cbbb 4ac6 cb3d 2ead 883a
00000130: 337d efbd cd29 1e3f cf7a e6bc 91dc b5bd
00000140: 903a cbbe 44c5 f13c ac16 84bc 8bb6 f7bd
00000150: 2291 03bf d937 ab3c 9a73 bf3e 135c 75bd
00000160: f27e 11be da2f b53d 1642 60bd 25e7 753e
00000170: 79a4 e13d cdbb 643e 1b72 7cbd 1654 0d3d
00000180: 8bca bc3d efdc d2be ff25 283d 04bd 29be
00000190: 4b57 123d 2057 30c0 5739 a5bd d398 943e
000001a0: 1ed8 fc3d bf4f ca3b b75b 903d 8e0a 41be
000001b0: 5334 17be eaf8 283d 9fbf fdbe 8ead d43d
000001c0: f5e1 973d f561 0cbe 593c e0bc 00bf 5fbd
000001d0: 7fe4 073e cfa2 853d 5014 5e3e 264c 87bd
000001e0: ace0 633d a26e 85be ee6c 003e 6db6 1b3e
000001f0: 5acd a13c cddf 103e 3025 b2be f11e 87bd
00000200: 7410 7b3e c6f9 7f3d dc2e 163e 4f92 72be
00000210: 1041 82bb 95a8 be3d 5e25 a53b e6c1 62bd
00000220: 1bd0 8dbd 3646 4e3d 8033 ee3c e7da 24bd
00000230: 9ee2 e03c 1e53 ca3c a54b 0a3e c169 2bbf
00000240: 76fc dbbe b9af 65be 3c58 573d 5bd3 e2bc
00000250: 6d9a a4bd f595 9d3d 3576 e9bc 63d9 e03d
00000260: 1b61 053d 63b9 e4bc 84c2 843e 2280 383e
00000270: 271e 4fbe 8aa3 70be 0861 bcbd 8132 e6bd

1.nn.layers.1.bias f4 [4]
0.017706353 -0.107526146 0.01726662 -0.043153975
00000000: ea0c 913c ab36 dcbd ba72 8d3c 39c2 30bd

2.nn.layers.0.weight f4 [40, 4]
0.43784264 0.22341442 0.033761945 -0.37314618 0.07937241 0.22243375 0.113799214 -0.35933352
-0.038633905 0.17572199 -0.23905322 0.21352538 -0.2730194 -0.0010989662 -0.31337097 0.061578654
0.14140269 0.26567918 -0.07201045 0.29157498 0.3593621 -0.23969418 -0.113268204 0.42579943
0.24121399 -0.3171037 0.17996126 -0.31868342 -0.23751613 -0.005411464 0.017603397 0.05351852
9.9961144e-05 0.40884605 0.090683535 -0.34914866 0.077935606 0.197181 0.33753473 -0.5692836
0.4158502 0.048730988 -0.22167395 -0.3285375 0.45215806 0.26704887 0.056223493 0.16086319
0.39614183 -0.0050776694 -0.11546108 0.23997155 -0.5890851 -0.45694482 -0.0538657 -0.006972669
0.13505733 -0.27041703 -0.11472793 0.26154104 -0.10951738 -0.44087547 0.055209715 0.26317036
0.27368262 0.39664885 -0.09856309 0.088912636 0.0797702 -0.000797312 -0.048767544 -0.039791275
0.4094222 0.5338485 -0.1330557 -0.6386318 -0.22706844 -0.32911325 0.11506785 0.28851712
0.35228613 0.09798372 -0.534862 -0.23243886 0.022636633 0.019186923 0.10921836 -0.34630227
-0.097403884 -0.10250451 -0.3947787 -0.866037 0.30384475 -0.5631192 0.0616837 0.27337834
0.06626857 0.09087062 -0.0094328085 0.12291435 0.35244948 -0.46241045 0.009709109 0.1367291
0.046768695 0.052575547 0.022628397 -0.1754117 0.14374495 0.3809391 0.1604221 -0.11680218
-0.5618383 -0.221074 0.02405418 0.25464013 -0.17700699 -0.08894242 -0.07511541 0.10334125
0.4059077 -0.14635205 0.06824807 0.25680694 0.33035946 -0.20217796 0.029682199 0.27545008
-0.1610803 0.106499046 -0.15338811 -0.40794286 0.20726602 0.020448899 0.11087762 0.43553907
0.43840647 0.20165502 -0.033849884 -0.54946893 -0.15789308 -0.34467915 -0.23630929 -0.1379446
-0.076675266 -0.32388872 0.02299802 -0.22667247 -0.3064242 0.014853965 0.44202825 -0.24331045
-0.21430181 0.44191623 -0.34706822 -0.1739045 0.5101501 -0.46626437 0.029510507 0.5842564
00000000: e92c e03e c0c6 643e f749 0a3d 040d bfbe
00000010: 018e a23d acc5 633e 900f e93d 90fa b7be
00000020: 963e 1ebd 77f0 333e 5eca 74be 66a6 5a3e
00000030: 33c9 8bbe 300b 90ba 2972 a0be e639 7c3d
00000040: decb 103e 1a07 883e 377a 93bd 5149 953e
00000050: 4ffe b73e 6472 75be 29f9 e7bd 6202 da3e
00000060: cd00 773e 6b5b a2be c447 383e 792a a3be
00000070: 6e37 73be a652 b1bb 0035 903c 3c36 5b3d
00000080: 3ba2 d138 4554 d13e 4ab8 b93d 9dc3 b2be
00000090: b49c 9f3d d1e9 493e 5ad1 ac3e 92bc 11bf
000000a0: 51ea d43e 259a 473d 7ffe 62be 1136 a8be
000000b0: 4381 e73e a1ba 883e 9b4a 663d 52b9 243e
000000c0: 1ad3 ca3e 9462 a6bb dc76 ecbd 1abb 753e
000000d0: 48ce 16bf acf4 e9be 48a2 5cbd fd7a e4bb
000000e0: 784c 0a3e 1a74 8abe 7af6 eabd b5e8 853e
000000f0: a64a e0bd 6eba e1be 9523 623d 44be 863e
00000100: 2120 8c3e 8f15 cb3e 72db c9bd d417 b63d
00000110: 8f5e a33d b402 51ba 7ac0 47bd 2dfc 22bd
00000120: c99f d13e 4caa 083f c13f 08be 607d 23bf
00000130: a184 68be 8881 a8be b1a8 eb3d 84b8 933e
00000140: d95e b43e b0ab c83d b7ec 08bf 7404 6ebe
00000150: 7670 b93c e52d 9d3c e0ad df3d 884e b1be
00000160: b07b c7bd e2ed d1bd 6f20 cabe 9ab4 5dbf
00000170: 8a91 9b3e 9428 10bf 0ca8 7c3d 3ff8 8b3e
00000180: d1b7 873d 601a ba3d 118c 1abc 85ba fb3d
00000190: 4274 b43e 10c1 ecbe f412 1f3c b702 0c3e
000001a0: 8890 3f3d 7559 573d 305f b93c 209f 33be
000001b0: e031 133e 730a c33e b145 243e fb35 efbd
000001c0: a3d4 0fbf 3961 62be 460d c53c 3160 823e
000001d0: 5241 35be 7227 b6bd 1cd6 99bd 94a4 d33d
000001e0: 22d3 cf3e 50dd 15be a5c5 8b3d 337c 833e
000001f0: e024 a93e bd07 4fbe 1528 f33c cb07 8d3e
00000200: 3cf2 24be 2c1c da3d c611 1dbe e3dd d0be
00000210: 8b3d 543e 7384 a73c ce13 e33d fafe de3e
00000220: d076 e03e a77e 4e3e 2da6 0abd ffa9 0cbf
00000230: b9ae 21be c979 b0be 10fb 71be 5941 0dbe
00000240: ec07 9dbd bed4 a5be 5866 bc3c d41c 68be
00000250: a2e3 9cbe 0b5e 733c 8751 e23e 6026 79be
00000260: ef71 5bbe d842 e23e edb2 b1be 0514 32be
00000270: 3299 023f 34ba eebe 05c0 f13c d491 153f

2.nn.layers.0.bias f4 [40]
-0.019777356 -0.05473593 -0.42621094 -0.17056952 -0.087177016 0.025205478 0.13407539 0.28407472
-0.4360551 -0.29037794 -0.6143391 -0.4176021 -0.3801438 -0.4526063 0.054850463 -0.009570216
-0.34474537 0.025864713 -0.63600814 -0.45697156 -0.33283028 -0.5353557 -0.6047422 -0.05410177
0.24265683 0.47635472 0.122318774 -0.41017568 -0.52259535 0.2881032 0.08246102 -0.046976246
0.017055979 -0.50658923 -0.07773088 0.20994474 -0.25254345 -0.26948628 -0.972663 -0.59963584
00000000: 1f04 a2bc c832 60bd 5238 dabe c7a9 2ebe
00000010: dd89 b2bd b87b ce3c 0f4b 093e 3e72 913e
00000020: 9d42 dfbe 6bac 94be 5445 1dbf f1cf d5be
00000030: 35a2 c2be 03bc e7be e1aa 603d 65cc 1cbc
00000040: 7782 b0be 3ce2 d33c 6ed1 22bf 2df8 e9be
00000050: bb68 aabe 120d 09bf 63d0 1abf d199 5dbd
00000060: 087b 783e c4e4 f33e 4482 fa3d 8c02 d2be
00000070: cfc8 05bf 4382 933e 53e1 a83d 2a6a 40bd
00000080: fbb8 8b3c d5af 01bf 5e31 9fbd c1fb 563e
00000090: 604d 81be 1bfa 89be 7100 79bf bc81 19bf

2.nn.layers.1.weight f4 [40, 40]
-0.0032286197 -0.098213926 -0.08537141 -0.0014202165 -0.22040917 0.04696174 -0.1702567 -0.14293544
0.06070146 0.12571956 -0.04321389 -0.06491667 -0.14297225 -0.14729834 -0.13845035 -0.101937376
0.032263994 -0.21384022 0.13805138 0.09919919 -0.21946649 -0.07552041 -0.0141859725 -0.03248602
-0.082988374 -0.0713909 0.061297484 -0.08838538 0.06535371 -0.055567916 0.03178434 0.12334968
-0.09181803 -0.09002108 -0.02557242 0.062467195 -0.18308897 0.03588876 -0.15539297 0.08289945
-0.222102 0.21997322 0.03159298 -0.1357544 0.11803483 -0.07040215 0.13169757 0.048226483
0.038731184 0.070646085 -0.2190245 0.1421465 -0.016679484 -0.11704911 -0.018030327 0.07797428
0.14636965 0.06463966 -0.1827442 -0.0941359 -0.51952624 0.2606877 -0.2214932 -0.10901385
-0.09970619 0.025772119 0.034977246 0.1049473 -0.076107174 0.12547725 0.1147406 0.10121927
0.07835338 0.11780676 -0.808819 0.23023643 0.15024827 -0.22438756 -0.5745794 -0.53117687
-0.051011533 -0.20135973 -0.03297618 0.044295963 -0.25051194 -0.03738284 -0.09223459 0.032853063
0.037705883 -0.22278297 0.07254223 0.12376735 0.0006036116 -0.0979055 -0.1283175 -0.0905962
-0.0075108614 0.018708192 0.19275439 0.08293994 -0.122738786 -0.009131937 -0.011691946 -0.22292046
-0.22232576 -0.16869299 0.034124173 -0.23264475 -0.1342718 0.042861287 0.0074463957 0.047018312
-0.16696501 -0.119706616 -0.013228816 0.081925556 0.045425057 -0.025649719 0.022626415 0.1667818
0.04793516 0.010003215 0.16893688 -0.27917448 -0.018103493 0.29950947 0.14667039 -0.015621973
-0.052936558 0.0036883792 0.18502235 -0.13209413 -0.066617 0.21693714 -0.14941001 0.17725195
0.037018612 0.088539355 -0.31204927 -0.26867738 -0.06970021 0.18343917 -0.033838917 -0.26141715
-0.050488703 0.20654713 0.14631714 -0.091912456 -0.16215669 -0.118931025 0.03810935 -0.34595856
-0.028472327 0.050313495 -0.1469567 0.016124723 0.05776703 -0.0126609085 -0.22709917 -0.38594103
-0.35548362 -0.08646024 0.06610875 0.048168417 -0.037858948 -0.03686617 -0.08961291 0.10158297
0.05518051 -0.73476523 -0.41657165 -0.24490647 -0.15927652 -0.21006337 -0.17887637 0.110510655
-0.11839119 0.1261561 -0.769332 -0.05496186 0.08567328 -0.03430658 0.02135736 -0.20429549
0.15889767 -0.14267878 -0.15972306 0.012647047 -0.0844088 0.029153258 -0.022113783 -0.18432513
-0.035719536 0.09459752 -0.015595946 0.09019937 0.050565295 0.1406856 -0.024746913 -0.6085888
-0.10485074 0.11549501 0.1251834 -0.043407075 -0.0049635735 0.009372136 0.2430618 -0.069082834
-0.24852346 -0.23850898 0.02986107 0.07617639 -0.18311481 -0.13909847 0.042892843 0.13969986
-0.037364613 -0.14305452 -0.67263734 -0.39939076 0.13801344 0.0137815345 0.34558237 -0.20675246
0.061222028 0.27142498 0.11346575 -0.14079544 -0.6080636 -0.05930768 0.11821931 0.1218679
0.22013214 0.029357681 -0.17484505 0.2149289 0.091573924 -0.09128719 0.5043443 -0.121777564
-0.14543897 0.045860894 0.032520305 -0.054187503 -0.07753152 -0.20586383 -0.09117526 0.06163107
-0.063995786 -0.060149487 -0.11257976 -0.13777564 0.022219677 -0.10305729 0.026367996 -0.107367754
00000000: 4097 53bb 6224 c9bd 35d7 aebd 8f26 baba
00000010: f1b2 61be f45a 403d c657 2ebe ab5d 12be
00000020: 18a2 783d a1bc 003e 0c01 31bd 08f3 84bd
00000030: 5167 12be 60d5 16be eec5 0dbe 8bc4 d0bd
00000040: 4027 043d eef8 5abe 575d 0d3e f228 cb3d
00000050: d3bb 60be 72aa 9abd 486c 68bc 1010 05bd
00000060: cff5 a9bd 6435 92bd 1213 7b3d 6503 b5bd
00000070: 2ad8 853d 2f9b 63bd 4c30 023d c29e fc3d
00000080: 170b bcbd f95c b8bd 407d d1bc 9add 7f3d
00000090: ad7b 3bbe 1800 133d 561f 1fbe 30c7 a93d
000000a0: b56e 63be a940 613e a467 013d 3403 0bbe
000000b0: 3fbc f13d 012f 90bd badb 063e 2289 453d
000000c0: 97a4 1e3d e5ae 903d f547 60be da8e 113e
000000d0: 6aa3 88bc 72b7 efbd 56b4 93bc fbb0 9f3d
000000e0: ede1 153e cc61 843d 4c21 3bbe 53ca c0bd
000000f0: acff 04bf dc78 853e 1dcf 62be a742 dfbd
00000100: c232 ccbd 0d20 d33c 4d44 0f3d 9cee d63d
00000110: 14de 9bbd 1c7d 003e 1ffd ea3d 0c4c cf3d
00000120: bd77 a03d ac44 f13d c30e 4fbf 19c3 6b3e
00000130: afda 193e dac5 65be a317 13bf 35fb 07bf
00000140: 78f1 50bd 3f31 4ebe 0812 07bd af6f 353d
00000150: 1a43 80be c01e 19bd 7de5 bcbd ef90 063d
00000160: 7c71 1a3d 3821 64be 0591 943d bd79 fd3d
00000170: b03b 1e3a ae82 c8bd aa65 03be 808a b9bd
00000180: ac1d f6bb ec41 993c 6861 453e 6adc a93d
00000190: 795e fbbd 1f9e 15bc 938f 3fbc 4345 64be
000001a0: 5da9 63be dbbd 2cbe cac5 0b3d 6d3a 6ebe
000001b0: 8c7e 09be 518f 2f3d e500 f43b 4696 403d
000001c0: e0f8 2abe be28 f5bd adbd 58bc 96c8 a73d
000001d0: a00f 3a3d 5c1f d2bc 085b b93c d9c8 2a3e
000001e0: a957 443d 86e4 233c cafd 2c3e f5ef 8ebe
000001f0: c74d 94bc 4e59 993e c330 163e 4ef3 7fbc
00000200: 01d4 58bd bcb8 713b 8076 3d3e af43 07be
00000210: 7e6e 88bd c524 5e3e f0fe 18be 8981 353e
00000220: d4a0 173d 1f54 b53d ecc4 9fbe 1590 89be
00000230: fcbe 8ebd 7ad7 3b3e ad9a 0abd 78d8 85be
00000240: 3ecd 4ebd 1781 533e 29d4 153e 993c bcbd
00000250: 670c 26be 1c92 f3bd 8d18 1c3d 7b21 b1be
00000260: cc3e e9bc 8615 4e3d d17b 16be ff17 843c
00000270: 1f9d 6c3d b36f 4fbc af8c 68be 109a c5be
00000280: f301 b6be 1112 b1bd 0664 873d 3f4c 453d
00000290: fc11 1bbd fb00 17bd f986 b7bd bb0a d03d
000002a0: f504 623d 9319 3cbf e148 d5be c3c8 7abe
000002b0: 6219 23be da1a 57be 5e2b 37be 6953 e23d
000002c0: 1577 f2bd 112f 013e f1f2 44bf b01f 61bd
000002d0: 7975 af3d 0e85 0cbd a1f5 ae3c d632 51be
000002e0: 12b6 223e 631a 12be 718e 23be 8f35 4f3c
000002f0: 85de acbd d0d2 ee3c f727 b5bc babf 3cbe
00000300: a64e 12bd 58bc c13d 2486 7fbc 73ba b83d
00000310: 8e1d 4f3d e30f 103e 0aba cabc 7acc 1bbf
00000320: fcbb d6bd a688 ec3d 1430 003e 9ecb 31bd
00000330: 79a5 a2bb 968d 193c 31e5 783e 4d7b 8dbd
00000340: ef7c 7ebe b33b 74be 349f f43c 5e02 9c3d
00000350: 7382 3bbe d46f 0ebe 68b0 2f3d 7b0d 0f3e
00000360: a30b 19bd e27c 12be f631 2cbf f27c ccbe
00000370: 6553 0d3e f2cb 613c 2cf0 b03e ebb6 53be
00000380: f3c3 7a3d 37f8 8a3e bb60 e83d ae2c 10be
00000390: 0eaa 1bbf 9cec 72bd f71c f23d e195 f93d
000003a0: 526a 613e 857f f03c 950a 33be 5216 5c3e
000003b0: 1c8b bb3d c7f4 babd b51c 013f 8466 f9bd
000003c0: f4ed 14be a2d8 3b3d 0334 053d b7f3 5dbd
000003d0: d8c8 9ebd f8cd 52be 18ba babd dc70 7c3d
000003e0: 3910 83bd 4f5f 76bd 3890 e6bd 0f15 0dbe
000003f0: 0a06 b63c b30f d3bd b201 d83c a0e3 dbbd

2.nn.layers.1.bias f4 [40]
-0.12986526 0.13771015 -0.08410843 0.22887208 0.20169804 -0.035215378 -0.08048166 -0.15730587
-0.09284464 -0.12566388 0.021657279 -0.089158654 0.2574822 0.0972092 0.056583736 -0.383912
-0.100537546 -0.10754643 0.06936328 -0.48654932 0.041374635 -0.057731923 -0.021908171 0.015803387
0.07310878 0.044854052 -0.31242004 -0.1806985 -0.22750929 -0.20675755 -0.10337025 0.22826107
0.0449897 -0.13247617 -0.061013695 -0.18577528 -0.00096970395 0.061123095 0.20883343 -0.12704298
00000000: 66fb 04be e403 0d3e 0a41 acbd 715d 6a3e
00000010: ee89 4e3e 003e 10bd 92d3 a4bd ca14 21be
00000020: 5525 bebd 08ae 00be 9b6a b13c d098 b6bd
00000030: b5d4 833e 9e15 c73d 59c4 673d 1d90 c4be
00000040: a1e6 cdbd 4d41 dcbd 560e 8e3d fe1c f9be
00000050: 7378 293d 4f78 6cbd c478 b3bc 1b76 813c
00000060: 0eba 953d e2b8 373d 85f5 9fbe 0709 39be
00000070: 32f8 68be 40b8 53be c8b3 d3bd 45bd 693e
00000080: 1f47 383d d5a7 07be 7fe9 79bd e03b 3ebe
00000090: bb33 7eba 365c 7a3d 6ed8 553e 8e17 02be

2.nn.layers.2.weight f4 [124, 40]
0.017053908 -0.060524426 0.02137085 -0.06746016 0.17246854 0.1925221 0.07502144 0.16050832
0.13552836 0.07853794 0.06252253 -0.121166795 -0.13990594 0.03204584 0.029959532 -0.0916027
-0.07787582 -0.008242587 -0.15437143 0.10051684 -0.050039288 -0.14927912 0.013375682 -0.19330049
0.038328614 0.16807765 0.032008912 0.040343527 -0.26970318 -0.019270055 0.08746537 0.1365324
0.09159121 -0.009537692 -0.089430586 -0.20309255 -0.05744677 0.05055335 -0.14835571 -0.047367454
-0.04466002 -0.120698795 -0.060821485 -0.07041367 0.019689852 0.18239489 0.13921301 0.0412996
0.043481845 0.06296238 -0.024978172 -0.07746259 -0.07622172 0.0640367 0.008539279 -0.1753908
0.04009536 0.00982502 0.14889409 0.23511016 0.045335572 -0.03355337 -0.12969728 0.015886465
-0.03189515 -0.011693657 -0.122385226 0.02248973 -0.270302 0.12290544 0.1959251 -0.03291588
0.06254901 0.04172238 0.054277524 -0.055346437 0.14253244 0.079711504 -0.16196644 0.020082023
0.015824748 0.031935256 0.04149946 0.052544143 -0.009647104 -0.026126657 0.00018248394 0.085947774
0.027512344 0.12107493 -0.055556957 -0.018037485 0.064332284 0.1966223 0.046393782 -0.020049717
0.046253894 -0.063921675 -0.017699905 0.15389286 0.09838963 0.09650026 -0.08352065 0.092041165
-0.025057727 0.16748211 0.037175983 0.04543134 -0.26477963 0.009025681 0.02390896 0.039559178
-0.12668583 0.08609563 -0.005869955 -0.10535285 -0.11452235 0.030845359 -0.19987467 -0.0019820689
-0.03676482 0.18408865 0.061960265 -0.1017127 0.21921767 -0.24026957 -0.1948972 -0.06701313
-0.088642366 -0.136175 -0.16992338 -0.007928572 0.04929652 -0.016160844 0.32602888 0.38251236
-0.27809954 -0.16104333 -0.042964507 0.22844735 0.33533153 0.020601548 -0.14029653 -0.26590934
-0.10011302 0.060937513 0.14463232 -0.021996912 -0.118697345 -0.13479729 -0.17397936 -0.048051108
0.26880643 0.07269711 -0.13469847 0.012585406 0.115497 0.13179813 -0.22324276 -0.017059747
0.18264785 -0.019939868 -0.096332945 -0.16566621 -0.27032396 -0.029976355 -0.07079895 -0.20979232
-0.21385959 0.10834952 -0.116203964 0.21144347 -0.02795903 -0.021044094 -0.517334 -0.027662687
-0.1054822 -0.04110814 -0.04494733 -0.22833166 -0.2037463 -0.22982205 -0.10329945 0.2717482
-0.059133798 0.061623007 0.034029882 0.052262187 0.103817746 -0.033457506 -0.15803124 -0.2473367
0.12839013 0.045751587 0.03151693 -0.18726507 0.33992794 -0.2630839 0.22072272 0.05875666
0.07590316 -0.08436962 0.081259504 -0.1310933 0.017702607 -0.103362925 -0.12621921 -0.07788187
-0.117730655 0.067138165 -0.10197918 -0.22554663 0.08924278 -0.1288673 -0.04030766 -0.44039497
-0.1494944 -0.11924693 0.1886162 -0.12628053 -0.051841456 -0.061820783 -0.2027273 0.2053559
0.122014314 -0.027187245 0.025400847 0.08286153 0.11638485 -0.12107984 -0.104700536 -0.0023328147
-0.041643426 -0.0042759352 0.05459281 -0.070659444 0.01153239 -0.19733189 0.1028509 -0.13692726
-0.08719993 -0.029444374 -0.14225416 -0.050653316 0.027545389 -0.043040052 -0.19184114 0.20349473
-0.011598551 0.075349614 0.11761764 -0.23506646 -0.06349615 -0.03170427 0.31069666 -0.33208495
00000000: a3b4 8b3c 76e8 77bd ec11 af3c 8d28 8abd
00000010: 989b 303e 8324 453e d7a4 993d 4b5c 243e
00000020: f2c7 0a3e 80d8 a03d d00b 803d 4c26 f8bd
00000030: 8143 0fbe 8042 033d b16d f53c 329a bbbd
00000040: 5c7d 9fbd ea0b 07bc 8b13 1ebe c6db cd3d
00000050: fff5 4cbd a0dc 18be ad25 5b3c 90f0 45be
00000060: 77fe 1c3d 8c1c 2c3e c71b 033d 413f 253d
00000070: 8916 8abe 3cdc 9dbc 0b21 b33d 26cf 0b3e
00000080: 2c94 bb3d fb43 1cbc 6227 b7bd 7ef7 4fbe
00000090: 4e4d 6bbd 0811 4f3d 8fea 17be 6004 42bd
000000a0: 6ded 36bd ee30 f7bd f31f 79bd 0b35 90bd
000000b0: 9d4c a13c bac5 3a3e db8d 0e3e c529 293d
000000c0: 051a 323d 6cf2 803d 069f ccbc b5a4 9ebd
000000d0: 221a 9cbd ac25 833d 55e8 0b3c a599 33be
000000e0: 083b 243d 1ff9 203c b177 183e b8c0 703e
000000f0: cbb1 393d 426f 09bd 5dcf 04be 5524 823c
00000100: 7da4 02bd c196 3fbc 1ba5 fabd 623c b83c
00000110: 0665 8abe d9b5 fb3d 97a0 483e cdd2 06bd
00000120: b219 803d 16e5 2a3d 1c52 5e3d f2b2 62bd
00000130: 06f4 113e c93f a33d 88da 25be 0e83 a43c
00000140: e7a2 813c 8bce 023d 56fb 293d 8738 573d
00000150: e30e 1ebc 9207 d6bc 2959 3f39 6305 b03d
00000160: 9161 e13c 22f6 f73d b18f 63bd 59c3 93bc
00000170: a5c0 833d 5b57 493e 6807 3e3d 4e3f a4bc
00000180: b974 3d3d 5ee9 82bd 64ff 90bc 1796 1d3e
00000190: 8180 c93d eea1 c53d e00c abbd 1480 bc3d
000001a0: dd45 cdbc 6e80 2b3e d845 183d 3616 3a3d
000001b0: 3291 87be 73e0 133c b9dc c33c ce08 223d
000001c0: eeb9 01be e852 b03d c058 c0bb 3cc3 d7bd
000001d0: b28a eabd 68af fc3c f2ab 4cbe 99e5 01bb
000001e0: b596 16bd bc81 3c3e 0cca 7d3d c04e d0bd
000001f0: 997a 603e 3a09 76be 2293 47be 2e3e 89bd
00000200: 218a b5bd 7671 0bbe 6500 2ebe d7e6 01bc
00000210: 26eb 493d bf63 84bc 42ed a63e a9d8 c33e
00000220: 1063 8ebe 8be8 24be 8dfb 2fbd 1aee 693e
00000230: 93b0 ab3e 94c4 a83c e5a9 0fbe 4525 88be
00000240: 0e08 cdbd 9d99 793d 7f1a 143e de32 b4bc
00000250: 9817 f3bd 4d08 0abe a527 32be 3dd1 44bd
00000260: ffa0 893e 39e2 943d 65ee 09be 0533 4e3c
00000270: b189 ec3d 17f6 063e c099 64be e2c0 8bbc
00000280: 0a08 3b3e ef58 a3bc 354a c5bd 67a4 29be
00000290: e767 8abe f990 f5bc 0aff 90bd ccd3 56be
000002a0: 02fe 5abe 5ae6 dd3d 58fc edbd a384 583e
000002b0: 560a e5bc aa64 acbc 0070 04bf dc9c e2bc
000002c0: 0d07 d8bd 0261 28bd b11a 38bd c6cf 69be
000002d0: dfa2 50be 7956 6bbe a98e d3bd 9422 8b3e
000002e0: 4836 72bd 6868 7c3d eb62 0b3d e010 563d
000002f0: 669e d43d bd0a 09bd f1d2 21be d545 7dbe
00000300: b478 033e 0466 3b3d e517 013d 6ac2 3fbe
00000310: 090b ae3e efb2 86be 2305 623e d3aa 703d
00000320: 1e73 9b3d fbc9 acbd 626b a63d 523d 06be
00000330: 0f05 913c f1af d3bd 9c3f 01be 8880 9fbd
00000340: c51c f1bd bc7f 893d 76da d0bd b2f5 66be
00000350: ebc4 b63d caf5 03be a519 25bd 737b e1be
00000360: 0f15 19be bc37 f4bd 9b24 413e af4f 01be
00000370: b557 54bd ca37 7dbd bf97 4fbe d148 523e
00000380: a4e2 f93d c9b7 debc 7015 d03c 4eb3 a93d
00000390: 2e5b ee3d b5f8 f7bd 3c6d d6bd 23e2 18bb
000003a0: 4c92 2abd 251d 8cbb b69c 5f3d e6b5 90bd
000003b0: 59f2 3c3c 5f11 4abe 7ea3 d23d a936 0cbe
000003c0: e095 b2bd 5435 f1bc 13ab 11be da79 4fbd
000003d0: dea6 e13c c44a 30bd 0172 44be ec60 503e
000003e0: d907 3ebc e650 9a3d 84e1 f03d 43b5 70be
000003f0: 450a 82bd 56dc 01bd a213 9f3e 0a07 aabe

2.nn.layers.2.bias f4 [124]
0.08831459 0.0363645 -0.13130087 -0.13487223 -0.29945242 0.1609133 -0.0050213845 0.1363882
0.08977029 0.57331496 -1.2058513 -0.65162075 0.18369952 -0.08420674 0.030049039 -0.20130078
0.09736285 0.13688669 0.035163105 -0.14987603 -0.22042467 -0.57593936 -0.45159996 0.32102236
0.4944913 -0.23909657 -0.3691425 -0.38266835 -0.19349484 0.062595755 0.13971975 0.06370305
0.057685364 0.010185531 -0.035353757 0.11238652 -0.021894708 0.05186485 0.123543665 -0.03738677
-0.22247496 -0.06920716 0.46781358 0.17044996 -0.12831795 -0.11594696 -0.07401012 0.031072835
-0.1428125 -0.10810721 0.2343913 0.43880874 0.30676416 0.07926631 -0.28126848 -0.49845117
-0.2836693 -0.47987774 0.24479486 0.38390934 0.32223737 -0.14103393 -0.24471231 -0.079928495
0.06557444 0.05046386 -0.7747806 0.553003 0.107094325 -0.73387486 0.16317491 1.271766
-0.61553454 0.19956407 -0.0025817414 0.069630444 0.21147525 -0.0929443 -0.13624306 -0.19094962
1.2163609 0.8400034 0.48746032 1.2018814 0.756205 0.4943344 0.6368914 1.2057554
1.0357116 0.48992205 0.65744907 -0.22305405 -0.008519232 0.00895834 -0.067801125 -0.37135908
-0.7395974 -0.3919667 -0.13638683 0.3602412 0.11454107 0.743861 1.0908543 -1.3331232
-0.10783982 0.016808942 -0.10317741 0.05254957 -0.08016576 -0.08124092 -0.3331168 -0.36470893
0.53391814 -0.49514914 1.1021322 0.36326274 0.0073820655 0.28916237 0.3249849 0.09092814
-0.01705614 -0.15998943 -0.02943066 -0.0849825
00000000: 48de b43d f1f2 143d bc73 06be f21b 0abe
00000010: d451 99be 75c6 243e 6d8a a4bb 59a9 0b3e
00000020: 7cd9 b73d c5c4 123f 5659 9abf 9ed0 26bf
00000030: ba1b 3c3e 9574 acbd 6729 f63c cb21 4ebe
00000040: 2d66 c73d 062c 0c3e 3007 103d 1a79 19be
00000050: 01b7 61be c370 13bf 1c38 e7be 0b5d a43e
00000060: f72d fd3e bbd5 74be 3f00 bdbe 1bed c3be
00000070: 8323 46be 3432 803d b212 0f3e bf76 823d
00000080: 7d47 6c3d 37e1 263c 1acf 10bd e72a e63d
00000090: 885c b3bc 3d70 543d 7604 fd3d df22 19bd
000000a0: 7ad0 63be 7cbc 8dbd 4385 ef3e 6f8a 2e3e
000000b0: c865 03be 9a75 edbd 9e92 97bd 758c fe3c
000000c0: 713d 12be 5067 ddbd 4604 703e 8aab e03e
000000d0: 3110 9d3e 6056 a23d 6c02 90be fe34 ffbe
000000e0: 1a3d 91be 89b2 f5be 81ab 7a3e c48f c43e
000000f0: 4cfc a43e 336b 10be dd95 7abe 8db1 a3bd
00000100: e44b 863d 31b3 4e3d 0558 46bf 9b91 0d3f
00000110: 4554 db3d 39df 3bbf 5317 273e 3ac9 a23f
00000120: ac93 1dbf 865a 4c3e 6f32 29bb 689a 8e3d
00000130: f88c 583e 9559 bebd 4d83 0bbe 4c88 43be
00000140: b7b1 9b3f 760a 573f 6694 f93e 40d7 993f
00000150: a796 413f 6619 fd3e 510b 233f 3156 9a3f
00000160: 3392 843f 10d7 fa3e 954e 283f 4868 64be
00000170: 4094 0bbc 00c6 123c 51db 8abd c722 bebe
00000180: 4156 3dbf dcaf c8be fda8 0bbe 8971 b83e
00000190: 8294 ea3d ad6d 3e3f 1da1 8b3f c8a3 aabf
000001a0: 20db dcbd e8b2 893c ae4e d3bd 383e 573d
000001b0: f22d a4bd a461 a6bd 498e aabe 21bb babe
000001c0: dcae 083f 3084 fdbe ab12 8d3f 93fd b93e
000001d0: 41e5 f13b 170d 943e 6c64 a63e 8838 ba3d
000001e0: 51b9 8bbc 45d4 23be 9118 f1bc 4e0b aebd
