models/nn/optuna_best/SR/model.pt (torch, 16604 bytes, 9 tensors)

net.0.weight f4 [32, 3]
0.39667103 -0.27977842 -0.41850755 -0.3289068 -0.33638573 0.09747854 0.42840484 0.18139869
0.030739455 0.6157964 0.13354582 -0.32755345 -0.33360246 -0.3096591 -0.10420769 0.28805333
0.023758534 0.3518118 -0.2662716 0.4297848 0.33641982 -0.5213539 -0.5838282 0.04551964
-0.2928412 -0.3861018 -0.013693657 -0.012115997 -0.5551072 -0.35358796 -0.32011408 0.368974
0.33045414 0.22743402 0.57515043 0.48677635 0.36574212 -0.47034156 -0.094309404 0.056194387
-0.4496325 -0.0842905 0.20993301 -0.15676697 0.51576716 -0.1500439 -0.5932174 0.23396325
0.16393584 0.078294106 0.5854765 0.43285492 -0.052685093 0.2725726 -0.102865815 -0.46818504
0.06896792 -0.0348267 -0.02345207 -0.04902713 0.3940252 -0.4686566 0.15092598 -0.20080075
0.31385395 0.25878692 -0.17267974 0.22136393 0.21791945 0.34476852 -0.47816417 -0.43666974
0.33548638 -0.2377903 -0.143891 -0.58977795 -0.409883 -0.41254976 -0.3101575 -0.4214189
0.34988433 -0.17648456 -0.41380143 0.38405797 -0.017377893 0.03548596 -0.22267999 0.63564104
0.35818437 -0.10291716 0.4198948 0.5467105 -0.41055927 -0.25969416 -0.21826832 0.1266108
00000000: 7718 cb3e 1e3f 8fbe 9f46 d6be 7966 a8be
00000010: c03a acbe d4a2 c73d e157 db3e 94c0 393e
00000020: 4fd1 fb3c d5a4 1d3f 3cc0 083e 16b5 a7be
00000030: f1cd aabe a38b 9ebe d76a d5bd ba7b 933e
00000040: 42a1 c23c ad20 b43e c054 88be c10c dc3e
00000050: 383f ac3e 7377 05bf c475 15bf cd72 3a3d
00000060: 48ef 95be 23af c5be 5c5b 60bc 2d82 46bc
00000070: 811b 0ebf 7b09 b5be fee5 a3be 29ea bc3e
00000080: 4931 a93e 77e4 683e 0f3d 133f c03a f93e
00000090: 8d42 bb3e 9cd0 f0be 4a25 c1bd 162c 663d
000000a0: 3b36 e6be 7fa0 acbd aef8 563e 8587 20be
000000b0: 5109 043f 1ca5 19be 18dd 17bf 1094 6f3e
000000c0: ccde 273e a958 a03d cae1 153f 299f dd3e
000000d0: 53cc 57bd a38e 8b3e 50ab d2bd f3b5 efbe
000000e0: 0e3f 8d3d 71a6 0ebd 8e1e c0bc acd0 48bd
000000f0: acbd c93e c2f3 efbe 578c 1a3e b69e 4dbe
00000100: 77b1 a03e b87f 843e f5d2 30be 3aad 623e
00000110: 4726 5f3e 8085 b03e efd1 f4be 2d93 dfbe
00000120: dfc4 ab3e 4d7f 73be 2a58 13be b0fb 16bf
00000130: 2fdc d1be b939 d3be f7cc 9ebe 38c4 d7be
00000140: 0a24 b33e 5eb8 34be c8dd d3be 3fa3 c43e
00000150: 155c 8ebc ba59 113d 3906 64be 5fb9 223f
00000160: f163 b73e 3bc6 d2bd 74fc d63e 38f5 0b3f
00000170: d334 d2be a2f6 84be bb81 5fbe 43a6 013e

net.0.bias f4 [32]
-0.31244716 0.41876101 0.474945 -0.47845447 0.6091938 0.5869928 0.17267129 0.23976162
-0.016033668 -0.3469823 -0.37945244 -0.43838483 0.34642217 -0.17559022 0.19831946 -0.11364603
-0.006086262 -0.320378 0.48980457 0.16615632 0.34143466 -0.5315869 0.39693564 0.5755228
0.56292915 0.60592943 -0.16831781 -0.14114794 0.008369879 -0.36757925 0.23077404 -0.09588121
00000000: 13f9 9fbe d867 d63e fe2b f33e fcf7 f4be
00000010: 20f4 1b3f 2945 163f bed0 303e 1284 753e
00000020: 0a59 83bc aaa7 b1be 9747 c2be fa73 e0be
00000030: 3f5e b13e eccd 33be 4214 4b3e 40bf e8bd
00000040: 446f c7bb 9608 a4be aac7 fa3e e224 2a3e
00000050: 86d0 ae3e 1416 08bf 263b cb3e 7655 133f
00000060: 201c 103f 311e 1b3f 815b 2cbe 1689 10be
00000070: d121 093c 5933 bcbe 0850 6c3e 5e5d c4bd

net.2.weight f4 [32, 32]
0.0073787845 0.11963664 0.06708512 0.085817404 -0.09577367 0.08616291 0.11891073 -0.03370159
-0.028038394 0.08594134 -0.1557362 -0.03513201 -0.11299334 0.0052400185 -0.09144425 0.19476078
-0.0601082 0.015333191 0.1510018 -0.08615919 0.01539922 0.20916761 -0.02322031 0.16428353
-0.04422378 0.22503088 0.048526805 -0.14461014 0.047003027 0.23348458 0.14924379 -0.036723644
-0.013691406 0.07093318 0.18717766 0.012938139 -0.02615256 0.005373323 0.11707271 0.041419927
-0.120364636 0.1615019 0.025210137 0.09370987 0.21265157 -0.006055378 -0.09386919 0.0950416
0.033990342 -0.06965899 -0.12045623 0.0013992877 -0.022330558 0.08055158 0.24412918 0.15503882
-0.020995578 -0.17560896 0.13904367 -0.1611462 -0.07639683 -0.15526232 0.057886492 -0.15808494
-0.14774542 0.008650048 -0.16585565 0.19961482 0.07076145 0.12879615 0.1717812 -0.0750103
-0.21634267 0.026009157 -0.03532005 0.22342503 -0.20530036 0.06574493 0.07713238 -0.05428213
0.19036897 -0.05086926 0.03985151 -0.1125105 -0.12945321 -0.22510639 0.1558088 0.067357145
-0.14149259 -0.24860594 -0.11118733 -0.12115587 0.019737974 -0.15640573 -0.13213141 -0.0036817626
-0.026071725 -0.10963086 0.11848337 -0.051016804 0.1980773 0.16297066 0.1496265 0.20849213
0.049338017 0.17767477 -0.15473081 0.06223012 0.14022487 0.0065463963 0.09928486 0.13777879
-0.19545744 0.07069372 0.02943784 0.12447727 0.06428733 0.22001515 -0.060700756 0.15351954
0.0102604395 0.13356331 -0.018653123 -0.09164084 -0.019268094 -0.10954387 0.0034223192 0.20540181
0.07488334 -0.10568739 -0.20505218 0.020837842 -0.11038103 -0.08218414 -0.00824861 0.023132885
0.16008745 -0.009691051 -0.054242067 0.091266066 -0.13936877 0.18238916 0.118303396 0.06223797
0.23611316 0.2084236 -0.025646681 -0.14757264 -0.13797565 0.18562502 0.18657058 0.088845335
0.01114323 0.13299535 -0.20400347 -0.15685245 -0.0005786002 -0.22339414 -0.15591945 -0.104929194
0.15878397 0.017249355 0.013810946 0.024195692 0.16373967 0.07963092 0.13859074 -0.02126908
-0.10624226 0.008016762 0.16726893 0.19277023 -0.1739425 -0.08839863 0.19252941 0.14517953
-0.09920683 -0.08503947 0.06941269 -0.048739426 0.12027278 -0.115339555 -0.010364236 -0.08096071
0.015359488 -0.081393644 0.06744332 0.24861167 -0.143235 0.18356012 0.02372913 -0.02658732
-0.066687874 -0.12774774 -0.117589466 -0.0862938 0.1445178 -0.0211066 -0.102898054 -0.074854985
-0.057732977 0.043127783 0.032143548 -0.037020087 0.098849796 0.103149414 0.115116045 -0.10902014
-0.1324406 0.124595955 -0.080262676 0.048688035 -0.005045712 -0.09577987 -0.03649494 -0.008558087
-0.09007994 -0.107883856 0.11536287 -0.07481025 0.08216213 -0.16125466 0.117861986 -0.0074075013
0.06718809 -0.12059942 -0.11877975 -0.12464536 0.18742868 -0.027453773 -0.021388752 0.028070426
0.008772375 0.17441677 -0.08528886 -0.038268562 0.04100394 0.09198133 0.06709479 0.1478285
-0.15792756 0.07564038 0.17557871 -0.077555016 -0.099680595 0.1557794 0.09798729 -0.09727748
-0.011832966 0.11981753 -0.04060012 0.04103514 -0.014333265 -0.0018959747 -0.2077666 0.018281003
00000000: bbc9 f13b 0e04 f53d ec63 893d 09c1 af3d
00000010: fc24 c4bd 2e76 b03d 7887 f33d ae0a 0abd
00000020: c6b0 e5bc 0302 b03d 4f79 1fbe 95e6 0fbd
00000030: 0d69 e7bd 76b4 ab3b 1f47 bbbd 5f6f 473e
00000040: 0434 76bd 1038 7b3c 37a0 1a3e 3b74 b0bd
00000050: 034d 7c3c 0930 563e 8538 bebc f139 283e
00000060: ff23 35bd 7f6e 663e 0bc4 463d ae14 14be
00000070: 3f86 403d 9516 6f3e 5dd3 183e 886b 16bd
00000080: eb51 60bc 6a45 913d 80ab 3f3e 7dfa 533c
00000090: e53d d6bc b312 b03b d1c3 ef3d f1a7 293d
000000a0: bc81 f6bd c160 253e 7d85 ce3c f6ea bf3d
000000b0: 55c1 593e 316c c6bb 7d3e c0bd 2ca5 c23d
000000c0: 7539 0b3d 5fa9 8ebd c2b1 f6bd 4e68 b73a
000000d0: 93ee b6bc 3af8 a43d 00fd 793e 7fc2 1e3e
000000e0: ebfe abbc d6d2 33be 7761 0e3e 8203 25be
000000f0: f175 9cbd 16fd 1ebe 631a 6d3d 05e1 21be
00000100: 934a 17be eeb8 0d3c 10d6 29be d467 4c3e
00000110: 61eb 903d 23e3 033e 69e7 2f3e 009f 99bd
00000120: ef88 5dbe 2811 d53c c2ab 10bd 88c9 643e
00000130: 423a 52be 47a5 863d 95f7 9d3d f056 5ebd
00000140: 15f0 423e 495c 50bd 563b 233d e86b e6bd
00000150: 628f 04be 4a82 66be 588c 1f3e 8bf2 893d
00000160: 6fe3 10be 8e92 7ebe 2fb6 e3bd 9220 f8bd
00000170: 88b1 a13c d328 20be 754d 07be ba49 71bb
00000180: 5f94 d5bc 2586 e0bd 69a7 f23d fff6 50bd
00000190: c7d4 4a3e c8e1 263e b037 193e f67e 553e
000001a0: a916 4a3d 60f0 353e c171 1ebe 03e5 7e3d
000001b0: 1c97 0f3e 2783 d63b dc55 cb3d e215 0d3e
000001c0: ff25 48be dec7 903d a027 f13c f0ed fe3d
000001d0: 13a9 833d a74b 613e 5ba1 78bd 3a34 1d3e
000001e0: 671b 283c d2c4 083e 6fce 98bc 31ae bbbd
000001f0: 1fd8 9dbc 8958 e0bd fd48 603b da54 523e
00000200: 705c 993d a172 d8bd 33f9 51be 1fb4 aa3c
00000210: 730f e2bd 2950 a8bd 2e25 07bc 2d81 bd3c
00000220: f7ed 233e 37c7 1ebc ee2c 5ebd b4e9 ba3d
00000230: b0b6 0ebe 39c4 3a3e 0d49 f23d 3eed 7e3d
00000240: a6c7 713e ff6c 553e fd18 d2bc 481d 17be
00000250: 7d49 0dbe 7c14 3e3e 5c0c 3f3e 8bf4 b53d
00000260: 1892 363c ef2f 083e 49e6 50be ee9d 20be
00000270: 34ad 17ba 6fc1 64be 59a9 1fbe 1ee5 d6bd
00000280: 4498 223e 854e 8d3c 4e47 623c 0b36 c63c
00000290: 5fab 273e 8915 a33d bbea 0d3e 7e3c aebc
000002a0: 8b95 d9bd bd58 033c 8c48 2b3e 8f65 453e
000002b0: fc1d 32be 570a b5bd 6e26 453e f1a9 143e
000002c0: f32c cbbd 2c29 aebd 3e28 8e3d fea2 47bd
000002d0: 9351 f63d 2537 ecbd c2ce 29bc bbce a5bd
000002e0: 5da6 7b3c b6b1 a6bd b91f 8a3d 0f94 7e3e
000002f0: 32ac 12be 2ff7 3b3e 9863 c23c a7cd d9bc
00000300: a793 88bd 4ed0 02be bfd2 f0bd ceba b0bd
00000310: 79fc 133e c0e7 acbc 37bc d2bd 924d 99bd
00000320: 6a79 6cbd c2a6 303d f4a8 033d 60a2 17bd
00000330: c371 ca3d 0040 d33d f6c1 eb3d f345 dfbd
00000340: 829e 07be 2a2c ff3d c260 a4bd 1b6d 473d
00000350: 8056 a5bb 3d28 c4bd b87b 15bd 3837 0cbc
00000360: d57b b8bd 36f2 dcbd 5e43 ec3d 1e36 99bd
00000370: 9e44 a83d f11f 25be a061 f13d a0ba f2bb
00000380: e999 893d d4fc f6bd cc42 f3bd 1146 ffbd
00000390: 4eed 3f3e bce6 e0bc 7737 afbc f3f3 e53c
000003a0: 02ba 0f3c 4f9a 323e edab aebd 7fbf 1cbd
000003b0: bff3 273d b560 bc3d fe68 893d 5b60 173e
000003c0: c3b7 21be 58e9 9a3d e8ca 333e 2ad5 9ebd
000003d0: 5725 ccbd a384 1f3e 8fad c83d 6a39 c7bd
000003e0: 0edf 41bc e562 f53d 504c 26bd 7714 283d
000003f0: 12d6 6abc 5b82 f8ba c5c0 54be 0bc2 953c

net.2.bias f4 [32]
0.09001897 0.13149773 -0.08715416 0.08123728 0.086040184 -0.14912531 -0.028946253 0.036552165
0.0111437375 0.0823614 0.08104012 -0.12410611 -0.1664299 -0.136169 -0.101203874 0.032527063
0.23914558 0.16332158 -0.091267556 0.040817443 0.033723123 0.15735547 0.09968015 0.10454268
0.19452378 -0.09798676 0.22199894 -0.17179467 0.14522928 0.017026244 0.14404139 -0.12440617
00000000: de5b b83d 57a7 063e e17d b2bd bb5f a63d
00000010: d635 b03d 4eb4 18be b120 edbc b9b7 153d
00000020: 3994 363c 18ad a83d 5df8 a53d 582b febd
00000030: 9a6c 2abe e36f 0bbe fa43 cfbd 193b 053d
00000040: 94e2 743e c63d 273e 7cea babd 3130 273d
00000050: 4221 0a3d cb21 213e 1b25 cc3d 791a d63d
00000060: 3e31 473e 48ad c8bd b153 633e f1ea 2fbe
00000070: fcb6 143e 9f7a 8b3c 967f 133e a9c8 febd

net.4.weight f4 [32, 32]
-0.06006926 -0.1332471 -0.16409647 0.079014234 0.24322854 -0.17330901 -0.05100949 -0.023487557
0.08355758 0.0560387 -0.119922504 -0.09273311 0.11065535 0.007136771 -0.10188582 0.107526705
0.024402931 -0.1193049 -0.17106237 0.07972861 0.032085195 0.06715041 0.0698863 0.16236648
0.19137505 0.12604369 0.16109999 -0.15425968 0.074674025 0.047559023 0.0019877618 0.2098623
-0.06933673 -0.044602674 0.008730482 -0.09896233 0.023820693 0.08251149 -0.16457054 -0.036570847
0.006193838 -0.010117546 -0.12525156 0.04470502 0.04964471 -0.075284004 -0.10112967 -0.10454884
-0.050915413 -0.022209143 -0.1379597 0.10670929 -0.041757915 0.15934828 0.0967689 0.12243642
-0.024649778 0.09740985 -0.015889565 -0.10131872 -0.013111949 -0.05208849 -0.06700135 -0.11794576
0.14229627 -0.12273036 -0.048493713 -0.13430186 0.14380027 -0.096462905 0.17286463 -0.0041460246
-0.16131188 -0.103350036 -0.13480277 -0.060728274 0.14939533 0.020128623 0.054012254 -0.01198484
-0.1447277 -0.16828492 -0.040736914 -0.11427517 -0.03276229 0.031215727 -0.09234829 -0.10200298
-0.14447987 0.055693895 0.152986 0.16396733 -0.060211115 -0.07540189 0.10390191 -0.07825253
0.0774886 -0.24400912 -0.1797962 -0.09786929 -0.07990498 0.085651934 0.03109572 0.08585919
0.013747401 -0.2622831 0.20668402 0.09324769 -0.046866644 -0.13111025 0.07239376 -0.20836252
-0.17815119 -0.20676628 0.25143877 0.098549776 0.14944062 0.1722206 0.27920082 0.05033318
-0.076514415 0.1676487 -0.004097496 0.14570878 -0.042333957 0.14203799 0.23525436 -0.23397894
0.20260191 0.2940883 -0.09933302 0.009855883 0.04411849 -0.037907902 0.16094314 0.0094965175
0.058954183 0.044571415 -0.07950248 -0.082205646 0.027075317 0.14981084 0.08226785 -0.06045471
0.14055577 0.066055454 0.021824094 -0.10672392 -0.20745033 0.15784279 -0.30643535 -0.08021299
-0.07389824 -0.05641546 -0.018204994 -0.07462241 -0.073259704 -0.0019820947 -0.13510506 0.122268915
0.04834 0.019160928 -0.015175906 0.13026038 0.06546039 -0.15992127 0.09961037 -0.030827703
-0.17959468 -0.10844579 0.05174352 0.0635394 0.048807025 0.11758925 -0.02599307 -0.09413385
-0.15332662 0.14958169 -0.19909124 -0.05775519 -0.13779867 0.04562914 -0.039055154 -0.15253486
-0.08371682 0.10971555 0.124901965 -0.17574717 -0.1737936 0.16457142 0.121414974 0.10013648
0.021541929 -0.084110774 0.06551813 -0.04049626 -0.022641735 -0.14383866 -0.0459795 0.14777958
-0.12320075 0.067286894 -0.09727506 0.14192353 0.16829574 -0.16902168 -0.00984509 0.054369863
-0.048174664 0.19291262 -0.0001892189 0.014247634 -0.16861469 0.07206112 -0.07746229 -0.066129416
0.18124779 -0.07310241 0.18678346 0.065947406 -0.006505128 -0.006947618 -0.04868756 0.20383509
0.025382794 -0.15459095 -0.06378357 0.035731714 -0.037482142 0.057995643 -0.00797677 0.15558387
0.0042148824 0.039022405 -0.0227122 0.09290633 0.14770724 0.009917513 -0.100880526 -0.15292507
-0.09325354 -0.08535749 -0.1513343 0.16587883 0.08263265 0.11635886 -0.12296225 0.11161764
0.11076294 -0.17531861 0.042188916 0.09775449 -0.1699717 -0.029222786 -0.07017547 0.0004786849
00000000: 2f0b 76bd ee71 08be e808 28be 37d2 a13d
00000010: e710 793e eb77 31be 54ef 50bd fa68 c0bc
00000020: 3d20 ab3d d688 653d ee99 f5bd dbea bdbd
00000030: 469f e23d 93db e93b 83a9 d0bd f636 dc3d
00000040: a8e8 c73c 2156 f4bd f92a 2fbe c148 a33d
00000050: c46b 033d 2786 893d 8c20 8f3d 6643 263e
00000060: d2f7 433e 9911 013e 65f7 243e 40f6 1dbe
00000070: b2ee 983d 40cd 423d 1c45 023b 25e6 563e
00000080: 6a00 8ebd 4bb1 36bd 4c0a 0f3c c3ac cabd
00000090: 9d23 c33c c9fb a83d 2e85 28be 50cb 15bd
000000a0: aef5 ca3b 10c4 25bc f241 00be 9c1c 373d
000000b0: 4058 4b3d 802e 9abd 131d cfbd b41d d6bd
000000c0: ae8c 50bd f3ef b5bc 4f45 0dbe 668a da3d
000000d0: 590a 2bbd 322c 233e c62e c63d f2bf fa3d
000000e0: 55ee c9bc d17e c73d d52a 82bc 3080 cfbd
000000f0: 80d3 56bc be5a 55bd 0138 89bd 8c8d f1bd
00000100: 1db6 113e 0e5a fbbd 58a1 46bd 6d86 09be
00000110: 6140 133e 588e c5bd 6d03 313e 60db 87bb
00000120: f12e 25be 2fa9 d3bd bd09 0abe 36be 78bd
00000130: 17fb 183e c8e4 a43c f43b 5d3d 105c 44bc
00000140: 8033 14be e252 2cbe c0db 26bd 1a09 eabd
00000150: c031 06bd 20b8 ff3c 1a21 bdbd f0e6 d0bd
00000160: 88f2 13be 481f 643d 5da8 1c3e 0de7 273e
00000170: ee9f 76bd 4e6c 9abd 86ca d43d dd42 a0bd
00000180: 58b2 9e3d 87dd 79be 7f1c 38be b26f c8bd
00000190: 39a5 a3bd 486a af3d 74bc fe3c f1d6 af3d
000001a0: c73c 613c f849 86be faa4 533e a5f8 be3d
000001b0: 3df7 3fbd c441 06be 2e43 943d fc5c 55be
000001c0: 446d 36be 8aba 53be 95bc 803e 77d4 c93d
000001d0: f606 193e 995a 303e 69f3 8e3e 2a2a 4e3d
000001e0: 97b3 9cbd 1aac 2b3e 4a44 86bb af34 153e
000001f0: 5f66 2dbd 6872 113e 85e6 703e 2d98 6fbe
00000200: e076 4f3e be92 963e 1c6f cbbd 927a 213c
00000210: 97b5 343d 5145 1bbd 47ce 243e 4897 1b3c
00000220: f179 713d 8490 363d 32d2 a2bd 6f5b a8bd
00000230: 0ecd dd3c 0368 193e 0c7c a83d 5c9f 77bd
00000240: daed 0f3e 1548 873d 71c8 b23c 1292 dabd
00000250: dc6d 54be 8aa1 213e 18e5 9cbe b546 a4bd
00000260: f657 97bd e613 67bd a422 95bc a2d3 98bd
00000270: 2f09 96bd 08e6 01bb fb58 0abe 2068 fa3d
00000280: 2a00 463d 61f7 9c3c 5da4 78bc fa62 053e
00000290: 1910 863d 67c2 23be 8600 cc3d 618a fcbc
000002a0: abe7 37be d418 debd 03f1 533d f220 823d
000002b0: e0e9 473d a2d2 f03d 6bef d4bc 3fc9 c0bd
000002c0: a701 1dbe f12b 193e 93de 4bbe b590 6cbd
000002d0: 181b 0dbe 9fe5 3a3d 4cf8 1fbd 1932 1cbe
000002e0: b973 abbd 8cb2 e03d 9acc ff3d 11f7 33be
000002f0: f3f6 31be 6985 283e 6aa8 f83d 5b14 cd3d
00000300: b378 b03c 4542 acbd 5f2e 863d 68df 25bd
00000310: 297b b9bc 714a 13be 0055 3cbd 8853 173e
00000320: ad50 fcbd b6cd 893d 2638 c7bd 6754 113e
00000330: b855 2c3e 0514 2dbe 4d4d 21bc efb2 5e3d
00000340: cc52 45bd e38a 453e 1069 46b9 e96e 693c
00000350: 54a9 2cbe c894 933d 8da4 9ebd dc6e 87bd
00000360: 0599 393e b7b6 95bd 2a44 3f3e 6f0f 873d
00000370: f828 d5bb d8a8 e3bb 9b6c 47bd 25ba 503e
00000380: 94ef cf3c 174d 1ebe f6a0 82bd 6b5b 123d
00000390: e086 19bd d78c 6d3d 00b1 02bc 6151 1f3e
000003a0: ff1c 8a3b f5d5 1f3d f00e babc ad45 be3d
000003b0: 9140 173e 107d 223c 739a cebd 6498 1cbe
000003c0: b6fb bebd e8cf aebd 61f7 1abe 24dc 293e
000003d0: 4f3b a93d 8e4d ee3d a2d3 fbbd ca97 e43d
000003e0: aed7 e23d b986 33be 49ce 2c3d 8233 c83d
000003f0: 100d 2ebe a064 efbc 28b8 8fbd 00f8 fa39

net.4.bias f4 [32]
-0.15830912 -0.037129592 -0.1668081 0.043691 0.19978069 -0.026072554 0.001542013 -0.13920157
0.11671361 -0.090497166 0.11682874 0.06731932 -0.0776434 -0.22869693 -0.078592196 0.11442994
0.08243708 0.12726371 -0.18202478 0.028775759 0.028085513 -0.100899175 -0.010682327 -0.16022505
-0.13926049 0.00853986 -0.13768947 0.03685242 -0.106533684 0.13632669 0.12992187 -0.23338877
00000000: c91b 22be 3315 18bd becf 2abe 56f5 323d
00000010: 4f93 4c3e 1c96 d5bc 5f1d ca3a db8a 0ebe
00000020: 8c07 ef3d 9456 b9bd e843 ef3d b6de 893d
00000030: 8103 9fbd 872f 6abe f2f4 a0bd 3f5a ea3d
00000040: c6d4 a83d 6b51 023e b464 3abe 24bb eb3c
00000050: 9713 e63c 3aa4 cebd ed04 2fbc 0912 24be
00000060: 4d9a 0ebe c5ea 0b3c 78fe 0cbe 90f2 163d
00000070: 552e dabd 3999 0b3e 3d0a 053e 77fd 6ebe

net.6.weight f4 [32, 32]
-0.036216427 0.07740705 -0.10287036 -0.05760668 0.16981623 0.06970058 0.20780078 -0.15808359
0.1114748 0.12920372 0.040759705 -0.082809225 -0.017094303 -0.2535625 -0.120697334 0.15108454
0.02112967 0.1572476 -0.044452116 0.13927697 0.11521116 0.037584595 -0.14087132 -0.01508855
-0.15826988 -0.11879319 -0.04811732 0.05642928 -0.10023977 0.040966935 -0.03577323 0.00087648415
-0.026383951 -0.17484765 0.16003574 -0.048704237 -0.1294833 -0.0009291023 -0.10965908 0.084528044
0.07091272 0.0005841106 0.07764761 -0.002281323 -0.1401167 -0.08133602 -0.07497404 -0.10801278
-0.011032969 0.13976403 -0.08254547 -0.04228638 -0.1353373 0.030579373 0.07935794 -0.12074985
-0.1406144 0.084864035 0.08190732 0.07869603 0.01245068 0.0056078434 -0.03841181 -0.060953364
-0.1639749 -0.08970634 -0.11760244 0.03445083 0.115686946 0.063287266 -0.12529148 -0.023890968
-0.00093618524 -0.1175941 -0.11220186 0.094934754 -0.1974047 0.1503661 -0.12281518 -0.07407466
-0.13590308 -0.08137531 -0.14973706 0.14483264 -0.05591333 -0.035002667 0.21396609 0.16647112
0.11949085 0.05428426 0.022824988 -0.031753708 -0.19870917 -0.06923162 -0.13118082 -0.08203729
-0.114841715 -0.013431758 0.10138114 -0.00032475629 0.06655416 -0.11136051 0.08118476 0.124085024
-0.058693055 0.050261214 -0.121916875 -0.0007637441 -0.04834253 -0.079449125 0.14881386 0.026637297
-0.10474992 -0.15727165 -0.03693581 0.033905894 0.089204386 0.041571893 -0.019774437 0.08505477
0.0073480145 -0.03267008 -0.15844351 0.14560114 -0.08239471 -0.17623937 -0.11705416 0.056320064
-0.06905525 0.0746087 0.08637293 0.19111805 -0.2679979 0.14778355 -0.11723932 0.05316256
0.18506481 -0.00074756774 0.11207809 -0.1544608 -0.00016131447 0.056193475 -0.076434344 0.08815139
-0.09941431 -0.024428127 -0.06253852 -0.10022932 -0.02502131 0.101808354 0.23744564 0.10701399
0.14726216 -0.21235731 -0.11976528 0.14076035 0.05256883 -0.09891028 0.15378474 0.10690416
-0.0890489 0.15388618 0.16126464 0.20339589 0.03485101 0.108731285 -0.09874649 -0.054704074
0.03224176 -0.039181903 -0.05823565 -0.097251765 -0.15800937 -0.024904799 -0.11869252 0.0709401
0.13212834 -0.06906172 0.23511901 0.10698267 0.0032421702 -0.06960529 0.26090372 0.16267943
-0.045636337 -0.0078109037 -0.11171608 0.05230892 0.04750104 -0.079217866 0.16063544 -0.09649839
0.011243607 -0.0849548 0.038816616 -0.041578032 -0.122858815 -0.10938939 0.010350647 -0.022616476
0.195906 -0.10837997 -0.14386073 0.042492546 -0.18637793 -7.0466376e-05 0.121977404 0.20294237
-0.15693833 -0.093465224 0.045991354 -0.03066751 -0.16717078 0.026302863 0.08085351 0.22200306
-0.014242528 -0.05677564 0.014510319 0.21952222 0.09147597 0.120157264 0.19858077 0.23176438
0.010199294 -0.11197235 0.12306784 0.13303272 0.11062433 0.033345208 0.0037268072 -0.012941911
0.14174241 -0.025336867 -0.047129065 0.1263152 0.24237029 -0.1462217 -0.004630238 0.011214273
0.028862203 0.10562305 -0.15718961 -0.060304787 0.18066159 0.085425355 -0.21255156 0.047298547
-0.17850167 -0.09315381 -0.043442845 -0.15693754 -0.10148038 -0.06387081 0.051068664 -0.08023149
00000000: ad57 14bd 9687 9e3d b2ad d2bd fbf4 6bbd
00000010: 4ee4 2d3e 2dbf 8e3d bac9 543e aae0 21be
00000020: e64c e43d fb4d 043e a6f3 263d e297 a9bd
00000030: 5a09 8cbc f2d2 81be 2a30 f7bd e8b5 1a3e
00000040: 2118 ad3c 8405 213e 6c13 36bd 9f9e 0e3e
00000050: d4f3 eb3d 4ef2 193d 9240 10be f735 77bc
00000060: 8011 22be d849 f3bd ab16 45bd 6422 673d
00000070: 824a cdbd f2cc 273d f386 12bd dbc3 653a
00000080: 2823 d8bc 430b 33be 69e0 233e 187e 47bd
00000090: 4597 04be 008f 73ba f194 e0bd 0a1d ad3d
000000a0: b03a 913d 001f 193a b605 9f3d 4082 15bb
000000b0: c17a 0fbe 8093 a6bd fd8b 99bd ce35 ddbd
000000c0: a0c3 34bc 4d1e 0f3e 990d a9bd 7c34 2dbd
000000d0: dc95 0abe 9881 fa3c 6a86 a23d b34b f7bd
000000e0: 39fd 0fbe 32cd ad3d 06bf a73d 622b a13d
000000f0: f0fd 4b3c 00c2 b73b b455 1dbd 3caa 79bd
00000100: 09e9 27be f5b7 b7bd 8cd9 f0bd 501c 0d3d
00000110: 47ed ec3d c19c 813d 694c 00be feb6 c3bc
00000120: 546a 75ba 2dd5 f0bd 17ca e5bd 276d c23d
00000130: 7524 4abe 92f9 193e 8686 fbbd 75b4 97bd
00000140: 2d2a 0bbe 19a8 a6bd ac54 19be 024f 143e
00000150: 6005 65bd f55e 0fbd ed19 5b3e 6877 2a3e
00000160: 9eb7 f43d 2c59 5e3d 78fb ba3c 2d10 02bd
00000170: 6b7a 4bbe 4fc9 8dbd 4454 06be 2b03 a8bd
00000180: 2232 ebbd e010 5cbc eaa0 cf3d 0d44 aab9
00000190: 8c4d 883d fb10 e4bd 3244 a63d 4a20 fe3d
000001a0: 2168 70bd b4de 4d3d 8eaf f9bd 0036 48ba
000001b0: d102 46bd 39b6 a2bd a962 183e 7636 da3c
000001c0: 2087 d6bd d20b 21be 014a 17bd e8e0 0a3d
000001d0: cab0 b63d 4a47 2a3d 00fe a1bc 3231 ae3d
000001e0: 9dc7 f03b 10d1 05bd 043f 22be 7718 153e
000001f0: 8fbe a8bd 1878 34be 17ba efbd deaf 663d
00000200: d76c 8dbd 72cc 983d 4ae4 b03d 73b4 433e
00000210: 0537 89be 9254 173e 2b1b f0bd fcc0 593d
00000220: a181 3d3e 6cf8 43ba 3389 e53d f92a 1ebe
00000230: 8626 29b9 212b 663d 9c89 9cbd b788 b43d
00000240: bb99 cbbd 7f1d c8bc 3214 80bd 0845 cdbd
00000250: 7ef9 ccbc e680 d03d f324 733e 272a db3d
00000260: e4cb 163e 3274 59be 8047 f5bd 7b23 103e
00000270: 6a52 573d 7991 cabd bf79 1d3e 91f0 da3d
00000280: 455f b6bd 5794 1d3e 8f22 253e 0347 503e
00000290: efbf 0e3d 82ae de3d 9a3b cabd 6111 60bd
000002a0: f00f 043d 347d 20bd 8188 6ebd ef2b c7bd
000002b0: 35cd 21be 2605 ccbc 1015 f3bd 0b49 913d
000002c0: a74c 073e 3b70 8dbd 0ac3 703e bb19 db3d
000002d0: 977a 543b 388d 8ebd 2c95 853e 7095 263e
000002e0: 2bed 3abd 9cf2 ffbb 66cb e4bd e141 563d
000002f0: 7390 423d fa3c a2bd 9e7d 243e f3a0 c5bd
00000300: 1b37 383c c8fc adbd 2cfe 1e3d ba4d 2abd
00000310: 679d fbbd 8b07 e0bd c395 293c 3046 b9bc
00000320: 959b 483e 51f6 ddbd 3a50 13be aa0c 2e3d
00000330: dbd9 3ebe 59c7 93b8 4acf f93d 20d0 4f3e
00000340: 71b4 20be b26a bfbd 6e61 3c3d 6e3a fbbc
00000350: d12e 2bbe 1a79 d73c 8696 a53d c554 633e
00000360: 7e59 69bc 938d 68bd b0bc 6d3c 6fca 603e
00000370: c157 bb3d 0315 f63d c258 4b3e a453 6d3e
00000380: f11a 273c c251 e5bd fe0a fc3d bb39 083e
00000390: 028f e23d fc94 083d 733d 743b 4f0a 54bc
000003a0: ec24 113e 438f cfbc 680a 41bd c658 013e
000003b0: eb2f 783e 24bb 15be 40b9 97bb 12bc 373c
000003c0: 6d70 ec3c e650 d83d 50f6 20be 2702 77bd
000003d0: 5aff 383e 7df3 ae3d 1ea7 59be 1fbc 413d
000003e0: 24c9 36be 6dc7 bebd 20f1 31bd 3cb4 20be
000003f0: f2d4 cfbd b3ce 82bd 602d 513d 6850 a4bd

net.6.bias f4 [32]
0.092693746 -0.16636756 0.15455039 -0.05347088 0.02988622 0.04102892 0.06252093 0.078680664
-0.10621124 -0.062306937 -0.0062368196 0.122971654 -0.09113676 -0.10441764 0.05011242 0.058441438
0.0020079392 -0.10213675 0.10491989 0.047051348 0.02078108 0.032244243 -0.09001648 0.2111515
-0.014441749 -0.049199246 0.020054257 -0.039019827 -0.05204021 0.07235406 0.033041045 0.12421059
00000000: 38d6 bd3d 425c 2abe 7542 1e3e 4804 5bbd
00000010: f2d3 f43c f10d 283d f90a 803d 5423 a13d
00000020: 4785 d9bd 8f35 7fbd 3c5e ccbb 90d8 fb3d
00000030: e9a5 babd ead8 d5bd ae42 4d3d 4a60 6f3d
00000040: a197 033b 132d d1bd 3de0 d63d eab8 403d
00000050: 153d aa3c 8a12 043d 8f5a b8bd 1938 583e
00000060: 169d 6cbc 2685 49bd d348 a43c 41d3 1fbd
00000070: 1e28 55bd 5e2e 943d 0c56 073d 1f62 fe3d

net.8.weight f4 [1, 32]
-0.12323256 -0.050690204 0.029646225 -0.051105384 0.21159661 0.14899585 0.12635048 -0.24039079
-0.062208194 -0.23911671 -0.010554885 -0.22163108 0.072756514 0.1717243 0.18013775 -0.1823306
0.11336811 0.115204655 -0.13851044 0.23789157 0.12202612 0.23340741 0.15544622 -0.19327745
-0.09417342 0.104980096 0.13053353 -0.114759095 -0.08333075 0.18140027 0.2667391 0.1924759
00000000: 5a61 fcbd 88a0 4fbd a4dc f23c e153 51bd
00000010: c8ac 583e 5e92 183e 0562 013e 0129 76be
00000020: 05ce 7ebd 03db 74be 65ee 2cbc 42f3 62be
00000030: 5e01 953d 7fd8 2f3e 0876 383e dfb4 3abe
00000040: 8a2d e83d 6bf0 eb3d aed5 0dbe d999 733e
00000050: d5e8 f93d 5a02 6f3e 4b2d 1f3e 86ea 45be
00000060: fedd c0bd ceff d63d 95aa 053e d106 ebbd
00000070: 50a9 aabd fec0 393e 0792 883e 6718 453e
