Self project/models/nf/nf_halo_sigma8/flow_state.pt (torch, 34805 bytes, 14 tensors)

0.unnormalized_widths f4 [4, 8]
000000 da ea b1 3f 79 30 50 3f b6 01 64 3e 23 91 43 be
       1.3899796 0.81323963 0.22266278 -0.19098334
000010 aa 81 87 3f 4c de 3a bf 4e b2 2f 3f f0 af 59 bf
       1.0586445 -0.7299545 0.68631446 -0.85034084
000020 1c a3 9b bf 3b ac 97 3f ca 33 5b bf 5a f3 cb bf
       -1.2159152 1.1849436 -0.856259 -1.593364
000030 4c ff 78 3e c6 17 0f c0 1c c9 29 3d ab 9c b6 3f
       0.24316138 -2.235826 0.04145156 1.4266561
000040 2c e2 e3 3f 4d 8c 9e bc 18 cb 1b bf 3a 51 ab 3e
       1.7803397 -0.01935401 -0.6085677 0.33460408
000050 a1 40 91 be b3 a3 95 3f 0d b2 16 3f a3 23 bb 3f
       -0.2836962 1.1690582 0.58865434 1.462025
000060 a7 94 8e 3f 8e 4b 8e 3f 93 65 d0 3e 12 35 aa bd
       1.1139115 1.1116807 0.40702495 -0.083109036
000070 26 b2 a2 bf e4 3e 7f 3f 52 be a2 3e 19 6d b8 3f
       -1.2710617 0.9970534 0.31785828 1.4408294

0.unnormalized_heights f4 [4, 8]
000000 6b b1 9a be 37 8a 0b 40 b5 59 1d 40 1c 3a 1f 40
       -0.30213484 2.180311 2.4586003 2.4879217
000010 8b a5 7f bf 35 ac 29 c0 e1 cf ef bf 14 3e 3a c0
       -0.99861974 -2.6511357 -1.8735315 -2.910039
000020 6e 31 9f bf 1c 9e a7 3f 52 df 10 bf ca 91 b1 be
       -1.243696 1.3095126 -0.5659076 -0.3468154
000030 80 f4 47 bf b9 44 cc 3f 6b 27 3e 3e 6a fb 87 3f
       -0.7810745 1.5958472 0.18569724 1.06236
000040 05 5a a1 bf b1 63 87 bf 86 08 c3 bd c0 c2 39 3f
       -1.2605597 -1.0577298 -0.0952311 0.7256279
000050 b6 ce 5a 3d 1e 12 99 3f b6 c0 2e bf f9 72 2d bf
       0.05341979 1.1958654 -0.68262804 -0.6775356
000060 4d f0 99 bf e9 71 86 3e 05 e0 5f 3e c1 a9 ae 3f
       -1.2026459 0.26258782 0.218628 1.3645555
000070 ae 5d 38 3e ac fa a0 3f 01 b4 db bf e9 f0 5f 3f
       0.18004486 1.2576499 -1.7164308 0.87476975

0.unnormalized_derivatives f4 [4, 7]
000000 9c 45 69 c0 38 b0 1f 40 fb c2 b5 40 7f ca 03 40
       -3.6448736 2.4951305 5.6800513 2.0592344
000010 2e 76 86 bf 27 70 90 3f ec 72 68 c0 5c 95 a3 3f
       -1.0504816 1.1284226 -3.6320143 1.2779956
000020 9c 52 30 be 6c 04 74 3f 0c 99 92 bf 97 5c 0a 3f
       -0.17219013 0.9531925 -1.1452956 0.5404753
000030 46 bb 5f bf 8b 3e 5f 41 02 0e da be bc b3 12 c0
       -0.8739513 13.952769 -0.42588812 -2.29222
000040 82 a7 20 bf 36 77 3b 40 1e 9e 0b 40 e4 2c 81 3f
       -0.62755597 2.929151 2.1815257 1.0091825
000050 26 9a e7 3f 47 3b f1 bf 9b af b4 3e b7 73 52 c0
       1.8093917 -1.8846215 0.35290226 -3.2883127
000060 14 fb 1b c0 2d 22 8b be 8b 06 4b 40 12 8f 57 3e
       -2.4371996 -0.27174512 3.1722744 0.2105067

0.unnormalized_lambdas f4 [4, 8]
000000 9f f0 bd bf 8b 9a 81 3f a7 f8 a3 40 ec 7e c4 3f
       -1.4839057 1.0125288 5.124103 1.5351233
000010 b4 ab 40 40 90 5c 00 40 2a 7e 80 be 6a 19 08 bf
       3.01048 2.0056496 -0.25096256 -0.5316378
000020 f8 03 14 3f d0 eb 75 3d 4e b2 91 3e 7c 29 8c be
       0.57818556 0.06003934 0.28456348 -0.273754
000030 43 75 46 3f 4a 88 6c be 4d f6 fd 3f b8 0d 25 3e
       0.7752268 -0.23098865 1.984079 0.16118515
000040 08 26 b0 3d bf a9 71 be 44 aa 0d 40 4f 14 04 c0
       0.08601004 -0.23599909 2.2135172 -2.0637395
000050 02 df fd 3e 2d e5 83 3f 44 2e 85 3f 01 2d 3a 3f
       0.49584204 1.0304314 1.0404744 0.7272492
000060 98 19 25 bd 93 5f 93 3f 70 7e a7 bf d6 83 8c 3f
       -0.04030761 1.1513542 -1.3085461 1.0977733
000070 3f a8 79 3f 78 b8 b9 bf be bb 91 3f a5 31 bc 3e
       0.9752235 -1.450942 1.1385419 0.36756626

1.nn.layers.0.weight f4 [40, 2]
000000 a0 f2 cf bc 60 eb bb be 2b c3 66 3c 50 f1 92 bd
       -0.025384247 -0.36703014 0.014084618 -0.07174933
000010 21 72 66 bd 93 a8 aa 3d 32 b4 9e bd 4d 0c cd 3e
       -0.056261186 0.08332934 -0.07749213 0.40048447
000020 c0 bf 6e 3e 87 2e 62 be da 99 4b 3b 87 2a 81 bc
       0.23315334 -0.22088061 0.0031067044 -0.015767349
000030 4e 4e 0e bc 0b c4 96 bc 9b 27 d5 3c 03 24 84 be
       -0.0086856615 -0.018404027 0.026019862 -0.25808725
000040 07 64 94 3d 86 f8 5c 3e 7f 78 dc 3d 63 9d 8a be
       0.07245641 0.21579179 0.1076517 -0.27073202
000050 35 4e 4e 3d cb 6f a4 3e 7c 69 2a 3c f0 e9 95 bd
       0.050367553 0.3211654 0.010401126 -0.07320011
000060 e8 42 26 3b 0f 6f e2 3c 44 7e 84 bc cf 83 24 3f
       0.002536947 0.027640847 -0.01617349 0.64263624
000070 d8 f9 34 bc d5 26 94 bc 37 0c ab ba ec 6b 0d bb
       -0.0110458955 -0.018084923 -0.0013049905 -0.002157922
000080 39 e9 59 3c 54 f8 1f be 88 a0 77 be 10 87 72 bd
       0.0133002335 -0.15622073 -0.24182332 -0.059210837
000090 ae 16 59 be 55 f6 a6 3e ea 1a 06 3e 8c 2b de be
       -0.21200058 0.3260981 0.13096204 -0.433926
0000a0 6e d6 64 bb 6e 52 9f 3d db d8 90 bb b4 1c 93 bc
       -0.003491785 0.07779394 -0.0044203824 -0.017958023
0000b0 51 c8 3c bd 14 01 45 3e 8c 0a 87 3d 12 4b 6f bb
       -0.046089474 0.19238693 0.065938085 -0.0036513251
0000c0 73 bd a8 3c 50 7f 05 3d a1 95 5f bd 96 32 10 be
       0.020598149 0.032592118 -0.054586057 -0.14081797
0000d0 d9 55 79 bd 81 b7 a9 3e c1 68 3e 3c 96 f4 5e bb
       -0.060872886 0.33147815 0.011621655 -0.0034020296
0000e0 00 0e 29 3c 00 ef 2c bd f3 e9 cf 3a 40 6a 18 3c
       0.010318279 -0.042220116 0.0015862569 0.009302676
0000f0 6c cb 14 be 1e 6c 11 be 2f ea b8 bd d6 b2 90 3e
       -0.14530724 -0.142014 -0.09029042 0.2826144
000100 70 59 f2 bb 44 59 91 be 71 d2 2d be fb f0 ce be
       -0.0073959157 -0.28388417 -0.16974808 -0.40418229
000110 b0 6c c3 3d 27 57 27 3d d9 31 38 3e 27 2c c3 3d
       0.09542215 0.0408546 0.17987765 0.09529906
000120 a3 62 dd bd 2b dc 44 bd bb 21 96 bd b6 19 86 3f
       -0.10809829 -0.04806153 -0.07330652 1.0476596
000130 98 f8 54 3a f2 d6 b5 b7 2a 95 cf 3c 42 e1 8d bd
       0.00081242016 -2.1676973e-05 0.025339682 -0.0692773

1.nn.layers.0.bias f4 [40]
000000 33 7a 2f bf a1 af ec bd 21 9b c5 be af 76 fc be
       -0.68545836 -0.11556936 -0.38594916 -0.49309298
000010 5f 2b 8a bf 0f 36 5d bd 81 4d 3c bd d1 5e 84 be
       -1.0794486 -0.054006632 -0.04597235 -0.2585359
000020 a2 3d 5c bf f1 b3 4f bf 35 aa 04 bf bc 22 64 bd
       -0.86031544 -0.81133944 -0.51822215 -0.055697188
000030 c2 ba 71 bd ae 1a 51 3f 94 5c 8c bd a5 d4 37 bc
       -0.059015997 0.81681335 -0.068535954 -0.011220132
000040 09 f9 1e be 3e e4 38 bf 29 24 2d bf f1 bb 5e bf
       -0.15524687 -0.7222327 -0.676333 -0.87005526
000050 50 2b f0 bd d2 6d 12 bf 4d 0d af be f9 ec 02 bf
       -0.11727011 -0.5719882 -0.34189835 -0.5114284
000060 9a 12 a6 be be 48 11 bf 6d e2 46 bf 00 7c 29 be
       -0.32436067 -0.5675162 -0.7768925 -0.16551208
000070 74 31 57 be be 5c 55 bd ca c7 16 bf 5f 39 0c bf
       -0.21014959 -0.0520904 -0.58898604 -0.5477504
000080 2e 07 8a be b4 06 12 bf fe f8 f0 be 47 70 6a bf
       -0.26958603 -0.5704148 -0.47064966 -0.9157757
000090 0e 18 6f be bd e6 fd bd 46 b1 94 bb 12 83 2b be
       -0.2334902 -0.123975255 -0.004537734 -0.16749218

1.nn.layers.1.weight f4 [4, 40]
000000 4f 6d 54 bd 9e a8 5a be c6 01 5d 3d f8 01 0f bd
       -0.051862057 -0.21353385 0.05395677 -0.034913987
000010 7d 58 22 bf 92 01 b1 3d 0f 88 65 bd 2b ab a6 3c
       -0.6341627 0.08642878 -0.05603796 0.020345291
000020 ae f3 62 bd 31 92 5b be 22 6e 99 be d4 6d ee be
       -0.055408172 -0.21442486 -0.29966837 -0.46568167
000030 72 4a f9 3d 9e eb 92 3e e8 09 6d 3d 6f 23 2b 3d
       0.121724024 0.28695387 0.057870775 0.04178184
000040 73 92 2e bd 36 91 c5 3f 3e ef 8a 3f 31 6e ed be
       -0.042620134 1.543494 1.0854261 -0.46373132
000050 1d 73 ff 3c 0c a1 db be 28 84 81 bd d4 a6 50 bc
       0.03118282 -0.42896307 -0.06324035 -0.012735087
000060 5e 0b 52 bd 67 a9 1d bd 91 c8 40 be 93 45 28 3d
       -0.05128037 -0.038491633 -0.1882651 0.041081976
000070 a9 bb 07 3e b7 d8 d0 be f1 10 bd 3e f4 4d 23 be
       0.1325518 -0.4079034 0.36926988 -0.15947706
000080 a3 70 59 be b4 0d 7e 3f 22 85 8e 3f c5 26 f6 bd
       -0.21234374 0.9923966 1.1134379 -0.120191135
000090 d0 1a a3 3d 17 5b 88 3e 3e 97 e9 bd 04 be e8 bd
       0.079640985 0.26631996 -0.114058 -0.113643676
0000a0 c8 bc a2 bc 41 1c a0 3b a8 0b ac 3c a9 86 88 3d
       -0.019865409 0.0048861806 0.021001652 0.066663094
0000b0 ba 6c 77 3c 18 da 31 3d 0b 9d 1c bc a3 49 85 3c
       0.015101606 0.04342088 -0.009558926 0.016270464
0000c0 ea d4 3f 3e aa 39 ac bd c7 dc c8 bc ff 78 43 bb
       0.18733564 -0.08409436 -0.024519337 -0.0029826758
0000d0 13 96 a9 3b e4 1f 60 3e f8 b3 7f 3d cf 75 04 ba
       0.005175361 0.21887165 0.06242749 -0.0005052955
0000e0 56 24 e0 3c ef 39 0d 3d 04 f4 e8 bb 3a d6 09 bd
       0.027361076 0.034479078 -0.007109167 -0.033651568
0000f0 0d 08 ab 3b a3 e6 58 bd b2 47 5c bd dc 6e 0a 3d
       0.0052194656 -0.052954327 -0.05377931 0.03379713
000100 23 2d bf bc c1 11 33 be 95 e0 47 bd fe 0d 37 bd
       -0.023336953 -0.17487241 -0.048798162 -0.04469108
000110 b8 de f9 bd b8 cb c7 bc b2 f4 7c 3d 59 7e 6a bd
       -0.12200683 -0.024389133 0.061756797 -0.0572494
000120 75 45 3b 3c 9d 18 08 3c 28 c2 a8 bc 46 c6 0b bc
       0.011430134 0.0083066495 -0.020600393 -0.008531159
000130 3e 59 89 3b f4 c9 c5 3e 77 4b a4 ba 4b de 23 3c
       0.0041915467 0.3863064 -0.0012534697 0.010001729
000140 9e 63 4e be dd 2b 21 3c 76 90 85 bc 1b b9 a1 bd
       -0.20155188 0.009837118 -0.016304236 -0.07896634
000150 2b 82 c2 be df d3 db 3e 0c d0 f7 3e 56 8f 25 bd
       -0.37989935 0.42935082 0.48400915 -0.0404199
000160 b9 bc cd bd 0d f8 b6 3d 74 b3 5c bd a7 06 e8 3e
       -0.100457616 0.08934031 -0.053882077 0.45317575
000170 4b 35 4b 3e 1b 1f 95 3e 79 cf 26 3d a5 a9 f3 3d
       0.19844548 0.29125294 0.040725205 0.118975915
000180 1a e5 0b 3e 0d 1f 88 bf e5 8f 96 3e 8c 2a e5 3b
       0.13661614 -1.0634476 0.29406658 0.0069935974
000190 b8 91 b0 3c f0 50 9f bf 67 88 8a bd 17 66 9b 3d
       0.02155386 -1.2446575 -0.06764298 0.075878315
0001a0 cb 56 76 3e e2 90 13 3d 24 c6 df 3d fc cc c0 bb
       0.24056546 0.036026843 0.10926464 -0.005883811
0001b0 53 34 17 be 7e 31 5a 3b 63 a4 f8 bc 5b 16 16 3e
       -0.14766054 0.003329366 -0.030351823 0.14656965
0001c0 82 2d 8b 3d 89 7d 31 bd 1c 11 52 be ae ed 74 bd
       0.06795789 -0.04333261 -0.20514339 -0.05979698
0001d0 f7 41 3f 3e 84 b5 1c be 90 9d 84 3e ce cd d4 bd
       0.18677507 -0.15303618 0.2590146 -0.10390817
0001e0 c0 3b 0d bc 67 86 54 3b ae e2 ca bc 94 46 be be
       -0.008620203 0.0032428743 -0.024766292 -0.37163222
0001f0 bd b7 99 3c dd a1 4b 3d b2 a7 09 bc 4f 25 eb 3c
       0.018764371 0.04971491 -0.008401798 0.028704314
000200 49 6b 6a 3e 1b 6d 89 3d 7d bf b9 3d 05 94 2a bb
       0.22892489 0.06710263 0.090697266 -0.0026028168
000210 a3 fc 11 3d 36 da b7 bd 08 04 7f 3d aa ee f1 ba
       0.035641324 -0.08977167 0.062259704 -0.0018457968
000220 4b 8a 0d 3d dc 7c 4a 3d 97 15 b5 3d 77 e8 fb 3b
       0.034555715 0.04943548 0.088420086 0.007687624
000230 5b 8e 09 be 04 dc ac 3d 9f 99 0f 3d 43 18 a7 3d
       -0.1343321 0.08440402 0.035058614 0.081589244
000240 35 47 65 bb 2f 64 b4 bd 1a a9 1d bd fa 91 54 bd
       -0.003498507 -0.08808171 -0.038491346 -0.051897027
000250 6d 9a a4 bd 03 d9 a1 3b 3b 28 32 ba e6 75 4d bd
       -0.08037267 0.0049392 -0.0006796156 -0.050161265
000260 92 6e 88 3d 22 b6 1f 3c ec 16 08 bf 94 70 74 3d
       0.066617146 0.009748014 -0.53159976 0.059677675
000270 b0 ee 20 3c 70 6f 0c bf c3 dc f0 3b fa a6 46 3c
       0.009822533 -0.5485754 0.0073505356 0.012124771

1.nn.layers.1.bias f4 [4]
000000 3c 1a 83 be 70 cf e3 3d e3 f6 c1 3e ae 2f 16 be
       -0.25605953 0.1112355 0.37883672 -0.14666626

2.nn.layers.0.weight f4 [40, 4]
000000 a3 12 a8 3e 38 ff 0b 3e a2 a5 f2 3d 80 df 83 be
       0.3282672 0.13671577 0.11847998 -0.25756454
000010 3e 6c d9 bd e1 f6 bb bd 19 51 ab 3e d2 bb 92 be
       -0.10616349 -0.09177948 0.3346031 -0.2865892
000020 b6 e1 ad 3d 8e c1 88 3e 07 05 06 be 62 ef 93 3e
       0.084903166 0.2671017 -0.13087855 0.28893572
000030 e6 5e d2 be 46 e1 34 be 80 18 0c be 0b 69 1f 3e
       -0.41088027 -0.1766406 -0.13681221 0.15567414
000040 74 c4 6f 3d 3f ec 8e 3e c0 e1 42 bd 3e 75 97 3e
       0.05853696 0.27914616 -0.047578573 0.29581636
000050 2f eb 81 3e 30 52 27 be 39 da fe bd 3a 64 d6 3e
       0.25374743 -0.16339946 -0.124439664 0.41873342
000060 60 48 81 3e b6 a7 a3 be b1 91 79 3e 82 6a d2 be
       0.2525053 -0.3196389 0.24371983 -0.41096884
000070 dd 17 71 be 94 d8 e7 bc 19 4c ee 3d 94 d0 ba 3d
       -0.2354426 -0.028301515 0.11635608 0.09121814
000080 b1 40 bd be 23 35 07 3f ab 36 cd 3d 37 2d f6 be
       -0.36963418 0.52815455 0.10020193 -0.4808137
000090 ab de 6b 3d fb 9c 28 3e 92 79 81 3e b9 fb f9 be
       0.0575854 0.16466133 0.25288063 -0.48824862
0000a0 d1 d2 c1 3e a9 93 2c be 7f 58 4e be 88 dc da bd
       0.37856153 -0.16853203 -0.20150946 -0.10686594
0000b0 80 9b fd 3e 28 88 9e 3e 44 56 74 3e d1 71 2a 3d
       0.495327 0.30963254 0.23861033 0.04161245
0000c0 2f 9e d4 3e 9f f5 3c be b6 e8 a3 bd ec c4 9c 3e
       0.41526935 -0.18453072 -0.080033705 0.3061899
0000d0 bc 78 33 bf 99 a6 f0 be b6 5d d6 3c 22 1b 59 3e
       -0.701061 -0.47002104 0.026167732 0.21201757
0000e0 10 19 85 3e 10 35 c5 bd c2 c4 6e bd b9 f2 35 3e
       0.25995684 -0.096292615 -0.05829311 0.17768373
0000f0 23 07 9a bd 8c 69 ab be e7 51 91 3d c1 2c db bc
       -0.075208925 -0.33478963 0.070957 -0.026754739
000100 7f 55 c1 3e 9f 12 c6 3e 77 93 9d bd e6 8b 23 3e
       0.3776054 0.38686082 -0.07694142 0.15971336
000110 db e1 44 3d 0f 83 ab bc a6 9a cd 3c 25 35 4c bc
       0.048066955 -0.020936517 0.025098156 -0.0124638425
000120 04 2f f1 3e 87 3a 0d 3f e0 e4 28 be 6b 85 a4 be
       0.47106183 0.5516743 -0.16493559 -0.3213304
000130 66 31 46 be fa 85 ea be 61 7d d5 3d e4 80 e8 3e
       -0.19354782 -0.4580534 0.10424305 0.45410836
000140 28 e6 d8 3e 68 2c 82 3e 5e c9 4a be de 02 ca be
       0.42363095 0.25424504 -0.19803378 -0.39455312
000150 5b 7d c3 bd 6b 32 72 be 38 7a 24 3f 4b c6 d1 be
       -0.09545394 -0.23652045 0.6424899 -0.40971598
000160 05 cd 39 3e 3a 9f f4 bd 27 09 c9 be 93 6b e7 be
       0.18144615 -0.119444326 -0.39264795 -0.4519926
000170 e0 98 c3 3e 40 d1 e9 be fc 0e 01 3e 8d 2b fc 3d
       0.38202572 -0.45667458 0.12603372 0.12312994
000180 ae 02 0c 3d f0 05 33 3d 77 90 c2 bd 24 c3 5b 3e
       0.034182243 0.043706834 -0.09500211 0.21461159
000190 3c 7b aa 3e a2 d3 e3 be db 64 13 3d 80 73 1e 3e
       0.33297145 -0.444974 0.035984855 0.15473747
0001a0 4b c3 41 3e d4 c2 28 3d 1a f0 b9 3b b7 e3 d4 bd
       0.18922155 0.041201428 0.0056743743 -0.10394996
0001b0 9f 58 01 3e ed 14 d8 3e 08 f1 cd 3d dd 50 98 bd
       0.12631463 0.42203465 0.10055739 -0.074372984
0001c0 18 1c 1e bf 1b 5c 06 bd eb cd 9c be e8 06 7d 3e
       -0.6176162 -0.032802682 -0.30625853 0.24709666
0001d0 c0 58 40 be 42 95 6a bd 11 71 8b bd 3e 2a 5b 3d
       -0.18783855 -0.05727125 -0.06808675 0.053507082
0001e0 bb c7 bc 3e 4d da 03 be cf 05 9e 3d 80 a6 b5 3e
       0.36871132 -0.12876244 0.07715952 0.35478592
0001f0 2f b1 f6 3e 3b 16 61 be 46 7f 9a 3c ad 6f 75 3e
       0.48182055 -0.21981137 0.018859517 0.23968382
000200 cd a2 2b 3e c6 43 00 3f ab a0 81 be 78 e2 07 bf
       0.16761322 0.50103414 -0.25317892 -0.5307994
000210 9e 61 04 3e 82 9a 25 3c 2d a8 fa 3d e8 6b d9 3e
       0.12927863 0.010107638 0.12239108 0.42465138
000220 7e 6f b5 3e 77 1c a2 3e 91 6e d0 bd 97 dd 01 bf
       0.35436624 0.31662342 -0.10177339 -0.50728744
000230 d1 80 f5 bd a5 89 00 bf b8 d5 82 be 71 15 ab bd
       -0.119874604 -0.5021003 -0.2555368 -0.08353699
000240 8d b6 26 be ae 09 a3 be e4 bb 6d bd 26 67 cb be
       -0.16280575 -0.31843323 -0.058040515 -0.39727134
000250 4b f3 cc be 02 87 34 3e e0 4c c5 3e 75 67 99 be
       -0.40029368 0.17629626 0.38535213 -0.29961744
000260 bd e0 30 be c3 85 e4 bc 15 73 b9 be 07 c5 3b be
       -0.17273231 -0.027895814 -0.36220613 -0.18336879
000270 75 2e be 3e cf 6c de be 63 f1 71 3d 7f ce 18 3f
       0.3714482 -0.4344239 0.059068095 0.5969009

2.nn.layers.0.bias f4 [40]
000000 c8 1c 9e 3d 77 52 eb 3c 77 1b b4 be 99 c1 08 be
       0.07720333 0.028725846 -0.35177204 -0.13355102
000010 48 8e a0 bd b8 5a d3 3c 3a 4c d5 3c 65 88 a5 3e
       -0.07839638 0.025800094 0.026037324 0.32330623
000020 1d 98 08 bf 6f 8d bb be 94 d2 0c bf 3d 9b f1 be
       -0.53357106 -0.36631343 -0.55008817 -0.4718875
000030 9e 7d 14 be 67 34 a5 be 3f 5a bf 3d 73 d6 ae bc
       -0.14501044 -0.32266542 0.09343385 -0.021342492
000040 50 7e b9 be 33 35 93 3c a8 fd 06 bf 49 6b 24 be
       -0.3622918 0.017969703 -0.527308 -0.16056551
000050 29 bc 82 be ea 24 a6 bf 18 44 ce be 42 44 95 bd
       -0.2553418 -1.2980015 -0.40286326 -0.0728841
000060 66 14 55 3e 0b 66 f4 3e 1c 17 70 3e 07 17 b5 be
       0.20808563 0.47734103 0.23446316 -0.3536913
000070 c3 33 41 bf 8c 41 96 3e 63 52 86 3d 98 47 2e be
       -0.7546961 0.29346883 0.06558683 -0.17019498
000080 1f 13 b1 be 6a 46 f8 be 6f ed 42 be 13 df 47 3e
       -0.345849 -0.48491222 -0.19035886 0.1951869
000090 42 c7 85 be e2 02 c6 be d6 14 7c bf 19 68 14 bf
       -0.26128584 -0.38674074 -0.98469293 -0.5797134

2.nn.layers.1.weight f4 [40, 40]
000000 40 97 53 bb 31 09 c3 be 18 38 64 3e ba 10 5f 3d
       -0.0032286197 -0.3809295 0.22287023 0.05445931
000010 c3 bd 37 3d d0 90 91 3e b8 20 b2 be 63 97 a3 be
       0.044858705 0.28430796 -0.34790587 -0.31951436
000020 30 61 93 3f dd 86 5f 3e 0e 9b f7 be 08 f3 84 bd
       1.1514034 0.2182879 -0.48360485 -0.06491667
000030 7d 19 15 3f a6 bc d6 bf 68 27 f1 3e e5 65 ec be
       0.5824202 -1.6776321 0.47100377 -0.4617149
000040 7d bd 82 be 6a 19 d4 3b 2f 41 ef bf 8c a0 8b bf
       -0.25535193 0.006472756 -1.8691767 -1.090837
000050 d7 62 8b be 72 aa 9a bd 85 46 c0 be b1 41 72 c0
       -0.27223846 -0.07552041 -0.37553802 -3.7852595
000060 38 73 44 3d c6 5a f3 3d c7 11 62 3f a7 03 cd be
       0.047961444 0.11882548 0.88308376 -0.4004185
000070 87 e8 59 3e 07 4f 1d bd 65 9a 56 c0 88 6d 5c c0
       0.21280108 -0.038405444 -3.3531735 -3.4441853
000080 49 47 82 3d ef 48 fe be 38 68 47 bf a0 ab 1b 3e
       0.06361253 -0.4966502 -0.778934 0.15202188
000090 5a 78 bd be 13 6c 25 3f b2 92 f1 3e 30 c7 a9 3d
       -0.37005883 0.64618033 0.47182232 0.08289945
0000a0 c4 68 70 bd 1e 5f 53 3d c0 e6 9a 3d 5c 44 c4 3c
       -0.058693662 0.051604383 0.07563543 0.023958378
0000b0 dc ce f9 3d 30 39 06 bd 07 5c 1e be c2 1c 94 3d
       0.121976584 -0.032769382 -0.15464793 0.072320476
0000c0 d7 40 a4 3b 28 9b 8e 3d 9d db e0 be bb e8 83 3c
       0.0050126123 0.069631875 -0.43917552 0.016102185
0000d0 64 72 43 be 85 85 f7 bd ed b0 a1 3d fb 99 31 bd
       -0.19086605 -0.12086014 0.07895074 -0.043359738
0000e0 73 19 2d 3e 32 b6 4d 3d e2 79 32 be bb 07 27 be
       0.1690424 0.050222583 -0.17429307 -0.16311543
0000f0 98 01 a6 be 2d 60 9a 3f 46 b5 30 be 97 68 e1 bd
       -0.3242309 1.20606 -0.1725665 -0.11006277
000100 ef 35 ae bd 6a f8 8c 3d 10 34 d6 3d 1b fd e4 3d
       -0.08506381 0.06883319 0.10459149 0.111810885
000110 45 b3 f4 bd 99 1d 1a 3e 03 37 f9 3d 75 c3 81 be
       -0.119482554 0.15050353 0.12168696 -0.25344434
000120 d4 e4 23 3e 0a 27 b0 3d 91 64 a8 bd f3 b0 69 3e
       0.1600526 0.08601196 -0.082223065 0.22821407
000130 9a a4 f4 3d c7 4a 89 bd bd 52 0d 3e 4d d3 9a bf
       0.11945458 -0.06703716 0.13801093 -1.2095734
000140 de 9e 96 bc a1 6d 0c bf 7f 84 d1 bd de 4f ba 3d
       -0.0183863 -0.5485478 -0.1023035 0.09097265
000150 1b 2d a1 be fa 90 d5 bc 4e 00 12 be b2 59 ac 3c
       -0.31479725 -0.026070107 -0.14257929 0.021038864
000160 b6 3f 14 c0 43 8f 63 be 92 e9 b6 3d c8 02 32 3e
       -2.3163886 -0.22222619 0.08931269 0.17383873
000170 b0 e7 8e bc d0 ca 36 be 09 67 8b be 66 09 82 bc
       -0.017444462 -0.17850804 -0.27227047 -0.015873622
000180 8e 85 10 3b ff ee 5f 3d 3e d9 08 3e 63 70 16 3d
       0.002205226 0.054671284 0.13364121 0.036728274
000190 fa 24 04 bf 45 d9 d6 bb 8c ae d9 3d d1 0e 41 be
       -0.5161892 -0.0065566623 0.10628995 -0.18853308
0001a0 79 b7 39 bf 44 6c 0d be 53 f9 7f bd eb ef 22 be
       -0.7254558 -0.13810831 -0.062493633 -0.15911834
0001b0 ac da 0f 3f 36 98 ae 3d 51 de 60 3d 46 31 99 3d
       0.5619304 0.08525126 0.054899517 0.07480101
0001c0 d4 9c d0 3c 5e 5f a8 bd 82 3c 7f 3e 79 5b 0f 3e
       0.025465406 -0.08221315 0.24925426 0.13999738
0001d0 dc 5c de 3d 54 91 80 bf 66 6b 84 bf ad 93 db 3d
       0.10857555 -1.0044351 -1.0345275 0.10721526
0001e0 c6 cb 78 bc 48 27 8e bd 53 c9 80 3e 7c e6 7d be
       -0.015185302 -0.06941086 0.25153598 -0.24794954
0001f0 a9 ba 58 3d 16 89 a1 ba a0 d1 1e 3e 75 7c df bc
       0.052912388 -0.001232418 0.15509653 -0.027281025
000200 3d 56 e4 bd 31 f1 4c be be 76 c1 3d e1 35 25 be
       -0.11149261 -0.20013882 0.094464764 -0.16133834
000210 72 1a 83 bd f5 9a 64 3e aa 23 f5 bc 43 fc 3d 3e
       -0.064015284 0.22324736 -0.029924233 0.18553261
000220 95 12 0d bd e4 83 9f 3d 77 60 8a be 5e 3c 67 be
       -0.03444155 0.07788828 -0.27026722 -0.22581622
000230 f6 95 01 be b3 be e5 3e 3d be d8 bb 0d 28 68 be
       -0.12654862 0.44872054 -0.006614475 -0.22671528
000240 a8 67 28 bd f3 66 60 3e c0 ec 87 3e 98 2f 38 3e
       -0.04111448 0.21914272 0.26547813 0.17986906
000250 47 34 74 be 08 f9 e0 bd 1b 83 8d 3d 0c 36 47 be
       -0.23848067 -0.10984999 0.06909772 -0.19454211
000260 e9 03 09 3e 2c 62 56 3d 6f fc 12 be 25 f6 08 3d
       0.13380398 0.052339718 -0.14354108 0.033437867
000270 53 b2 00 3e d5 c1 59 3c 79 ce 4e 3e 75 ea e2 bc
       0.12568025 0.013290842 0.2019595 -0.027699688
000280 dd 69 fc bc 03 c3 08 be 22 83 b5 3d ad 8f 29 bd
       -0.030812198 -0.13355641 0.08862902 -0.041396786
000290 74 fd db bc c5 c0 ee bc 46 2b c9 bd 19 bf 06 3e
       -0.026854254 -0.029144654 -0.09822707 0.13158835
0002a0 f2 d5 da bc 02 79 66 be 79 b7 e8 be fc 1b 23 be
       -0.026713345 -0.22507098 -0.4545248 -0.15928644
0002b0 04 3b c1 be 17 10 6f be 64 31 96 be 0e 77 42 3e
       -0.37740338 -0.23345982 -0.29334557 0.18990728
0002c0 62 df 93 3c 9a 9d 9c 3d 89 11 7a bd 4d 19 f0 3b
       0.018050853 0.076472476 -0.06105188 0.007327235
0002d0 4e f0 72 be df 6a d3 ba f4 4b 08 3e 4c 87 c3 bd
       -0.23724481 -0.0016129873 0.13310224 -0.0954729
0002e0 b0 77 1c 3e 74 4b 9b bd 2b 85 86 bd 6c b5 39 3c
       0.15280032 -0.07582751 -0.065683685 0.011334758
0002f0 b2 c6 0c 3e 05 50 68 3d 97 c9 af 3d 63 76 e5 be
       0.13747671 0.056716938 0.08583372 -0.44816884
000300 32 ce 33 3e 1e 39 c8 3d 18 d5 b3 be 6e c6 1a 3e
       0.17559126 0.09776519 -0.35123515 0.15114757
000310 e1 f5 22 3e 30 76 0b 3e 48 2f c1 bd ad 6b 87 be
       0.15914108 0.13619304 -0.09432846 -0.26449338
000320 3b 57 64 3c 41 90 86 3e e3 c6 a7 3d d6 c8 c5 3d
       0.013936813 0.26281932 0.081922315 0.09657447
000330 9a 8f ed 3c 54 da f2 3d 4c 8d 21 3e c8 aa 58 be
       0.028999139 0.11858049 0.15776557 -0.21158898
000340 3f 60 c3 bd a2 47 f3 be 47 0f af 3b 79 c7 a5 3d
       -0.09539842 -0.4751559 0.0053423974 0.08094687
000350 86 4d 32 be 87 37 4b be a3 df 05 3e 02 dc 0d bd
       -0.17412385 -0.19845401 0.13073592 -0.034633644
000360 bc 1e 42 3d 15 96 5f bd 0c 85 f2 be 17 c8 a9 3d
       0.04739259 -0.05458649 -0.47367132 0.08290117
000370 fb f8 37 bd 7c 7b 50 3e 7b dd 4d 3b 6a f1 73 be
       -0.04491518 0.20359606 0.003141253 -0.23822561
000380 d7 f4 31 3e d5 6c 85 3e 33 75 0b 3e ab fb f3 bd
       0.17378555 0.26059595 0.13618927 -0.11913236
000390 98 c9 b7 be 8f 40 bd bc 80 7a 0e bc 98 8e f2 3d
       -0.3589599 -0.023102073 -0.008696198 0.11843604
0003a0 44 45 9e 3e 41 39 a7 3d 65 e0 b9 bc 5b 04 95 3e
       0.3091222 0.08165217 -0.022690007 0.29104885
0003b0 f6 26 11 3c ff a4 53 be 40 d0 c5 3e 15 13 1c bf
       0.008859387 -0.2066841 0.38635445 -0.60966617
0003c0 75 b4 19 be fc 56 34 3d df 8a 06 3d 78 4d 5f bd
       -0.15010245 0.044028267 0.03284728 -0.05451724
0003d0 1d ed a0 bd e3 b2 50 be 12 60 c3 bd da 57 7c 3d
       -0.07857726 -0.2038074 -0.09539808 0.06160722
0003e0 70 d2 8e bd df 57 8f bd 4a b3 ec bd 11 92 0d be
       -0.069737315 -0.06999182 -0.11557634 -0.13825251
0003f0 c4 8e c6 3c 0d 37 de bd 71 87 d9 3c 7a 69 e0 bd
       0.024237998 -0.10850344 0.026553841 -0.10957618

2.nn.layers.1.bias f4 [40]
000000 11 9e 1e be e5 93 fc 3d 64 f2 1b bd 10 e0 86 3e
       -0.15489985 0.12332896 -0.03807296 0.2634282
000010 a5 cf 60 3e e6 86 61 bd 70 75 a6 bd b4 e4 99 bd
       0.2195421 -0.05506029 -0.08127868 -0.07514325
000020 a4 00 c4 bd 08 ae 00 be 7e ae 0b 3d bf ca 8e bd
       -0.09570435 -0.12566388 0.034101956 -0.069722645
000030 81 ad 86 3e 57 f0 0c 3e 29 7f 34 3d f2 81 80 be
       0.26304248 0.13763557 0.044066582 -0.2509914
000040 58 af 1b be 42 24 17 be 76 f5 90 3d 07 f1 71 be
       -0.15203607 -0.14759925 0.07078068 -0.23627101
000050 bb be af 3d 6c f1 63 bd 58 3e df bc 34 ab 90 3b
       0.08581301 -0.05565016 -0.027251408 0.0044149403
000060 52 0f f4 3d 78 34 8e bd 16 5e af be e6 b5 38 be
       0.119169846 -0.06943601 -0.3425147 -0.18038139
000070 f5 1d 2d be 44 b8 53 be 67 ad a6 bd cb c0 7c 3e
       -0.16905959 -0.2067576 -0.081385426 0.2468292
000080 8d f3 95 3d 58 48 06 be 8c e9 79 bd 68 62 40 be
       0.07321844 -0.13113534 -0.061013743 -0.18787539
000090 61 98 f5 bc ce 6b 08 3d 99 86 63 3e 6d cf f9 bd
       -0.029979886 0.033305936 0.22219314 -0.121977665

2.nn.layers.2.weight f4 [124, 40]
000000 a4 10 5f bf 12 ad 17 bd 05 0d f5 3c a1 fa ee bd
       -0.87134767 -0.037030287 0.029913435 -0.116688974
000010 88 c9 f1 3d e7 5c 57 3e 03 b4 9a 3d 02 ec 47 be
       0.11806017 0.21031533 0.07553866 -0.19523624
000020 4e f6 10 3e 80 d8 a0 3d b7 6a 12 be dc ae 08 bc
       0.14156458 0.07853794 -0.14298521 -0.008342471
000030 1d 3c 24 be 9e 1e 17 be 63 db ea 3c 15 2e 41 be
       -0.16038556 -0.14757773 0.028669065 -0.18865235
000040 e7 8b 0e be db 06 89 3c 60 25 6f bd c8 47 e0 bd
       -0.13920556 0.016726902 -0.058385253 -0.10951191
000050 d9 3e d0 bd ed d6 73 bd 5a b6 19 3d 24 e1 85 be
       -0.10168237 -0.05953114 0.03752742 -0.2614833
000060 98 b8 c5 3d c2 84 b5 bc 7e 82 18 3e e5 e0 1a 3d
       0.09654349 -0.02215803 0.14893529 0.037812132
000070 7a 85 db bd 9c d8 9d bc 15 08 d7 3d 36 cd 8f 3d
       -0.10718818 -0.019268326 0.104995884 0.07021563
000080 95 03 78 bc b5 4a 3c bc 44 24 b7 bd 2f fa 4f be
       -0.015137573 -0.011492421 -0.08942464 -0.20310281
000090 53 e8 e1 3c 98 bd 4f 3d 71 0c 14 be a8 38 3f bd
       0.027576601 0.05071792 -0.14457871 -0.04668489
0000a0 ce be 84 3d 2e 85 6b bd 7c 57 2e bd f9 71 ae bd
       0.064817056 -0.057500057 -0.0425639 -0.08517832
0000b0 35 96 b5 bc d4 8c 69 3e a8 d0 0e 3e 56 18 87 be
       -0.02216635 0.22807628 0.13946784 -0.26385754
0000c0 f6 f9 52 3d 6c f2 80 3d 37 c6 87 be 01 3f 87 3c
       0.051507913 0.06296238 -0.26518413 0.016509535
0000d0 ab 6f aa bd 16 29 e3 bd b3 73 8f 3c 33 c5 38 be
       -0.0832208 -0.11091821 0.017511224 -0.18043976
0000e0 3c 4f 1b 3c 11 1a 0a 3d a7 58 86 3e ca 85 b8 3c
       0.00947934 0.033716265 0.2623951 0.022524733
0000f0 b0 be bd 3b ff cb 8f 3d e0 78 a0 bd 1a f1 85 bd
       0.005790554 0.07021331 -0.07835555 -0.06540127
000100 1e de 89 bc ed 86 64 be 89 c4 1d be a0 e2 b0 3c
       -0.016829547 -0.22317095 -0.15407003 0.021592438
000110 6e 27 f9 bd e1 b6 fb 3d 22 5e 9e 3e 58 c2 92 bd
       -0.12165724 0.12290741 0.30931193 -0.071659744
000120 8c 64 1a 3d 4e 5c 22 3d d4 58 5e 3d 75 08 63 bd
       0.037693545 0.03963881 0.05428393 -0.055427987
000130 9a 09 80 3e b3 43 e0 3d 05 db 17 be ce 46 a8 3c
       0.25007325 0.109504126 -0.14829643 0.020541575
000140 c8 85 90 bf ae d4 c9 3d ad d3 81 3d 41 ad 9a 3c
       -1.1290827 0.098550186 0.06339202 0.018881442
000150 8e c3 16 bd 3f e8 56 bb 2c 91 1a 3a a8 9a 41 be
       -0.03680759 -0.0032792238 0.0005896266 -0.18906653
000160 4f 78 12 3d 22 f6 f7 3d 0d ea 6f be 67 90 d3 3d
       0.035759266 0.12107493 -0.23429127 0.10330277
000170 c5 f3 a4 3d 76 ed 9b 3d 90 8c 5b 3d 37 67 07 3d
       0.08054308 0.076136515 0.053600848 0.033057418
000180 01 7e 3b 3d 65 5e 3b bd 59 32 83 3d 6f 6a 14 be
       0.045774464 -0.04574432 0.064060874 -0.14493726
000190 ef ee bb 3d 87 74 36 3e 58 32 53 bc c7 bb 58 3d
       0.09176432 0.17817889 -0.012890421 0.052913453
0001a0 70 87 b2 3b 5b b9 00 3d 86 ff 65 3e cf b4 2b 3d
       0.0054482743 0.03142677 0.22460756 0.04192048
0001b0 7e dd 0c be 31 eb 13 3c 88 f2 dc 3b b8 b5 a4 bb
       -0.13756368 0.009028242 0.006742779 -0.0050265454
0001c0 dd 52 3a be 11 cf a5 3d ae 71 bb bb 1d ed d7 bd
       -0.18195672 0.080961354 -0.005720339 -0.10543273
0001d0 6a 19 5b 3c 82 d6 1c 3d d7 86 57 be 59 99 ac ba
       0.013372758 0.038290508 -0.21047531 -0.001316826
0001e0 d2 1f 08 40 01 94 93 3e 51 f1 12 3f 60 68 89 bd
       2.1269422 0.28823856 0.5739947 -0.06709361
0001f0 35 fa 81 3e 8e 03 3c be f5 81 47 be 6a 23 a3 3e
       0.25386205 -0.18360731 -0.19483168 0.31862956
000200 8c 4e c7 bd 76 71 0b be 99 d2 81 be 94 18 38 3e
       -0.097317785 -0.136175 -0.25355986 0.17978126
000210 2c 6d cb 3d 5a 41 06 3e 9c 09 8a 3d ad 75 65 bd
       0.09932932 0.13110867 0.06740114 -0.056020427
000220 07 d0 b5 be 45 90 fc bd 80 8d 3d 3c 74 bf 77 bc
       -0.35510275 -0.12332205 0.011569381 -0.01512133
000230 e3 5f 19 3f ae 7c 00 3e ee 8a 53 3c 17 71 b6 bd
       0.59911937 0.12547562 0.012911541 -0.08908289
000240 4d 0a 84 be 1e 07 b5 3e 0c 7c f8 3e fc f5 ad bc
       -0.2578911 0.35356992 0.4853214 -0.021235459
000250 43 2e 15 3d f9 0b 0a be 66 04 3f be 54 7a 2b be
       0.03642107 -0.1348113 -0.18654022 -0.16745883
000260 06 e9 53 be bb 5b 95 3d c1 f2 09 be 39 e6 4f 3c
       -0.2069436 0.07292887 -0.1347151 0.012689167
000270 29 6d f7 3d be 5d 12 3d 5e 7f c1 be 6c f3 8e bc
       0.120813675 0.03573393 -0.37792486 -0.017450057
000280 89 b2 b7 3e c7 8e 2c bd 1c 70 9c bd 66 af 7d be
       0.358784 -0.04212835 -0.07638571 -0.2477394
000290 7a 9e c2 be d0 f5 71 3d ea bf 91 bd 71 ad 5b 3e
       -0.38011533 0.059072316 -0.07116683 0.21452881
0002a0 bd 8d 5f be 5a e6 dd 3d f2 97 11 3a f5 da 9a 3d
       -0.21831413 0.10834952 0.00055539527 0.07561294
0002b0 5f fa bd bd 70 b4 98 bc 33 64 51 bd 2c de 61 3e
       -0.0927627 -0.018640727 -0.051120948 0.22057408
0002c0 1f 0b 74 be 32 12 27 3d de a4 cf bc b6 80 58 bd
       -0.23832367 0.040788837 -0.02534717 -0.052857123
0002d0 92 b5 87 be 88 43 59 be 06 d5 73 3d 25 fd b5 3e
       -0.26505715 -0.21217167 0.059529327 0.35544696
0002e0 ec e4 76 be b7 0f 56 3e 46 a6 d0 3d f2 45 5c 3d
       -0.24110764 0.20904432 0.10187964 0.053777643
0002f0 54 5b 76 3d ed 0d 09 bd c0 db ab 3d 7d 35 44 be
       0.06014569 -0.033460546 0.08391523 -0.19161029
000300 7d 41 b9 3e 19 32 3d 3d ee 08 01 3d 88 c7 3f be
       0.36182776 0.046190355 0.031502657 -0.18728459
000310 f6 28 8d 3e ec 75 b5 be 66 29 6f 3e 81 3d 6f 3d
       0.27570313 -0.3544153 0.23355636 0.058408264
000320 9d af cf bb d8 87 ff bd fe 9a 99 bd 63 9a 2f bd
       -0.0063380734 -0.12477082 -0.075002655 -0.042871844
000330 5d ad d6 3d 31 0e 24 be 4b 6b 01 be ac 2b 03 3e
       0.10482285 -0.16021039 -0.12638585 0.12809628
000340 66 06 02 be bc 7f 89 3d 75 86 89 be 75 d8 91 be
       -0.12697753 0.067138165 -0.26860395 -0.28485456
000350 d5 a9 a5 3c 10 87 bd 3c 9c 80 c6 3c be 0e cc bd
       0.020222584 0.023135692 0.024231248 -0.09963749
000360 5b 1b 6e be 09 61 65 3b 44 d5 82 bd a0 42 60 3d
       -0.23252623 0.0035000464 -0.063883334 0.05475104
000370 68 8d 5f bc 99 61 f9 bd 76 85 ca bd 1a 7e c7 bd
       -0.013644554 -0.121768184 -0.09888737 -0.09740849
000380 a4 d8 61 3d 71 e3 67 3e e8 d2 2b bf f8 7f ab 3d
       0.055138245 0.22645356 -0.6711869 0.083740175
000390 28 ec c4 bd 19 fa f7 bd fd 2e 9b bd a0 ae 1b bc
       -0.09615356 -0.12108249 -0.07577322 -0.009502083
0003a0 b0 58 c0 3d 33 83 51 bb ad 8e 5f 3d 73 44 92 bd
       0.09391916 -0.003196907 0.054579426 -0.07141962
0003b0 90 dc 19 be e5 49 06 be db a8 1b 3d d9 d3 0c be
       -0.15025544 -0.13114126 0.03800283 -0.13752688
0003c0 7b 58 0f 3e 0f 05 da bd e1 9a 7b bf e9 31 07 bd
       0.13998596 -0.10645496 -0.982832 -0.033006582
0003d0 0f 7f ca 3d b2 a9 e8 bd a2 31 45 be 81 7d d0 3e
       0.09887516 -0.11360492 -0.19257215 0.40720752
0003e0 df 0d 13 bc e6 50 9a 3d 78 c5 6e 3e bc ed b9 be
       -0.008975475 0.075349614 0.23317516 -0.3631419
0003f0 6d b2 33 bd 5c 84 b6 3d 57 9b 82 3e e2 94 60 bd
       -0.043871332 0.08911964 0.2550914 -0.054829486

2.nn.layers.2.bias f4 [124]
000000 0e 2e bf 3d 9d f8 92 3d cc d4 e6 bd a9 e0 0b be
       0.09334956 0.071763255 -0.112710565 -0.1365992
000010 a3 12 b0 be 4f f2 d4 3d f2 39 65 3a 0c b5 18 3e
       -0.3438922 0.10397779 0.0008744291 0.14912814
000020 76 71 83 3d 15 28 10 3f 5f bf 93 bf cf da 0f bf
       0.06418125 0.5631116 -1.1542777 -0.5619325
000030 7c fb 36 3e 11 f0 b7 bd ef b1 8a 3b d5 fc 66 be
       0.17869371 -0.08981336 0.004232637 -0.22557385
000040 81 5e a8 3d 2f bd 04 3e 11 74 1c 3d 6d e1 af bd
       0.0822115 0.12962793 0.038196627 -0.085879184
000050 44 10 3d be f7 dd 0a bf 26 fa e4 be f0 c0 81 3e
       -0.18463236 -0.5424494 -0.44722098 0.25342512
000060 12 2c f7 3e 1d e1 1b be a3 a2 ab be bc 8f ae be
       0.4827581 -0.15222593 -0.3352252 -0.34094036
000070 50 68 6c be 08 81 14 3d c5 6f fe 3d 5b de 6b 3d
       -0.23086667 0.036255866 0.12423662 0.0575851
000080 ed 5d fb 3d 75 f5 1e 3d eb 05 cc 3c fb bc a8 3d
       0.12273774 0.038808305 0.024905166 0.0823917
000090 2b 3f 94 bc a4 da 3f bb 6e 12 83 3d b6 79 1c bc
       -0.018096527 -0.0029274607 0.063999996 -0.0095505025
0000a0 49 a2 58 be 51 9f 88 bd fc 36 f3 3e cf 5a 11 3e
       -0.21155657 -0.06671012 0.47502887 0.14194797
0000b0 7a cb 0b be bf 31 f9 bd bf 20 9a bd 00 d8 cf 3c
       -0.13651839 -0.121676914 -0.07525777 0.025371552
0000c0 25 bb f0 bd 9e b7 b7 bd b1 96 4a 3e c3 ec c9 3e
       -0.11754445 -0.08970569 0.19784047 0.39438447
0000d0 c3 ff 72 3e 64 5a d6 3d e4 0a 86 be 33 41 f0 be
       0.23730378 0.104664594 -0.26180184 -0.46924743
0000e0 f6 ad 79 be 08 33 04 bf c0 57 a3 3e d2 4d 94 3e
       -0.24382767 -0.5164037 0.31902885 0.28965622
0000f0 c7 68 aa 3e 79 7e 07 be 20 db 75 be 76 74 90 bd
       0.33283064 -0.13231839 -0.24009371 -0.07053463
000100 e4 4b 86 3d 9b 2e 30 3d 6f 89 6a bf 74 cd f6 3e
       0.06557444 0.043013196 -0.9161596 0.48203623
000110 97 d1 38 3e 71 ee 62 bf 3c c1 8b 3e ce 26 93 3f
       0.18048702 -0.8864508 0.27295864 1.1496217
000120 5e 9e b1 be d5 a3 ca 3e 8d c0 30 bd 2b 9c d3 bc
       -0.34691137 0.3957812 -0.04315238 -0.025831303
000130 24 85 58 3e 95 59 be bd d0 90 83 bd fa 03 cf be
       0.21144539 -0.0929443 -0.06424105 -0.4043272
000140 c9 32 31 3f 93 b7 7b 3f 89 c7 14 3f 17 97 ac 3f
       0.69218117 0.9832699 0.58116966 1.3483609
000150 a6 0e 3f 3f 8e 38 c8 3d e9 c4 24 3f d2 48 8b 3f
       0.74631727 0.09776412 0.6436296 1.0881598
000160 c5 3e 67 3f 21 a8 f6 3e f4 70 b0 3e 73 12 65 be
       0.90330154 0.48175147 0.34461176 -0.22370319
000170 40 94 0b bc 00 c6 12 3c 6a b9 82 bd 24 e2 92 be
       -0.008519232 0.00895834 -0.06383021 -0.28688157
000180 50 7c 9d be c9 f8 13 bf 10 e3 0f be 73 58 8d 3e
       -0.30758905 -0.5780149 -0.14051461 0.27606544
000190 82 94 ea 3d b6 b5 2c 3f 57 d8 69 3f 4e f6 b4 bf
       0.11454107 0.6746477 0.91345733 -1.4137666
0001a0 ad 1c 84 bd 21 51 89 3c ae 4e d3 bd 38 3e 57 3d
       -0.06450782 0.016762318 -0.10317741 0.05254957
0001b0 8e 51 b3 bd b4 b8 0a be fe 7f 0b bd e6 d0 c0 be
       -0.0875579 -0.13547021 -0.03405761 -0.37659377
0001c0 ca 6b e4 bd 0c 28 7a bd 4c 1b 8f 3f 17 e6 a0 3e
       -0.11153372 -0.061073348 1.1180205 0.31425545
0001d0 a8 eb b3 bd 3d 3e fb 3d de 87 6e 3f 09 05 c2 be
       -0.08785182 0.122677304 0.93176067 -0.37894467
0001e0 1b 3c 97 be 23 cb 91 3c 49 6a 12 bd 4e 0b ae bd
       -0.29538044 0.017797058 -0.035745893 -0.0849825
