Self project/models/nn/smogn/SR/model.pt (torch, 54492 bytes, 9 tensors)

net.0.weight f4 [64, 3]
00000000: 6a0a ea3e 4ff2 a9be 2588 8ebe 5c5b c03c
00000010: d19b d63c eb5c f03e d1af bcbe 9d8e e63d
00000020: 795a fabe 2c7c ba3e 6849 983e 16e5 ecbc
00000030: 3220 013f d03c fd3e 1f3e 99be f4b2 03bf
00000040: d883 8a3e 3455 09bf f4bb 9e3d 533a 5a3d
00000050: 511c 743e 74c2 933e ba8f 9dbe 206a 133d
00000060: 7bca adbe 330e d13e 3629 b13e c8b0 173f
00000070: 6657 0b3f e5a6 9e3e 00cf dc3e 75e8 883d
00000080: 09e2 e6be d424 9abe efa4 94be 23b9 82be
00000090: 053b a9be 8750 1abf a4d5 aa3e afd8 18bf
000000a0: 65b4 3bbf bd8d df3d 4fbb 1cbf 5932 5c3d
000000b0: 8b16 31bd 81c2 cb3e d456 123f be71 643e
000000c0: 89c3 f9be 7ea1 a2bd 375b 7e3e 5b9e 0fbf
000000d0: d34c 2abf ce64 1dbf c886 19bf 88b6 a53d
000000e0: c8f0 8bbe f847 233e 6d99 c3be bd05 20be
000000f0: 8531 08ba a409 243f 4434 c53d a6da f8be
00000100: 86e5 dc3e ee5c e63c 29b0 153f 2efc 6f3d
00000110: 09f8 1fbf 98cc b8bd e681 00bf 8338 dfbe
00000120: 5d92 bf3d 633a 803e 8a29 a3be 9f97 bdbe
00000130: 98af dbbe 11a7 113f 81b9 6b3e 90ae 1cbd
00000140: 4a4b a1be c447 a1be 39f7 ffbd 7d1d 083e
00000150: 9478 9fbe a0c1 a8be 9888 e7be 26dd f93e
00000160: d709 8abe 7bc9 0d3f 7945 77be 5884 a1be
00000170: b481 9abe d918 00bc e49c cdbc f9ef 273e
00000180: 39b0 9ebe 52cc eb3e 23cb ea3d bee1 ecbd
00000190: 67e6 d4be 2248 2f3e 3b38 9fbc 5079 9abd
000001a0: 4bd7 1cbf 418e 9c3e 505c 1c3e 3a7e a73e
000001b0: 6f37 c3be 2a2a 953e d298 063f 7073 2b3e
000001c0: bf4f f13e 4b42 09bf 0c6c d43e 1fb2 10be
000001d0: e449 613e e5c2 083f ce59 423e f7bc 723d
000001e0: b30a 9c3e 2ede 1a3f 13d7 cabe 643c 1d3f
000001f0: 0647 2b3e a06f bb3e c5d9 2cbe 060c 8abe
00000200: 5b3b 1abe 6023 81be 7be0 1fbf 2364 173f
00000210: 8e06 5e3e 6f99 24bf 8c83 803e 02ef d9be
00000220: 7ad5 69be 4b4d 1e3f c219 43bc dba4 d03e
00000230: 9980 9a3e 8bbe 0abd 2de6 23bf a707 eb3e
00000240: 235b a0be 0d03 e6be bcbb 42be a46d f43e
00000250: c1cd 14be 7161 813e fb80 60ba b438 aebe
00000260: 6d0f a43d 71ce 153f 59e8 193f ac4d 103d
00000270: e18c be3d 34d5 c53e df08 f5bd b02c dabc
00000280: af20 c53e c837 cc3e b69a c73d 79e5 fbbc
00000290: c35f 11bf 93dc adbd e705 d9be a285 05bd
000002a0: d6be 51bc 2b5d 5f3e dd67 073f 7503 bf3d
000002b0: c1d6 123e 2bbf 9fbe 2858 15bf c9b1 2dbf
000002c0: 449c 153e 6c57 023e 73ed 0d3f 4ddf ed3e
000002d0: a5bb 49bc a06b 5fbe 441c da3e 3e41 1dbf
000002e0: 4941 06be 67d0 883e 139e 0fbf 9d02 e63e
000002f0: bc67 b8bd 5a29 f83e aebb e2bd ec46 f0be
0.4571107 -0.3319268 -0.27838245 0.023481064 0.026197346 0.4694589 -0.36852887 0.1125767
-0.4889715 0.3642286 0.29743505 -0.02891783 0.5043975 0.4946046 -0.29930207 -0.51444936
0.27053714 -0.53645635 0.07750693 0.05327828 0.23838927 0.28859293 -0.30773717 0.03598988
-0.33943543 0.40831146 0.34601754 0.5925412 0.54430234 0.30986705 0.43126678 0.06684963
-0.45094326 -0.30106223 -0.29032084 -0.25531873 -0.3305284 -0.60279125 0.3336612 -0.5970563
-0.73322135 0.10915706 -0.6122331 0.053758953 -0.04323439 0.39796832 0.5716374 0.22309014
-0.48781994 -0.079409584 0.24839483 -0.56101006 -0.66523474 -0.6148194 -0.59971285 0.08091456
-0.2733214 0.15945423 -0.38202992 -0.15627189 -0.0005195367 0.6407721 0.096291095 -0.48604316
0.43143862 0.028120484 0.58471924 0.058590107 -0.62487847 -0.09023398 -0.5019821 -0.43597803
0.093540885 0.25044546 -0.3186763 -0.3702974 -0.42907405 0.5689555 0.23019983 -0.038252413
-0.31502753 -0.31500065 -0.12498326 0.13292499 -0.3114668 -0.32960224 -0.452214 0.48801535
-0.26960632 0.5538556 -0.24147595 -0.31546283 -0.3017708 -0.007818424 -0.025099225 0.16400136
-0.30993822 0.46054322 0.114645265 -0.115664944 -0.41582033 0.1711736 -0.019435992 -0.0754267
-0.6126601 0.3057728 0.1526959 0.3271349 -0.3812823 0.2913373 0.52576935 0.16743255
0.47131154 -0.5361678 0.41488683 -0.14130448 0.22000843 0.53422385 0.1897957 0.059262242
0.30476913 0.6049527 -0.39617214 0.61420274 0.16726312 0.366086 -0.16879947 -0.26962298
-0.15061705 -0.252223 -0.62451905 0.5913717 0.21682188 -0.6429662 0.25100362 -0.4256516
-0.22835341 0.6183669 -0.011907997 0.40750775 0.30176237 -0.033873122 -0.64023095 0.45904276
-0.31319532 -0.44924203 -0.19016927 0.477399 -0.14531614 0.25269654 -0.00085641415 -0.34027636
0.08010755 0.5851813 0.6012016 0.035230324 0.09304214 0.38639224 -0.11964583 -0.026632637
0.38501498 0.39886308 0.09746306 -0.03074907 -0.56786746 -0.08489337 -0.42387316 -0.032598145
-0.0128018465 0.21812885 0.5289286 0.09326831 0.14339735 -0.31200537 -0.5833764 -0.67849404
0.14610392 0.12728661 0.55440444 0.46459427 -0.012312804 -0.218184 0.4259969 -0.61427677
-0.13110842 0.26721498 -0.5610058 0.4492387 -0.09004161 0.4846905 -0.11070953 -0.4692911

net.0.bias f4 [64]
00000000: 3779 b33e 6d4a e3be d1cb c0be 2bb9 bebd
00000010: 6c24 b53e 205b 1f3e d29b f53e de3d 49be
00000020: c37c e23b 9e9e b1bd f3c6 143f 1dd2 943d
00000030: a6bc 0fbf a0ce 4a3e cb03 15bf 0b71 083e
00000040: b21a 933e e245 57be 9e8b 01bf d19e ddbd
00000050: 55dc bbbe 8681 153f b7f9 98be 2b28 8dbe
00000060: 9317 d53e d0f8 533d 4790 463d 2df9 32bf
00000070: 1907 913e 45a9 dc3e 65ce 0ebf bb1b 173f
00000080: 6be5 e33e f369 a03e a503 12be 1081 26be
00000090: 54a8 273f 7f92 993e 29d4 cbbe c1a0 b2be
000000a0: 2def f13e 807b 94be d77d 96be 5f68 c2be
000000b0: ea5e a13e 7336 fd3d 1d9f 0a3f dbd1 9cbe
000000c0: b5ac 803e ee68 06bf bb99 f9be ddd3 ebbe
000000d0: 9885 7a3c 36a6 6c3e d601 8c3e ceff 1b3f
000000e0: 7c4a d23e e977 b23d 12a5 803e c779 f0be
000000f0: 70a6 1d3f 2814 e6be 20b5 cc3e a462 bebe
0.35053417 -0.4439272 -0.376555 -0.09312662 0.3537935 0.15562105 0.47970444 -0.19652507
0.0069118454 -0.08672832 0.5811607 0.072666384 -0.5614723 0.19805384 -0.5820891 0.13324372
0.28731304 -0.21022752 -0.50603664 -0.108213075 -0.36691537 0.5840076 -0.29878017 -0.27569708
0.41619548 0.051750958 0.048477437 -0.6991146 0.28325728 0.43097892 -0.55783683 0.5902669
0.4451097 0.31330833 -0.14259203 -0.16260171 0.65491223 0.2999458 -0.39810303 -0.3488827
0.4725279 -0.29000473 -0.29392883 -0.37970254 0.31517726 0.12363901 0.5414904 -0.30628857
0.25131765 -0.5250386 -0.487501 -0.46060076 0.01529064 0.2311028 0.2734515 0.609372
0.41072452 0.08714277 0.2512594 -0.4696791 0.6158209 -0.44937253 0.39981937 -0.37184632

net.2.weight f4 [64, 64]
00000000: 241e 133e 256c 6a3e 670f fc3d f98f 193d
00000010: 4ce3 96bd da8d ed3c a640 5e3d 6c1a 1d3d
00000020: 8bb1 d03d e983 cd3d 390e dcbc 4de5 19bd
00000030: 1f07 92bc 7a78 1c3e 3710 9dbd 9308 e6bd
00000040: 72f8 123d 6a39 173d c95a bfbd c3f0 073e
00000050: ac1e b4bd 3808 a23d 966f e0bc abb6 b33d
00000060: df39 17bd 142b a8bd 0909 843d e58b e8be
00000070: ffb7 18bc 388d f23d d72e 20bc c6b0 28bd
00000080: 85c8 12bd 3436 1e3d 3c2e 8fbd 18b6 bfbd
00000090: c3bd 7bbd ea67 a1bd 88ee 53be d9a8 d63c
000000a0: 9882 8b3d 9b39 29bc 10a2 1d3d c99f 66bd
000000b0: 5b5e d13c 4315 da3c 16b2 3b3d e785 483e
000000c0: d369 1d3e db69 13be 0142 c2be f0f4 013e
000000d0: 1223 ac3d 221b 9d3d ec0e 93bd 43f1 1b3e
000000e0: c5f7 683d c0c7 873d 0176 e73d a188 2a3d
000000f0: cf68 793d 3235 4bbc d5d9 c33d 402e bf3d
00000100: 3283 dabd 3cd8 7e3d be6c ce3d b8d5 84bd
00000110: de06 e0bd 2623 863d d032 693c 02b8 d13d
00000120: d8f1 563d ac56 c33d 4633 d6bd 08cd 1cbd
00000130: fc37 f3bd 685d 9e3c f8e7 a83d 34c4 b4bd
00000140: dc7c a93d a06e e0bd 00aa ac3d 30e9 d5bd
00000150: d643 c7bd 480c 82bd 3466 113d 22d4 e7bd
00000160: 6c43 723d 5850 f0bd 40f5 24bc 84d4 23bd
00000170: d8d3 bebc 169c a4bd 805c f93d 28ee eb3d
00000180: 106a ffbd e897 8fbc fc6e c6bd 2007 d9bd
00000190: 8cf3 2cbd 3c16 a23d bef8 ecbd a425 ed3d
000001a0: 2698 e13d 5823 563d 6aca bf3d d027 a73c
000001b0: 9cc7 7c3d fa3a 843d d064 e4bd 3834 033d
000001c0: 600b 95bb d444 f7bd 66bd c63d fc6c 21bd
000001d0: c02d 8d3c 901d 81bd 9c20 a33d 6016 ff3b
000001e0: 5490 40bd 78b5 65bd 245b 003d e63f e0bd
000001f0: 686d 593d 166e d8bd 06f0 a0bd 6820 8c3c
00000200: 3ccf 89bd 80c0 253d 9ab4 a4bd 007c 26bd
00000210: 84c0 4c3d 2430 853d 480b ecbc a43f 303d
00000220: fa75 c7bd e80a cebc 9834 a03d 708c 32bc
00000230: c2e4 dfbd 8077 47bc d0f4 98bc 3cbb 2f3d
00000240: 7868 d4bc 7c93 b0bd 9863 ca3c 26e3 bc3d
00000250: b8d9 f2bc dc55 143d c847 aa3c e8cd a13c
00000260: 3822 9bbc 60dd fbbb 229f f6bd 84cf 973d
00000270: 6c81 99bd 5064 c7bd 2eaa 99bd bc6a 123d
00000280: c8f3 cdbc 70f8 95bd 1c51 8e3d 84af 7bbd
00000290: 982e b3bd 08a9 763d f407 56bd c629 a8bd
000002a0: d0bb 1abd 54cc 7abd 008a be3a 6057 5dbd
000002b0: 004f 8d3b 6002 fdbb 2422 b03d cc25 a03d
000002c0: 4403 79bd 5481 433d 84e7 e3bd da9c c8bd
000002d0: 82ae aebd 704b 5bbd 0630 f4bd 3c08 953d
000002e0: 92da d63d de62 c7bd 2c0f eabd 6822 1abd
000002f0: da14 c83d 4c04 0b3d 20da e73b 1465 f43d
00000300: 1a46 333e 803f a23e 6ce5 45be b19f 223e
00000310: 60e3 213b c46e 903c 3fd4 333d acbe a03d
00000320: 9d11 c93b 1ab8 a9be aa8e 92bd e4b2 0f3d
00000330: ab26 14bd a18c 103e 18d4 21be 9543 b83d
00000340: 1103 d03c 40e2 3b3e a234 6fbe 7332 3c3e
00000350: 962f efbd 75bb 883d 88ed c8bc 4d43 303e
00000360: e96a bd3d ccd4 373e 32ae 2ebb 427c 83be
00000370: c88b 8b3d d9da eabd 9fe6 96be 43ab aebd
00000380: d29f a9bd 61fe 173e efb5 70bd 1dd6 013d
00000390: fbdc 1c3e 74b5 6ebd 9dd6 0bbe 4923 50be
000003a0: 3b84 babd 6388 43be 799f d1be fcda cc3d
000003b0: 09d7 8f3d 06c0 443d 7a3f c8bd 2e73 dc3d
000003c0: 8173 bd3d a5f9 61be a3ba 9dbe 9ad9 90be
000003d0: 3db5 15bb 88af 963d ed77 b83d a0c5 cdbc
000003e0: 7b83 8abd f020 003e 3954 223e 035f 8fbe
000003f0: 6318 d7bc 594c 0e3d d6ec 23bd f068 0a3e
0.14366966 0.22892816 0.12307625 0.03749082 -0.07367572 0.028998304 0.054260872 0.038355276
0.10190114 0.100349255 -0.02686225 -0.037572194 -0.017825661 0.15280333 -0.07669108 -0.11232104
0.035881467 0.03691999 -0.09343488 0.13275437 -0.08794913 0.07911724 -0.027396958 0.087750755
-0.036920425 -0.082113415 0.06447036 -0.4541923 -0.009321212 0.118433416 -0.0097767925 -0.04118421
-0.03583576 0.03862591 -0.069912404 -0.093609035 -0.061460268 -0.07881148 -0.20696461 0.02620356
0.06812018 -0.010328676 0.038484633 -0.056304727 0.025557688 0.026621467 0.045824133 0.1958233
0.153724 -0.1439585 -0.37940982 0.12691092 0.08405127 0.07671191 -0.071805805 0.15228753
0.056876916 0.06629896 0.11301804 0.041634206 0.06089097 -0.0124028195 0.095630325 0.09334993
-0.10669555 0.062217936 0.10079335 -0.06486076 -0.1093881 0.06549673 0.014233306 0.10240175
0.052476734 0.09538016 -0.104589984 -0.03828147 -0.118759125 0.019331649 0.082473695 -0.08826485
0.08275768 -0.109586 0.084308624 -0.104448676 -0.097297356 -0.06349999 0.03549786 -0.11319758
0.05914633 -0.11734074 -0.010068238 -0.039997593 -0.023294374 -0.080375835 0.12175846 0.11520034
-0.12471402 -0.01752849 -0.09689137 -0.10597062 -0.042224452 0.07914397 -0.11570881 0.11579445
0.11015348 0.0522798 0.09364779 0.020404726 0.0617138 0.064565614 -0.11152041 0.03203222
-0.004548475 -0.12073675 0.09704094 -0.039410576 0.01723373 -0.06304467 0.07965204 0.0077846497
-0.047012642 -0.056081265 0.03133692 -0.10949688 0.053082854 -0.10567872 -0.07858281 0.017105296
-0.0672898 0.040466785 -0.080422595 -0.0406456 0.049988285 0.06503323 -0.028813973 0.043029442
-0.09739299 -0.025151685 0.078225315 -0.010897741 -0.10932304 -0.012174487 -0.018671423 0.04290317
-0.02592872 -0.086218804 0.024705693 0.092230126 -0.029644832 0.036214694 0.020786181 0.019751504
-0.018937215 -0.007686302 -0.12042071 0.07412627 -0.074953884 -0.0973593 -0.07503162 0.03574632
-0.025140658 -0.07322776 0.06949064 -0.06144668 -0.087491214 0.060219795 -0.05225368 -0.08211093
-0.03777677 -0.06123002 0.0014536977 -0.054038405 0.004312396 -0.0077212304 0.08600262 0.07819709
-0.06079413 0.04773076 -0.111281425 -0.09795542 -0.085293785 -0.05353874 -0.11923222 0.07276961
0.10490908 -0.09735654 -0.11428675 -0.03763047 0.09769602 0.033939645 0.007075563 0.119333416
0.1750721 0.31689072 -0.19325799 0.1588123 0.0024702176 0.017630942 0.043903586 0.07848868
0.006136133 -0.3314827 -0.07156117 0.035082713 -0.03616969 0.14116146 -0.15803564 0.08997265
0.025392087 0.18348026 -0.23359922 0.1837862 -0.11678998 0.066763796 -0.024527326 0.17213173
0.09248907 0.1795227 -0.0026654121 -0.2568074 0.068137705 -0.11467523 -0.29472825 -0.08528759
-0.082824364 0.14843132 -0.058767255 0.031698335 0.15318672 -0.058278516 -0.13656087 -0.2032596
-0.09107252 -0.19094996 -0.4094198 0.100027055 0.070234366 0.04803469 -0.09777732 0.10764156
0.09250546 -0.22067888 -0.30806455 -0.28291017 -0.0022843622 0.07357699 0.09007249 -0.025118649
-0.06763359 0.12512565 0.15852441 -0.28002176 -0.026256746 0.03474078 -0.040020786 0.13516593

net.2.bias f4 [64]
00000000: fb00 b53c a0ff babc b6c8 fdbd 23df 34bd
00000010: 3861 d13c 186c b4bc a8f5 2ebd a200 193d
00000020: 3c75 e2bd 8a7a cc3d f423 0d3d 1fec df3d
00000030: 6be7 f03d 7b9e 193e b8bc 123d 3a64 413d
00000040: 955e 073e acc8 1b3c 59ff efbd a136 e23d
00000050: ce5d ac3d 2193 633d ccc7 0c3e 774b 103d
00000060: f066 053e a9d2 6dba 0cc5 0bbd 62c7 123d
00000070: 7e14 d03b c6c9 1a3d e617 aa3d 44c5 283e
00000080: 759f c2bd 8349 163e cf99 4cbd 4c1c 85bd
00000090: 5505 813d 8216 023e 9179 703d c6ec 47bd
000000a0: 6aee c3bd c24f 5f3c 2932 993d d7e0 08bc
000000b0: a423 65bd 588d 26bd c9a9 073e 2f87 d23d
000000c0: 2868 aabd b910 c43d c311 3ebd 1f21 ca3d
000000d0: fa35 0f3c 808f 85bd b5bf 233d 6ea7 5fbd
000000e0: c397 5dbe aad9 ebbd a65f debd 1b5a dc3d
000000f0: 134a 873d 4d3f 0f3e e047 1dbe b612 0dbe
0.022095194 -0.02282697 -0.12391798 -0.044158112 0.025559053 -0.0220242 -0.042714745 0.03735412
-0.11057517 0.0998431 0.034458116 0.109337084 0.117628895 0.15001862 0.035824507 0.047214724
0.13219674 0.009508293 -0.117186256 0.11045576 0.08416329 0.055560235 0.13748091 0.03522822
0.13027549 -0.00090722233 -0.034123465 0.035834678 0.006350099 0.037790082 0.083053395 0.16481501
-0.0950307 0.1467648 -0.04995137 -0.06499538 0.06299845 0.12703899 0.058709685 -0.04880979
-0.09566958 0.013629856 0.074802704 -0.008354387 -0.055942193 -0.04066214 0.13248362 0.102796905
-0.083206475 0.09573502 -0.046403658 0.098695986 0.008740896 -0.06521511 0.039977748 -0.054603033
-0.21639924 -0.115161255 -0.10858087 0.10759374 0.066059254 0.13988991 -0.1535945 -0.13776669

net.4.weight f4 [64, 64]
00000000: 74c0 1fbe a024 f2bd 80e7 52bd f189 453d
00000010: ac4b e93d 8d43 123d 1c2c ffbd bce1 913d
00000020: f662 e53d 579a 243e 29ac 86bd 169d a1bd
00000030: 7125 b3bc a7be 083e 2a8c 9e3d 10ad 1c3d
00000040: 1641 b73d ac3d 17bd ce9f c6bd edcf 5d3d
00000050: c36b f2bd eebe d23b 73a6 f53d 7e11 263e
00000060: 705c 05be 32de b43c f7f1 ca3b 9375 493e
00000070: 66f1 8b3d 2323 76bd f8de 2a3d 1953 16be
00000080: f7c3 d13c ab65 9f3c caef a73b df2f a1bc
00000090: b977 6dbd 8f63 fa3d f179 873c 3ce2 73bd
000000a0: d415 8c3d f33f a8bd 621d 48bd 9884 d53d
000000b0: e0ed 863c 12a3 68be 0dfc 85bd 4020 8cbd
000000c0: 7a1e 8cbd c711 f8bc 12e6 233e 8e96 9abd
000000d0: 9145 bd3d 415e 77bd a52e 5c3c 993d c0bd
000000e0: 0dd4 5e3d bd09 14be 41ed 933c bfe5 a23d
000000f0: 65cd 34bb 01bf 96bd b898 3bbd 9f4f 53bd
00000100: c121 cabd 200e 223c 8008 cf3c 0e69 90bd
00000110: c572 94bd cb43 8dbd 50c5 3c3c 979a bfbc
00000120: 5854 b5bd 8568 9b3d 0127 093d df18 bd3d
00000130: 4a53 0abe 67a5 673c 26fb ce3d da3d e8bd
00000140: 2d28 a63d b453 c5bd 6cc4 9b3d 585d c1bc
00000150: 30f7 303c 5ba1 a3bd 9044 7abc f9a2 2fbd
00000160: 0536 bb3d 65a5 d0bd c676 8b3d f22d c0bd
00000170: 1a34 cebc 7a2f b7bd 5abe 933d c446 58bc
00000180: afdb 0d3d 805c 1d3c 779e 643c 0810 e63c
00000190: ad36 55bd 75bf 8abd cecd 4dbd 36cd b0bd
000001a0: e4e8 9f3d f278 efbd b8b2 943c 8098 c43b
000001b0: b080 00bd 280d b6bc 8bc9 263d a4f2 49bd
000001c0: 0ef8 bdbd 2f77 a03d 303c 07bd 29e7 a4bd
000001d0: bc4a d9bd 8cf5 643d dd0c 0cbe d1c0 89bc
000001e0: c033 ec3d 741c b3bd df48 9a3d efbc 683d
000001f0: 8f56 2a3d 1932 683d e411 90bd 2cbf e13c
00000200: 4457 c9bd dacb f83d 601b 1b3c 7e76 c6bb
00000210: 32e9 a43d 683a 7ebd baa7 debd db93 d0bd
00000220: 5c51 383d 4059 743d c312 e33c 6e0c 94bd
00000230: 91dd fd3b 8e9c 08be 00fc 9539 1c37 8cbc
00000240: 0c2e 55bd 20a4 fdbd 15ce a7bd 0631 4fbd
00000250: cd56 6fbc 7e60 b5bc a204 113d 920f d5bd
00000260: be42 973c 7a71 ffbd bcf2 603d ba87 b0bd
00000270: fafe 6f3c 802f 3ebb 221d 15bd a23d aa3d
00000280: 50ce 373d e983 02be d154 933d b05c 9a3c
00000290: ff98 103d 6052 aabb d91a dc3d 32e6 863d
000002a0: 1888 80bc e62a 06be 784c 8a3d 5203 ebbd
000002b0: 1c6e 873d dcbf b13b f54e 043d 2cce 1a3d
000002c0: 02b8 c2bd ab0e 8bbd d32c 2fbd 5552 08be
000002d0: 7ea3 8a3d acea 75bd 8064 99bd c6db 7cbd
000002e0: cca9 883d e77b 83bc e00f 613d c0e0 483d
000002f0: 8750 94bc d6b6 ab3d 303a 7a3d 223d 6b3d
00000300: b48d 323e 70b4 4d3d 82b3 cf3d 9797 033c
00000310: 6895 cebd 91cc 9abc ba2c 80bd abd0 1c3e
00000320: 147e 193d b7b8 42bd d194 c63d 63f1 e73d
00000330: 3faf 8f3c 122b cabd 939b a7bc 6a57 1bbe
00000340: 7105 eabd 6fed 333e 8e20 55bd 34d4 0f3e
00000350: f206 e23d 4584 133e 218c ef3c 84cc 03be
00000360: 7460 133e 091b 55be 448f ad3c f6b4 47bd
00000370: 9156 123e 7114 d7bd 38cf e0bb a06e 5a3d
00000380: adb5 01be 6ee4 9abc 3ed6 2b3e e039 ec3d
00000390: a400 24bd e766 67be 0fac 293e 0106 bebd
000003a0: e0da f13d b5f0 c23c 4640 c03d bc7c 20bc
000003b0: 4424 c53d 0729 6abd 61ad c13d ff76 98bd
000003c0: 1c53 193d d8bd 29bd ac9c 79bd da7f 843d
000003d0: 43fa 16be 4c02 bb3c 45ab 38bd 957d 37bd
000003e0: 728f 803d fc35 d33d 2dc7 d3bd e448 3c3d
000003f0: 9f4d 91bd e937 4bbd 5b49 4d3d 6d8f afbb
-0.15600759 -0.11823392 -0.051490307 0.048227254 0.113913864 0.035708953 -0.12459585 0.071231335
0.11200516 0.16074501 -0.06575806 -0.0789129 -0.02186844 0.13353978 0.07741578 0.038250983
0.08947961 -0.03692405 -0.09698449 0.05415337 -0.1183696 0.006431452 0.11994638 0.1621761
-0.13023543 0.022078607 0.0061933952 0.19673757 0.068331525 -0.060092103 0.041716546 -0.14680137
0.025606139 0.019457659 0.0051250206 -0.019676147 -0.057975505 0.122260205 0.016537638 -0.059541926
0.06840101 -0.08215322 -0.048856147 0.10425681 0.01647085 -0.22718456 -0.065422155 -0.06842089
-0.068417504 -0.030281914 0.16005734 -0.07548247 0.09241784 -0.060392622 0.013438855 -0.09386749
0.054401446 -0.1445684 0.018057467 0.07953977 -0.0027588245 -0.0736065 -0.04579994 -0.051589604
-0.09869719 0.009891063 0.025272608 -0.070512876 -0.07248453 -0.06897696 0.011521652 -0.023389144
-0.08853978 0.07588295 0.033484463 0.092332594 -0.13508335 0.014138556 0.101064965 -0.11339922
0.08113132 -0.09635106 0.07605824 -0.02360408 0.010801122 -0.079897605 -0.015275136 -0.042880032
0.09141163 -0.101877965 0.068097636 -0.093837634 -0.025171328 -0.08944602 0.07214041 -0.013200466
0.034633335 0.009604573 0.013953797 0.028083816 -0.052054096 -0.06774799 -0.0502451 -0.08632891
0.07808092 -0.1169299 0.018151626 0.0059996247 -0.031372726 -0.02222307 0.04071955 -0.049303666
-0.09275828 0.078352325 -0.033016384 -0.08051903 -0.106099576 0.055898234 -0.13676782 -0.016815575
0.11533308 -0.087456614 0.0753343 0.056820806 0.041586455 0.0566884 -0.07034662 0.027556978
-0.09831098 0.121482566 0.009466976 -0.006056606 0.08052291 -0.06206742 -0.10871835 -0.10184451
0.044999465 0.059655428 0.027718907 -0.07228933 0.00774736 -0.13340971 0.0002860725 -0.017116122
-0.052045867 -0.1238482 -0.08193604 -0.05058386 -0.014608097 -0.022140738 0.03540481 -0.104033604
0.018464442 -0.12472816 0.05491899 -0.08619638 0.0146481935 -0.0029020011 -0.036404736 0.08312537
0.04487449 -0.12745632 0.07193912 0.018843025 0.03530216 -0.005197808 0.10747308 0.06586875
-0.015689895 -0.13102302 0.067528665 -0.11475243 0.066127986 0.0054244827 0.03230186 0.037794277
-0.09507753 -0.06789907 -0.042767357 -0.13312657 0.06769465 -0.060038254 -0.07489872 -0.06173303
0.06673011 -0.016050292 0.05494678 0.049042463 -0.018104805 0.083844826 0.06109065 0.057431348
0.17436868 0.050220907 0.1014166 0.008031747 -0.10087091 -0.018896373 -0.06258531 0.15313976
0.037473753 -0.04753944 0.09696353 0.11325338 0.017539619 -0.09871496 -0.020459926 -0.15170065
-0.11426819 0.17571042 -0.052033 0.14045793 0.11036481 0.14405926 0.029241623 -0.12870985
0.14392263 -0.20811094 0.021186478 -0.048756562 0.14290835 -0.10501946 -0.00686064 0.053328156
-0.1266696 -0.018907752 0.16780946 0.11534476 -0.040039673 -0.22597848 0.16569541 -0.09278489
0.11809325 0.023796419 0.09387259 -0.009795364 0.09626058 -0.057168033 0.094568975 -0.07444572
0.037432775 -0.041440815 -0.06094043 0.06469698 -0.14743905 0.022828244 -0.04508521 -0.0447975
0.0627736 0.10313031 -0.10340724 0.04596795 -0.07094883 -0.049613867 0.050118785 -0.005357674

net.4.bias f4 [64]
00000000: c175 e63d fc85 cbbc 2e9b 9bbd 20c2 813d
00000010: 7a34 963d 12bc 11bd 1caa e03b d6f3 cfbd
00000020: ae01 b9bb bfb6 193e 0f8e 1fbe b9ce d5bd
00000030: 882e 95bc b5fc 863d 849c 323e d4ab 5c3d
00000040: 0037 f83d 3fda 783d 3a7b 923d 3736 d6bc
00000050: 1713 f7bd dde2 a43d 8521 c9ba 963d dcbd
00000060: abc0 d93d ea64 45bd 9c48 853d 0385 053e
00000070: 8590 cb3d d618 b4bb 6dac f2bb 2ce4 173d
00000080: 54a2 8bbc 29a5 95bd cf96 153e 9d76 27be
00000090: 4a3e 3a3d f4b0 7dbd 1484 113e 6a89 84bd
000000a0: d873 c93d 6388 bbbd 3665 82bd b934 043e
000000b0: ca16 393d b68c 153e e280 a6bd 6700 bc3d
000000c0: 19cf 60bd 5212 cb3d 735f 51bc b92c de3c
000000d0: 9dfe a63d bb23 bcbd 94a0 0b3c c04c e1bd
000000e0: 4cce d63d c1aa bb3d e235 a03c f55d e5bc
000000f0: 4d46 3b3d 0988 093d b156 383d 57cf 48bd
0.112529285 -0.024844162 -0.075979576 0.063358545 0.07334228 -0.03557975 0.006856216 -0.1015393
-0.005645952 0.15011118 -0.15581535 -0.1043982 -0.018210664 0.06591169 0.17442518 0.053874806
0.121198654 0.06075501 0.0715241 -0.026148899 -0.12064188 0.08051083 -0.0015345073 -0.10753934
0.106324516 -0.048191942 0.0650799 0.13039021 0.09939674 -0.0054961247 -0.0074058087 0.037082836
-0.017045178 -0.073068924 0.1460831 -0.16353841 0.04546956 -0.061936334 0.1421054 -0.06471522
0.098365486 -0.09156873 -0.06366961 0.12910737 0.04518775 0.14604458 -0.08130051 0.09179764
-0.054885004 0.09915604 -0.0127791045 0.027120935 0.081540324 -0.091865025 0.0085221715 -0.11000967
0.10488567 0.09163428 0.019556943 -0.027998904 0.04572134 0.033577 0.04500455 -0.04902586

net.6.weight f4 [64, 64]
00000000: 6d2a b43d 5dea 26bd b941 ef3d 2566 693d
00000010: 5eb7 b83d 59d8 8d3d 0f8c 973c 9dc2 2abd
00000020: caae 9f3d 7558 6ebe 9038 c13e 038b 82bd
00000030: 54a3 f7bd 11e7 bfbb a947 193d 6d81 30bd
00000040: 9cde 44bd 504a cb3d 61f3 5cbc 17a6 b93d
00000050: 8413 113f 1428 dcbd af5e 3f3e f0af cb3d
00000060: 8465 2dbe 0e14 66bd a05a 303e eb97 fdbd
00000070: 2a7c fcbd cab2 193e 76c8 52bd e711 363d
00000080: b62b 663d c3ed c63d 959b 0f3e 4f4f 8cbe
00000090: 477e c63d a6f1 d93d 4206 2cbd 3e73 9ebd
000000a0: 077d a7bd 36fa f03d 451b 273e 6c57 ad3d
000000b0: 18da e23c dd65 073e 5852 49bd 3f66 88bd
000000c0: d26a e53e ac32 9dbd ce05 813d 27af 643d
000000d0: bc89 153e aa67 a3bd 1e5b 98bd df50 56bd
000000e0: 35eb eabd ed31 b9bd 82bc debc 202a 47bc
000000f0: abfe 343d 8b86 fb3d 8917 c53d e905 84bd
00000100: a398 28be 883e f7bd 3bc9 94bb 5aa8 ddbb
00000110: a502 db3d 1377 273e f585 1d3e de37 ca3d
00000120: fc63 403d 4195 cdbd e2b2 bb3e faf4 23bc
00000130: 6c21 d1bd bc59 1abd b7d9 233e 80fd 7abd
00000140: 8b05 b63d 3483 f1bd 83a0 d7bd 7389 183e
00000150: 9ecd 253f d399 9239 6af4 b13d ccde b33d
00000160: dbaa 40be b7b4 a3bd 5f86 183e aaab 51bd
00000170: f3dc 2b3b f9b9 e53b ecb2 11be f44a 01be
00000180: 6940 b13d b29b b1bd 19ce cdbd 6b4f eebe
00000190: 2543 673d 5e30 67bc 018a 55bc 36eb f9bd
000001a0: 4c07 9abd d258 513e c668 743d a96d 9f3d
000001b0: f34a b43d e96d 0b3e 8895 b2bc d123 09be
000001c0: aaf4 a73e 68c6 683d cce9 ffbc f494 dc3d
000001d0: 967e f93d fb78 8a3c 7cd6 31be e9fc 3dbd
000001e0: c412 24bd 469f 5d3d d9ac 2b3d 3aaa a6bd
000001f0: 2d4f 6d3d fca2 513d c2ba b13c e8f5 c93d
00000200: e08f fabb 4ee4 ff3d 6835 2ebd b424 a83d
00000210: 8023 fe3a 50fa 45bd 6a4f c03d ccf9 dbbd
00000220: 20ab 1cbc 58d4 da3c 9048 8fbc 66fb 8cbd
00000230: e8bc 00bd 20f0 a83d 70f2 46bc 7074 4cbd
00000240: b402 3fbd ee5a bdbd 24d1 9d3d 5ec6 ebbd
00000250: 8c75 57bd e82c b23c 3065 ea3d 52b9 d1bd
00000260: 484a 933c 0419 b4bd 821f b93d ca8e c03d
00000270: beba 9e3d 786d 60bd 9c71 c5bd 384f 93bd
00000280: e8fa 2abd 18e5 673d 309b 9cbc 12f0 dd3d
00000290: 406d f1bd 40f5 bb3b 94de d9bd 745c f2bd
000002a0: f612 b8bd 5000 673c 68c5 ebbd 1005 7fbc
000002b0: d0aa 62bd fe05 8cbd a4a1 df3d 387f 41bd
000002c0: 8834 f6bd 243d b03d 1eb8 ffbd 00d1 f1bb
000002d0: 024b c4bd ca9b 803d 04ec 343d e0bc 71bc
000002e0: 9cfd 13bd 76bb b6bd da79 b2bd 584c 443d
000002f0: 9665 b4bd c889 36bd 0ab1 d33d 4aee e9bd
00000300: c231 46bc d8f0 23bd 0e45 813d fd7f 70bd
00000310: ea6b cb3d c8fb 703d 0be0 5bbd 6306 473d
00000320: 959c 30bd 975b 95bc 5403 59bd 6eba c63d
00000330: a024 a93c 436b a1bc ea5d a5bd d784 0f3e
00000340: 2a84 e2bd a263 9c3d 133f 2fbe 20b2 88bd
00000350: 708b 373d 7fda 23bd 65a2 0cbd 3469 583d
00000360: 8d4f 8bbd 8c05 a13d b96a c5bd d8f8 023d
00000370: aa53 93bd 7c7e d13d ac27 f3bd 506f 62bb
00000380: e84e 78bd 5757 b83d 58e0 97bd c388 cfbe
00000390: 6cef 873d a006 debb 1da9 bcbd 56fb bcbd
000003a0: 66a0 a4bd 106c 353e 2165 b03d e4e5 a4bd
000003b0: dc35 c13d 9b52 823d 18e4 943c 9657 91bd
000003c0: fc53 a53d 00cc 37bd 75f0 a6bd eba2 433d
000003d0: 2713 c03d 6555 b23d 200c 83bd a02a 20bd
000003e0: fd75 b53c 7170 fdbc dd90 c43d 1454 edbd
000003f0: c917 d73d 4bd9 f13c aac6 093e ee0c eabc
0.087971546 -0.04075085 0.116824575 0.05698218 0.090193495 0.06926031 0.018499402 -0.041689504
0.0779701 -0.23275931 0.37738466 -0.06374171 -0.12091699 -0.0058564027 0.037421856 -0.04309218
-0.04806386 0.09926283 -0.01348576 0.09064882 0.56670403 -0.10749832 0.18688463 0.09945667
-0.16933256 -0.05617147 0.1722207 -0.12382492 -0.1232837 0.15009609 -0.051460706 0.044450667
0.05619403 0.09713318 0.14024194 -0.27404258 0.09692054 0.10641794 -0.041998155 -0.077368245
-0.08178144 0.11766474 0.16318996 0.0846394 0.027691886 0.13222452 -0.049150795 -0.06660127
0.4480806 -0.076756805 0.06299935 0.0558311 0.14603323 -0.07978757 -0.07439254 -0.05232322
-0.114706434 -0.09042726 -0.027189497 -0.0121560395 0.044188183 0.122815214 0.096236296 -0.0644644
-0.16464476 -0.12072474 -0.00454059 -0.006764454 0.10693864 0.16354017 0.15383132 0.09873937
0.046970353 -0.100382335 0.36659914 -0.010007137 -0.10211453 -0.037683234 0.1600102 -0.061276913
0.08887776 -0.11792603 -0.10528662 0.14896183 0.6476687 0.00027961898 0.086891964 0.087827295
-0.18815176 -0.07993453 0.14895009 -0.051189102 0.0026224225 0.007010695 -0.1422841 -0.12626249
0.086548634 -0.08672275 -0.10049076 -0.46544966 0.05646052 -0.014110653 -0.013033391 -0.12203066
-0.07520923 0.20444039 0.059670232 0.07784588 0.08803358 0.13616146 -0.021799818 -0.13392569
0.3280385 0.05682984 -0.031239413 0.10770598 0.121823475 0.016903391 -0.17366976 -0.046383772
-0.04005696 0.054106973 0.041912887 -0.08137937 0.057936836 0.051180825 0.021695498 0.09861356
-0.007646546 0.124947175 -0.0425314 0.082101256 0.0019389242 -0.04833442 0.09390147 -0.10741004
-0.009562284 0.026712582 -0.017490655 -0.06883888 -0.031430155 0.08248925 -0.012142763 -0.04991573
-0.046633437 -0.09245859 0.07705906 -0.11512445 -0.052602336 0.021749929 0.11445081 -0.10240425
0.017979756 -0.08793834 0.09039213 0.09402235 0.07750462 -0.054791898 -0.0964081 -0.07192844
-0.04174319 0.056614965 -0.019116968 0.108368054 -0.11788416 0.005736023 -0.106381565 -0.1183404
-0.089879915 0.014099196 -0.11512262 -0.015565172 -0.05533868 -0.068370804 0.109195024 -0.047240466
-0.12021738 0.08605412 -0.124862894 -0.007379651 -0.09584619 0.062797144 0.044170395 -0.014754504
-0.036130533 -0.08922474 -0.087146476 0.04792437 -0.088084385 -0.044564992 0.10336502 -0.11422403
-0.012096824 -0.04002461 0.06311999 -0.05871581 0.09932692 0.058833867 -0.05368046 0.048590075
-0.04311808 -0.01823215 -0.05298169 0.097035274 0.020647347 -0.019704467 -0.08074553 0.14015518
-0.110603645 0.07636191 -0.17113905 -0.066746 0.044810712 -0.040003296 -0.03433456 0.052834705
-0.068022825 0.07862386 -0.09639496 0.031975597 -0.07193692 0.10229203 -0.11872801 -0.003455121
-0.060622126 0.09001034 -0.07415837 -0.40534028 0.06637463 -0.006775692 -0.09211943 -0.09227626
-0.08038406 0.17717004 0.08613039 -0.08051661 0.09434101 0.06363412 0.01817517 -0.07096784
0.080726594 -0.044872284 -0.08151332 0.047762793 0.09378653 0.08707694 -0.06398797 -0.03910315
0.022150988 -0.030937405 0.09597943 -0.11588302 0.105025835 0.029522559 0.1345469 -0.028570618

net.6.bias f4 [64]
00000000: 6693 c2bd 59f6 1c3d 008c de3a aef0 d5bd
00000010: eef1 84bd ed09 a33d 507f 883d 02eb 63bd
00000020: a0c6 223d edd4 1e3c 6882 983d d6e4 4fbd
00000030: dfab b3bd ae14 2f3d 0c97 85bd a4c4 23bd
00000040: a9a0 49bd 1a87 97bd 8c5b 11be e899 2ebd
00000050: b0f6 ec3d 7d16 2d3d 39ca f536 be1c 133e
00000060: b3c6 9fbd 983c 80bd b527 c13d a211 a9bd
00000070: 3575 bcbd 91c7 f93d 4d02 3bbd 8992 223e
00000080: 93bb d03d fca2 8dbd 003e 5bbd df8b 123e
00000090: 7b07 64bd 1c9d 54bd a5d5 e53d 1f77 08be
000000a0: e758 a13c 40e7 003d 9ea8 14be 8ea7 3ebd
000000b0: ac83 113d 3afa a93d f8cf a83b 242d c4bd
000000c0: 1650 e4bc 1073 b23d 6ed5 993d 940c 6bbd
000000d0: ae4b ccbb 3439 b53d 47f4 50bd ddb7 18bd
000000e0: bc52 843d 0faf ae3d de5b 6d3d 721e 1ebd
000000f0: 2a67 a8bd 8371 323d 30c4 9f3d 2e16 d9bd
-0.0950077 0.038320873 0.0016978979 -0.10446297 -0.06491457 0.079608776 0.06664908 -0.055644043
0.039740205 0.00969432 0.07446748 -0.050755344 -0.08773016 0.04274433 -0.065229505 -0.039982453
-0.049225483 -0.073988155 -0.14195079 -0.042627245 0.115704894 0.042257775 7.325111e-06 0.14366433
-0.07801571 -0.06261557 0.09431402 -0.08255316 -0.09202043 0.121962674 -0.04565649 0.15876211
0.10192027 -0.069158524 -0.053525925 0.14311169 -0.055671196 -0.051907644 0.1122239 -0.13326691
0.019695712 0.031470537 -0.14517447 -0.04654651 0.035525963 0.0829968 0.005151745 -0.095789224
-0.02787022 0.08713353 0.075114116 -0.057385042 -0.0062346077 0.08848801 -0.05101421 -0.03728472
0.06461093 0.085294835 0.05794894 -0.038603254 -0.08222802 0.043565284 0.07801092 -0.105999336

net.8.weight f4 [1, 64]
00000000: 47f8 253e b372 a13d b4d2 763d ba21 2c3e
00000010: 6a93 333e 1237 433e 05c6 e63d c3bc 1d3e
00000020: d750 6b3e 8c24 3d3e 7eb7 0dbe 0416 34be
00000030: a000 86be 0071 c63e ab9c f83d 2c5f 25be
00000040: 8419 933e 981b a03d a915 88be 2471 3b3e
00000050: 5ebc 4cbe d6b7 143e dab3 a3be dfe3 29be
00000060: b330 b33e 00ab 3ebc 4be9 07be 4c91 1fbd
00000070: 9e31 933d 9932 083e 0e1c dfbd 0f62 0d3f
00000080: 815b 37be 6dbc 3ebe 3cfd e33d 61cc 39be
00000090: a322 643e 8b78 273e 5436 7d3e 043a 66bc
000000a0: c1a1 86be 52e6 ebbe 9913 26be 5860 233e
000000b0: 5b49 32bd 9529 02be 2195 183e 71a4 8e3d
000000c0: 1907 84bd 3797 c0be d95c 50be 94a1 14be
000000d0: fc49 fe3d e152 0b3e b616 c3bc 5c75 afbe
000000e0: 60e7 b6bd e8f5 97be 0b4c 1f3e 2955 06be
000000f0: 2464 653d 64c0 3f3e 6ef7 f43d d529 2ebd
0.16207992 0.07883205 0.060259536 0.1680974 0.17536703 0.19063976 0.11268238 0.15404038
0.22980057 0.18470973 -0.13839528 -0.17586523 -0.26172352 0.38758087 0.12139257 -0.16149586
0.28730404 0.07817763 -0.26579025 0.18304878 -0.19993731 0.14523253 -0.31973153 -0.16590832
0.34998092 -0.011637449 -0.13272588 -0.038956925 0.07187198 0.13300551 -0.10894023 0.5522775
-0.17906 -0.18626566 0.11132285 -0.1814437 0.22278838 0.16354577 0.24727756 -0.014051918
-0.26295283 -0.46074158 -0.16218413 0.15954721 -0.04352699 -0.12711175 0.14900638 0.069649585
-0.06446666 -0.37615368 -0.20347919 -0.14514762 0.12416455 0.13605835 -0.02381454 -0.34269226
-0.0893085 -0.296798 0.15556352 -0.13118424 0.056003705 0.18725735 0.11961256 -0.042520363
