models/nn/raw/SR/model.pt (torch, 54492 bytes, 9 tensors)

net.0.weight f4 [64, 3]
0	0x3cf249cd	0.029576207
1	0x3d607719	0.05480108
2	0x3ed0f10a	0.40808898
3	0xbf129ddf	-0.5727214
4	0xbf2d169c	-0.67612624
5	0x3eb0306a	0.34411937
6	0xbedf949f	-0.43668076
7	0xbf164d57	-0.5871176
8	0x3de13aa9	0.10997517
9	0xbf149d91	-0.5805293
10	0x3ea0719b	0.31336674
11	0xbe6fab60	-0.23405218
12	0x3eda8cd4	0.42685568
13	0xbf137c47	-0.5761151
14	0xbf2a2eb7	-0.6647753
15	0xbe1b4db3	-0.15166359
16	0x3f11b5d2	0.5691806
17	0xbf13ed86	-0.57784307
18	0xbec9dabc	-0.39424694
19	0x3ef81aaf	0.48457858
20	0x3f12a8a1	0.5728856
21	0x3d2e7f59	0.042601917
22	0xbefbacb4	-0.491552
23	0x3f08f87e	0.5350417
24	0x3e87ac3a	0.26498586
25	0x3ecc3bc1	0.3988934
26	0x3d70740c	0.05870442
27	0xbeddc26f	-0.43312404
28	0xbf11f209	-0.5700994
29	0xbf007229	-0.50174195
30	0x3f0441af	0.51662725
31	0x3dbc0221	0.091800936
32	0x3e3aba0b	0.18235032
33	0xbe6eb3a7	-0.2331072
34	0x3f09badf	0.5380077
35	0x3eab0c05	0.33407608
36	0x3eec19b3	0.46113357
37	0x3eb41346	0.35170954
38	0xbe8d4dd9	-0.27598456
39	0x3efb7ede	0.4912023
40	0xbe92c469	-0.28665474
41	0x3ee470d0	0.4461732
42	0xbd159dad	-0.036527324
43	0xbea062d9	-0.31325415
44	0x3ed79eda	0.42113382
45	0x3e9b0e0a	0.30284148
46	0x3db8b461	0.090187795
47	0xbeadb4ff	-0.33927152
48	0x3e8e3a70	0.2777896
49	0x3ea7c2a7	0.32765695
50	0xbe8046d7	-0.25054047
51	0x3e2a3da9	0.16625084
52	0xbe7a1747	-0.24422942
53	0x3ecb0c8d	0.39658013
54	0xbefa75cc	-0.48917997
55	0x3e3fe5ef	0.18740056
56	0xbf129112	-0.5725261
57	0x3e047ba1	0.12937786
58	0x3e89287d	0.26788703
59	0x3e5084f5	0.20363219
60	0x3e31b1b8	0.1735295
61	0x3f0be756	0.54649866
62	0xbf32c178	-0.6982646
63	0xbe7b480d	-0.24539204
64	0xbe6ff64c	-0.23433799
65	0x3f25e131	0.6479674
66	0x3e328f80	0.17437553
67	0xbe3f9cdd	-0.18712182
68	0x3ec596d5	0.38591638
69	0xbbbfcd9c	-0.005853368
70	0xbf1aa01f	-0.60400575
71	0x3e377f0b	0.17919557
72	0xbe70624d	-0.23474999
73	0xbec46bee	-0.38363594
74	0x3d81d64c	0.06339702
75	0x3e8a8557	0.27054855
76	0xbf0e6e5f	-0.5563716
77	0x3f21b275	0.6316293
78	0xbd3d1008	-0.046157867
79	0xbcdc7917	-0.026913209
80	0xbf0985aa	-0.5371958
81	0xbd4c76f6	-0.049918137
82	0x3df3355f	0.11875414
83	0xbf17887e	-0.59192646
84	0xbee71efa	-0.4514082
85	0x3ddde639	0.10834927
86	0x3cbe012b	0.023193916
87	0x3f1cafa5	0.6120551
88	0x3d3f5d90	0.046720088
89	0x3e53998d	0.20664044
90	0xbeb331d3	-0.3499895
91	0xbe7356b9	-0.23763551
92	0x3e984d8c	0.29746664
93	0xbf0ed7a7	-0.5579781
94	0x3cfa6f57	0.03057067
95	0x3edfe49d	0.43729106
96	0xbe675c32	-0.22593763
97	0xbf1adea6	-0.60495985
98	0xbf0aa01d	-0.54150563
99	0xbe999c70	-0.30002165
100	0x3ced8d34	0.028997995
101	0x3eeae976	0.45881242
102	0x3ef56394	0.47927535
103	0x3e2f2fc0	0.17108059
104	0xbe22fa07	-0.1591569
105	0x3e282d2a	0.16423479
106	0x3dba04b4	0.09082928
107	0xbcf5c069	-0.029998975
108	0x3e597cd9	0.21239032
109	0x3de89d41	0.11358119
110	0x3eeb2f4a	0.45934516
111	0x3ea08d8f	0.31358
112	0x3ef769f1	0.48323014
113	0x3e70a079	0.23498715
114	0xbe8cf961	-0.2753401
115	0xbf2a8e31	-0.66623217
116	0xbefbe564	-0.4919845
117	0xbeb07c46	-0.34469813
118	0x3e8a2563	0.2698165
119	0xbeb81142	-0.35950667
120	0x3efbc6ae	0.49175018
121	0xbe170def	-0.14751409
122	0xbf12f77d	-0.5740889
123	0xbe996c53	-0.29965457
124	0xbe5f8753	-0.21828966
125	0xbe8c2a15	-0.27375856
126	0xbe9ed8a0	-0.31024647
127	0x3eaa56d8	0.33269382
128	0xbeadcf0d	-0.3394703
129	0xbe3020da	-0.17200032
130	0x3f277ea6	0.65427625
131	0xbd71e2fe	-0.059054367
132	0xbdc04ab7	-0.09389251
133	0x3eabb1d7	0.3353412
134	0x3f1002c8	0.56254244
135	0x3d5cd6a2	0.053915627
136	0x3f0e0cf2	0.554885
137	0x3c5e89fd	0.013582704
138	0xbed1208e	-0.4084515
139	0x3ebbd344	0.3668462
140	0xbe92857f	-0.28617474
141	0xbea35808	-0.319031
142	0xbede2bf1	-0.433929
143	0x3f1f92f3	0.623336
144	0x3e68b807	0.22726451
145	0xbc902780	-0.01759696
146	0xbe935b25	-0.28780475
147	0xbeb4eedd	-0.35338488
148	0x3f03d9b2	0.5150405
149	0x3ee31ef9	0.44359568
150	0x3e20b0d8	0.1569246
151	0xbd92cfa8	-0.071685135
152	0x3e49e52c	0.19716328
153	0x3c97c002	0.018524174
154	0x3da19d6c	0.07891354
155	0xbe2e9eae	-0.17052719
156	0xbe8a959e	-0.27067274
157	0x3dc76a00	0.09737015
158	0x3ed85a2b	0.42256293
159	0xbf022e6f	-0.508521
160	0xbe77389d	-0.2414269
161	0xbdad0558	-0.08448285
162	0xbe0d961e	-0.13826796
163	0x3e96baa1	0.29439262
164	0xbcd01dbe	-0.025404807
165	0x3e3c525a	0.1839079
166	0x3f208440	0.627018
167	0xbeaedf2e	-0.34154648
168	0x3efb77fe	0.49114984
169	0x3dcd80de	0.10034345
170	0xbc88ba23	-0.01669032
171	0x3e82ea07	0.25569174
172	0xbe49f1ab	-0.19721095
173	0x3eb9c076	0.3627965
174	0xbe3c19f9	-0.18369283
175	0xbe0ba6d6	-0.13637862
176	0xbede19c7	-0.43379042
177	0x3ef17aba	0.47163945
178	0x3ed63b4c	0.41842115
179	0xbedfa68b	-0.4368175
180	0x3f204b47	0.62614864
181	0x3c97cba6	0.018529724
182	0xbe96f66d	-0.29484883
183	0xbe8ea382	-0.27859122
184	0x3ed90a3f	0.4239063
185	0x3dd3403a	0.103149846
186	0x3e810f61	0.25207046
187	0x3e8b2a11	0.27180532
188	0xbe5b14b6	-0.2139462
189	0xbe0e35ab	-0.1388766
190	0xbe3e7410	-0.18598962
191	0x3e2dbeb5	0.1696728

net.0.bias f4 [64]
0	0x3e94320c	0.28944433
1	0xbe6f3e1b	-0.23363535
2	0xbf112c85	-0.56708556
3	0x3f0bbf36	0.5458864
4	0xbd8c4ae1	-0.068502195
5	0xbedeff26	-0.43554038
6	0xbcf1c374	-0.029512145
7	0x3d66da20	0.056360364
8	0xbf2f565c	-0.6849115
9	0xbe4c868c	-0.199732
10	0x3f08c572	0.5342628
11	0xbe2352e4	-0.15949589
12	0x3ee39464	0.4444915
13	0xbe9b631d	-0.30349055
14	0xbdaa2e1c	-0.08309576
15	0xbf138fca	-0.5764128
16	0x3e85e351	0.2614999
17	0xbefbe396	-0.49197072
18	0x3e1580a9	0.14599861
19	0xbf1c0689	-0.6094747
20	0xbe064373	-0.13111667
21	0xbd9d0b19	-0.07668132
22	0x3ec7e01e	0.39038175
23	0xbddc4a8b	-0.107564054
24	0x3e67a483	0.2262135
25	0xbeb45052	-0.3521753
26	0xbeecfaf2	-0.46285206
27	0x3e652a55	0.2237943
28	0x3d969a29	0.073536225
29	0xbe7df7db	-0.2480158
30	0xbec77847	-0.38958952
31	0xbdcd50c1	-0.10025168
32	0x3d62fa76	0.05541464
33	0x3e37e185	0.17957123
34	0x3e2d1e32	0.1690605
35	0xbf110112	-0.5664226
36	0x3eba0ec8	0.36339402
37	0xbdc25ca8	-0.09490329
38	0xbe8aaece	-0.2708649
39	0xbe80d770	-0.25164366
40	0xbe2ba5cf	-0.1676247
41	0x3f2b4ba1	0.66912276
42	0xbeae5817	-0.34051582
43	0xbf1ed7ad	-0.62047845
44	0x3e90dc10	0.28292894
45	0xbf2d6ffe	-0.6774901
46	0x3f17907e	0.5920485
47	0x3ea20457	0.31643936
48	0x3f0f2cd0	0.55927753
49	0xbea12834	-0.31475985
50	0x3f24f121	0.64430434
51	0x3ecff2c2	0.40614897
52	0x3f068ff7	0.5256342
53	0xbd4b039b	-0.049563985
54	0xbeac62d9	-0.33669165
55	0x3f2475e7	0.64242405
56	0xbeb8afa7	-0.36071512
57	0xbc96e9be	-0.018422004
58	0x3eb9bee8	0.36278462
59	0x3edc4e0e	0.430283
60	0x3cf553a8	0.029947117
61	0xbe94408a	-0.2895549
62	0x3e1d24ce	0.15346071
63	0xbe5b25cd	-0.21401139

net.2.weight f4 [64, 64]
0	0xbc67be44	-0.014144484
1	0x3d340f3c	0.04395984
2	0x3dea4fbd	0.1144099
3	0xbe063ff6	-0.13110337
4	0xbde7d134	-0.11319199
5	0xbd3624c0	-0.04446864
6	0x3d756f68	0.0599207
7	0x3e5ec760	0.21755743
8	0xbdcaac20	-0.098961115
9	0xbdbc0eac	-0.09182486
10	0x3e18c7cc	0.14919966
11	0x3bdd75e0	0.0067584366
12	0xbd4f9c31	-0.050686065
13	0xbc835747	-0.016032828
14	0x3cd0d783	0.025493389
15	0xbd8526e4	-0.065015584
16	0xbd97ee3a	-0.07418485
17	0xbcef5064	-0.029213138
18	0xbd1d87ea	-0.038459696
19	0x3d371c01	0.04470444
20	0x3c6c6c7b	0.014430161
21	0x3dd9a7bd	0.10627697
22	0x3e3094ac	0.17244214
23	0x3e159c17	0.14610325
24	0xbd48e75e	-0.049048774
25	0xbc9f73fe	-0.01946449
26	0xbeb32d5c	-0.34995544
27	0xbe329519	-0.17439689
28	0x3d7f5c0a	0.062343635
29	0x3df7bcee	0.12096582
30	0x3dd965b4	0.106151015
31	0x3d7b2282	0.061312206
32	0x3d3155bc	0.043294653
33	0x3c02bf94	0.007980246
34	0x3d4f63f2	0.050632425
35	0xbe4a0f8c	-0.19732493
36	0xbca9d95f	-0.020733533
37	0xbc0604c6	-0.008179849
38	0x3d5b9ad1	0.05361444
39	0xbe9a0295	-0.30080095
40	0xbe0fa815	-0.14028962
41	0x3da11cbe	0.0786681
42	0xbd8ab3f3	-0.06772604
43	0xbdaa2ef1	-0.083097346
44	0x3e12da55	0.143411
45	0x3cba641b	0.022752812
46	0x3d20e1cf	0.039277848
47	0x3e5c35d7	0.21504913
48	0xbe1435ba	-0.1447362
49	0xbdbda2fe	-0.09259604
50	0x3e26d567	0.16292344
51	0xbda52cce	-0.080651864
52	0x3d80857a	0.06275459
53	0x3d7196c3	0.05898167
54	0xbe2fa617	-0.17153202
55	0x3d0e5c86	0.034756206
56	0xbd6e23a3	-0.058139455
57	0x3dc7e443	0.09760334
58	0xbddfd564	-0.10929373
59	0x3b8de19c	0.0043298732
60	0xbd0beac2	-0.03415943
61	0x3c3158ab	0.010824363
62	0xbe042d15	-0.12907822
63	0x3c1364d4	0.008996207
64	0x3dba80f3	0.09106626
65	0x3e34acf5	0.17644103
66	0xbd058cb0	-0.032604873
67	0x3e281ac6	0.16416463
68	0x3d594bfa	0.053050973
69	0x3e1ab091	0.15106417
70	0xbdcfbe57	-0.10143726
71	0xbd5b7e96	-0.05358752
72	0xbd71372d	-0.05889051
73	0x3c81f610	0.015864402
74	0x3d6d3979	0.05791614
75	0xbdd2f854	-0.10301271
76	0x3da6681f	0.08125328
77	0xbe3d587a	-0.18490782
78	0xbd2daed2	-0.04240305
79	0xbd228e12	-0.03968627
80	0x3d6b4b68	0.05744496
81	0xbd593e1e	-0.053037755
82	0x3dd47158	0.10373181
83	0xbe9aeae3	-0.3025733
84	0xbd8933bc	-0.06699321
85	0x3dc2302e	0.09481846
86	0x3d4df783	0.050284874
87	0x3e114c36	0.14189228
88	0xbd7b095a	-0.061288215
89	0xbe158edb	-0.14605276
90	0x3e892843	0.2678853
91	0x3e3be532	0.1834915
92	0x3d393c9a	0.04522381
93	0xbea38b01	-0.3194199
94	0x3e04029d	0.12891622
95	0x3daeae6f	0.08529364
96	0xbcc407a9	-0.023929434
97	0xbd343ba6	-0.044002198
98	0x3c16ac9a	0.009196425
99	0xbc9aa165	-0.018875787
100	0xbcd8a603	-0.026446348
101	0x3dc0ebba	0.09419961
102	0x3e6316c4	0.22176653
103	0x3d909f7c	0.07061669
104	0xbdb2bfa0	-0.08727956
105	0x3e186ccf	0.14885257
106	0xbbb11ded	-0.0054051788
107	0x3b3ad2cf	0.0028507
108	0x3cefce92	0.029273305
109	0xbdb2f887	-0.08738809
110	0xbc5e11fc	-0.0135540925
111	0x3e185f7b	0.14880173
112	0xbd1f932d	-0.038958717
113	0x3cd1d2c1	0.02561319
114	0x3def4a56	0.116841
115	0x3e06cf47	0.13165008
116	0x3dfd1ac8	0.12358624
117	0x3d04f635	0.032461364
118	0x3d386e16	0.04502686
119	0xbdd98c60	-0.106224775
120	0xbd860640	-0.06544161
121	0xbdefa1ec	-0.11700806
122	0xbd48e580	-0.049046993
123	0x3dd24c92	0.10268511
124	0xbd2e3eda	-0.04254041
125	0xbe0d81ae	-0.13819
126	0xbde102b0	-0.10986841
127	0xbd9b51b8	-0.07583946
128	0x3d6e2dc4	0.058149114
129	0x3e095f3c	0.13415235
130	0x3c8d0640	0.017214894
131	0x3b69ccb4	0.003567499
132	0xbe3791ee	-0.17926762
133	0xbd9e0386	-0.07715516
134	0xbdb0424a	-0.08606394
135	0x3d876c4c	0.06612453
136	0xbe0536d5	-0.13009198
137	0xbdc260fc	-0.094911546
138	0x3dbab807	0.09117132
139	0xbe11cfd6	-0.1423944
140	0xbc6dbe9e	-0.014510779
141	0xbddb0300	-0.106939316
142	0xbda2d585	-0.07950882
143	0x3e08e25a	0.13367596
144	0x3c0ea66e	0.008706672
145	0xbea5ec45	-0.32406822
146	0xbe17de24	-0.14830834
147	0xbde5f09e	-0.11227535
148	0x3e088b3e	0.13334367
149	0xbde63fc4	-0.11242631
150	0x3cf73c8d	0.03018024
151	0x3ca75603	0.020426756
152	0xbbbd31c0	-0.005773753
153	0xbcfde7f8	-0.0309944
154	0xbe4e0f75	-0.20123084
155	0x3d65e936	0.05613061
156	0x3cae4c6a	0.021276671
157	0x3d3e06c0	0.046393156
158	0x3d8c173a	0.068403676
159	0x3c1eae41	0.0096851
160	0xbe243c7d	-0.160387
161	0xbc1049dc	-0.008806672
162	0xbd05f4d7	-0.0327042
163	0xbe5fa5fb	-0.2184066
164	0x3d681ae3	0.056666266
165	0xbd350d03	-0.044201862
166	0xbeb5d059	-0.3551052
167	0xbe9c0e70	-0.30479765
168	0x3d036ef9	0.032088254
169	0x3dac8382	0.084235206
170	0xbecae087	-0.39624426
171	0xbe7d18da	-0.24716511
172	0x3cb8ffe2	0.022582952
173	0xbd083fe2	-0.03326405
174	0xbc7e00b4	-0.015503097
175	0x3b002569	0.0019553548
176	0x3e1da3bb	0.1539449
177	0xbe3573b2	-0.17719916
178	0x3dc023ec	0.093818516
179	0x3cb28f4f	0.02179685
180	0x3e0068b6	0.12539944
181	0x3c53d98d	0.012930286
182	0xbe48f1d9	-0.19623508
183	0x3e11aa27	0.14225064
184	0xbd12e781	-0.03586531
185	0xbd0dce7e	-0.034620754
186	0xbde01667	-0.10941773
187	0x3e3f55b0	0.18685031
188	0x3df7bb84	0.12096313
189	0xbe18f4bd	-0.1493711
190	0xbd826f17	-0.06368845
191	0x3db3dd92	0.087824956
192	0x3e06cada	0.13163319
193	0xbe2b3ea9	-0.16723122
194	0xbd310503	-0.04321767
195	0x3d756588	0.05991128
196	0x3def7ec2	0.11694099
197	0xbc18bd0f	-0.009322419
198	0xbce8e280	-0.028428316
199	0xbce86360	-0.028367698
200	0xbdb00e6a	-0.08596499
201	0xbdeef346	-0.116674945
202	0x3e35e18d	0.17761822
203	0x3da8fd55	0.08251444
204	0x3e563d0a	0.20921722
205	0x3e06469a	0.1311287
206	0xbdec9644	-0.115520984
207	0xbd3958ab	-0.045250576
208	0x3c9964b3	0.018724775
209	0x3de014ca	0.10941465
210	0x3c1a6a41	0.009424747
211	0xbe211bd2	-0.15733269
212	0xbd87490e	-0.06605731
213	0xbd23de01	-0.04000664
214	0x3dafe0cf	0.08587801
215	0x3d698201	0.057008747
216	0x3d3dbb5e	0.046321265
217	0x3de57969	0.11204798
218	0xbe448d0d	-0.19194432
219	0x3d9c9aea	0.07646735
220	0xbce91536	-0.028452497
221	0x3d6d2db0	0.0579049
222	0xbe047c95	-0.1293815
223	0x3c6fe313	0.014641541
224	0x3df272d6	0.118383095
225	0x3d375420	0.044757962
226	0x3dcf620b	0.10126122
227	0xbe11cae7	-0.14237557
228	0xbc2ff602	-0.010739805
229	0xbd915c36	-0.07097666
230	0xbe208f0c	-0.15679568
231	0xbe3d8c3d	-0.18510528
232	0xbdbe67a9	-0.09297115
233	0xbc9db41f	-0.019250927
234	0xbcb7c949	-0.022434847
235	0xbdf5d401	-0.12003327
236	0x3e21b497	0.15791546
237	0xbe4dbec1	-0.20092298
238	0x3d1ed533	0.03877754
239	0xbdd1e556	-0.102488205
240	0x3dab3d92	0.08361353
241	0x3cf487c4	0.029849894
242	0x3e326148	0.17419922
243	0x3e0d4672	0.13796404
244	0xbca342d1	-0.019929321
245	0x3b963418	0.004583847
246	0xbe0d2d22	-0.13786748
247	0x3dbacfd1	0.09121669
248	0x3dad1123	0.08450534
249	0x3cfef25b	0.031121423
250	0x3e06d9f7	0.13169084
251	0x3e2433ca	0.16035381
252	0x3e212459	0.15736522
253	0xbe33c1aa	-0.17554346
254	0x3d467323	0.048449647
255	0xbdff2fc7	-0.12460285

net.2.bias f4 [64]
0	0x3dd34c8d	0.10317335
1	0x3c6edabb	0.014578517
2	0x3e18d41c	0.14924663
3	0x3da5f245	0.0810285
4	0xbd475eec	-0.04867451
5	0xbda384d0	-0.07984316
6	0xbe04a4c8	-0.12953484
7	0x3b75e2f1	0.00375193
8	0xbd1ea547	-0.03873184
9	0x3c8c5a85	0.017133007
10	0x3d78595c	0.060632095
11	0x3d2e0cbe	0.04249262
12	0x3d396317	0.045260515
13	0xbde40ec2	-0.11135627
14	0x3df3be11	0.11901487
15	0xbc966120	-0.01835686
16	0xbd92fca1	-0.071770914
17	0xbdcd0cc4	-0.100122005
18	0xbe046294	-0.1292823
19	0xbdefc4e1	-0.117074735
20	0xbd13b4c3	-0.03606106
21	0xbd245715	-0.04012211
22	0x3d76b2d8	0.060229152
23	0xbd13411f	-0.035950776
24	0xbe05c764	-0.13064343
25	0xbd75ff4d	-0.060057927
26	0x3da20ae7	0.07912236
27	0xbdfe03a4	-0.12403038
28	0xbdb0e1d9	-0.08636827
29	0x3dc14bb6	0.09438269
30	0x3d9ba3ef	0.07599627
31	0xbbff7240	-0.007795602
32	0x3db0ffbf	0.0864253
33	0xbe1453bd	-0.14485069
34	0x3d7036ce	0.058646016
35	0xbde289ba	-0.110614255
36	0x3ddde5d2	0.1083485
37	0x3d68e1be	0.05685591
38	0xbde3c960	-0.111223936
39	0xbc0aa33b	-0.008461769
40	0x3ce4c995	0.027928153
41	0xbdab282c	-0.083572716
42	0x3be4d174	0.0069829766
43	0xbe048a13	-0.12943296
44	0xbc80e8a9	-0.015735941
45	0x3e10f597	0.14156185
46	0xbc8cca46	-0.017186295
47	0xbe04f765	-0.12984999
48	0xbd5b74cd	-0.053578187
49	0xbdc6f8af	-0.097154014
50	0x3da7591d	0.08171294
51	0xbd409fa0	-0.04702723
52	0xbdb8eece	-0.090299234
53	0x3da8844d	0.08228359
54	0x3d271c76	0.040798627
55	0x3e7e1a3b	0.24814694
56	0x3dc14367	0.09436684
57	0xbc9f5870	-0.01945135
58	0x3e023f5e	0.12719485
59	0x3dc7dc39	0.09758801
60	0x3ac1e1a9	0.0014791983
61	0xbe180994	-0.14847404
62	0x3dc5e67f	0.09663104
63	0x3d8ade6b	0.06780704

net.4.weight f4 [64, 64]
0	0x3ac1fe4a	0.0014800515
1	0x3c71adee	0.014750941
2	0xbda8718f	-0.082247846
3	0xbd970614	-0.07374206
4	0xbccda8d9	-0.025104927
5	0x3c10a3f2	0.00882815
6	0xbc11d2c1	-0.008900345
7	0xbc02160f	-0.0079398295
8	0xbd1b401f	-0.037902948
9	0x3d01d727	0.031699326
10	0xbe0325bb	-0.12807362
11	0xbd43a40a	-0.04776386
12	0xbe0c7b7d	-0.13718982
13	0x3dd7009a	0.104981616
14	0x3d37c22d	0.044862915
15	0xbd7a4f74	-0.06111093
16	0x3db144fd	0.086557366
17	0xbd87b8a3	-0.066270135
18	0x3daa4e6d	0.0831574
19	0x3dcf984b	0.101364695
20	0x3d550082	0.052002437
21	0xbd33526a	-0.043779768
22	0xbdf63ba2	-0.12023093
23	0xbbf56669	-0.007489015
24	0x3cc9060e	0.02453902
25	0xbdc1c413	-0.09461226
26	0xbccb5045	-0.024818549
27	0xbb9b0210	-0.0047304705
28	0xbd214990	-0.039376795
29	0xbe0c2057	-0.13684212
30	0xbd49ec4f	-0.049297627
31	0xbd7d7638	-0.06188032
32	0xbb7ce9f9	-0.0038591607
33	0x3ca16529	0.019701557
34	0xbe069d1e	-0.13145873
35	0xbdf4c8a6	-0.11952333
36	0x3c12b58d	0.008954418
37	0x3db54228	0.08850509
38	0xbce4af50	-0.027915627
39	0xbe046169	-0.12927784
40	0x3ca4c3cf	0.0201129
41	0x3c20d196	0.009815594
42	0xbcf9aade	-0.030476984
43	0xbd9cd823	-0.07658412
44	0xbbe3050a	-0.006928091
45	0x3cfcfec2	0.030883197
46	0xbe03f87d	-0.1288776
47	0x3de6f02a	0.112762764
48	0x3c1d3e0e	0.0095973145
49	0xbd2b6a38	-0.041849345
50	0x3dbe0cde	0.09279798
51	0xbbbb5861	-0.0057173227
52	0x3d8ddc7f	0.06926822
53	0xbd1fc03b	-0.039001685
54	0xbd18df70	-0.03732246
55	0xbdf9268b	-0.121655546
56	0x3b880060	0.0041504353
57	0x3c5bebd0	0.013422921
58	0xbe0f06de	-0.13967463
59	0x3cd23a50	0.025662571
60	0x3dc93b2c	0.09825739
61	0x3d2d2f35	0.04228135
62	0x3cfa654e	0.030565884
63	0x3d30f560	0.043202758
64	0x3c3b8a7c	0.0114465915
65	0xbce58529	-0.028017597
66	0x3c071de3	0.008246872
67	0x3d13467d	0.035955895
68	0xbe09cc78	-0.13456905
69	0xbe0f7f0f	-0.14013313
70	0xbcf4160f	-0.029795675
71	0x3dac6518	0.084177196
72	0xbdab7a4b	-0.08372935
73	0x3c54b834	0.012983371
74	0xbe13ba22	-0.14426473
75	0xbd94bcb2	-0.07262553
76	0x3da9ef38	0.082975805
77	0x3cd4fedd	0.026000435
78	0xbb3a9195	-0.0028468121
79	0xbc81fb40	-0.015866876
80	0x3d87126f	0.06595313
81	0xbc65dcfd	-0.0140297385
82	0x3d11bc9f	0.035580274
83	0xba812ae6	-0.0009854704
84	0x3dd2c2b1	0.10291041
85	0x3ca9598d	0.020672584
86	0x3d09d25e	0.033647887
87	0x3d86d871	0.06584252
88	0x3dd4353f	0.103617184
89	0x3c4fa7f1	0.012674318
90	0x3c96a81c	0.018390708
91	0xbd80b757	-0.06284969
92	0x3c3fc954	0.011705715
93	0xbde52b4f	-0.11189901
94	0xbdadaa43	-0.084797405
95	0x3c1ec91a	0.009691501
96	0x3d9c09e6	0.076190755
97	0x3c979ccb	0.018507382
98	0xbcc81268	-0.02442284
99	0xbdb6e75e	-0.089308485
100	0xbd820896	-0.06349294
101	0xbdf38d20	-0.11892152
102	0xbe36c550	-0.17848706
103	0x3d96cc15	0.07363144
104	0x3dbf4605	0.09339527
105	0xbdb982ac	-0.09058127
106	0xbd4aab35	-0.049479682
107	0xbd96c07a	-0.07360931
108	0x3ca5e2ed	0.020249808
109	0x3d8e0234	0.06934014
110	0xbd3de1f0	-0.04635805
111	0x3ce1335f	0.027490316
112	0x3dbff9de	0.0937383
113	0x3d46a362	0.048495658
114	0xbd08840e	-0.033329062
115	0x3da26c3d	0.07930801
116	0xbca8f0e7	-0.020622684
117	0x3ce98809	0.02850725
118	0xbe1e8b99	-0.1548294
119	0xbdb99714	-0.09062019
120	0xbdb133b9	-0.086524434
121	0xbd11cf10	-0.03559786
122	0xbcae97f6	-0.021312695
123	0x3ded0a58	0.115742385
124	0xbcdfe69d	-0.027331645
125	0xbe04a21a	-0.12952462
126	0xbd8c94c5	-0.06864313
127	0xbdfd9ab1	-0.12383021
128	0xbd302765	-0.04300632
129	0xbcd28ca6	-0.025701832
130	0xbeb3de85	-0.35130706
131	0xbd8a5ba1	-0.06755758
132	0xbdcd06a4	-0.10011032
133	0x3c62683e	0.013818799
134	0x3edfd106	0.4371416
135	0xbd8320f3	-0.06402769
136	0xbe27e572	-0.1639612
137	0x3e6a5d02	0.22887042
138	0xbd9ece81	-0.07754231
139	0x3e5c8224	0.2153402
140	0x3e2873dd	0.16450448
141	0x3dcc9dad	0.09991012
142	0xbd762bdc	-0.06010042
143	0x3d335900	0.04378605
144	0xbd9f289b	-0.07771417
145	0xbe92402f	-0.28564593
146	0xbd9d3096	-0.07675283
147	0x3d8249fd	0.063617684
148	0xbddcc76e	-0.10780226
149	0xbe02d26d	-0.12775584
150	0xbc4b29bb	-0.012400086
151	0x3d2602d2	0.040530033
152	0x3e86fbe8	0.26364064
153	0xbd081808	-0.033226043
154	0x3e79ceb8	0.24395263
155	0x3b28a500	0.0025733113
156	0x3e7419f4	0.23838025
157	0x3d61bbc2	0.0551107
158	0xbe44cf48	-0.19219697
159	0xbe6c34e3	-0.2306705
160	0xbd17c993	-0.03705747
161	0xbe851cc9	-0.25998524
162	0xbd9baa86	-0.07600884
163	0x3b909ea0	0.004413441
164	0xbd1d7a44	-0.03844668
165	0x3d59e8fd	0.05320071
166	0x3b9abd19	0.004722249
167	0xbdcd148c	-0.10013685
168	0x3cde2a57	0.027119799
169	0x3bfae984	0.0076572318
170	0x3e65d2ce	0.22443697
171	0x3e4e2021	0.20129444
172	0x3cc12538	0.023577318
173	0x3dfd8ded	0.12380586
174	0x3dcbceca	0.09951551
175	0x3d7671c0	0.060167074
176	0x3e08baa2	0.13352445
177	0x3ded2ca8	0.11580783
178	0xbe5cec59	-0.21574534
179	0x3d1d37a8	0.038383156
180	0x3ed7b246	0.421282
181	0xbef2136a	-0.47280437
182	0x3de4c43a	0.1117024
183	0xbdf258d7	-0.11833351
184	0xbd4b2d40	-0.0496037
185	0x3d05fef0	0.03271383
186	0xbe01401f	-0.12622117
187	0x3e448bf2	0.1919401
188	0x3e94c72f	0.29058215
189	0xbdeb3806	-0.11485295
190	0x3d25edd6	0.04051002
191	0xbdb2430e	-0.08704196
192	0xbe96ab78	-0.29427695
193	0xbc97e30c	-0.018540882
194	0xbc892e8a	-0.016745824
195	0xbdffb4e2	-0.124856725
196	0x3d1234e8	0.035694987
197	0x3cefbf8a	0.029266138
198	0x3e51b7ab	0.2048022
199	0xbc42dbfc	-0.011893269
200	0xba5b5dcf	-0.00083681656
201	0xbd7437c4	-0.059623495
202	0xbdead700	-0.11466789
203	0x3c999414	0.018747367
204	0xbdc410d1	-0.0957352
205	0x3d55a750	0.052161515
206	0xbd121b95	-0.035670836
207	0xbd4ea134	-0.050446704
208	0x3dacf442	0.08445026
209	0x3d0fcf26	0.03510966
210	0xbdb326d4	-0.0874764
211	0x3c37e768	0.011224605
212	0x3de18a39	0.11012692
213	0x3d640fc1	0.055679087
214	0x3c7585d3	0.014985519
215	0x3dcaeb8c	0.09908208
216	0x3e26264d	0.16225548
217	0xbdceff87	-0.10107332
218	0xbd63df55	-0.055632908
219	0x3dd1905b	0.10232612
220	0x3df00bd4	0.11721006
221	0xbe0204a3	-0.12697081
222	0x3d24bc89	0.040218864
223	0xbe6ea12c	-0.2330367
224	0x3c928e69	0.017890172
225	0x3d8b89ca	0.068133906
226	0xbdd9e7e8	-0.10639936
227	0xbd83d5f2	-0.06437291
228	0x3de71c38	0.11284679
229	0x3d24e35c	0.04025589
230	0x3dc3f16a	0.095675305
231	0x3c12a01e	0.008949308
232	0x3db50394	0.08838573
233	0xbd3e84ec	-0.046513483
234	0xbd777006	-0.06040957
235	0x3e241592	0.16023853
236	0x3cc9b24b	0.02462115
237	0xbd875385	-0.06607727
238	0x3dda68d5	0.106645264
239	0x3da1db3c	0.07903144
240	0xbd5a660f	-0.053319987
241	0x3df8f248	0.121555865
242	0xbdaa4194	-0.08313289
243	0x3da8c19e	0.082400545
244	0x3db81308	0.08988005
245	0xbe425bf1	-0.18980385
246	0xbc3222b1	-0.010872529
247	0xbe208e31	-0.15679242
248	0xbde20afb	-0.110372506
249	0xbd3d5d94	-0.04623182
250	0xbc894eb5	-0.016761163
251	0x3dfbafa3	0.122893594
252	0xbcbf60cf	-0.023361592
253	0xbd1e5ce4	-0.038662806
254	0xbdb5bcd2	-0.08873905
255	0x3dff2bec	0.12459549

net.4.bias f4 [64]
0	0x3af26460	0.0018493049
1	0x3d6a1d1b	0.057156663
2	0xbe23b5a0	-0.15987253
3	0xbd9a13d5	-0.07523314
4	0x3c1687dd	0.009187666
5	0x3deb2dc0	0.114833355
6	0xbc720f21	-0.014774115
7	0x3e170245	0.1474696
8	0x3ded94da	0.11600657
9	0x3d30e1fd	0.04318427
10	0xbe000083	-0.12500195
11	0xbd7a9160	-0.061173797
12	0xbc772674	-0.0150848515
13	0xbd92ab19	-0.071615405
14	0x3dffed1e	0.124963984
15	0x3d3c6d6b	0.046002787
16	0xbd01768e	-0.031607203
17	0x3ddf1573	0.10892763
18	0x3e46afe1	0.1940303
19	0xbd97fb4d	-0.07420979
20	0x3db50b53	0.088400505
21	0xbc05a49b	-0.008156921
22	0x3dfdc416	0.12390916
23	0x3d8dfce8	0.06933004
24	0x3cd4c83d	0.025974387
25	0xbe2fbf08	-0.17162716
26	0x3d955d19	0.072931476
27	0x3c1b34f6	0.009473076
28	0x3b7fbe80	0.003902346
29	0x3c4aeced	0.012385589
30	0x3dafc0b1	0.08581675
31	0xbd305434	-0.043049052
32	0x3dc6354d	0.09678135
33	0x3cdbc882	0.026829008
34	0x3ce9784d	0.028499747
35	0x3dcb6d4b	0.09932955
36	0xbd2df33a	-0.042468287
37	0xbdebef4f	-0.11520254
38	0x3de971e7	0.11398678
39	0xbcbb646a	-0.02287503
40	0x3d4309a7	0.047616627
41	0x3dda2858	0.10652226
42	0x3d975920	0.07390046
43	0x3e03efdf	0.12884472
44	0x3c9964fe	0.018724915
45	0x3df73f8f	0.1207267
46	0x3de94fc8	0.1139217
47	0x3e148176	0.1450251
48	0xbd82b884	-0.0638285
49	0xbdd35caa	-0.10320409
50	0x3b650743	0.0034946955
51	0x3dac3882	0.084092155
52	0xbdbb4fe0	-0.09146094
53	0xbd28f7d0	-0.041251957
54	0x3d5ae3e4	0.05343999
55	0xbd3f0450	-0.046634972
56	0xbddb6498	-0.10712546
57	0x3d4e5715	0.050376017
58	0xbdc82de7	-0.0977438
59	0xbcee36fa	-0.02907895
60	0xbe43b84a	-0.1911327
61	0x3c91c64d	0.017794752
62	0x399cc71f	0.00029902995
63	0xbe0222fb	-0.12708656

net.6.weight f4 [64, 64]
0	0xbd353b63	-0.04424609
1	0xbd821e5a	-0.06353445
2	0xbd631fb1	-0.055450145
3	0x3dc38439	0.09546704
4	0xbd798c08	-0.06092456
5	0xbd96706c	-0.073456615
6	0xbd587a11	-0.052850787
7	0xbd1781ae	-0.036988907
8	0xbd7e453c	-0.062077746
9	0xbdc5a647	-0.096508555
10	0x3da93754	0.08262506
11	0xbd94e7da	-0.07270785
12	0x3d72dba4	0.059291497
13	0x3dd1a74d	0.10236988
14	0x3d3397d1	0.043845955
15	0x3d1bfe0e	0.038084082
16	0x3c8b1deb	0.01698204
17	0xbe029071	-0.12750413
18	0xbe0a1182	-0.13483241
19	0xbe0dda11	-0.13852717
20	0x3c6c1e0a	0.014411459
21	0x3cfb87ef	0.030704467
22	0xbc4b0680	-0.012391686
23	0xbdce05da	-0.1005971
24	0xbd1d9683	-0.038473617
25	0xbc80ab1e	-0.015706595
26	0x3db19144	0.08670285
27	0x3d0c75fa	0.0342922
28	0xbd0dfeac	-0.034666702
29	0xbdafeea3	-0.08590438
30	0xbdfce115	-0.123476185
31	0xbc9f8cff	-0.019476412
32	0x3d8cc977	0.06874364
33	0xbcfe0046	-0.03100599
34	0x3d250850	0.04029113
35	0xbcbe1a87	-0.023206009
36	0xbda5d18d	-0.08096609
37	0x3d336be1	0.043804053
38	0x3d75b034	0.059982494
39	0x3dcb157c	0.09916207
40	0xbdd6406b	-0.104615055
41	0xbd43a203	-0.04776193
42	0x3dce11c8	0.10061985
43	0xbc4f1020	-0.012638122
44	0x3dab54fb	0.08365818
45	0x3d6e4f9c	0.05818139
46	0x3d2b98d9	0.041893814
47	0xbdd12622	-0.102123514
48	0x3ddc4eb6	0.107572004
49	0xbd67886f	-0.056526598
50	0xbe0238b3	-0.12716942
51	0xbdc4133a	-0.0957398
52	0x3c2fc49d	0.010728029
53	0x3dfba3ee	0.122871265
54	0x3da21c68	0.07915574
55	0xbd0ca766	-0.03433933
56	0x3ceba577	0.028765423
57	0xbd2113e7	-0.03932562
58	0xbce42600	-0.027850151
59	0x3b8d549d	0.004313065
60	0x3df360f8	0.1188373
61	0xbdbc3c3c	-0.09191176
62	0xbd1c3f97	-0.03814658
63	0xbc5a7b5b	-0.013335074
64	0xbd41d638	-0.047323436
65	0x3d132bd9	0.03593049
66	0xbe0f4421	-0.13990833
67	0x3d317379	0.043323014
68	0xbc911866	-0.01771183
69	0xbdd77a3f	-0.105213635
70	0x3dd2adc9	0.10287053
71	0xbdeea7bd	-0.11653087
72	0x3d0f93f9	0.035053227
73	0x3c5e1a80	0.013556123
74	0xbd49b82b	-0.049247902
75	0xbdf29a5a	-0.118458465
76	0xbd658c2c	-0.05604188
77	0x3c3d9143	0.011570278
78	0x3d07a383	0.03311492
79	0xbbb32df6	-0.0054681255
80	0x3bb543c0	0.005531758
81	0xbd84bff7	-0.06481927
82	0xbc5b8fde	-0.013401
83	0x3da74d1c	0.08169004
84	0x3d1175e6	0.035512827
85	0x3dcf1a46	0.10112433
86	0xbe0a2e6d	-0.13494273
87	0x3d2749e3	0.04084195
88	0xbd740314	-0.059573248
89	0x3e64ea21	0.22354938
90	0x3d263673	0.04057927
91	0x3de69026	0.11257963
92	0x3da6dcc4	0.081475765
93	0xbdd84b84	-0.105612785
94	0x3dbde0f7	0.09271424
95	0xbe79f339	-0.24409188
96	0x3dfb7528	0.12278205
97	0xbe38ff6b	-0.18066184
98	0xbd9bb946	-0.076036975
99	0x3dd2f902	0.10301401
100	0x3e02814a	0.12744632
101	0x3e71fdfb	0.23632042
102	0x394f5825	0.00019773895
103	0xbb316971	-0.0027070905
104	0x3e44f637	0.19234549
105	0x3df225fa	0.1182365
106	0xbda97f8f	-0.08276283
107	0xbca59dff	-0.02021694
108	0x3c986dad	0.018606985
109	0x3d90b624	0.070659906
110	0xbe5a71f3	-0.2133253
111	0xbdd131d4	-0.10214582
112	0xbd618cf8	-0.05506608
113	0x3e6c0988	0.23050511
114	0xbdebd38a	-0.11514957
115	0xbd49968a	-0.04921583
116	0x3dbbb825	0.09165982
117	0x3c113630	0.008863017
118	0x3d7d8caa	0.061901726
119	0x3c760ac7	0.015017218
120	0x3e47aa4a	0.19498554
121	0x3dd7dcec	0.105401844
122	0xbdc5a696	-0.09650914
123	0x3dd35478	0.103188455
124	0x3e5eba50	0.2175076
125	0xbd7e13d9	-0.062030647
126	0x3db1f08b	0.08688458
127	0x3e53da7e	0.20688817
128	0x3dbc3cac	0.0919126
129	0x3d15d361	0.03657854
130	0xbe1a936f	-0.15095304
131	0x3d21b517	0.03947934
132	0x3cb43fb5	0.022003034
133	0x3c13bd3e	0.009017287
134	0x3dd338db	0.10313579
135	0xbdeb81fe	-0.114994034
136	0x3d2e690a	0.04258064
137	0xbdb5d490	-0.08878434
138	0xbd83a92c	-0.06428751
139	0x3c0f3960	0.008741707
140	0xbdadbd2b	-0.084833466
141	0x3e2aa77c	0.16665453
142	0xbc4e7659	-0.0126014585
143	0xbdd58afc	-0.104269
144	0x3e8835e9	0.2660363
145	0xbe086565	-0.13319929
146	0x3d8b2b12	0.067953244
147	0x3e8c6fa4	0.27428925
148	0xbddbfbba	-0.107413724
149	0xbc351cea	-0.011054257
150	0x3e01978d	0.12655468
151	0x3e3af730	0.18258357
152	0xbe5e178f	-0.21688674
153	0xbce57e2f	-0.02801427
154	0xbb7c1150	-0.0038462467
155	0x3dc26889	0.09492595
156	0xbd960f16	-0.07327096
157	0xbde1f72d	-0.11033473
158	0xbe187c51	-0.14891173
159	0x3dcf2a89	0.10115535
160	0x3e28a691	0.1646979
161	0xbe4f4570	-0.20241332
162	0x3d0ea4ea	0.034825243
163	0x3e11ae04	0.14226538
164	0x3d9a7176	0.07541172
165	0xba7ba54a	-0.000959952
166	0x38e5df77	0.000109611945
167	0xbe02f990	-0.12790513
168	0x3da302cb	0.07959517
169	0xbe707508	-0.23482144
170	0xbe22e522	-0.1590772
171	0xbe50b587	-0.20381747
172	0x3d36fa71	0.044672433
173	0x3e15e731	0.14638974
174	0xbe0d40f3	-0.13794307
175	0x3dda9c77	0.106743746
176	0x3d26f77c	0.040763363
177	0xbe18a790	-0.1490767
178	0x3e33d0ec	0.17560166
179	0xbeadc8b7	-0.33942196
180	0x3da2211b	0.079164706
181	0x3c85e7a8	0.016345814
182	0xbe181883	-0.148531
183	0xba509b14	-0.0007957679
184	0x3dc5a6e0	0.096509695
185	0x3d37bb60	0.04485643
186	0x3e78b3d3	0.24287347
187	0xbdb9f490	-0.0907985
188	0x3cc7fb5e	0.024411853
189	0x3e663bc2	0.22483733
190	0x3df2a210	0.11847317
191	0xbd1e3e51	-0.03863365
192	0xbd03e492	-0.032200404
193	0x3d825a0f	0.063648336
194	0xbe16b42c	-0.14717168
195	0x3e0091d4	0.12555629
196	0x3da8453a	0.08216329
197	0xbd2dec14	-0.04246147
198	0xbdfdd7fd	-0.12394712
199	0xbdf3c717	-0.11903208
200	0xbd395d05	-0.045254726
201	0xbdd68df5	-0.10476295
202	0xbd99ca02	-0.07509233
203	0x3bf743e0	0.007545933
204	0x3d86ce38	0.06582302
205	0xbe66223c	-0.22473997
206	0xbc8460da	-0.016159464
207	0xbddd4d15	-0.10805718
208	0xbd3b505b	-0.04573093
209	0xbddd00b7	-0.10791152
210	0xbd606eff	-0.054793354
211	0x3d98031f	0.0742247
212	0x3dab278c	0.08357152
213	0x3c8372ae	0.016045894
214	0x3e089045	0.13336284
215	0x3dde0f87	0.10842805
216	0xbe0367c2	-0.12832549
217	0xbe135094	-0.14386207
218	0xbe09676e	-0.13418362
219	0xbde78e98	-0.113064945
220	0xbcdc0ee8	-0.026862577
221	0xbc160353	-0.009156066
222	0xbe2d2f35	-0.1691254
223	0xbd816e0e	-0.063198194
224	0x3e1002d2	0.14063576
225	0xbd2e668f	-0.042578276
226	0x3df46f27	0.11935263
227	0xbc6f97da	-0.014623607
228	0x3d769a9e	0.06020605
229	0xbe651873	-0.22372608
230	0xbc8bdd6b	-0.017073354
231	0x3df16f77	0.11788838
232	0x3c0d5531	0.008626268
233	0xbc1e2789	-0.009652981
234	0xbdd6b4a1	-0.10483671
235	0xbe538201	-0.20655061
236	0xbd999911	-0.07499898
237	0x3dfa781c	0.1222994
238	0xbdbab353	-0.09116235
239	0x3cd03e0f	0.025420217
240	0x3d8443e7	0.06458264
241	0xbec5b59f	-0.38615128
242	0x3da01947	0.07817321
243	0xbe104ef7	-0.14092623
244	0x3d9203da	0.07129641
245	0x3d8b9464	0.06815413
246	0xbe241ced	-0.1602666
247	0x3b58e55c	0.0033095693
248	0x3b419bcb	0.0029542323
249	0xbd74586f	-0.05965465
250	0x3d959f8e	0.07305823
251	0xbda2ede8	-0.07955533
252	0xbd05d670	-0.032675207
253	0x3ea1bb3a	0.31588155
254	0x3df690d9	0.12039346
255	0xbe0037b0	-0.12521243

net.6.bias f4 [64]
0	0xbdcb5d96	-0.099299595
1	0xbe65f8c2	-0.22458175
2	0xbdd2e362	-0.10297276
3	0x3df2da7b	0.11858078
4	0x3da5826d	0.08081517
5	0x3d976937	0.07393115
6	0xbdbe3de4	-0.092891484
7	0x3ddeb9a6	0.108752534
8	0x3d17c8b9	0.03705666
9	0x3d937ea4	0.07201889
10	0x3d6cd1ba	0.0578172
11	0xbd954bdc	-0.0728986
12	0x3d5fc7c7	0.054633882
13	0x3dee8fd1	0.116485246
14	0x3c083ab1	0.008314774
15	0x3dd88879	0.10572905
16	0x3db98fec	0.09060654
17	0x3d1842fb	0.037173253
18	0x3d98ddb6	0.07464163
19	0xbde19cea	-0.11016257
20	0x3d503144	0.050828233
21	0xbc544985	-0.012956982
22	0xbe0259c0	-0.1272955
23	0x3b022afb	0.0019862044
24	0x3cb81e94	0.022475518
25	0x3d3d06cd	0.046149064
26	0x3cf910b5	0.030403474
27	0xbccadf7b	-0.024764767
28	0x3de95c40	0.113945484
29	0xbdf0ee7b	-0.117642365
30	0xbb069fb7	-0.0020541975
31	0x3d967ac1	0.07347632
32	0x3d3b5209	0.04573253
33	0xbdb67c29	-0.089104004
34	0x3b161825	0.0022902575
35	0xbe059736	-0.13045964
36	0x3d1f9eb4	0.03896971
37	0xbd251200	-0.04030037
38	0x3dd7f036	0.105438635
39	0x3db2763d	0.087139584
40	0x3dd3f3ae	0.103492126
41	0xbdab3da8	-0.08361369
42	0x3cd83196	0.026390832
43	0xbc293d4d	-0.010329557
44	0xb9c21daa	-0.00037024665
45	0x3d83d42f	0.06436955
46	0xbd8e2e4c	-0.06942424
47	0xbdc77f69	-0.097410984
48	0xbbbc1b5a	-0.0057405652
49	0x3d80767c	0.06272599
50	0xbda301f0	-0.07959354
51	0x3d72285d	0.059120525
52	0x3d70f3fe	0.05882644
53	0x3c6f0cd0	0.014590457
54	0xbd69e01a	-0.057098486
55	0x3c2ee457	0.010674558
56	0xbce58913	-0.028019464
57	0x3b746e91	0.0037297348
58	0xbd0f05b0	-0.034917533
59	0x3da47e00	0.08031845
60	0x3d8471f6	0.06467049
61	0xbd65f60c	-0.05614285
62	0xbe0b7b14	-0.1362117
63	0xbcdbce0b	-0.026831647

net.8.weight f4 [1, 64]
0	0xbde6b8a0	-0.11265683
1	0x3e3814f6	0.17976746
2	0xbea0433d	-0.313013
3	0xbe6c0003	-0.2304688
4	0xbe8ff891	-0.2811933
5	0x3e8d14b2	0.27554852
6	0xbd686e21	-0.056745652
7	0xbe8b0230	-0.27150106
8	0x3ed564f8	0.41678596
9	0xbe15e579	-0.14638318
10	0xbe078ab0	-0.13236499
11	0x3d5d2c7c	0.0539975
12	0xbe4b8be6	-0.19877586
13	0x3e86cc9c	0.2632798
14	0xbe011777	-0.12606607
15	0x3e86a8e0	0.26300716
16	0x3eb93351	0.36171964
17	0xbe427049	-0.18988146
18	0xbe08d311	-0.13361765
19	0x3e39def3	0.18151455
20	0xbe9c778f	-0.30559966
21	0x3e81b3c7	0.25332472
22	0x3eb6709d	0.35632792
23	0xbe4136ba	-0.18868533
24	0xbe10cbee	-0.14140293
25	0xbe209355	-0.15681203
26	0x3e6a395a	0.2287344
27	0x3e9bb85e	0.30414099
28	0x3e8a8212	0.2705236
29	0x3ce7fa6d	0.028317655
30	0xbe4f26e0	-0.20229673
31	0xbee24501	-0.4419327
32	0x3e0844cf	0.13307498
33	0xbf3cc867	-0.7374329
34	0xbd428ed6	-0.0474995
35	0x3f0f1132	0.5588561
36	0xbe2ac9c6	-0.16678533
37	0xbe105392	-0.1409438
38	0x3e6ae32e	0.22938225
39	0xbe1ad492	-0.15120152
40	0xbe2ca6ea	-0.16860548
41	0xbcbd3250	-0.02309528
42	0x3e3fa6e0	0.18716002
43	0xbf095d1c	-0.536577
44	0xbe5e95cc	-0.2173683
45	0xbed24f96	-0.41076344
46	0xbe814416	-0.25247258
47	0xbe24bfdb	-0.16088812
48	0xbdea9697	-0.11454504
49	0xbe7d5125	-0.24737985
50	0x3c0f7943	0.008756938
51	0xbe4918ad	-0.1963832
52	0xbdfbbd87	-0.12292009
53	0xbe58122a	-0.21100679
54	0xbe9e5cbe	-0.30930132
55	0xbb2e2c12	-0.002657656
56	0xbe227159	-0.15863551
57	0x3e5e7ae3	0.21726565
58	0xbbeddbe3	-0.0072588786
59	0x3e5ccb1b	0.21561854
60	0xbe2f8130	-0.17139125
61	0xbec3f952	-0.38276154
62	0xbd48c244	-0.04901339
63	0x3e6664d6	0.22499403
