models/nn/smogn/SFR/model.pt (torch, 54492 bytes, 9 tensors)

net.0.weight f4 [64, 3]
0.017863566 0.49968678 0.31802368 -0.5341777 -0.3418461 0.0652413 0.32921416 -0.26741275
-0.7776347 -0.057197265 0.32642278 -0.31206298 -0.44657847 0.12487793 0.49071923 -0.3970946
0.19519264 0.32542437 -0.009492434 -0.33633137 -0.2461429 -0.41453275 0.0072382935 -0.22766101
-0.06573882 -0.21235551 -0.51311594 0.5469783 0.12389139 0.33518022 0.34812403 0.23887506
-0.17035888 -0.1999424 -0.34098932 -0.51896894 -0.5250093 -0.30395487 0.5284741 -0.59633476
-0.4091122 -0.49257123 -0.37740743 0.4992636 -0.61105204 -0.51361674 -0.43826404 0.14593877
-0.18468083 -0.38848686 0.5942544 0.08371069 -0.4262734 -0.26497185 0.36242136 0.21654305
-0.35816768 -0.36042783 -0.29358754 0.21725187 -0.4818134 0.52090806 0.037932534 0.28671843
0.22756699 0.45091525 -0.21809416 -0.24728876 -0.3626238 0.5008634 -0.018108124 -0.020246398
0.5551012 -0.09925185 -0.079563536 -0.26662138 0.30618814 0.041438427 -0.29601088 0.39179122
0.54164183 -0.16718325 0.09769825 -0.7749128 -0.3547055 -0.15627548 0.25189325 -0.1039386
0.44331643 -0.5255346 0.33368024 -0.64465016 -0.25337648 0.5259194 -0.19650486 -0.15927313
0.27550653 -0.34570983 0.14546192 -0.15317567 0.2802162 -0.38904965 -0.4742679 -0.5555871
-0.059925564 0.5976706 0.3563049 -0.48598814 0.30899322 0.5430257 0.59405136 0.02626347
0.12290866 0.63147324 0.579201 0.043360636 -0.08875147 0.543855 -0.07992989 0.4339065
0.5115349 0.18385732 -0.47636983 0.49297544 0.31794083 0.18961893 0.12573148 0.2725283
0.39260054 -0.49867308 -0.57716465 0.26135406 -0.25732237 -0.52418184 0.5287646 -0.4227192
-0.17220396 -0.39408714 0.526532 -0.04907168 -0.28076828 0.4776677 0.5329576 0.31516254
0.5345685 -0.4375549 -0.62571037 0.2997474 -0.14541472 0.46641845 0.5293361 -0.13909815
-0.33309287 0.48795423 -0.32972854 -0.33129224 0.4511146 -0.03592442 -0.29598185 0.1795615
-0.3180907 -0.038555756 -0.47767952 -0.16221943 0.4678576 0.013214753 -0.1481627 0.54943216
0.3652771 0.37656435 0.32629257 -0.25148416 -0.5679496 -0.31200668 -0.2699595 0.23401076
0.56671196 0.5533477 0.4819492 0.08672178 0.4399195 0.07124628 0.2039241 -0.41730043
0.5211512 0.32764143 -0.029823264 -0.25994518 0.10408474 -0.1266178 -0.43372163 -0.4045612
00000000: 9d56 923c f2d6 ff3e 00d4 a23e dfbf 08bf
00000010: 7406 afbe 3b9d 853d c28e a83e 53ea 88be
00000020: 1113 47bf ae47 6abd e320 a73e b8c6 9fbe
00000030: efa5 e4be 00c0 ff3d 8d3f fb3e fc4f cbbe
00000040: 94e0 473e 069e a63e 2786 1bbc a033 acbe
00000050: e20c 7cbe a33d d4be 352f ed3b f81f 69be
00000060: 13a2 86bd b973 59be 915b 03bf c506 0c3f
00000070: c5ba fd3d be9c ab3e 503d b23e aa9b 743e
00000080: 8f72 2ebe b3bd 4cbe 2796 aebe 26db 04bf
00000090: 0267 06bf f99f 9bbe 144a 073f 65a9 18bf
000000a0: 2777 d1be 4c32 fcbe 8c3b c1be 7b9f ff3e
000000b0: e86d 1cbf 637c 03bf 2564 e0be f970 153e
000000c0: f91c 3dbe c0e7 c6be 0e21 183f 8370 ab3d
000000d0: 8240 dabe 64aa 87be 4b8f b93e 76bd 5d3e
000000e0: c161 b7be ff89 b8be 1b51 96be 4677 5e3e
000000f0: 3fb0 f6be 3b5a 053f 255f 1b3d c2cc 923e
00000100: 5207 693e 5dde e63e 1354 5fbe 4439 7dbe
00000110: d4a9 b9be 9538 003f 7d57 94bc c6db a5bc
00000120: 1d1b 0e3f 8e44 cbbd 35f2 a2bd 9982 88be
00000130: b1c4 9c3e 57bb 293d bd8e 97be dc98 c83e
00000140: 0aa9 0a3f 1632 2bbe 0516 c83d af60 46bf
00000150: f69b b5be ae06 20be 27f8 803e c3dd d4bd
00000160: 5ffa e23e 6f89 06bf 23d8 aa3e cb07 25bf
00000170: 90ba 81be a7a2 063f 9238 49be 7f18 23be
00000180: 310f 8d3e e100 b1be f8f3 143e 15da 1cbe
00000190: 7f78 8f3e 8431 c7be 3ed3 f2be f53a 0ebf
000001a0: 8274 75bd f100 193f 996d b63e 70d3 f8be
000001b0: 5c34 9e3e bb03 0b3f c013 183f 7d26 d73c
000001c0: 89b7 fb3d 3ba8 213f 8446 143f ec9a 313d
000001d0: 55c3 b5bd 153a 0b3f 48b2 a3bd fe28 de3e
000001e0: f4f3 023f 1845 3c3e bfe6 f3be 4767 fc3e
000001f0: 24c9 a23e 772b 423e c1bf 003e d488 8b3e
00000200: f002 c93e 1452 ffbe 10c1 13bf 33d0 853e
00000210: c2bf 83be c830 06bf 1e5d 073f a76e d8be
00000220: 3c56 30be cac5 c9be cdca 063f 63ff 48bd
00000230: dcc0 8fbe dc90 f43e e96f 083f fc5c a13e
00000240: 7bd9 083f 3207 e0be 8e2e 20bf 7e78 993e
00000250: 99e7 14be 66ce ee3e 9282 073f bf6f 0ebe
00000260: 268b aabe 23d5 f93e 2ed2 a8be 239f a9be
00000270: 7ef8 e63e 7c25 13bd ef8a 97be f8de 373e
00000280: c9dc a2be a4ec 1dbd 6992 f4be da1c 26be
00000290: 088b ef3e b182 583c f6b7 17be 96a7 0c3f
000002a0: 9a05 bb3e 0bcd c03e d20f a73e 88c2 80be
000002b0: 2565 11bf 57bf 9fbe 2238 8abe 84a0 6f3e
000002c0: 0914 113f 32a8 0d3f 0cc2 f63e 309b b13d
000002d0: 213d e13e 92e9 913d 7bd1 503e 67a8 d5be
000002e0: 2a6a 053f 9ec0 a73e eb4f f4bc 8917 85be
000002f0: 612a d53d 19a8 01be c310 debe a522 cfbe

net.0.bias f4 [64]
-0.31106597 0.21069051 -0.31987107 0.3751801 -0.42788106 0.4842457 0.067184806 -0.037890244
0.15411097 -0.040608637 0.35382226 0.003956079 -0.14196144 0.090744786 -0.43096673 0.25912187
0.10694736 0.4535333 -0.08496334 0.04787508 -0.29369035 -0.26223397 -0.0061944486 0.34456345
-0.2237918 0.53867835 -0.12261579 0.008195366 0.54628503 -0.22430474 0.40400136 -0.071617045
0.3991904 0.17779976 -0.43109348 -0.36966935 0.36543852 0.1747457 -0.03485404 -0.090475425
-0.2052699 -0.46851224 0.25882217 -0.5714282 0.08106872 0.49223793 0.28185135 0.39108604
0.11458131 -0.28383595 0.3276045 0.5172705 0.191536 0.47491968 -0.6051197 -0.48818046
-0.115576036 0.1962153 0.47624734 -0.17208074 -0.3064176 0.39455432 -0.0532026 0.10488344
00000000: 0a44 9fbe 41bf 573e 24c6 a3be 9b17 c03e
00000010: 3a13 dbbe 0def f73e 3098 893d cd32 1bbd
00000020: 44cf 1d3e 3e55 26bd 3128 b53e ffa1 813b
00000030: 575e 11be 67d8 b93d aca7 dcbe 9fab 843e
00000040: 3807 db3d 8435 e83e 4201 aebd a918 443d
00000050: 955e 96be 8843 86be cdfa cabb 9f6a b03e
00000060: ad29 65be d3e6 093f fd1d fbbd db45 063c
00000070: 56d9 0b3f 24b0 65be 44d9 ce3e f5ab 92bd
00000080: af62 cc3e 2411 363e 49b8 dcbe 4d45 bdbe
00000090: c21a bb3e 89f0 323e 1cc3 0ebd 2e4b b9bd
000000a0: 4632 52be d6e0 efbe 5784 843e 1e49 12bf
000000b0: 5b07 a63d 9c06 fc3e d24e 903e 6e3c c83e
000000c0: 9ba9 ea3d f252 91be c7bb a73e d76b 043f
000000d0: 0322 443e ac28 f33e 20e9 1abf caf2 f9be
000000e0: 21b3 ecbd aaec 483e b1d6 f33e ef35 30be
000000f0: c5e2 9cbe 0603 ca3e f8ea 59bd 21cd d63d

net.2.weight f4 [64, 64]
-0.1192645 -0.011610806 0.048509862 0.108735 0.011646867 0.08557843 0.00508894 -0.111024804
-0.016358292 -0.05339478 -0.028921641 -0.060949832 0.093444705 -0.11310517 -0.08727157 -0.03353279
0.10472646 -0.037802417 0.03900645 0.06128463 0.106989875 -0.028720587 0.011006726 -0.07290311
-0.02145096 -0.119020976 -0.10199273 0.021860825 -0.087888084 0.05326709 0.08029229 0.03187106
0.036400154 -0.12562844 -0.057804585 -0.10223272 -0.12872326 0.047150347 0.016720828 0.118934885
-0.046434827 -0.09367777 -0.11645189 0.0076975822 -0.06850529 0.009780282 0.07071682 0.0951897
-0.032497335 -0.08128281 -0.07984832 0.06739296 0.02037421 -0.0039536073 -0.12144807 0.06732884
0.06983425 0.0010049234 -0.015534462 -0.071092255 0.0010209531 -0.0042931037 0.035261527 -0.01766869
0.19482405 0.04813601 0.2815921 -0.18073958 0.059212416 0.09034873 -0.14885508 -0.019687038
-0.2577696 -0.005911342 -0.0127922185 -0.11297121 0.10281992 -0.107284196 0.35338196 0.096635684
-0.035408814 -0.38680333 -0.025693048 0.099660754 0.04510569 0.071705535 -0.010310198 -0.14071782
0.0039351876 -0.02475948 0.17839478 0.33315405 -0.01357488 0.05382559 -0.29413804 0.01420443
-0.07690217 -0.124904774 -0.12206769 0.11378288 0.12196882 -0.09539651 0.11259793 0.09150513
0.023539795 -0.020462831 0.033214808 -0.029998805 0.017468588 -0.13092278 -0.06695368 -0.034763813
-0.22513841 0.17049553 0.05253083 -0.073695295 -0.15575212 -0.030774755 -0.00059431663 0.088071056
0.1934146 -0.057658736 -0.14474016 -0.009233209 0.046699435 -0.11241816 0.08261293 -0.1423733
0.012068794 0.09849937 -0.015946008 0.07685347 0.16062713 0.10967275 0.06661084 -0.09251933
0.042913083 -0.0110481875 0.10540814 0.06364046 0.11531202 0.109781 -0.07933445 0.061174054
0.19929482 0.080879815 0.031596478 0.09408461 -0.039238945 -0.011178015 -0.08299369 0.13464583
-0.054539636 0.15999 -0.1689376 -0.14498064 0.059695516 -0.060651265 -0.0073758434 0.027268732
-0.023062116 0.14182693 -0.05145108 -0.032499127 -0.047637172 0.10511171 0.10179972 -0.0059197033
0.0015080728 -0.15871195 -0.0338079 -0.042754024 0.08124361 0.027664473 0.047749452 -0.07980685
-0.10610867 -0.17540736 -0.06466048 0.016456446 -0.021097828 0.106898375 -0.022507967 0.13488051
-0.07382257 -0.10072762 0.15910827 -0.08910783 -0.049177032 0.061864596 -0.023727385 0.017330086
-0.12292032 0.11240439 -0.0811473 0.07621305 -0.07391493 -0.030780643 -0.0029562265 -0.04926811
-0.054153666 -0.105216414 -0.08585444 -0.005864948 -0.036540464 -0.017554477 0.0318875 -0.016025066
-0.11832982 -0.04597257 0.038260102 0.044987574 0.060488567 0.006922111 0.08545983 -0.08553888
-0.10489991 -0.033328205 0.0008429885 0.09075892 -0.0720862 -0.087544516 -0.0033817142 0.03178747
-0.11400965 -0.050388306 -0.0981935 0.029211491 0.01166065 -0.11115548 -0.083235875 0.00578019
-0.03312382 -0.09668329 -0.037878335 -0.114797786 -0.014273241 -0.014570102 0.006552294 0.010616988
-0.021773458 0.09975506 -0.04475425 0.05648908 0.047193736 -0.015321478 -0.09160493 -0.10532589
0.034600854 0.038216934 0.07581331 -0.05533065 0.10092287 0.12498428 -0.019881576 -0.048711404
00000000: f240 f4bd 403b 3ebc 47b2 463d 75b0 de3d
00000010: 80d2 3e3c be43 af3d 1fc1 a63b f960 e3bd
00000020: d301 86bc 7cb4 5abd 14ed ecbc 88a6 79bd
00000030: f05f bf3d afa3 e7bd 70bb b2bd ae59 09bd
00000040: d47a d63d b5d6 1abd 3ac5 1f3d 9805 7b3d
00000050: 821d db3d 7047 ebbc 8e55 343c 3a4e 95bd
00000060: ecb9 afbc 45c1 f3bd 90e1 d0bd 7915 b33c
00000070: abfe b3bd 982e 5a3d 4970 a43d 3b8b 023d
00000080: 5418 153d bea4 00be 80c4 6cbd 635f d1bd
00000090: 08d0 03be b920 413d 1efa 883c 2294 f33d
000000a0: 7232 3ebd 21da bfbd 547e eebd 003c fc3b
000000b0: 804c 8cbd 7a3d 203c fbd3 903d d1f2 c23d
000000c0: ed1b 05bd 9a77 a6bd 8487 a3bd 5205 8a3d
000000d0: d1e7 a63c 438d 81bb c4b9 f8bd b4e3 893d
000000e0: 4205 8f3d a2b7 833a 4284 7ebc d198 91bd
000000f0: 80d1 853a 2aad 8cbb 646e 103d eebd 90bc
00000100: f57f 473e 442a 453d d72c 903e cc13 39be
00000110: b888 723d c108 b93d 776d 18be b646 a1bc
00000120: 61fa 83be eeb3 c1bb 7496 51bc 735d e7bd
00000130: 4093 d23d d1b7 dbbd 7bee b43e eee8 c53d
00000140: d508 11bd 160b c6be 3a7a d2bc f01a cc3d
00000150: bec0 383d 5ada 923d 1bec 28bc 5518 10be
00000160: bff2 803b 65d4 cabc 1fad 363e 2b93 aa3e
00000170: 2c69 5ebc 3978 5c3d 4399 96be b3b9 683c
00000180: e37e 9dbd 13ce ffbd a0fe f9bd 0007 e93d
00000190: caca f93d 3f5f c3bd be99 e63d 0b67 bb3d
000001a0: 87d6 c03c aba1 a7bc 400c 083d 0ec0 f5bc
000001b0: 491a 8f3c 9f10 06be 031f 89bd 8064 0ebd
000001c0: af8a 66be 6196 2e3e 912a 573d 8fed 96bd
000001d0: 7c7d 1fbe 571b fcbc eacb 1bba 995e b43d
000001e0: 7a0e 463e 912b 6cbd c436 14be e346 17bc
000001f0: e847 3f3d 7e3b e6bd f830 a93d 4eca 11be
00000200: 31bc 453c 0aba c93d 34a1 82bc 5a65 9d3d
00000210: 707b 243e 1b9c e03d 446b 883d c67a bdbd
00000220: a1c5 2f3d 7503 35bc 39e0 d73d ee55 823d
00000230: b528 ec3d dcd4 e03d 1a7a a2bd a591 7a3d
00000240: f113 4c3e 51a4 a53d 4f6b 013d 6faf c03d
00000250: 04b9 20bd fe23 37bc 99f8 a9bd 99e0 093e
00000260: f464 5fbd 6bd4 233e fafd 2cbe ce75 14be
00000270: 4983 743d 766d 78bd 0fb1 f1bb ad62 df3c
00000280: c3ec bcbc 143b 113e 5ebe 52bd ce1d 05bd
00000290: 321f 43bd cf44 d73d 5f7c d03d 12fa c1bb
000002a0: 87aa c53a 6385 22be 277a 0abd d81e 2fbd
000002b0: 0d63 a63d 9ba0 e23c ee94 433d c671 a3bd
000002c0: 814f d9bd fd9d 33be b76c 84bd abcf 863c
000002d0: 5ad5 acbc 89ed da3d a162 b8bc 1e1e 0a3e
000002e0: 4a30 97bd 484a cebd 47ed 223e 2a7e b6bd
000002f0: db6d 49bd bb65 7d3d ef5f c2bc d3f7 8d3c
00000300: a6bd fbbd 4634 e63d 8e30 a6bd 9615 9c3d
00000310: b660 97bd b027 fcbc 40bd 41bb 5ccd 49bd
00000320: 3cd0 5dbd b47b d7bd 74d4 afbd c02e c0bb
00000330: 74ab 15bd 68ce 8fbc 789c 023d 0047 83bc
00000340: e856 f2bd bc4d 3cbd a0b6 1c3d e444 383d
00000350: dcc2 773d e0d2 e23b 9005 af3d 022f afbd
00000360: c4d5 d6bd 2883 08bd 00fc 5c3a d0df b93d
00000370: eea1 93bd 8a4a b3bd c09f 5dbb 9433 023d
00000380: e47d e9bd f863 4ebd ac19 c9bd f04c ef3c
00000390: 500c 3f3c 7ca5 e3bd 9277 aabd c067 bd3b
000003a0: d8ac 07bd e401 c6bd 5026 1bbd 1a1b ebbd
000003b0: 50da 69bc 70b7 6ebc a0b4 d63b e0f2 2d3c
000003c0: 405e b2bc 624c cc3d 3c50 37bd 1861 673d
000003d0: 384e 413d f006 7bbc 5e9b bbbd 1ab5 d7bd
000003e0: a0b9 0d3d 5c89 1c3d 0244 9b3d 64a2 62bd
000003f0: a6b0 ce3d c2f7 ff3d b0de a2bc 9c85 47bd

net.2.bias f4 [64]
-0.093637414 -0.11757591 0.12916797 -0.0766229 -0.03679205 0.13057032 -0.12816495 -0.10744522
0.027779832 0.09496106 -0.17069668 0.06834217 -0.07961285 0.061249625 0.13157883 0.09916407
0.15667756 0.047590125 -0.057007488 0.09065069 -0.0038304785 0.012546612 -0.100115806 -0.04670128
0.14517231 0.01717094 0.042780653 0.1577212 -0.019988066 0.02821622 0.09887509 -0.13356876
0.18861455 -0.06143716 0.017337328 0.054985262 -0.09540772 0.17572057 -0.039603543 0.07980511
0.18467504 -0.057119556 0.08735824 -0.013387871 -0.08731161 0.13791285 -0.036475044 -0.096651964
0.004727076 0.1612812 0.08655273 0.070908345 0.10209142 0.010682438 -0.075113185 0.097044796
0.119849496 0.06797251 0.043206625 0.15087734 -0.039216436 0.11745418 0.16485679 0.14738508
00000000: f9c4 bfbd a4cb f0bd 9c44 043e 78ec 9cbd
00000010: 43b3 16bd 3ab4 053e ac3d 03be 3d0c dcbd
00000020: 8892 e33c f27a c23d 1ccb 2ebe fbf6 8b3d
00000030: 100c a3bd e3e0 7a3d 9abc 063e 8816 cb3d
00000040: 1570 203e dded 423d af80 69bd 12a7 b93d
00000050: c408 7bbb 4e90 4d3c 8409 cdbd d749 3fbd
00000060: 0da8 143e 12aa 8c3c c43a 2f3d ab81 213e
00000070: 03be a3bc b425 e73c 067f ca3d 40c6 08be
00000080: 2c24 413e 88a5 7bbd 0307 8e3c 3a38 613d
00000090: 1f65 c3bd 18f0 333e 5337 22bd dd70 a33d
000000a0: 741b 3d3e 32f6 69bd e0e8 b23d cd58 5bbc
000000b0: 6ed0 b2bd 0739 0d3e db66 15bd 77f1 c5bd
000000c0: 96e5 9a3b e626 253e 8f42 b13d 6538 913d
000000d0: 4e15 d13d 6405 2f3c f1d4 99bd 6cbf c63d
000000e0: a773 f53d 2c35 8b3d 6ef9 303d 977f 1a3e
000000f0: 6aa1 20bd d18b f03d 38d0 283e 1dec 163e

net.4.weight f4 [64, 64]
0.033208027 0.014510716 0.083694056 -0.11457756 -0.10919824 -0.030953305 -0.0032012907 -0.07163541
-0.040256485 -0.066803 -0.097282626 0.088675655 0.16499232 -0.11000859 -0.046605214 -0.09431869
-0.015500059 -0.08314928 0.11669976 0.17626016 0.069241144 -0.1263984 -0.09230347 0.11980188
-0.05172732 -0.12936878 -0.004161112 0.07994454 -0.03274231 -0.14488511 0.13462026 -0.100172386
0.060002737 0.062294498 0.06873699 0.09242227 -0.027867053 0.12567334 -0.009291244 0.06504576
-0.014341841 0.035629764 0.034270883 0.08265608 -0.012321153 0.101840205 -0.1987593 0.06468187
0.13699761 0.066878036 0.013021935 -0.15354604 0.019040246 -0.11168789 -0.12206029 0.17878976
0.029346319 0.16699284 -0.032809224 -0.010451184 -0.12270828 0.06325637 0.06439608 0.10363365
0.118426986 -0.02059051 -0.2084289 0.0035873055 0.11042321 0.16820037 -0.0078025535 -0.04933255
-0.10546899 0.05870794 -0.0824575 -0.06966575 0.043459162 -0.035995018 0.055642772 0.13290486
-0.040220518 0.104010664 0.042973563 0.018692764 -0.034521695 0.07232507 0.120060764 -0.046152707
0.12255358 -0.094289444 0.15014577 -0.14435478 0.12861483 0.111684985 0.05160717 0.041051026
0.13505304 -0.09872642 -0.12182258 0.10912196 -0.10729557 -0.14081128 -0.05958824 -0.16896726
-0.14803483 0.007814873 -0.11286691 -0.18947169 -0.12211233 -0.079307914 -0.032143228 0.084035695
-0.17441316 -0.019022476 -0.05287941 0.14604047 0.04712088 -0.0021881699 -0.056006715 -0.09855878
-0.013870538 0.09741316 -0.09768566 -0.044759776 -0.03502385 0.10509563 -0.05311162 -0.023348607
0.059789997 0.2019436 0.122779585 -0.030317217 0.030604918 -0.1012633 0.19489796 0.06328047
-0.11280033 0.10304354 0.19694018 0.09392551 -0.18733844 0.11630228 0.03395865 -0.039079484
0.08075804 0.087286346 0.06427776 -0.12928712 0.109575085 -0.10432303 -0.10748874 -0.062385466
0.07350559 0.17807402 -0.011629944 0.10548991 -0.14323638 -0.04967605 -0.054862086 -0.41648206
-0.14426127 -0.08925198 -0.00996587 0.053936165 -0.039916936 0.07681697 0.0004530635 0.05398661
-0.047709264 -0.09925392 -0.10145008 0.11973256 0.05426545 -0.04777335 -0.024049725 0.03168302
-0.037131738 0.035858825 0.14318533 0.055209886 0.016332164 0.08427141 0.082382865 0.10656483
0.06373886 -0.16428086 0.06192312 0.08433314 0.123070434 0.18598877 0.13059784 -0.03162451
0.010255501 -0.09205383 0.10731429 -0.0058351457 -0.10802175 0.08102915 0.014741257 -0.036030337
0.11182943 -0.06583537 -0.062017858 -0.04291199 0.014318153 -0.09713657 0.027030483 -0.12095271
-0.06737448 -0.07311839 -0.090824574 0.028638497 0.054914743 -0.030564204 -0.037552267 0.0026478767
-0.10131772 -0.118644774 -0.080963686 -0.090619504 0.01762937 0.10088861 0.08919196 -0.076952696
0.06954704 0.10963279 -0.026445374 -0.040759593 -0.11808999 -0.009006977 -0.04842715 0.031542942
-0.114766434 -0.011970356 0.021984845 -0.031095624 -0.019212008 0.118648335 0.054376945 -0.09302296
-0.056594953 0.05766575 0.05445686 -0.105285466 -0.08544025 -0.051693812 -0.015219554 0.007472977
0.030814275 -0.058281913 -0.06979723 0.07000457 -0.09752166 -0.022047907 -0.112112805 -0.095096186
00000000: 2405 083d 5bbe 6d3c ca67 ab3d a4a7 eabd
00000010: 54a3 dfbd c991 fdbc bfcc 51bb 96b5 92bd
00000020: fce3 24bd 03d0 88bd 1d3c c7bd 959b b53d
00000030: bff3 283e 2f4c e1bd 1ce5 3ebd 282a c1bd
00000040: f6f3 7dbc 2b4a aabd 4900 ef3d 8b7d 343e
00000050: 4dce 8d3d 956e 01be 9a09 bdbd b05a f53d
00000060: 07e0 53bd 4079 04be f059 88bb f7b9 a33d
00000070: cd1c 06bd c35c 14be e5d9 093e 2e27 cdbd
00000080: 6ec5 753d 8428 7f3d fbc5 8c3d e347 bd3d
00000090: 7249 e4bc 83b0 003e 4d3a 18bc b636 853d
000000a0: 0bfa 6abc 84f0 113d a05f 0c3d 9747 a93d
000000b0: a9de 49bc 9991 d03d 8f87 4bbe ee77 843d
000000c0: 1a49 0c3e 5af7 883d f459 553c 2c3b 1dbe
000000d0: 4afa 9b3c 9fbc e4bd bffa f9bd aa14 373e
000000e0: b167 f03c 2c00 2b3e f762 06bd 713b 2bbc
000000f0: 7b4e fbbd 8e8c 813d 18e2 833d e13d d43d
00000100: d989 f23d 6ead a8bc 636e 55be 0019 6b3b
00000110: 9025 e23d b83c 2c3e 90ac ffbb ee10 4abd
00000120: 2000 d8bd bd77 703d 7adf a8bd ebac 8ebd
00000130: 3c02 323d 836f 13bd ade9 633d 3618 083e
00000140: 45be 24bd 8b03 d53d 0c05 303d 9121 993c
00000150: 9f66 0dbd 2b1f 943d 6be2 f53d 9f0a 3dbd
00000160: 5ffd fa3d d31a c1bd d0bf 193e bdd1 13be
00000170: 9bb3 033e 19bb e43d 0a62 533d 1f25 283d
00000180: 584b 0a3e 1431 cabd 1e7e f9bd 567b df3d
00000190: c8bd dbbd d530 10be cc12 74bd c105 2dbe
000001a0: 7196 17be f409 003c c426 e7bd de04 42be
000001b0: 0716 fabd 306c a2bd 9ea8 03bd e81a ac3d
000001c0: 5d99 32be 06d5 9bbc 1598 58bd a28b 153e
000001d0: d301 413d 6667 0fbb 4c67 65bd 30d9 c9bd
000001e0: 4141 63bc 8d80 c73d 6b0f c8bd 0756 37bd
000001f0: 2b75 0fbd 613c d73d 928b 59bd 9445 bfbc
00000200: 5be6 743d 4eca 4e3e dd73 fb3d d05b f8bc
00000210: 2ab7 fa3c 2263 cfbd 5593 473e 3199 813d
00000220: dc03 e7bd 7e08 d33d b0aa 493e 055c c03d
00000230: a6d5 3fbe e42f ee3d 3a18 0b3d cf11 20bd
00000240: 7964 a53d 2fc3 b23d 0fa4 833d d863 04be
00000250: e768 e03d 50a7 d5bd 0e23 dcbd e787 7fbd
00000260: 198a 963d 0959 363e 858b 3ebc 180b d83d
00000270: 8fac 12be 1d79 4bbd 11b7 60bd 233d d5be
00000280: 3ab9 13be bec9 b6bd e347 23bc 2bec 5c3d
00000290: f17f 23bd 3752 9d3d 2789 ed39 1021 5d3d
000002a0: ca6a 43bd a445 cbbd 0fc5 cfbd 5836 f53d
000002b0: 7345 5e3d fdad 43bd ee03 c5bc 0ec6 013d
000002c0: 7317 18bd b4e0 123d 2d9f 123e c323 623d
000002d0: 08cb 853c 7d96 ac3d 59b8 a83d a93e da3d
000002e0: 8589 823d 3e39 28be 19a3 7d3d dab6 ac3d
000002f0: 5a0c fc3d d773 3e3e 71bb 053e b488 01bd
00000300: b006 283c b886 bcbd 98c7 db3d c034 bfbb
00000310: 823a ddbd 9cf2 a53d 5085 713c 8c94 13bd
00000320: d406 e53d b2d4 86bd 7006 7ebd 7cc4 2fbd
00000330: b096 6a3c 8aef c6bd 086f dd3c 0eb6 f7bd
00000340: a2fb 89bd 18bf 95bd 3c02 babd 489b ea3c
00000350: 48ee 603d c861 fabc 68d0 19bd 0088 2d3b
00000360: aa7f cfbd 08fc f2bd 4ad0 a5bd b896 b9bd
00000370: 786b 903c b09e ce3d 46aa b63d 6099 9dbd
00000380: ae6e 8e3d 2887 e03d f8a3 d8bc 88f3 26bd
00000390: 2ad9 f1bd 0092 13bc 8c5b 46bd 2c33 013d
000003a0: aa0a ebbd 501f 44bc 9019 b43c 40bc febc
000003b0: 8062 9dbc e6fd f23d 5cba 5e3d d282 bebd
000003c0: 1cd0 67bd ec32 6c3d 280e 5f3d e89f d7bd
000003d0: 4cfb aebd e4bc 53bd 705b 79bc e0df f43b
000003e0: 386e fc3c 04b9 6ebd daf1 8ebd 8e5e 8f3d
000003f0: 70b9 c7bd d09d b4bc 669b e5bd cac1 c2bd

net.4.bias f4 [64]
0.03288951 0.16725813 -0.04386573 -0.07368432 -0.1520141 0.09014224 -0.0585452 0.0007540134
0.18505614 -0.0919258 0.19515851 0.12447827 -0.06407305 0.061315164 -0.065528974 0.09520186
-0.096557476 0.08278418 0.12274649 0.14050123 -0.065326005 0.12975511 0.13329759 -0.038535673
0.095060125 0.05315867 -0.071198374 0.05287069 0.07889947 -0.122362286 -0.051590577 -0.086757764
0.11642512 -0.025567805 -0.11910716 0.06880852 0.08139278 0.0012955324 0.07703603 -0.12279007
-0.010751879 -0.020864177 -0.009466876 -0.08780662 0.013202868 -0.13034509 -0.09515108 0.13400179
0.11908744 -0.046858877 0.0016775294 -0.06845229 0.08528846 -0.046977893 0.12114715 0.046262365
0.08019348 -0.12545626 -0.015004125 0.053856567 0.114818476 -0.07066828 0.10586155 0.029414548
00000000: 27b7 063d b745 2b3e 8dac 33bd cee7 96bd
00000010: 96a9 1bbe 7f9c b83d 17cd 6fbd fca8 453a
00000020: 5b7f 3d3e 9843 bcbd a2d7 473e 77ee fe3d
00000030: bb38 83bd 9c25 7b3d 0e34 86bd 31f9 c23d
00000040: edbf c5bd c18a a93d 8362 fb3d 8edf 0f3e
00000050: a4c9 85bd 86de 043e 2a7f 083e 95d7 1dbd
00000060: e2ae c23d e8bc 593d 74d0 91bd f08e 583d
00000070: 0c96 a13d 1499 fabd a450 53bd 0eae b1bd
00000080: 4b70 ee3d 9373 d1bc 74ee f3bd 7beb 8c3d
00000090: 42b1 a63d dbce a93a 11c5 9d3d 5c79 fbbd
000000a0: a628 30bc 5aeb aabc f51a 1bbc f5d3 b3bd
000000b0: d850 583c 2f79 05be 92de c2bd c437 093e
000000c0: 1ee4 f33d 18ef 3fbd 8ce0 db3a b730 8cbd
000000d0: b7ab ae3d e46b 40bd ff1b f83d 9b7d 3d3d
000000e0: 7b3c a43d 9b77 00be ddd3 75bc b498 5c3d
000000f0: f325 eb3d 88ba 90bd f1cd d83d c7f6 f03c

net.6.weight f4 [64, 64]
0.13026446 -0.078877114 0.13392247 0.05137618 0.08494743 -0.039998967 0.08540898 0.02795081
-0.029348692 -0.025970453 0.019360585 0.11611022 0.08949299 -0.043825436 -0.07269592 0.09490454
-0.01737876 -0.02997972 0.05444889 -0.0405042 -0.09069577 0.080900826 -0.09263246 -0.06697453
0.03482429 -0.055912953 0.062704116 -0.01533499 0.021157004 0.18300919 0.03535171 -0.0036066244
-0.035704717 0.100073375 -0.07739803 -0.054481395 0.039496854 0.06803011 -0.022737525 0.004896879
-0.072744854 0.03991889 0.06889632 -0.09685203 -0.0765998 0.01988893 0.27290207 0.025858385
0.12014825 -0.102414355 0.080890484 0.08485716 -0.11604891 0.054751743 -0.04002727 0.14747187
-0.038698465 -0.07977851 -0.11962593 0.06363162 0.012164625 -0.08911723 -0.069824204 0.04427777
-0.1718306 -0.038230278 -0.12401334 -0.048779547 -0.08779559 0.053174675 0.030095734 -0.029957864
0.1925215 -0.23891973 -0.0024216997 0.005919207 -0.15500598 0.004951306 -0.04307536 -0.097532034
-0.16005924 -0.12779862 -0.03248864 -0.106347 -0.029551182 -0.028929528 -0.013095498 0.036457416
-0.040522385 0.06535046 -0.018381342 -0.04085131 -0.14757128 -0.05958596 -0.021014988 0.6947387
0.042248894 -0.008660978 -0.08791275 0.06683694 0.09205264 0.11262689 0.072660044 -0.03934197
-0.1467315 0.1541216 -0.13322528 0.022971947 -0.027357902 0.067405544 -0.3198701 0.06124405
-0.11753337 -0.02990219 0.10615544 0.0015323401 0.20510972 -0.13580409 0.11046587 -0.06610738
0.0884188 0.041262683 0.1412243 -0.026145637 0.15595666 -0.16076708 -0.15092877 0.10856714
0.046590112 0.098998025 0.05811722 -0.0141534805 0.2559321 0.10737036 0.0883546 0.020380417
0.09509299 -0.14003557 0.032045625 0.106630474 0.031075452 0.053678732 0.06360141 -0.027381724
-0.13818444 0.011105207 -0.14749815 -0.049210962 -0.03748917 -0.09747117 -0.023533942 0.017997114
0.07067424 0.13200006 -0.044417143 -0.021517888 -0.09519102 0.29696193 0.06680019 0.28551707
0.048878 0.08886394 0.101680264 0.15106869 0.06184126 0.08439358 -0.034350697 -0.11839622
-0.14745757 0.080885 -0.009355235 0.059593 -0.12510778 -0.017329117 -0.25926062 -0.11846602
-0.046697512 0.055729136 -0.10416471 0.25259742 0.023819312 0.05403422 0.027154187 -0.024175886
0.086444095 -0.008177848 -0.03972485 0.10986929 -0.046169344 0.07008509 -0.040544763 0.1559837
-0.0061728247 -0.0007208657 0.11375022 -0.045567796 0.22299792 0.04377498 0.092049696 -0.04602212
0.30670342 0.08364388 -0.3007818 -0.16843447 0.13725246 0.057874877 0.05622701 0.062716536
-0.12350149 0.028548472 0.10131492 -0.013762696 -0.069441184 -0.08397994 0.10527274 0.012595363
-0.0563824 0.16137995 0.062733576 -0.028887471 0.17474762 -0.11545189 -0.1082093 0.22670712
-0.10463789 -0.04880684 0.018908009 -0.2923092 -0.030710211 -0.073612176 -0.0412828 -0.0007223189
0.017506821 -0.005132066 0.00034782643 0.01644151 -0.0018731763 -0.050279267 -0.24531713 0.0049726036
-0.115203306 0.01431562 -0.06731317 0.44097805 0.075968236 0.14878692 -0.19111367 -0.08532643
0.034328472 0.13675201 -0.0054591056 0.03464499 0.005433196 0.08344082 0.07378933 0.21828066
00000000: 0c64 053e 538a a1bd f922 093e d46f 523d
00000010: ebf8 ad3d f5d5 23bd e7ea ae3d 19f9 e43c
00000020: ab6c f0bc fdbf d4bc 179a 9e3c 32cb ed3d
00000030: 1a48 b73d 4d82 33bd 99e1 94bd 505d c23d
00000040: e75d 8ebc 0898 f5bc cd05 5f3d bbe7 25bd
00000050: b4be b9bd 55af a53d 16b6 bdbd f129 89bd
00000060: eaa3 0e3d fb04 65bd 046b 803d 9c3f 7bbc
00000070: 7451 ad3c c366 3b3e f4cc 103d 1e5d 6cbb
00000080: 1c3f 12bd 45f3 cc3d dc82 9ebd e227 5fbd
00000090: 74c7 213d 5f53 8b3d 0c44 babc 0076 a03b
000000a0: 41fb 94bd fd81 233d 8419 8d3d 5b5a c6bd
000000b0: 5be0 9cbd 1cee a23c d2b9 8b3e f7d4 d33c
000000c0: 4910 f63d 9ebe d1bd e9a9 a53d 97c9 ad3d
000000d0: 0dab edbd 5d43 603d a2f3 23bd de02 173e
000000e0: 4882 1ebd ea62 a3bd 71fe f4bd 4b51 823d
000000f0: 234e 473c 1883 b6bd feff 8ebd 9b5c 353d
00000100: 5cf4 2fbe 5a97 1cbd b5fa fdbd 10cd 47bd
00000110: 2dce b3bd b0cd 593d 548b f63c 326a f5bc
00000120: 5b24 453e 60a7 74be 61b5 1ebb e8f5 c13b
00000130: e3b9 1ebe 913e a23b ca6f 30bd e0be c7bd
00000140: 92e6 23be a4dd 02be cf12 05bd 75cc d9bd
00000150: 5215 f2bc 9efd ecbc 808e 56bc 5f54 153d
00000160: cdfa 25bd 76d6 853d 7894 96bc b453 27bd
00000170: ed1c 17be 6810 74bd a027 acbc 65da 313f
00000180: 2d0d 2d3d c6e6 0dbc 9a0b b4bd cee1 883d
00000190: 1886 bc3d eda8 e63d cace 943d 0c25 21bd
000001a0: c840 16be 0dd2 1d3e 356c 08be aa2f bc3c
000001b0: ae1d e0bc eb0b 8a3d 04c6 a3be 0adb 7a3d
000001c0: 56b5 f0bd 70f5 f4bc 0668 d93d cdd8 c83a
000001d0: 4808 523e 3a10 0bbe ee3b e23d 4e63 87bd
000001e0: ea14 b53d 0f03 293d 1a9d 103e 602f d6bc
000001f0: 1ab3 1f3e 20a0 24be 128d 1abe 7358 de3d
00000200: 46d5 3e3d 7abf ca3d 520c 6e3d 00e4 67bc
00000210: 8809 833e fee4 db3d 42f3 b43d d5f4 a63c
00000220: 1dc0 c23d 7c65 0fbe 4642 033d 1461 da3d
00000230: f291 fe3c 3bde 5b3d 7541 823d a34f e0bc
00000240: 3980 0dbe 9df2 353c c109 17be 6f91 49bd
00000250: 3e8e 19bd f79e c7bd 41ca c0bc af6e 933c
00000260: a8bd 903d 062b 073e c0ee 35bd 4846 b0bc
00000270: 82f3 c2bd 650b 983e 8ace 883d 4b2f 923e
00000280: 4c34 483d 4cfe b53d be3d d03d c0b1 1a3e
00000290: 434d 7d3d 8bd6 ac3d 51b3 0cbd b879 f2bd
000002a0: 1eff 16be 09a7 a53d b346 19bc ca17 743d
000002b0: 411c 00be cbf5 8dbc cfbd 84be 509e f2bd
000002c0: e445 3fbd 3c44 643d 4f54 d5bd 7354 813e
000002d0: b820 c33c fc52 5d3d 7572 de3c 820c c6bc
000002e0: 9a09 b13d 61fc 05bc 86b6 22bd 2603 e13d
000002f0: 111c 3dbd c688 8f3d 4412 26bd 31ba 1f3e
00000300: 6845 cabb 7af8 3cba e0f5 e83d 4ca5 3abd
00000310: 9159 643e 654d 333d 8d84 bc3d b181 3cbd
00000320: 3b08 9d3e 7c4d ab3d 1200 9abe 167a 2cbe
00000330: e98b 0c3e 350e 6d3d 4b4e 663d 8771 803d
00000340: 59ee fcbd 7cde e93c 327e cf3d ee7c 61bc
00000350: 2e37 8ebd adfd abbd 3c99 d73d c85c 4e3c
00000360: 3bf1 66bd c940 253e 767a 803d 6ba5 ecbc
00000370: 0af1 323e 0a72 ecbd d69c ddbd e925 683e
00000380: 644c d6bd aee9 47bd f8e4 9a3c 8da9 95be
00000390: fb93 fbbc fbc1 96bd 2718 29bd 005a 3dba
000003a0: 776a 8f3c e42a a8bb 795c b639 58b0 863c
000003b0: 5e85 f5ba a2f1 4dbd 6a34 7bbe 39f1 a23b
000003c0: b6ef ebbd 108c 6a3c 7ddb 89bd e0c7 e13e
000003d0: 3c95 9b3d 995b 183e 4db3 43be a0bf aebd
000003e0: 039c 0c3d b808 0c3e 4ce2 b2bb e8e7 0d3d
000003f0: f408 b23b 05e3 aa3d dc1e 973d f784 5f3e

net.6.bias f4 [64]
0.10724631 0.08069206 0.0072007277 -0.05401125 -0.020802142 0.055931624 0.05247032 0.07532708
0.06823616 -0.1260829 -0.021077944 0.14540279 -0.05303222 0.04606334 0.16115724 -0.065302484
0.05330044 0.078150906 -0.08333021 0.032098565 -0.06116921 -0.12402849 -0.038357988 0.0968311
0.13668813 -0.028966986 -0.057805855 -0.08224941 0.11923145 -0.102651864 -0.06427967 -0.03996773
-0.00841803 0.09096385 -0.092670165 -0.13560423 -0.16456987 -0.07999106 0.10549847 0.009090455
-0.01694981 0.1087525 0.12608415 0.07817856 0.009657786 -0.005661808 -0.11345202 0.081317335
0.14316314 0.10518408 -0.011655271 -0.016152006 0.14976183 -0.11865896 0.14546184 0.14565273
0.08709704 0.08416464 0.062610775 0.10333818 -0.019720392 -0.020173496 -0.092477545 0.018015862
00000000: f4a3 db3d e141 a53d 15f4 eb3b e73a 5dbd
00000010: 4169 aabc 8f18 653d 1eeb 563d 1645 9a3d
00000020: 66bf 8b3d e01b 01be a7ab acbc 78e4 143e
00000030: 5038 59bd eaac 3c3d 6706 253e 4fbd 85bd
00000040: 9051 5a3d 950d a03d 07a9 aabd c979 033d
00000050: 918c 7abd a602 febd 441d 1dbd 624f c63d
00000060: f9f7 0b3e 2c4c edbc d5c5 6cbd 6172 a8bd
00000070: 9e2f f43d 243b d2bd 0fa5 83bd 34b5 23bd
00000080: c7eb 09bc 414b ba3d dbc9 bdbd d6db 0abe
00000090: 0185 28be 5ad2 a3bd 950f d83d 22f0 143c
000000a0: 54da 8abc a1b9 de3d 341c 013e 151c a03d
000000b0: b13b 1e3c b086 b9bb 8859 e8bd b489 a63d
000000c0: 5c99 123e c06a d73d c0f5 3ebc 3651 84bc
000000d0: 2a5b 193e 7803 f3bd f3f3 143e fd25 153e
000000e0: ef5f b23d 835e ac3d 143a 803d f8a2 d33d
000000f0: a98c a1bc e342 a5bc de64 bdbd 0096 933c

net.8.weight f4 [1, 64]
-0.011272819 0.21430396 0.1303599 0.16857646 -0.17498021 0.11497885 0.19609268 0.14434464
-0.17280917 -0.16998586 0.13306905 0.17397757 0.17663576 -0.1387895 0.15165962 0.1196125
0.08155944 0.16275628 -0.06618745 -0.15497026 0.3910633 -0.068226516 -0.19226524 -0.15523423
0.16011441 0.14376992 0.32775432 0.07177529 -0.32740822 -0.10112472 0.29998225 0.10787994
0.15708499 0.107126325 0.29542926 -0.14919747 0.4382807 0.20084488 -0.18551655 -0.0035911694
0.34198555 0.19688877 -0.110371925 0.1770466 -0.0914779 0.21333237 0.31699455 0.113627866
0.16910276 0.091284126 0.06428155 0.12654328 0.13951449 0.1840724 0.20646787 0.14927256
-0.09585107 -0.15753916 0.11439118 0.13662198 0.18267459 -0.019699207 -0.0084395325 -0.20750487
00000000: a1b1 38bc 7f72 5b3e 117d 053e 4f9f 2c3e
00000010: 032e 33be 087a eb3d 85cc 483e 15cf 133e
00000020: e3f4 30be c610 2ebe 4143 083e 2d27 323e
00000030: 01e0 343e d61e 0ebe a94c 1b3e 66f7 f43d
00000040: a308 a73d 95a9 263e 498d 87bd 86b0 1ebe
00000050: 7339 c83e 58ba 8bbd 2ee1 44be b9f5 1ebe
00000060: 08f5 233e 6c38 133e 6acf a73e ecfe 923d
00000070: 0da2 a7be 7a1a cfbd 4697 993e 28f0 dc3d
00000080: e3da 203e 0c65 db3d 8142 973e 39c7 18be
00000090: 5466 e03e 48aa 4d3e 0df8 3dbe d359 6bbb
000000a0: bb18 af3e 369d 493e ad0a e2bd b44b 353e
000000b0: c458 bbbd cd73 5a3e 1c4d a23e bab5 e83d
000000c0: 4629 2d3e 2cf3 ba3d 0ca6 833d 9094 013e
000000d0: e3dc 0e3e 7a7d 3c3e 506c 533e e8da 183e
000000e0: 914d c4bd f251 21be ec45 ea3d a2e6 0b3e
000000f0: 0c0f 3b3e 3b60 a1bc f745 0abc 287c 54be
