CAMELS_outputs/all_centrals/flow_state.pt (torch, 88825 bytes, 6 tensors)

0.nn.layers.0.weight f4 [70, 14]
0.41288412 0.51542884 -0.5615091 0.6469634 -0.19130383 -0.24124713 0.043077577 0.4731614
-0.050107032 -0.057939444 0.1277145 -0.3089906 0.017224723 -0.0075699007 0.019063013 -0.020320542
1.3156247 -0.40951455 -0.41219643 -0.10745724 0.010990184 -0.6283123 0.008156924 0.0039797435
-0.30301002 0.13353032 0.022997966 -0.0026443454 0.033786364 -0.34176758 0.14765236 -0.7381384
0.11308676 0.31580284 0.027551709 -0.09740903 -0.01359014 -0.01594009 0.009432713 0.38267148
0.049849935 -0.0067127384 0.17958783 0.6159115 -0.074520834 -0.31761357 -0.13358712 0.17693302
0.0068116696 0.054391075 -0.015979372 -0.02503402 -0.19420362 -0.035005108 -0.016096774 0.008455918
1.2820084 0.024685368 0.14992066 -1.3013657 -0.16119213 0.2045597 0.7682568 -0.028558241
0.0071991826 0.042939264 0.028701074 0.18763568 0.002107462 -0.0014356347 0.0484427 -0.002861152
0.74295145 -1.1575357 -0.2465972 0.18391111 -0.0052489243 -0.19375664 0.024589255 0.033912003
0.040935453 0.37143508 0.017052587 -0.017607749 1.8453846 -0.007878311 0.27350414 -0.8838491
-0.2628234 -0.0712614 0.095307216 -0.13623565 0.0005979816 -0.020515362 -0.011061326 0.17336763
-0.006380676 -0.013618683 0.09211591 -0.17456082 -0.3264441 0.6955276 -0.2612283 -0.1369736
-0.0033239524 0.19173343 0.016508816 -0.030507125 0.17043896 -0.21290813 -0.0056805518 0.009792361
0.017437896 -0.040193807 0.066843994 -0.56853926 0.12979764 0.17825311 -0.0077678044 -0.063475534
0.00292598 0.029408492 -0.16185218 0.1510829 -0.023238264 -0.006358495 0.00488277 -0.06892973
0.012951961 -0.7325406 0.053086646 -0.028878685 0.011252531 0.5166807 0.0062615457 0.121234626
0.012872282 0.112624936 0.007138076 -0.0058136666 0.03291636 -0.0474509 0.41401765 -0.78687775
-0.3206532 0.09215058 0.0068009323 0.16493465 0.04787646 0.09791444 -0.09674058 0.2847187
0.0012066189 0.000726125 0.89396054 0.07008396 -0.16292055 -0.16782023 -0.07975381 -0.088172846
0.004664796 0.15248294 -0.00060914666 -0.010025575 0.045467943 -0.19522257 0.0053226287 -0.010204164
-0.14543098 -0.13454545 -0.81132644 1.0289344 0.40569648 -0.18320233 0.7375321 0.0391132
-0.0011845463 -0.0012780388 -0.059194062 -0.3262524 -0.027774338 0.01077895 -0.08595925 0.062084
0.103056766 -0.20245627 -0.26147586 0.39431223 -0.007828548 0.7724691 -0.105685465 -0.035280094
0.32199785 0.06829194 -0.086071126 0.0267083 0.025790203 0.0034079114 0.22071674 -0.7905898
-0.25806418 0.15429504 0.011361466 0.2862342 0.028963292 0.077783674 -0.010242705 0.2585057
0.00778913 -0.0037985996 1.2045195 0.05984981 -0.5344069 -0.20826955 -0.17935798 0.16791494
1.484007 0.16955961 0.016114024 0.0031087263 0.008563281 -0.02020039 -0.016608955 0.019042613
-0.028754605 -0.0021916968 0.2753994 0.85716766 -0.3648677 -0.59409535 0.0049251327 -0.17513858
0.03716608 -0.0074338093 -0.08685366 -0.053545956 0.013414873 -0.026456539 -0.18119062 -0.3565275
0.21887605 -0.16873884 -0.07982217 0.1449915 -0.021241972 -0.03209886 -0.023229653 -0.015724346
0.08929713 0.13990071 0.006759115 0.019603577 0.18110952 0.0026930736 -0.06621512 -0.26738238
00000000: 8c65 d33e 25f3 033f 0fbf 0fbf 659f 253f
00000010: 27e5 43be 7d09 77be 1d72 303d 3642 f23e
00000020: 083d 4dbd e951 6dbd 97c7 023e 0434 9ebe
00000030: dd1a 8d3c ee0c f8bb 092a 9c3c 4477 a6bc
00000040: 6466 a83f e4ab d1be 690b d3be 8b12 dcbd
00000050: 2c10 343c 13d9 20bf 9ea4 053c 8268 823b
00000060: 2124 9bbe 2cbc 083e 3b66 bc3c c14c 2dbb
00000070: 9263 0a3d 29fc aebe 2e32 173e a3f6 3cbf
00000080: 089a e73d e9b0 a13e 1fb4 e13c 637e c7bd
00000090: 2ea9 5ebc cb94 82bc aa8b 1a3c 84ed c33e
000000a0: 722f 4c3d 88f6 dbbb dfe5 373e 60ac 1d3f
000000b0: 619e 98bd 3f9e a2be 10cb 08be ee2d 353e
000000c0: 6d34 df3b 2dc9 5e3d 2ce7 82bc 2514 cdbc
000000d0: 50dd 46be 8461 0fbd 62dd 83bc b18a 0a3c
000000e0: da18 a43f f838 ca3c cd84 193e 2793 a6bf
000000f0: 8d0f 25be 1978 513e 7aac 443f f9f2 e9bc
00000100: 1fe7 eb3b 15e1 2f3d 841e eb3c 9123 403e
00000110: 581d 0a3b e82b bcba da6b 463d 2a82 3bbb
00000120: 1132 3e3f 212a 94bf fa83 7cbe 3253 3c3e
00000130: 2bff abbb 2468 46be 686f c93c 50e7 0a3d
00000140: efab 273d bd2c be3e deb1 8b3c 203e 90bc
00000150: 9035 ec3f 0814 01bc bc08 8c3e ef43 62bf
00000160: ca90 86be 7ff1 91bd 6e30 c33d 5c81 0bbe
00000170: dec1 1c3a d50f a8bc 903a 35bc 4987 313e
00000180: fd14 d1bb e620 5fbc 44a7 bc3d 12c0 32be
00000190: ae23 a7be 190e 323f b7bf 85be cf42 0cbe
000001a0: abd6 59bb c555 443e 7f3d 873c 14ea f9bc
000001b0: 8d87 2e3e 9704 5abe ec23 babb 2470 203c
000001c0: ebd9 8e3c 43a2 24bd 81e5 883d ca8b 11bf
000001d0: ace9 043e fc87 363e 1189 febb 76ff 81bd
000001e0: ccc1 3f3b 14ea f03c 94bc 25be 7ab5 1a3e
000001f0: 2c5e bebc ec5a d0bb a5ff 9f3b 082b 8dbd
00000200: 7634 543c c887 3bbf 6271 593d fe92 ecbc
00000210: 895c 383c 3045 043f a72d cd3b dc49 f83d
00000220: 44e6 523c e7a7 e63d 85e6 e93b 9280 bebb
00000230: 4ed3 063d e05b 42bd 1ffa d33e d270 49bf
00000240: a82c a4be 71b9 bc3d 5bda de3b a1e4 283e
00000250: 1b1a 443d 5e87 c83d ed1f c6bd a6c6 913e
00000260: 6927 9e3a 6d59 3e3a 99da 643f 2e88 8f3d
00000270: a5d4 26be 11d9 2bbe f755 a3bd f793 b4bd
00000280: 25db 983b 7d24 1c3e 24af 1fba 4f42 24bc
00000290: 983c 3a3d 6de8 47be 7269 ae3b 5e2f 27bc
000002a0: dceb 14be 48c6 09be 17b3 4fbf 1fb4 833f
000002b0: 73b7 cf3e 6499 3bbe e7ce 3c3f 2a35 203d
000002c0: c742 9bba de83 a7ba 7975 72bd 8e0a a7be
000002d0: 0287 e3bc 319a 303c 670b b0bd cb4b 7e3d
000002e0: 6d0f d33d b250 4fbe 2ae0 85be 4be3 c93e
000002f0: 4f43 00bc 89c0 453f 9f71 d8bd dc81 10bd
00000300: e7dc a43e a5dc 8b3d 0f46 b0bd 5dcb da3c
00000310: fa45 d33c 4457 5f3b 9203 623e 1864 4abf
00000320: fd20 84be 85ff 1d3e 7125 3a3c 4a8d 923e
00000330: 6d44 ed3c 0c4d 9f3d 05d1 27bc dc5a 843e
00000340: f53b ff3b edf1 78bb b22d 9a3f 1325 753d
00000350: e4ce 08bf 9d44 55be 9ea9 37be e5f1 2b3e
00000360: f1f3 bd3f 09a1 2d3e 8f01 843c c6bb 4b3b
00000370: 014d 0c3c 4a7b a5bc 810f 88bc 41ff 9b3c
00000380: c78e ebbc 92a2 0fbb 2601 8d3e 576f 5b3f
00000390: f0cf babe a216 18bf 0263 a13b 8757 33be
000003a0: 763b 183d 5097 f3bb 55e0 b1bd 0153 5bbd
000003b0: 0eca 5b3c 62bb d8bc 098a 39be c68a b6be
000003c0: 0b21 603e e0c9 2cbe ce79 a3bd a778 143e
000003d0: a503 aebc 187a 03bd 1d4c bebc 58d0 80bc
000003e0: 6ae1 b63d 2242 0f3e 917b dd3b ae97 a03c
000003f0: c674 393e 477e 303b cb9b 87bd 58e6 88be

0.nn.layers.0.bias f4 [70]
-0.396803 -0.41633302 0.042001784 -0.09976606 -0.73935866 0.05510758 -0.95382583 -0.004157008
0.2750581 -0.39196536 -0.23777299 0.1468131 -1.0010867 -1.321748 0.18313444 -1.0870516
0.23410569 -0.06326475 -1.3176941 -0.8059228 -0.121305734 -0.20929278 -1.1115832 -0.050534673
-0.18827209 -0.28123382 -0.49542436 -0.24093202 -0.4711014 -0.70436305 0.03307746 -0.81445605
-1.0543679 -0.37049884 -0.15194567 0.31636116 -1.0365971 -0.25679487 0.055650573 -0.06961063
-0.49264073 -0.49831903 -0.20967127 -1.0933397 -0.11139844 -0.40826866 -0.5238901 -0.6310991
0.23690203 -0.39071524 0.10135403 -1.14104 -0.36517793 -0.21142963 -0.7407007 0.073761635
-0.0975941 -0.09934692 -0.08385595 0.19007534 -0.8099837 0.22047761 0.14068516 0.030911626
-0.8095545 -1.4793512 -0.492651 -0.28780594 0.0152284205 0.011328147
00000000: c329 cbbe 9a29 d5be 100a 2c3d 2652 ccbd
00000010: 9c46 3dbf 7cb8 613d ee2d 74bf 8337 88bb
00000020: 6ad4 8c3e afaf c8be c37a 73be 2c56 163e
00000030: 9c23 80bf 0a2f a9bf 9887 3b3e 8224 8bbf
00000040: 67b9 6f3e f390 81bd 33aa a8bf f550 4ebf
00000050: 246f f8bd d950 56be 5c48 8ebf 72fd 4ebd
00000060: 66ca 40be e1fd 8fbe 43a8 fdbe e2b6 76be
00000070: 3434 f1be 2351 34bf 3b7c 073d 3180 50bf
00000080: 87f5 86bf 06b2 bdbe a597 1bbe 17fa a13e
00000090: 37af 84bf 9e7a 83be dbf1 633d 0590 8ebd
000000a0: 683b fcbe ac23 ffbe 11b4 56be 8ef2 8bbf
000000b0: de24 e4bd 9708 d1be a91d 06bf b68f 21bf
000000c0: 7296 723e d40b c8be b492 cf3d 990d 92bf
000000d0: 9af8 babe 0281 58be 909e 3dbf 5710 973d
000000e0: 6adf c7bd 6676 cbbd abbc abbd 1ca3 423e
000000f0: 175b 4fbf e2c4 613e c50f 103e 613a fd3c
00000100: f73e 4fbf 615b bdbf c03c fcbe 4d5b 93be
00000110: a080 793c b199 393c

0.nn.layers.1.weight f4 [70, 70]
-0.06910598 -0.057328027 -0.26320207 -0.08057345 0.09511808 -0.040365625 -0.03776704 -0.08131637
-0.060002737 -0.13813671 -0.12885866 -0.12281488 0.07638788 -0.057259656 -0.12111795 -0.086815536
-0.27447712 0.038316842 -0.100535884 0.053980794 0.050351292 0.039361484 -0.0512544 0.022934709
-0.070533365 -0.14731307 -0.075561486 -0.21285893 -0.13166031 -0.06764557 -0.22958194 -0.16375965
-0.10613861 -0.29928645 -0.19155769 -0.12415954 0.08651404 -0.08273564 -0.24612175 -0.15613909
0.010492551 -0.09640832 -0.13184306 0.0034838682 0.06972355 -0.18531194 -0.2572079 -0.10122666
-0.1433727 -0.13136911 -0.22975883 0.026470998 -0.11857823 -0.08317864 -0.24425423 -0.11985237
-0.011420803 -0.15196921 -0.04883873 0.021078393 -0.07979441 -0.27766627 -0.20972131 -0.08878348
-0.22920814 0.0010917612 -0.23016784 0.052577194 0.03520062 -0.11891236 -0.23982681 -0.47560436
-0.016433505 0.007308505 -0.29681304 -0.02218816 -2.2862446 -0.068894245 0.43046093 -0.19122092
-0.06403461 0.2575343 -0.3273544 -0.17469697 0.13457674 -0.25193006 -0.13483125 -0.08648643
-0.3176225 -0.26163492 0.05678705 -0.40543106 -0.35587117 -0.4976161 -0.016342422 0.2122581
-0.31534392 0.19438404 0.14538386 -0.061130513 -0.29051465 -0.27487725 -0.18383242 0.047632236
-0.19218272 0.051651962 0.0107829515 0.09841519 0.12396797 0.17487374 -0.1159574 0.11675403
-0.8014868 -0.06711775 0.08374922 0.03311414 -0.06661244 0.04192191 -0.18728259 -0.32515645
-0.14656374 -0.04967758 0.15080196 -0.021926522 -0.034835078 0.058500007 -0.020909272 0.030573715
0.01868735 0.0069697476 0.40805832 -0.37855932 -0.4582687 -0.040038195 -0.0026727878 -0.784959
0.29479396 -0.102208816 -0.042471647 0.16991799 0.06293099 0.15175523 -0.3316141 0.11777413
-0.24600151 0.46068868 -0.48598322 -0.06824511 0.4904669 -2.9180944 -0.29769993 0.33839417
-0.8329249 -0.18761955 -0.52224183 0.8716227 -0.017090028 -0.59385115 0.21578251 -2.4625869
0.10478449 -0.13526252 -1.0829142 0.16374081 -0.5631273 -0.047343362 -0.69169194 0.1993822
-0.46608776 -0.12106529 -0.24442488 -3.621034 -0.14352947 0.012591684 0.33806002 0.29046547
-1.2683904 -0.23235972 0.09379383 -0.29458162 -0.48427942 -0.05638016 -1.1571547 -0.5693675
0.1631285 -0.6345849 -0.326864 -0.8185719 0.40159723 -0.7611183 -0.10415723 -0.35849452
-1.07644 -0.86337215 -1.5184718 -0.12546039 -0.31399205 -0.41803366 -0.110941626 0.011553179
-0.44576815 -0.64164865 0.052310467 0.14793065 -0.08339283 -0.8946564 -0.1994406 -0.07496438
-0.10594834 -0.009243353 0.09608753 0.056405086 0.039791048 -0.084126994 0.21439263 0.21209681
-0.05405783 0.095939465 -0.030264676 -1.0633532 0.49232578 0.12452706 -1.5238045 -0.6109011
0.07190956 0.42135155 0.123833 -0.00031597406 -0.06980652 -0.08661185 0.021191502 -0.08942118
-0.20507379 -0.30094317 -0.35363597 -0.08487861 0.110394314 -0.31870106 0.005950772 -0.030979156
0.22958454 0.026599297 -0.3539221 -0.011146484 0.12167067 -0.30676934 0.26856488 -0.057314277
-0.2019129 -0.17411718 0.17610118 -0.12357775 -0.047808502 -0.016327467 -0.020173827 -0.13455975
00000000: 7087 8dbd cbd0 6abd 6cc2 86be b103 a5bd
00000010: 45cd c23d 6d56 25bd 9db1 1abd 3289 a6bd
00000020: 6ec5 75bd b673 0dbe 86f3 03be 5e86 fbbd
00000030: 4071 9c3d 1a89 6abd b00c f8bd 58cc b1bd
00000040: 4488 8cbe 1ff2 1c3d c2e5 cdbd f71a 5d3d
00000050: 283d 4e3d 8239 213d 22f0 51bd 92e1 bb3c
00000060: cc73 90bd 3dd9 16be fbbf 9abd b1f7 59be
00000070: f6d1 06be c389 8abd 8717 6bbe 9cb0 27be
00000080: 335f d9bd 133c 99be b327 44be 5b47 febd
00000090: 462e b13d 4e71 a9bd 5707 7cbe ede2 1fbe
000000a0: f3e8 2b3c ba71 c5bd de01 07be 9c51 643b
000000b0: 38cb 8e3d 6ac2 3dbe c1b0 83be ec4f cfbd
000000c0: 4bd0 12be a085 06be e645 6bbe b5d9 d83c
000000d0: 25d9 f2bd 9059 aabd c81d 7abe 2975 f5bd
000000e0: 521e 3bbc d19d 1bbe 1f0b 48bd 98ac ac3c
000000f0: 406b a3bd 462a 8ebe 2fc1 56be 1dd4 b5bd
00000100: 8ab5 6abe 6d19 8f3a 1eb1 6bbe 2f5b 573d
00000110: 862e 103d 5388 f3bd 2995 75be 6a82 f3be
00000120: 8f9f 86bc 2f7c ef3b e1f7 97be f2c3 b5bc
00000130: d551 12c0 6d18 8dbd 6065 dc3e 6bcf 43be
00000140: 9424 83bd 89db 833e ff9a a7be c3e3 32be
00000150: 7cce 093e fafc 80be 3411 0abe cc1f b1bd
00000160: 6b9f a2be 03f5 85be 8a99 683d a994 cfbe
00000170: bf34 b6be 8ac7 febe 8be0 85bc 305a 593e
00000180: c274 a1be 9c0c 473e 82df 143e fd63 7abd
00000190: 56be 94be b6bc 8cbe 913e 3cbe 051a 433d
000001a0: 8ccb 44be 0291 533d faaa 303c e78d c93d
000001b0: ebe2 fd3d 1a12 333e 137b edbd bd1c ef3d
000001c0: 3d2e 4dbf 0875 89bd b684 ab3d b1a2 073d
000001d0: 1a6c 88bd 4fb6 2b3d 02c7 3fbe e87a a6be
000001e0: ce14 16be b87a 4bbd d46b 1a3e 409f b3bc
000001f0: 3aaf 0ebd b49d 6f3d ec49 abbc ba75 fa3c
00000200: 3716 993c 7b62 e43b 05ed d03e 87d2 c1be
00000210: 32a2 eabe 17ff 23bd f029 2fbb 13f3 48bf
00000220: 3cef 963e db52 d1bd c0f6 2dbd fbfe 2d3e
00000230: f6e1 803d b965 1b3e 53c9 a9be 9033 f13d
00000240: d2e7 7bbe 63df eb3e cbd2 f8be 18c4 8bbd
00000250: 7a1e fb3e 0fc2 3ac0 206c 98be 0042 ad3e
00000260: 913a 55bf 571f 40be a4b1 05bf aa22 5f3f
00000270: 6300 8cbc a106 18bf 17f6 5c3e 069b 1dc0
00000280: 4099 d63d 4282 0abe ef9c 8abf acab 273e
00000290: 1c29 10bf 1deb 41bd b912 31bf d92a 4c3e
000002a0: 0ea3 eebe 14f1 f7bd 844a 7abe 05bf 67c0
000002b0: 64f9 12be 5a4d 4e3c 3416 ad3e e4b7 943e
000002c0: 9e5a a2bf b5ef 6dbe fb16 c03d 67d3 96be
000002d0: 79f3 f7be e2ee 66bd a51d 94bf 12c2 11bf
000002e0: 280b 273e 2874 22bf b85a a7be ee8d 51bf
000002f0: 279e cd3e a6d8 42bf 6350 d5bd 988c b7be
00000300: c9c8 89bf f505 5dbf 495d c2bf b078 00be
00000310: 91c3 a0be 8208 d6be 5d35 e3bd 8b49 3d3c
00000320: b93b e4be 1643 24bf 8043 563d 227b 173e
00000330: dcc9 aabd 3408 65bf 283a 4cbe ed86 99bd
00000340: 71fb d8bd 6f71 17bc 8ac9 c43d 0509 673d
00000350: f0fb 223d c64a acbd be89 5b3e e82f 593e
00000360: be6b 5dbd e97b c43d a0ed f7bc f51b 88bf
00000370: 2012 fc3e 0b08 ff3d 070c c3bf 0464 1cbf
00000380: 5245 933d 64bb d73e 289c fd3d 52a9 a5b9
00000390: b9f6 8ebd 8e61 b1bd cd99 ad3c 7422 b7bd
000003a0: ddfe 51be 3915 9abe c60f b5be d6d4 adbd
000003b0: 6a16 e23d c92c a3be b2fe c23b 00c8 fdbc
000003c0: 3618 6b3e c5e6 d93c 4735 b5be be9f 36bc
000003d0: 792e f93d df10 9dbe 5681 893e 60c2 6abd
000003e0: 41c2 4ebe c64b 32be de53 343e 5516 fdbd
000003f0: d9d2 43bd 2ec1 85bc 9543 a5bc 08ca 09be

0.nn.layers.1.bias f4 [70]
-0.20452647 0.27576616 0.43145043 -0.08058211 0.21712385 0.61677104 -0.026382849 -0.19856915
-0.15385664 0.43488893 0.35982606 -0.04467708 -0.10072772 -0.1278218 -0.6706063 0.08464099
-0.15031831 0.33251297 0.4052871 0.045243513 0.18617214 0.019056898 0.5446101 0.47683814
-0.09707213 -0.29973847 0.17709403 -0.2010936 0.44980925 -0.36530563 0.20551382 -0.40460023
0.024157176 0.483763 -0.4617926 -0.32913032 0.28506356 -0.15794244 -0.66719276 0.5736593
0.10176675 0.1217929 0.18859877 -0.19760025 0.17958106 -0.45204258 -0.16250576 -0.14127664
0.36484748 0.29063284 -0.17825192 -0.29206958 0.2818196 -0.4003772 -0.5158273 -0.046994723
0.2679276 0.25187787 -0.095638216 -0.040271506 -0.08972604 -0.28697252 0.16111588 -0.12975071
0.28245816 0.2186613 -0.34984627 0.24023676 -0.14242616 0.17589563
00000000: 636f 51be 3931 8d3e 12e7 dc3e 3c08 a5bd
00000010: b755 5e3e b5e4 1d3f d820 d8bc b655 4bbe
00000020: 988c 1dbe c3a9 de3e 1f3b b83e 50ff 36bd
00000030: 564a cebd b8e3 02be dbac 2bbf 4158 ad3d
00000040: 0bed 19be 243f aa3e ca81 cf3e 4351 393d
00000050: e9a3 3e3e 361d 9c3c 916b 0b3f 2124 f43e
00000060: c1cd c6bd 5277 99be 2358 353e 7beb 4dbe
00000070: 664d e63e 5709 bbbe 3772 523e c327 cfbe
00000080: 45e5 c53c c9af f73e 1470 ecbe c583 a8be
00000090: daf3 913e aabb 21be 25cd 2abf 56db 123f
000000a0: 166b d03d 8e6e f93d 0920 413e b857 4abe
000000b0: 19e4 373e 2072 e7be e967 26be d3aa 10be
000000c0: 4acd ba3e d4cd 943e ac87 36be 258a 95be
000000d0: a94a 903e 3efe ccbe 420d 04bf 8a7d 40bd
000000e0: ce2d 893e 23f6 803e f8dd c3bd bcf3 24bd
000000f0: 49c2 b7bd 10ee 92be 90fb 243e 5fdd 04be
00000100: 5b9e 903e bfe8 5f3e 0d1f b3be a000 763e
00000110: 2ad8 11be fc1d 343e

0.nn.layers.2.weight f4 [217, 70]
0.046039503 -0.77488935 -1.4192454 -0.1800909 2.2750027 -0.7074261 -3.8866193 -6.3127418
5.3165298 -0.6434853 -0.3616809 -0.14179559 -1.130475 0.08902364 -2.8790486 0.87918204
-0.698889 3.0064673 1.6862298 -1.1809506 -0.5417325 -3.6929185 0.38257048 -1.7446054
3.8587427 0.023792934 -1.1996785 0.019345423 0.9415926 -2.80861 2.8820248 -1.9738973
-0.71820337 -1.6210139 -10.636101 -14.696299 -0.6415958 0.102301 -2.963194 2.6755283
0.048341114 0.6655094 -0.39608863 -0.05934617 0.15113176 -0.5767639 -1.2883561 0.061412048
-3.4548056 -3.98641 -2.609476 0.07674962 0.8311106 -4.8222456 -3.178741 2.366127
0.35060436 3.0569146 0.046221763 -9.106158 -1.1858963 -28.420715 0.065934874 3.98179
-7.35092 -0.23632881 0.24325432 -2.2879322 -1.5246439 -0.12080726 0.009671725 -0.89323056
-0.11780064 0.18995312 -1.1103994 0.025768433 1.1259363 0.53538716 0.23226467 1.0228298
-0.022542957 -0.052857492 0.28572533 0.022804406 -0.9924331 1.0594517 -0.068398066 -1.5055615
-2.476195 0.05599869 0.283351 0.24877918 0.13048695 -0.28690207 -1.9353616 0.050906993
-0.71475947 0.121165626 -1.0987878 0.48843578 -0.23142752 -0.32067865 0.43162107 -1.6110506
-0.54281497 0.89615196 0.21472098 0.05332658 -1.161376 -0.6252066 -0.2279977 -0.43000057
-0.08577189 -0.00469721 -0.75998455 0.8353151 0.5266744 0.0035102267 -0.41059256 -0.7054758
-0.16797459 0.13651723 1.0585245 -0.8619096 -0.40985692 0.17455293 -0.14712173 2.2761712
-0.30569717 0.92434764 0.5398144 -1.254714 -0.32839414 0.3340593 0.06596622 -2.2397614
1.7028233 0.8617279 0.5453112 -0.40402737 0.0451553 -0.48522446 0.5418561 0.62898254
0.2352461 -0.53078824 -0.3047883 1.0134543 0.23613654 0.07045877 0.13272001 0.036892686
0.47484142 0.048390668 -0.297951 -0.5259923 0.20474696 -0.2387371 -0.7445524 -0.28197902
0.8211497 0.6703802 0.8298433 -0.3260869 0.08858259 -0.019608019 0.09015005 -0.17801757
0.16400433 0.31258476 0.71476257 0.93857676 0.06890827 -0.2808794 0.08863948 -0.12144523
0.05924991 -0.049230073 0.16890123 0.5137082 0.17594975 1.2922381 0.28944397 0.096801564
-0.8228463 -0.32928982 -0.052450582 0.06299625 -1.2116336 0.26798624 0.23167391 -0.001747207
-0.014528254 -0.93916446 0.6158481 -0.2086654 0.98257023 0.6040432 0.10023044 -0.8065289
1.1419446 -0.7643613 -0.25272748 -0.0069791377 0.5298936 -0.39190355 -0.20547949 0.37082765
0.013652821 -0.033878263 0.00089745707 0.51208544 0.5506391 0.7541181 0.13098532 0.3897416
-0.007068948 0.31563294 0.05754725 -0.16550536 0.19844797 -0.06948771 -0.21842203 -0.087084234
0.3473577 -0.41184765 -0.03785478 0.6999824 0.99996233 -0.030301075 -0.8085069 0.20684104
-0.43910643 -1.1926962 0.4823722 -0.09770092 0.6403362 -0.10530922 1.351041 0.621355
-0.15566207 1.7457944 0.4223059 -0.01998827 0.42214411 0.35266745 -0.10568624 -0.06238506
-0.17213015 -0.15496191 0.42445144 -0.5750814 -0.83158785 0.18484288 0.44466758 0.4914242
00000000: eb93 3c3d 265f 46bf d5a9 b5bf c069 38be
00000010: a599 1140 e019 35bf 5fbe 78c0 fb01 cac0
00000020: 0321 aa40 74bb 24bf 3d2e b9be dd32 11be
00000030: 68b3 90bf 0752 b63d 5542 38c0 1312 613f
00000040: 64ea 32bf f669 4040 61d6 d73f 6429 97bf
00000050: fbae 0abf c758 6cc0 47e0 c33e 3b4f dfbf
00000060: a4f5 7640 66e9 c23c 118f 99bf 4b7a 9e3c
00000070: 360c 713f 44c0 33c0 1873 3840 aba8 fcbf
00000080: 2ddc 37bf 627d cfbf 782d 2ac1 0a24 6bc1
00000090: 9f3f 24bf 3083 d13d f8a4 3dc0 db3b 2b40
000000a0: 5501 463d d35e 2a3f 21cc cabe f814 73bd
000000b0: 49c2 1a3e cda6 13bf dae8 a4bf 338b 7b3d
000000c0: 891b 5dc0 5721 7fc0 a801 27c0 e82e 9d3d
000000d0: aac3 543f d64f 9ac0 7e70 4bc0 a06e 1740
000000e0: 6a82 b33e 7da4 4340 0853 3d3d d3b2 11c1
000000f0: 73cb 97bf a05d e3c1 dd08 873d a6d5 7e40
00000100: bd3a ebc0 2e00 72be a917 793e 7b6d 12c0
00000110: 8827 c3bf cc69 f7bd 2876 1e3c c2aa 64bf
00000120: 7641 f1bd 1283 423e 9121 8ebf 5218 d33c
00000130: ae1e 903f 220f 093f cad6 6d3e 16ec 823f
00000140: 02ac b8bc 1981 58bd 974a 923e 4ed0 ba3c
00000150: 1810 7ebf 1d9c 873f 4914 8cbd 3db6 c0bf
00000160: fb79 1ec0 e25e 653d 6213 913e f8bf 7e3e
00000170: 5f9e 053e d4e4 92be eeb9 f7bf da83 503d
00000180: 7afa 36bf af25 f83d 14a5 8cbf 4114 fa3e
00000190: 56fb 6cbe fe2f a4be 70fd dc3e e836 cebf
000001a0: ecf5 0abf 376a 653f d1df 5b3e f96c 5a3d
000001b0: f8a7 94bf 8a0d 20bf 3b78 69be 0929 dcbe
000001c0: 2ca9 afbd 0eeb 99bb 598e 42bf 36d7 553f
000001d0: 22d4 063f d50b 663b 3039 d2be 109a 34bf
000001e0: 8801 2cbe 2ccb 0b3e bb7d 873f 1ca6 5cbf
000001f0: c4d8 d1be 01be 323e 14a7 16be caac 1140
00000200: 5784 9cbe 0ca2 6c3f 4731 0a3f 789a a0bf
00000210: 4723 a8be d209 ab3e 4c19 873d 4058 0fc0
00000220: 1df6 d93f 339a 5c3f 8499 0b3f addc cebe
00000230: c4f4 383d 576f f8be 15b7 0a3f 0005 213f
00000240: 5be4 703e bde1 07bf 360d 9cbe dfb8 813f
00000250: c7cd 713e b04c 903d c1e7 073e c91c 173d
00000260: 6a1e f33e 4b35 463d 098d 98be 6ea7 06bf
00000270: 30a9 513e 8077 74be fc9a 3ebf 8e5f 90be
00000280: de36 523f 099e 2b3f 9c70 543f ddf4 a6be
00000290: ca6a b53d ffa0 a0bc 97a0 b83d 3d4a 36be
000002a0: c0f0 273e 1c0b a03e aefa 363f 9146 703f
000002b0: c71f 8d3d 6dcf 8fbe 9e88 b53d 47b8 f8bd
000002c0: 09b0 723d 79a5 49bd 72f4 2c3e 6182 033f
000002d0: 2c2c 343e 0f68 a53f 0032 943e e63f c63d
000002e0: 0ea6 52bf ad98 a8be 6cd6 56bd 2e04 813d
000002f0: cf16 9bbf 7e35 893e ed3b 6d3e 8a02 e5ba
00000300: ea07 6ebc 156d 70bf 39a8 1d3f 62ac 55be
00000310: b989 7b3f 93a2 1a3f 9e45 cd3d ae78 4ebf
00000320: 3e2b 923f 2fad 43bf 7f65 81be 40b1 e4bb
00000330: 1ba7 073f 95a7 c8be 3769 52be 1fdd bd3e
00000340: 15b0 5f3c efc3 0abd 5343 6b3a 0818 033f
00000350: aff6 0c3f e20d 413f 0421 063e 368c c73e
00000360: a2a2 e7bb a49a a13e aab6 6b3d 3d7a 29be
00000370: f235 4b3e 934f 8ebd 06aa 5fbe 3859 b2bd
00000380: ded8 b13e b2dd d2be 9d0d 1bbd 0c32 333f
00000390: 88fd 7f3f f639 f8bc 4ffa 4ebf 23ce 533e
000003a0: 8fd2 e0be 45aa 98bf 7df9 f63e 6c17 c8bd
000003b0: 13ed 233f 5cac d7bd e9ee ac3f 1f11 1f3f
000003c0: e165 1fbe 3176 df3f 7b38 d83e 71be a3bc
000003d0: 4623 d83e d490 b43e 0772 d8bd 7a87 7fbd
000003e0: e342 30be 56ae 1ebe b351 d93e 8938 13bf
000003f0: f1e2 54bf 7447 3d3e 78ab e33e f49b fb3e

0.nn.layers.2.bias f4 [217]
-1.3498205 0.22869742 0.3617567 -0.19619903 0.036438562 0.14620812 -0.83366203 -2.0599716
-1.1111962 0.47759977 0.115667045 -0.13060652 -0.6618314 0.09582371 0.33199623 -1.7583082
-0.33621988 -1.6797678 -0.18812597 0.58886534 0.27847773 -0.50562346 -0.6283626 -0.40959755
-1.0471903 -1.0447599 0.41012436 0.44798845 -0.6025344 -0.45397815 -0.20331095 0.11585531
-1.4849383 -1.6903019 0.4671858 0.49327263 0.23791698 -0.15550065 -2.0247824 -0.98598224
0.01822469 -1.7400817 0.10044433 0.07507504 0.047967482 -0.3245635 0.30783656 0.41017586
-0.75387836 0.34650016 0.18307023 -0.5448904 -0.4680457 -0.0487519 0.29019418 -3.8569262
0.20577306 0.13075405 0.111387536 -0.08960088 0.0045170872 -0.8391244 0.032616932 0.01722127
0.22960986 -0.6385947 0.32195422 -0.15722907 -0.14015314 -0.4778588 -0.6979685 0.19245793
-0.003578663 -0.12432595 0.018246975 -0.5707371 0.40889966 0.52714616 -0.0028765616 -0.52172184
0.1952213 -3.464202e-05 -1.6590695 -0.27390763 -0.11073091 0.1467104 0.10169156 -0.26319614
0.091725536 -0.01427025 -0.54443055 -0.1349956 0.06469252 0.3720979 0.1310953 -0.47882378
0.11982997 0.016496679 -0.55768305 0.3524346 -0.040228307 0.20382911 -0.29550797 -0.29574922
0.337019 0.019815968 -0.031853642 -0.1731341 -0.3543622 -0.7957626 -0.4689187 0.25526166
-1.3199462 -0.068456024 0.15271017 1.1271912 0.36684665 -1.0896623 16.877218 0.21688896
-0.27762994 1.8272268 1.1496197 0.10124389 -0.38018668 2.1131742 1.5361133 19.567568
-3.0639336 -0.29985368 0.82757044 -0.05929151 0.8252059 1.2249064 -0.30087397 -1.0905193
0.14500345 -0.12024458 1.1882727 0.27133718 4.0928245 5.354604 -2.897907 -0.11684919
0.6476659 1.126504 0.51388055 5.386954 1.5392708 -0.85812306 0.6112806 2.1434844
-0.87327737 -0.77761346 -1.2574353 -0.5244307 -0.18959363 -0.976863 0.2285728 -0.7197741
3.4723067 -4.6307664 -1.0104872 1.6456461 0.39065978 0.2266444 1.4346596 0.1576012
0.09613865 -5.3507094 0.6914145 1.4373089 -0.7622594 1.5293438 0.07415658 -0.54144627
0.18832487 -0.13331982 -0.39519572 -0.5483154 -1.2367395 1.2053676 -0.7099325 2.1188443
0.8462523 -0.3099283 -2.2828493 0.26392102 0.5080539 0.9177281 0.2579217 -0.21834686
-0.9384767 -0.098547906 -2.5285833 0.6512531 -1.2674947 0.029119387 -0.07288013 2.1647077
2.676848 -0.07400668 -3.0067518 0.10737835 -0.3303516 1.3407695 1.1926173 -0.076779276
-1.5459275 -5.7486744 -1.9694712 1.3233125 1.0827482 -0.34212676 -1.8105122 0.2350565
1.9318188
00000000: ebc6 acbf a82f 6a3e 2d38 b93e 66e8 48be
00000010: 9a40 153d 95b7 153e e06a 55bf 93d6 03c0
00000020: ad3b 8ebf f587 f43e d8e2 ec3d b7bd 05be
00000030: c86d 29bf 393f c43d 69fb a93e 3e10 e1bf
00000040: 0325 acbe a202 d7bf 18a4 40be e1bf 163f
00000050: a294 8e3e 8a70 01bf 5fdc 20bf c5b6 d1be
00000060: 550a 86bf b1ba 85bf d2fb d13e be5e e53e
00000070: b23f 1abf d36f e8be bf30 50be 8c45 ed3d
00000080: 7512 bebf d05b d8bf fa32 ef3e 3b8e fc3e
00000090: 82a0 733e 903b 1fbe 0996 01c0 5569 7cbf
000000a0: f24b 953c ffba debf c2b5 cd3d f1c0 993d
000000b0: 8d79 443d 302d a6be c19c 9d3e 9202 d23e
000000c0: 2cfe 40bf 7868 b13e c376 3b3e f07d 0bbf
000000d0: b0a3 efbe 13b0 47bd 5594 943e e1d7 76c0
000000e0: 2cb6 523e 64e4 053e 261f e43d ab80 b7bd
000000f0: 1304 943b dbd0 56bf 5599 053d 9f13 8d3c
00000100: d91e 6b3e f17a 23bf 2fd7 a43e a800 21be
00000110: 4e84 0fbe e9a9 f4be 10ae 32bf b113 453e
00000120: 0188 6abb 9b9e febd ae7a 953c d41b 12bf
00000130: 4c5b d13e 0df3 063f b284 3cbb 908f 05bf
00000140: 18e8 473e 964c 11b8 645c d4bf 9f3d 8cbe
00000150: e3c6 e2bd 403b 163e aa43 d03d a5c1 86be
00000160: 99da bb3d c4cd 69bc cd5f 0bbf 493c 0abe
00000170: 837d 843d 9e83 be3e d93d 063e 6428 f5be
00000180: 6a69 f53d 0b24 873c 51c4 0ebf 4f72 b43e
00000190: 70c6 24bd 94b8 503e d24c 97be 716c 97be
000001a0: c18d ac3e 1955 a23c f778 02bd 114a 31be
000001b0: f66e b5be 19b7 4bbf 1d16 f0be a8b1 823e
000001c0: fff3 a8bf ac32 8cbd 0e60 1c3e cd47 903f
000001d0: 53d3 bb3e 0e7a 8bbf 8b04 8741 2418 5e3e
000001e0: 8325 8ebe 91e2 e93f bd26 933f f558 cf3d
000001f0: d4a7 c2be 3f3e 0740 5c9f c43f 618a 9c41
00000200: 7d17 44c0 6c86 99be a8db 533f a8db 72bd
00000210: b240 533f bcc9 9c3f 270c 9abe 2396 8bbf
00000220: c97b 143e ca42 f6bd 5219 983f b5ec 8a3e
00000230: 6bf8 8240 ea58 ab40 4f77 39c0 a14e efbd
00000240: 6fcd 253f 4831 903f ad8d 033f ed61 ac40
00000250: d306 c53f f4ad 5bbf e37c 1c3f d92e 0940
00000260: 1b8f 5fbf ad11 47bf a4f3 a0bf 1741 06bf
00000270: d524 42be b213 7abf fd0e 6a3e 1e43 38bf
00000280: 463a 5e40 3d2f 94c0 a557 81bf 88a4 d23f
00000290: 8f04 c83e 7815 683e eda2 b73f 3562 213e
000002a0: 57e4 c43d 0339 abc0 8a00 313f bdf9 b73f
000002b0: 6f23 43bf 8ac1 c33f 68df 973d 399c 0abf
000002c0: 3cd8 403e fe84 08be 1857 cabe 665e 0cbf
000002d0: 7b4d 9ebf 7c49 9a3f 23be 35bf 259b 0740
000002e0: fea3 583f ecae 9ebe 341a 12c0 a820 873e
000002f0: d20f 023f 3bf0 6a3f 500e 843e 5296 5fbe
00000300: 0240 70bf 7cd3 c9bd 4fd4 21c0 86b8 263f
00000310: 443d a2bf c88b ee3c 2d42 95bd 928a 0a40
00000320: 7a51 2b40 d090 97bd 9f6e 40c0 2ee9 db3d
00000330: d823 a9be 569e ab3f afa7 983f 743e 9dbd
00000340: f4e0 c5bf 24f5 b7c0 a217 fcbf 4e62 a93f
00000350: 7e97 8a3f 3d2b afbe ddbe e7bf a7b2 703e
00000360: d745 f73f
