models/nn/raw/Colour/model.pt (torch, 54492 bytes, 9 tensors)

net.0.weight f4 [64, 3]
0	0x3ece6176	0.40308732
1	0xbec59a56	-0.3859431
2	0xbeb3bd25	-0.35105243
3	0x3df52b2c	0.11971125
4	0x3dfac083	0.1224375
5	0x3f29f0b3	0.663829
6	0xbeb9de6e	-0.36302513
7	0x3df1141a	0.11771412
8	0xbee567c8	-0.4480574
9	0x3ea18bf7	0.31552097
10	0x3e7e9039	0.24859704
11	0xbe12b651	-0.1432736
12	0x3ee19848	0.44061494
13	0x3edca9e3	0.43098363
14	0xbed0ccb2	-0.4078117
15	0xbf243cb5	-0.6415513
16	0x3e12c045	0.14331158
17	0xbf1bbf92	-0.6083919
18	0x3d871783	0.065962814
19	0x3d2ce44c	0.04220991
20	0x3e971a2c	0.29512155
21	0x3e93c274	0.28859293
22	0xbe9d8fba	-0.30773717
23	0x3d136a20	0.03598988
24	0xbe9a2d94	-0.30112898
25	0x3ee4c2ee	0.4467997
26	0x3eae4c68	0.34042668
27	0x3f1ae2ee	0.6050252
28	0x3f0e862d	0.55673486
29	0x3ea69598	0.32536006
30	0x3ef72f01	0.4827805
31	0x3df230b1	0.118256934
32	0xbec36bf6	-0.38168305
33	0xbea51ccc	-0.32248533
34	0xbe9f9dde	-0.3117513
35	0xbe836903	-0.25666055
36	0xbec26199	-0.37965086
37	0xbf26b2e8	-0.6511674
38	0x3dc9ce62	0.098538175
39	0xbeffa55e	-0.49930853
40	0xbf22ed85	-0.63643676
41	0x3ea9811c	0.33106315
42	0xbf255996	-0.6458982
43	0x3ca50ff0	0.020149201
44	0xbe0995f8	-0.13436115
45	0x3eaf9b16	0.3429801
46	0x3f043c9b	0.51654977
47	0x3ea7d1b7	0.32777187
48	0xbf1cc34e	-0.6123551
49	0xbe51747a	-0.20454589
50	0x3ed1ca42	0.40974623
51	0xbf1df24b	-0.61697835
52	0xbf38bfad	-0.72167474
53	0xbf1c394c	-0.6102493
54	0xbef1bdad	-0.47215024
55	0x3e55343d	0.20820709
56	0xbe5614b3	-0.20906334
57	0x3e6304e2	0.22169831
58	0xbea3bb25	-0.31978717
59	0xbe4ab901	-0.19797136
60	0xbd2f5db3	-0.042813968
61	0x3f192ad7	0.59830993
62	0x3d7005a2	0.058599122
63	0xbeffed9a	-0.49985963
64	0x3ed5e260	0.41774273
65	0x3db06e55	0.08614794
66	0x3f1c6530	0.610919
67	0x3dadafc2	0.08480789
68	0xbed367c8	-0.41290116
69	0x3bb94dc9	0.0056550247
70	0xbecfe8e3	-0.40607366
71	0xbeeda66b	-0.4641603
72	0x3dcdb070	0.100434184
73	0x3e83c8a9	0.2573903
74	0xbe8f121a	-0.27943498
75	0xbe865718	-0.26238322
76	0xbea50d65	-0.32236782
77	0x3f0ae652	0.5425769
78	0x3e0506d2	0.12990883
79	0xbe0dd80a	-0.13851944
80	0xbe89d011	-0.26916555
81	0xbe62427f	-0.22095679
82	0xbcfd346b	-0.030908784
83	0x3e6ad6b0	0.2293346
84	0xbe7d5390	-0.24738908
85	0xbe87880c	-0.26470983
86	0xbf09af72	-0.53783333
87	0x3f12478f	0.5714044
88	0xbe3ec1ae	-0.1862857
89	0x3f071c32	0.527774
90	0xbd32123c	-0.04347442
91	0xbdf0b5a3	-0.117533945
92	0xbebb4b73	-0.36581
93	0xbdb171bb	-0.086642705
94	0xbdd3fd15	-0.10351006
95	0x3e0af422	0.13569692
96	0xbe723c4b	-0.23655812
97	0x3f08b311	0.53398234
98	0x3e01fb41	0.12693502
99	0xbde70c97	-0.11281698
100	0xbed38a2e	-0.4131636
101	0x3e25c44d	0.16188164
102	0x3c8a149a	0.016855527
103	0xbd20730b	-0.039172214
104	0xbf2fe4b2	-0.68708336
105	0x3e921af3	0.28536186
106	0x3e079844	0.13241678
107	0x3ea83325	0.3285152
108	0xbed28b9a	-0.41122133
109	0x3e85ce52	0.26133972
110	0x3efefbd7	0.49801514
111	0x3e1c32e8	0.15253794
112	0x3ee9c936	0.45661324
113	0xbf1d0289	-0.61331993
114	0x3ec32ffe	0.38122553
115	0xbe338932	-0.17532805
116	0x3eb2fffe	0.34960932
117	0x3eed3cc6	0.4633543
118	0x3df35084	0.118805915
119	0xbdc02d9e	-0.09383701
120	0x3ea89d44	0.32932484
121	0x3f213fc0	0.629879
122	0xbeb2f26b	-0.34950575
123	0x3f193b0a	0.5985571
124	0x3e1b7437	0.15181051
125	0x3e940287	0.28908178
126	0xbe0648d8	-0.13113725
127	0xbe6dd352	-0.23225144
128	0xbe93ff7b	-0.28905854
129	0xbe4f4df9	-0.20244588
130	0xbf130867	-0.57434696
131	0x3f021fbc	0.5082967
132	0x3e731d20	0.23741579
133	0xbf1f2f02	-0.62181103
134	0x3f016b83	0.50554675
135	0xbf0f18e2	-0.55897343
136	0xbeba313d	-0.3636569
137	0x3f213414	0.6297009
138	0xbdb7c77e	-0.08973597
139	0x3ea8e302	0.32985693
140	0x3ed3abca	0.41342002
141	0x3c4d34c6	0.012524789
142	0xbf18666a	-0.5953127
143	0x3ef04906	0.46930712
144	0xbe8ce074	-0.27514994
145	0xbed2c519	-0.41166
146	0xbe941e48	-0.28929353
147	0x3f020bf6	0.507995
148	0xbdeb6d14	-0.114954144
149	0x3e8669c0	0.26252556
150	0x3d20b3bc	0.039233908
151	0xbe99abe0	-0.30013943
152	0x3d49c9fb	0.04926489
153	0x3ef993eb	0.48745665
154	0x3f00d290	0.5032129
155	0x3d0a6f84	0.033797756
156	0x3d7bc13f	0.06146359
157	0x3eb5d718	0.35515666
158	0xbe45d8ce	-0.19320986
159	0xbd91891a	-0.07106228
160	0x3eae51ba	0.34046727
161	0x3f2b0d5f	0.6681728
162	0x3e1365c8	0.14394295
163	0x3c80d2de	0.01572555
164	0xbf0912a4	-0.5354407
165	0xbe068f0c	-0.13140506
166	0xbef0ace1	-0.47006896
167	0xbdcb5316	-0.09927957
168	0x3d1c2f0e	0.038130812
169	0x3e89a085	0.2688028
170	0x3f1da5c1	0.61581045
171	0x3dd6e992	0.10493769
172	0x3e1eda1f	0.15512894
173	0xbe7d9f62	-0.24767831
174	0xbf2a80c0	-0.66602707
175	0xbf42fa53	-0.76163214
176	0x3e6f80d1	0.23388983
177	0x3e305763	0.17220835
178	0x3f19628f	0.59916013
179	0x3ee84dfe	0.45372003
180	0x3c410e24	0.011783157
181	0xbe463ba1	-0.19358684
182	0x3eb5fc09	0.3554385
183	0xbefa35ff	-0.4886932
184	0xbba27e5c	-0.004958911
185	0x3e9b312a	0.30310947
186	0xbf151385	-0.5823291
187	0x3edb4f35	0.42833868
188	0xbd706502	-0.05869008
189	0x3f14491f	0.57924074
190	0xbc84a394	-0.016191281
191	0xbe8dfce7	-0.27732012

net.0.bias f4 [64]
0	0x3ec729c9	0.38899067
1	0xbee2850f	-0.4424214
2	0xbf086d41	-0.5329171
3	0xbe8d2698	-0.27568507
4	0x3ed2255c	0.41044128
5	0x3e3fd310	0.18732858
6	0x3f01d728	0.5071893
7	0xbe493dde	-0.19652507
8	0x3dbd00b5	0.092286505
9	0xbe17f023	-0.14837699
10	0x3f134684	0.57529473
11	0x3e16cd0a	0.14726654
12	0xbf0193d1	-0.50616175
13	0x3e481ab3	0.19541435
14	0xbed90e46	-0.42393702
15	0x3d8ecb92	0.06972422
16	0x3e8b5881	0.2721596
17	0xbe4e74a4	-0.20161682
18	0xbf271ff9	-0.6528316
19	0xbde12766	-0.10993843
20	0xbee225bf	-0.44169423
21	0x3f2899ed	0.6585987
22	0xbe9ff14f	-0.3123879
23	0xbe5c46a0	-0.21511316
24	0x3eccd948	0.40009522
25	0xbd78bc2c	-0.06072633
26	0x3d125aa0	0.035730958
27	0xbf1bbaf3	-0.60832137
28	0x3e850028	0.25976682
29	0x3ed859ab	0.4225591
30	0xbf05a728	-0.52208185
31	0x3f1f976f	0.62340444
32	0x3ebe7618	0.37199473
33	0x3ed17747	0.40911314
34	0x3db9f69f	0.09080242
35	0xbdebc1d2	-0.11511578
36	0x3f23f458	0.64044714
37	0x3e7ffecf	0.24999546
38	0xbede7d16	-0.43454808
39	0xbeb634f8	-0.35587287
40	0x3ed8e46b	0.4236177
41	0xbeb7d0b0	-0.35901403
42	0xbdd75a11	-0.10515226
43	0xbeb7afc8	-0.35876298
44	0x3e82394c	0.2543434
45	0xbd1b188e	-0.037865214
46	0x3f1a2419	0.6021133
47	0xbe82ee9a	-0.25572664
48	0x3e4ba674	0.19887716
49	0xbedba832	-0.4290176
50	0xbef0d4e5	-0.47037426
51	0xbf170778	-0.5899577
52	0x3db3b697	0.087750606
53	0x3e3ff725	0.18746622
54	0x3e8a15a5	0.26969638
55	0x3f1b9d3d	0.607868
56	0x3eaf22d1	0.3420625
57	0xbd9a44ee	-0.075326785
58	0x3edfd09f	0.43713853
59	0xbf10be0f	-0.56540006
60	0x3f194ebb	0.5988576
61	0xbf000406	-0.5000614
62	0x3ecf2b1d	0.4046258
63	0xbeeb6755	-0.45977274

net.2.weight f4 [64, 64]
0	0x3e31a8aa	0.17349496
1	0xbd35f28e	-0.04442077
2	0x3e7fc58b	0.249777
3	0xbb9762af	-0.0046199183
4	0xbd878320	-0.06616807
5	0x3de6f9e3	0.11278131
6	0x3dbc02eb	0.09180244
7	0x3d1d1a6c	0.038355276
8	0x3df6c2b9	0.12048859
9	0x3d813d27	0.06310492
10	0x3b8f9b3e	0.00438252
11	0xbdc1ea27	-0.09468489
12	0x3e0142cf	0.12623142
13	0x3de10627	0.109875016
14	0x3e9c8d8b	0.3057674
15	0xbdd8f8ea	-0.105943516
16	0xbc7bbce5	-0.01536486
17	0x3cabdbfc	0.02097892
18	0xbe625586	-0.22102937
19	0xbbc8efe7	-0.006132114
20	0xbe29851d	-0.16554685
21	0x3e0747f4	0.13211042
22	0xbdc08aae	-0.09401451
23	0xbcb5d538	-0.022196397
24	0xbba4879c	-0.0050210487
25	0xbe3119e5	-0.17295034
26	0x3d729e79	0.059233163
27	0xbe423772	-0.18966463
28	0x3d79420b	0.060854
29	0x3dfd6022	0.123718515
30	0x3ee3f975	0.44526258
31	0x3cac7006	0.02104951
32	0xbb218d98	-0.0024651047
33	0xbcc384bd	-0.023867005
34	0xbd38e547	-0.04514053
35	0xbdc945c7	-0.09827762
36	0xbb9cc2a4	-0.004783945
37	0xbda6de65	-0.08147887
38	0xbe63ec92	-0.22258213
39	0xbd8c375f	-0.06846499
40	0x3dbc4ea5	0.09194688
41	0xbd843ae1	-0.06456543
42	0x3e4a0516	0.19728503
43	0xbe2041b2	-0.15650061
44	0x3e9b079f	0.30279252
45	0xbd7b7cff	-0.061398502
46	0x3db02579	0.08600897
47	0x3db5510a	0.088533476
48	0x3d5dbf76	0.05413767
49	0xbbc4b9b1	-0.0060035815
50	0x3ee47382	0.44619375
51	0x3d0c1992	0.034204073
52	0x3d938874	0.07203761
53	0x3e0854e6	0.13313636
54	0xbd36250c	-0.044468924
55	0x3e2cab84	0.16862303
56	0x3d8eb7e5	0.06968669
57	0x3d8c27d3	0.06843533
58	0x3c632c92	0.013865607
59	0xbb22d4a4	-0.0024845982
60	0x3cf1c8a2	0.029514614
61	0x3e1f523e	0.15558717
62	0x3e280af1	0.16410424
63	0x3d93594c	0.071947664
64	0xbdda8332	-0.10669555
65	0x3d7ed83c	0.062217936
66	0x3dce6cbe	0.10079335
67	0xbd84d5b8	-0.06486076
68	0xbde006de	-0.1093881
69	0x3d862326	0.06549673
70	0x3c6932d0	0.014233306
71	0x3dd1b802	0.10240175
72	0x3d56f1d8	0.052476734
73	0x3dc356ac	0.09538016
74	0xbdd63346	-0.104589984
75	0xbd1ccd08	-0.03828147
76	0xbdf337fc	-0.118759125
77	0x3c9e5d68	0.019331649
78	0x3da8e7f8	0.082473695
79	0xbdb4c434	-0.08826485
80	0x3da97cdc	0.08275768
81	0xbde06ea0	-0.109586
82	0x3dacaa00	0.084308624
83	0xbdd5e930	-0.104448676
84	0xbdc743d6	-0.097297356
85	0xbd820c48	-0.06349999
86	0x3d116634	0.03549786
87	0xbde7d422	-0.11319758
88	0x3d72436c	0.05914633
89	0xbdf05058	-0.11734074
90	0xbc24f540	-0.010068238
91	0xbd23d484	-0.039997593
92	0xbcbed3d8	-0.023294374
93	0xbda49c16	-0.080375835
94	0x3df95c80	0.12175846
95	0x3debee28	0.11520034
96	0xbdff6a10	-0.12471402
97	0xbc8f97e8	-0.01752849
98	0xbdc66efc	-0.09689137
99	0xbdd90720	-0.10597062
100	0xbd2cf38c	-0.042224452
101	0x3da2163c	0.07914397
102	0xbdecf8be	-0.11570881
103	0x3ded25a4	0.11579445
104	0x3de19826	0.11015348
105	0x3d562358	0.0522798
106	0x3dbfca6a	0.09364779
107	0x3ca727d0	0.020404726
108	0x3d7cc79c	0.0617138
109	0x3d843afa	0.064565614
110	0xbde464d0	-0.11152041
111	0x3d033438	0.03203222
112	0xbb950b60	-0.004548475
113	0xbdf744d4	-0.12073675
114	0x3dc6bd66	0.09704094
115	0xbd216cfc	-0.039410576
116	0x3c8d2dc0	0.01723373
117	0xbd811d90	-0.06304467
118	0x3da3209c	0.07965204
119	0x3bff1660	0.0077846497
120	0xbd409054	-0.047012642
121	0xbd65b578	-0.056081265
122	0x3d005b24	0.03133692
123	0xbde03fe6	-0.10949688
124	0x3d596d68	0.053082854
125	0xbdd86e16	-0.10567872
126	0xbda0f006	-0.07858281
127	0x3c8c2068	0.017105296
128	0xbd89cf3c	-0.0672898
129	0x3d25c080	0.040466785
130	0xbda4b49a	-0.080422595
131	0xbd267c00	-0.0406456
132	0x3d4cc084	0.049988285
133	0x3d853024	0.06503323
134	0xbcec0b48	-0.028813973
135	0x3d303fa4	0.043029442
136	0xbdc775fa	-0.09739299
137	0xbcce0ae8	-0.025151685
138	0x3da03498	0.078225315
139	0xbc328c70	-0.010897741
140	0xbddfe4c2	-0.10932304
141	0xbc477780	-0.012174487
142	0xbc98f4d0	-0.018671423
143	0x3d2fbb3c	0.04290317
144	0xbcd46878	-0.02592872
145	0xbdb0937c	-0.086218804
146	0x3cca6398	0.024705693
147	0x3dbce326	0.092230126
148	0xbcf2d9b8	-0.029644832
149	0x3d1455dc	0.036214694
150	0x3caa47c8	0.020786181
151	0x3ca1cde8	0.019751504
152	0xbc9b2238	-0.018937215
153	0xbbfbdd60	-0.007686302
154	0xbdf69f22	-0.12042071
155	0x3d97cf84	0.07412627
156	0xbd99816c	-0.074953884
157	0xbdc76450	-0.0973593
158	0xbd99aa2e	-0.07503162
159	0x3d126abc	0.03574632
160	0xbccdf3c8	-0.025140658
161	0xbd95f870	-0.07322776
162	0x3d8e511c	0.06949064
163	0xbd7baf84	-0.06144668
164	0xbdb32e98	-0.087491214
165	0x3d76a908	0.060219795
166	0xbd5607f4	-0.05225368
167	0xbda829c6	-0.08211093
168	0xbd1abbd0	-0.03777677
169	0xbd7acc54	-0.06123002
170	0x3abe8a00	0.0014536977
171	0xbd5d5760	-0.054038405
172	0x3b8d4f00	0.004312396
173	0xbbfd0260	-0.0077212304
174	0x3db02224	0.08600262
175	0x3da025cc	0.07819709
176	0xbd790344	-0.06079413
177	0x3d438154	0.04773076
178	0xbde3e784	-0.111281425
179	0xbdc89cda	-0.09795542
180	0xbdaeae82	-0.085293785
181	0xbd5b4b70	-0.05353874
182	0xbdf43006	-0.11923222
183	0x3d95083c	0.07276961
184	0x3dd6da92	0.10490908
185	0xbdc762de	-0.09735654
186	0xbdea0f2c	-0.11428675
187	0xbd1a2268	-0.03763047
188	0x3dc814da	0.09769602
189	0x3d0b044c	0.033939645
190	0x3be7da20	0.007075563
191	0x3df46514	0.119333416
192	0x3e3652b9	0.17804994
193	0xbd65f8dc	-0.056145534
194	0xbe06a9a6	-0.13150653
195	0xbc9d584c	-0.019207142
196	0x3d076874	0.0330586
197	0xbd473d4b	-0.048642438
198	0x3e0a5d3a	0.13512126
199	0x3da0beac	0.07848868
200	0xbd25d762	-0.04048861
201	0xbe0b252f	-0.13588403
202	0xbd0b87e7	-0.034065153
203	0x3c324802	0.010881426
204	0xbdb0b35f	-0.08627962
205	0x3dffc89d	0.12489436
206	0xbbd45331	-0.0064796438
207	0x3d08f50d	0.033436824
208	0x3d318a90	0.043345034
209	0x3ccbbcfd	0.02487039
210	0x3e60c34f	0.21949504
211	0x3d9fdc88	0.07805735
212	0xbe02ffd7	-0.12792908
213	0x3e236a8d	0.15958615
214	0x3d24289f	0.0400778
215	0x3c9b86bc	0.018985145
216	0x3dff1e7f	0.124569885
217	0x3e1b4c99	0.15165938
218	0xbd582130	-0.052766025
219	0x3c984ac5	0.01859034
220	0x3d75b86e	0.05999034
221	0x3b9230ef	0.0044613997
222	0xbd626211	-0.055269305
223	0xbc045a9b	-0.008078243
224	0x3c6fea00	0.014643192
225	0x3e2a04e0	0.16603422
226	0xbe0fa6ea	-0.14028516
227	0x3df3035f	0.11865877
228	0x3e7cb454	0.24678165
229	0xbd42cf29	-0.047560845
230	0xbdd5bbcd	-0.10436211
231	0xbd829e6e	-0.06377874
232	0xbd400879	-0.04688308
233	0x3d4c251f	0.04984009
234	0xbe3193f5	-0.17341597
235	0x3db5124c	0.088413805
236	0x3cb2cf61	0.021827402
237	0x3c80b9cf	0.0157136
238	0x3ced7d6e	0.028990474
239	0x3dc519bd	0.0962405
240	0x3ce5d92c	0.028057657
241	0xbda29544	-0.079386264
242	0xbe8c8cfb	-0.2745131
243	0xbdc7812d	-0.09741435
244	0xbc47be3a	-0.01219135
245	0x3d9aae43	0.07552769
246	0x3ddce7aa	0.10786374
247	0xbd1e7cd3	-0.03869326
248	0x3cd7abb3	0.02632699
249	0x3dfdf94e	0.12401067
250	0x3e32b95f	0.17453526
251	0xbe8cf4a1	-0.27530387
252	0x3d809634	0.06278649
253	0xbd62e548	-0.05539444
254	0x3d553e7e	0.05206155
255	0xbd4bfe3c	-0.049803004

net.2.bias f4 [64]
0	0x3d901179	0.07034583
1	0xbcbaffa0	-0.02282697
2	0xbdfdc8b6	-0.12391798
3	0x3d408f96	0.047011934
4	0x3d8e3acd	0.06944809
5	0xbda8ee66	-0.08248596
6	0xbd2ef5a8	-0.042714745
7	0x3daea2ed	0.085271694
8	0xbde69408	-0.112587035
9	0x3d965d43	0.07342007
10	0xbcd115c2	-0.02552307
11	0x3df42b5f	0.11922335
12	0x3cba161c	0.02271562
13	0x3d31d4ce	0.043415837
14	0x3d91394d	0.070910074
15	0x3d3b800f	0.045776423
16	0x3dcd201c	0.1001589
17	0xbb80d1ea	-0.0039312737
18	0xbe040499	-0.12892379
19	0x3d8839fe	0.06651686
20	0x3df22a96	0.11824529
21	0xbd321278	-0.043474644
22	0x3dbea492	0.09308733
23	0xbceca867	-0.028888894
24	0x3d63c6e6	0.055609606
25	0xbd22f113	-0.039780688
26	0x3d05c590	0.032659113
27	0xbd23c6f9	-0.039984677
28	0x3dbadfcf	0.09124719
29	0xbd6a6a9e	-0.057230584
30	0x3dff4fdb	0.12466403
31	0x3d6e3631	0.05815715
32	0xbcbb183e	-0.022838708
33	0x3e3d97fc	0.18515009
34	0xbdddc460	-0.10828471
35	0xbd814af8	-0.06313127
36	0x3da16825	0.07881192
37	0x3dc7902e	0.09744297
38	0x3d8b3eba	0.067990735
39	0xbd7744b7	-0.060368266
40	0xbdc3ee6a	-0.09566958
41	0x3d53776f	0.051627573
42	0x3d9b2fb3	0.07577457
43	0x3bcce3ef	0.0062527577
44	0xbd6523a4	-0.055942193
45	0xbcaa815e	-0.02081364
46	0x3dbe5613	0.09293761
47	0x3d426fbc	0.04746984
48	0xbdb6b34a	-0.089209154
49	0x3d2602ca	0.040530004
50	0xbdf7160a	-0.120647505
51	0x3d79558c	0.0608726
52	0xbd03e9bd	-0.032205332
53	0xbe2ce0d8	-0.16882646
54	0xbceff205	-0.029290209
55	0xbe026df3	-0.12737255
56	0xbe57e536	-0.21083531
57	0xbe08c587	-0.133566
58	0xbdd6b5e3	-0.10483911
59	0x3de22cef	0.11043727
60	0x3d12d3ae	0.035846405
61	0x3d1a5e26	0.037687443
62	0xbe0c5043	-0.13702492
63	0xbde863e6	-0.11347179

net.4.weight f4 [64, 64]
0	0xbde6ecb1	-0.11275614
1	0xbdf224a0	-0.11823392
2	0xbd52e780	-0.051490307
3	0xbc623de2	-0.013808699
4	0x3db53130	0.088472724
5	0x3dc63bfe	0.09679411
6	0xbdff2c1c	-0.12459585
7	0x3df75501	0.1207676
8	0x3de562f6	0.11200516
9	0x3de2ede8	0.11080533
10	0xbe274335	-0.16334231
11	0xbdeea4d3	-0.116525315
12	0xbd21c79f	-0.039497014
13	0x3e43edb6	0.19133648
14	0x3eac294f	0.33625266
15	0xbda249b8	-0.07924217
16	0x3e168ba2	0.14701703
17	0xbe9c9f85	-0.30590454
18	0x3d20d7ee	0.039268427
19	0xbdb08508	-0.08619124
20	0xbdb93dae	-0.090449676
21	0xbde38065	-0.11108474
22	0x3dec71bd	0.11545131
23	0x3e95395a	0.29145318
24	0xbe38bd99	-0.18041076
25	0xbdf58692	-0.11988558
26	0xbe50b53e	-0.20381638
27	0xbe3e5186	-0.18585786
28	0x3dd84842	0.10560657
29	0xbeabe24a	-0.33571082
30	0x3c21f5d6	0.009885272
31	0xbe2848b1	-0.1643398
32	0xbc664269	-0.014053919
33	0x3c70627e	0.01467192
34	0x3d959455	0.07303683
35	0x3bf5fdb7	0.007507052
36	0x3d8329a7	0.06404429
37	0x3e93bbd8	0.2885425
38	0x3e17f385	0.14838989
39	0xbec7d1fa	-0.39027387
40	0x3d8c15d4	0.06840101
41	0xbb45d278	-0.0030185264
42	0xbd454119	-0.048157785
43	0x3e7624b3	0.24037437
44	0x3c86ede0	0.01647085
45	0xbe1cfdbd	-0.15331168
46	0x3b268004	0.0025405893
47	0xbe16b752	-0.14718369
48	0xbd8c1e7a	-0.068417504
49	0x3e568900	0.20950699
50	0x3e0d4aeb	0.1379811
51	0xbdc872ff	-0.09787559
52	0x3e08b4db	0.13350241
53	0xbe52bf07	-0.20580684
54	0xbe6a7995	-0.22897942
55	0xbd193b5b	-0.03741012
56	0x3e991903	0.29901895
57	0xbd740ea1	-0.059584264
58	0x3dd50b63	0.104025625
59	0x3d3a46eb	0.04547779
60	0xbbecc6c6	-0.007225844
61	0x3dc7df31	0.09759367
62	0x3e0584a6	0.13038883
63	0x3e331f04	0.174923
64	0xbdbdb0d4	-0.09262243
65	0x3c220e20	0.009891063
66	0x3ccf0880	0.025272608
67	0xbd8785e3	-0.06617334
68	0xbd88c920	-0.066789865
69	0xbd80fdd0	-0.06298411
70	0x3c3cc550	0.011521652
71	0xbcadb3d0	-0.021203905
72	0xbdb55458	-0.08853978
73	0x3daa99c3	0.08330109
74	0x3d258a80	0.040415287
75	0x3dcbb075	0.09945766
76	0xbe049eaa	-0.1295115
77	0x3c9645de	0.018343862
78	0x3dcefb26	0.101064965
79	0xbde47350	-0.111548066
80	0x3db2263d	0.086986996
81	0xbda570f6	-0.08078186
82	0x3d83b669	0.06431276
83	0xbd16d274	-0.036821797
84	0x3c9bcf5a	0.019019771
85	0xbdbcbe0a	-0.092159346
86	0xbc184dd7	-0.009295902
87	0xbd09c602	-0.0336361
88	0x3dd69b5a	0.1047885
89	0xbdaf1abc	-0.08550021
90	0x3d5227a5	0.05130734
91	0xbdc02df2	-0.093837634
92	0xbcc5fd1d	-0.024168545
93	0xbdb72f7a	-0.08944602
94	0x3da011c7	0.07815891
95	0xb984e200	-0.00025345385
96	0x3d211651	0.039327923
97	0x3c74e877	0.014948002
98	0xb90d0400	-0.00013448298
99	0x3ce61008	0.028083816
100	0xbd91bc2e	-0.071159706
101	0xbd55791c	-0.052117452
102	0xbd55c69f	-0.052191373
103	0xbdb0cd36	-0.08632891
104	0x3d9fe8e4	0.07808092
105	0xbde4d07a	-0.11172576
106	0x3c94b2b8	0.018151626
107	0x3bc49880	0.0059996247
108	0xbd0080b0	-0.031372726
109	0xbcb60d28	-0.02222307
110	0x3cd64888	0.026157632
111	0xbd49f2a4	-0.049303666
112	0xbdbdf80e	-0.09275828
113	0x3db0293e	0.08601616
114	0xbcf42b5e	-0.029805835
115	0xbdb7c3c0	-0.08972883
116	0xbdcb683b	-0.0993199
117	0x3d811d62	0.063044325
118	0xbdf53ceb	-0.1197451
119	0xbc4aa911	-0.01236941
120	0x3dd4225d	0.10358117
121	0xbdb31c74	-0.087456614
122	0x3daa0084	0.083008796
123	0x3d7f239c	0.06228982
124	0x3d6a4958	0.057198852
125	0x3d833073	0.06405725
126	0xbd8141c8	-0.06311375
127	0x3cfc4208	0.030793205
128	0xbdab5236	-0.0836529
129	0x3df8cbda	0.121482566
130	0x3c1b1b60	0.009466976
131	0x3da467e7	0.0802763
132	0x3e256457	0.16151558
133	0xbe135c8d	-0.14390774
134	0xbddea7ba	-0.10871835
135	0xbe830075	-0.25586286
136	0x3d38515c	0.044999465
137	0x3e0294f3	0.12752132
138	0x3cb9cdb2	0.022681091
139	0xbdfdb9fd	-0.1238899
140	0x3d824168	0.063601315
141	0xbe842fac	-0.2581762
142	0x3b83a284	0.004017176
143	0x3e3b480c	0.18289202
144	0xbd0eac0b	-0.03483204
145	0x3c595233	0.013264227
146	0xbe6522a3	-0.22376494
147	0x3e6e6ab2	0.23282889
148	0xbc93d475	-0.018045643
149	0x3e446fca	0.19183269
150	0xbe885a8a	-0.26631576
151	0xbe48f4d5	-0.19624646
152	0xbe56c706	-0.20974359
153	0xbe8aaa8b	-0.2708324
154	0x3e33f713	0.1757472
155	0xbdbc51c2	-0.091952816
156	0xbcfd1bca	-0.03089704
157	0xbb3e2f80	-0.0029020011
158	0x3d30d184	0.04316856
159	0x3e22e628	0.1590811
160	0x3db06538	0.08613056
161	0xbe7f6bf5	-0.24943526
162	0x3db3706e	0.08761679
163	0x3b493d19	0.0030706583
164	0x3de64028	0.112427056
165	0xbeba1134	-0.3634125
166	0xbecd5a0d	-0.40107766
167	0x3f22e50c	0.6363075
168	0xbc808818	-0.015689895
169	0x3b039fe7	0.0020084323
170	0x3d8a4c78	0.067528665
171	0xbdeb0352	-0.11475243
172	0x3d876e1c	0.066127986
173	0x3ee5eacc	0.44905698
174	0x3d44907c	0.047989354
175	0x3d1ace2c	0.037794277
176	0xbdc2b802	-0.09507753
177	0xbe845333	-0.25844726
178	0xbe3c9b48	-0.1841861
179	0xbe63ae4d	-0.22234459
180	0xbc84798c	-0.01617124
181	0x3d0eabe0	0.03483188
182	0xbdc7f234	-0.097629935
183	0xbe74f387	-0.23921023
184	0x3dced659	0.10099477
185	0xba26d400	-0.0006363988
186	0xbd7d6662	-0.061865218
187	0x3df21fd0	0.11822474
188	0x3da4a754	0.08039728
189	0x3d95ad6f	0.073084705
190	0x3e4b0b1e	0.1982846
191	0xbe48b975	-0.19601996
192	0x3e2fb67d	0.17159458
193	0x3d4db470	0.050220907
194	0x3dcfb382	0.1014166
195	0x3c94516c	0.018105231
196	0xbdd26853	-0.102738045
197	0xbd2e3f2b	-0.04254071
198	0xbd802cba	-0.06258531
199	0x3e2a043c	0.16603178
200	0x3d197e14	0.037473753
201	0xbe011587	-0.12605868
202	0x3e22bad2	0.15891579
203	0x3e3ddeca	0.18542019
204	0x3b840413	0.004028806
205	0xbdc3f038	-0.095673025
206	0xbe661c4a	-0.22471729
207	0xbd289e57	-0.04116663
208	0xbe547dd0	-0.20751119
209	0x3e989ca6	0.29807013
210	0xbdb4127d	-0.08792589
211	0x3e4b4ad8	0.1985277
212	0x3deccf23	0.11562946
213	0x3e458688	0.19289601
214	0x3d7f2987	0.062295463
215	0xbe4320db	-0.19055502
216	0x3e42c570	0.19020629
217	0xbbbabba0	-0.005698636
218	0x3e5ca646	0.21547803
219	0x3e25327a	0.16132537
220	0x3e189e1e	0.14904067
221	0xbc663d21	-0.01405266
222	0x3b970074	0.0046082083
223	0x3d30069a	0.042975046
224	0xbd32d218	-0.043657392
225	0x3cc26992	0.02373198
226	0x3bac0aa9	0.005250294
227	0x3db87e41	0.09008456
228	0xbdad7f22	-0.08471514
229	0xbe87f1c8	-0.26551652
230	0x3e1e9204	0.15485388
231	0xbdbce200	-0.092227936
232	0x3df1dae0	0.11809325
233	0x3c628760	0.013826221
234	0x3dbe498e	0.09291373
235	0xbe0e4c6a	-0.13896337
236	0x3dc52444	0.09626058
237	0xbd2b1546	-0.041768335
238	0x3d1494dc	0.036274776
239	0xbd6aa443	-0.05728556
240	0x3d043639	0.032278273
241	0xbe233c2c	-0.15940922
242	0xbd51ea13	-0.05124862
243	0x3d86e270	0.06586158
244	0xbe56a02b	-0.20959537
245	0xbd41b92d	-0.047295738
246	0xbc6068c8	-0.013696857
247	0xbe12ece3	-0.14348178
248	0xbe905d98	-0.28196406
249	0xbaa1b084	-0.0012335931
250	0xbe34b961	-0.17648841
251	0x3dcb9ea1	0.099423654
252	0xbda09ae3	-0.07842042
253	0xbb91b546	-0.0044466583
254	0xbe0e7238	-0.13910758
255	0xbdbb2078	-0.09137052

net.4.bias f4 [64]
0	0x3d7a82f3	0.06116004
1	0xbc939fcc	-0.018020533
2	0xbd25f0e0	-0.04051292
3	0x3dd763ca	0.1051708
4	0x3e25894c	0.16165656
5	0xbe1d4c5a	-0.15361157
6	0xbd3a159e	-0.045430772
7	0xbe10ebc7	-0.14152442
8	0xbc303667	-0.010755158
9	0x3e30e81e	0.17276046
10	0xbe243743	-0.16036706
11	0xbe7ba6d9	-0.24575366
12	0xbc952e88	-0.018210664
13	0x3d0689a7	0.03284612
14	0x3e084d4a	0.13310733
15	0x3d0f6336	0.035006724
16	0x3dd70d76	0.10500614
17	0x3dae2151	0.08502448
18	0x3dff5c62	0.124687925
19	0xbdbaec5f	-0.091271155
20	0xbe99c56d	-0.30033436
21	0x3dcd07db	0.10011264
22	0xbd0c764a	-0.034292497
23	0xbe322635	-0.17397387
24	0x3def7494	0.116921574
25	0xbdf4b272	-0.11948098
26	0x3df9d958	0.12199658
27	0x3e2170ab	0.15765636
28	0x3dd35810	0.10319531
29	0xbd6d9779	-0.058005784
30	0x3da1097a	0.07863136
31	0xbc743286	-0.014904624
32	0xbce284ef	-0.027651278
33	0xbda90cec	-0.08254418
34	0x3e11c6b5	0.14235957
35	0xbe13ecf9	-0.14445867
36	0x3ac476df	0.001498904
37	0xbde0987d	-0.10966585
38	0x3ccf5976	0.025311213
39	0xbda4839b	-0.08032914
40	0xbca870e3	-0.020561641
41	0xbc58d515	-0.013234396
42	0xbdbfadd4	-0.09359327
43	0x3e0063e9	0.12538113
44	0xbd46ad8d	-0.048505355
45	0x3e006f7d	0.1254253
46	0xbd96298a	-0.07332142
47	0x3dbfafb7	0.09359687
48	0x3c655a56	0.013998589
49	0x3dbc8f3a	0.09207006
50	0xbd78d3a8	-0.060748726
51	0xbc8f8eb7	-0.017524106
52	0x3c9737cc	0.018459223
53	0xbdac5519	-0.084146686
54	0x3d30b80a	0.043144263
55	0xbd9e1385	-0.07718567
56	0x3db1c249	0.08679635
57	0x3dcc79c5	0.09984163
58	0xbc6a1bd9	-0.014288866
59	0xbca7a154	-0.02046267
60	0x3d0dfa1d	0.034662355
61	0xbd0eb6ac	-0.03484218
62	0xbaca7720	-0.0015446879
63	0xbde62b4a	-0.112387255

net.6.weight f4 [64, 64]
0	0x3e98c7ca	0.29839927
1	0xbcd34c40	-0.025793195
2	0x3de49404	0.11161044
3	0x3d988a41	0.07448245
4	0x3e80440d	0.2505192
5	0x3c7ee93c	0.015558537
6	0x37e77012	2.7589533e-05
7	0xbd91c4f7	-0.07117646
8	0xbe691ac2	-0.22764114
9	0xbe3ca942	-0.18423942
10	0xbce7de61	-0.02830428
11	0xbe78b99c	-0.24289554
12	0xbdf7a354	-0.12091699
13	0xbe48085e	-0.19534442
14	0xbdefead5	-0.117147125
15	0xbd8c6827	-0.06855803
16	0xbd6de2d6	-0.058077656
17	0x3e106786	0.14101991
18	0xbddd6b52	-0.10811485
19	0x3d42b744	0.047538057
20	0xbe5b7643	-0.21431832
21	0xbd8c044b	-0.06836756
22	0x3e9344fe	0.28763574
23	0x3e403154	0.18768817
24	0x3d0258c6	0.031822942
25	0xbdf36d1b	-0.118860446
26	0x3e13805a	0.14404431
27	0xbdd92da7	-0.106044106
28	0xbdf1a4ce	-0.11799012
29	0x3e0ed456	0.13948187
30	0x3d527de3	0.051389586
31	0xbe9426af	-0.28935763
32	0x3d3804ac	0.04492633
33	0x3d9d7b64	0.076895505
34	0x3e01a308	0.12659848
35	0x3ddf29de	0.108966574
36	0x3d3d839d	0.046268094
37	0x3dd9f1a6	0.10641794
38	0xbd431647	-0.047628667
39	0xbd9e733e	-0.077368245
40	0x3d70184e	0.05861693
41	0xbe9b31dc	-0.30311477
42	0x3e0136aa	0.12618509
43	0xbe2bbf3d	-0.1677217
44	0x3d497f43	0.04919363
45	0x3efa7a83	0.48921594
46	0xbd495258	-0.049150795
47	0xbcff2131	-0.031143757
48	0x3de251fe	0.11050795
49	0xbd9d32ac	-0.076756805
50	0x3d850d4b	0.06496676
51	0x3cdcba0c	0.026944183
52	0x3dfb5ccd	0.1227356
53	0xbd807d88	-0.06273943
54	0xbe18bb37	-0.14915167
55	0xbcd279bb	-0.025692811
56	0xbdc399d0	-0.09550822
57	0xbd5fc92a	-0.054635204
58	0xbd704335	-0.058657844
59	0xbdd694a0	-0.10477567
60	0x3d5e5766	0.05428257
61	0x3d4a3685	0.0493684
62	0x3d7f5426	0.06233611
63	0xbcec5429	-0.028848724
64	0x3ceafdca	0.02868547
65	0xbdf72ba7	-0.12068873
66	0xbe566750	-0.20937848
67	0xbd55c4cb	-0.05218963
68	0x3eb36066	0.35034484
69	0x3d89b3c1	0.067237385
70	0x3e4532c5	0.19257648
71	0x3d5dc118	0.054139227
72	0xbe3c6d90	-0.1840117
73	0xbd5063cc	-0.050876424
74	0xbe83eb41	-0.25765422
75	0xbe1a3160	-0.15057898
76	0xbdd1216c	-0.10211453
77	0x3de1142f	0.10990178
78	0x3ea2864b	0.31743082
79	0xbd279ab4	-0.04091902
80	0x3da49c4a	0.08037622
81	0xbe1e9086	-0.15484819
82	0xbe2cabcc	-0.1686241
83	0x3dfa8764	0.12232855
84	0xbf2d4083	-0.6767656
85	0xbd85153b	-0.0649819
86	0x3dc36e3c	0.0954251
87	0xbe92921f	-0.28627107
88	0x3de84c9a	0.113427356
89	0xbe0c4a3d	-0.13700195
90	0x3e0ade54	0.13561374
91	0xbda81333	-0.08206787
92	0x3bd532c5	0.0065062963
93	0x3d5fb9ab	0.054620426
94	0xbeba2202	-0.3635407
95	0xb7a2a876	-1.939035e-05
96	0x3dc350a4	0.09536865
97	0xbdbe53ba	-0.09293313
98	0xbe23dbac	-0.16001767
99	0x3de6b78d	0.11265478
100	0xbd7306f6	-0.05933281
101	0x3e1b6c3d	0.15178008
102	0xbdd79670	-0.105267406
103	0xbdedaccc	-0.11605224
104	0x3e37fc44	0.17967325
105	0xbe4359b0	-0.19077182
106	0x3b88a56d	0.004170111
107	0x3e287e17	0.1645435
108	0x3e12b9c6	0.1432868
109	0x3e2c870e	0.16848394
110	0xbdb7d1c7	-0.08975559
111	0xbdc80397	-0.0976631
112	0xbc71f1ca	-0.01476712
113	0x3d78e002	0.060760505
114	0x3c944800	0.018100739
115	0x3dbac41e	0.09119438
116	0x3d5e9f2e	0.054351024
117	0x3d67e720	0.056616902
118	0xbe81be81	-0.25340655
119	0x3c081637	0.008306078
120	0xbe08ab60	-0.13346624
121	0x3de180b3	0.110108756
122	0x3d92fdd9	0.07177324
123	0xbed7a071	-0.42114595
124	0x3db3d82a	0.087814644
125	0xbcec8fea	-0.028877217
126	0x3b19a5de	0.0023444812
127	0xbdfed623	-0.12443187
128	0x3e204982	0.15653041
129	0x3df29388	0.118445456
130	0xbe989f24	-0.29808915
131	0x3d30d449	0.0431712
132	0x3e8e191b	0.2775353
133	0xbee2977a	-0.44256192
134	0x3e808f6b	0.2510942
135	0xbee8fd0e	-0.45505565
136	0xbe8d939a	-0.27651674
137	0x3dc4c377	0.096075945
138	0xbe9ff0e6	-0.31238478
139	0xbdb4ff22	-0.08837725
140	0xbd00bce8	-0.031430155
141	0x3e3d9c60	0.18516684
142	0x3e28a371	0.16468598
143	0x3d0b5b55	0.034022648
144	0xbd10865f	-0.035284396
145	0xbe790dc0	-0.24321651
146	0x3d9cb238	0.0765118
147	0xbd956f4a	-0.07296617
148	0xbf16e929	-0.58949524
149	0xbdc6a342	-0.09699108
150	0x3e53eb9f	0.20695351
151	0xbe96136d	-0.29311696
152	0x3e119be1	0.1421962
153	0xbe46a000	-0.19396973
154	0x3e0eb181	0.139349
155	0x3e20cc45	0.15702923
156	0x3d3f845b	0.046757083
157	0xbe121a85	-0.14267929
158	0xbf0415b0	-0.5159559
159	0x3d825185	0.06363205
160	0x3bdbed4a	0.0067116367
161	0x3e00224f	0.12513088
162	0xbd7d8a4e	-0.061899476
163	0x3e1b2c22	0.15153554
164	0xbee01888	-0.43768716
165	0x3e6e0095	0.2324241
166	0xbe07902e	-0.13238594
167	0xbddd01fb	-0.10791393
168	0xbe4ad3b2	-0.19807318
169	0xbe5e12d6	-0.21686873
170	0xbe990897	-0.29889366
171	0x3dbc0003	0.0917969
172	0xbe79f4dc	-0.24409813
173	0x3dda8e95	0.106717266
174	0xbda73df2	-0.08166112
175	0x3c96b393	0.018396175
176	0xbdf63488	-0.12021738
177	0x3db03d24	0.08605412
178	0xbd99af5a	-0.07504149
179	0xbcd0e3a5	-0.025499174
180	0xbe44c72b	-0.19216602
181	0x3d90afb6	0.07064764
182	0x3d9aa122	0.07550265
183	0x3e2e1204	0.1699906
184	0xbe2b4a08	-0.1672746
185	0xbc30df70	-0.010795459
186	0x3dbd8acb	0.09254988
187	0xbea57575	-0.32316175
188	0xbd9fff95	-0.0781242
189	0xbed3c99e	-0.4136476
190	0x3ea7adb0	0.327497
191	0xbeec31ae	-0.46131653
192	0x3e384c42	0.1799784
193	0xbd23f0d8	-0.04002461
194	0x3dd7384f	0.10508787
195	0x3a483d8f	0.00076385675
196	0x3e8d0882	0.27545553
197	0x3d35ea89	0.044413123
198	0xbc97bede	-0.01852363
199	0x3d4920ac	0.049103424
200	0xbe66916d	-0.22516413
201	0xbd879c88	-0.06621653
202	0xbe03ff25	-0.12890299
203	0xbd2fce39	-0.04292128
204	0x3ca924a0	0.020647347
205	0xbcfd84ed	-0.030947173
206	0xbdc0a27a	-0.0940599
207	0x3e1fb17b	0.15595047
208	0xbd7dda2e	-0.06197565
209	0x3dc2e2ca	0.09515913
210	0xbe557d20	-0.20848513
211	0xbd6f3419	-0.058399294
212	0x3c17220d	0.009224427
213	0x3d30ecc3	0.043194544
214	0x3cebbabe	0.028775569
215	0xbdd745d5	-0.10511366
216	0x3df94e72	0.121731654
217	0x3d7c4361	0.061587695
218	0xbd238dac	-0.03993003
219	0x3c6f1a10	0.014593616
220	0xbcd5c1aa	-0.026093323
221	0x3e05ad40	0.13054371
222	0xbdd0625a	-0.10175009
223	0xbc57bf3d	-0.013168153
224	0xbc470c75	-0.012148966
225	0x3db040e7	0.08606129
226	0xbd2a6106	-0.041596435
227	0xbddcc5a1	-0.10779882
228	0x3d87a74c	0.06623706
229	0x3c2f1442	0.010685982
230	0xbdc19105	-0.094514884
231	0xbdbcfb56	-0.09227626
232	0x3c93e843	0.018055087
233	0xbdd9c848	-0.10633904
234	0x3d9a5dcb	0.07537421
235	0xbdb2dfee	-0.087341174
236	0x3e0f104b	0.13971059
237	0x3e5b1152	0.21393326
238	0x3da78c69	0.08181078
239	0xbd037216	-0.032091223
240	0xbdc1fb8e	-0.094718084
241	0xbd37cc00	-0.044872284
242	0xbd33ea6f	-0.043924745
243	0x3d819d87	0.06328874
244	0x3e035b3c	0.12827772
245	0x3dec19a0	0.11528325
246	0xbdc3e333	-0.09564819
247	0xbca955b9	-0.020670759
248	0xbb7da26c	-0.0038701547
249	0x3c86b777	0.016444905
250	0x3df0d62f	0.11759602
251	0xbe82b38f	-0.25527617
252	0x3defd8a5	0.117112435
253	0x3caa2501	0.020769598
254	0x3e1aa110	0.15100503
255	0xbc8d355f	-0.017237363

net.6.bias f4 [64]
0	0xbdacef9d	-0.0844414
1	0x3d3722fc	0.044711098
2	0x3cfa2568	0.030535415
3	0xbd2dd833	-0.04244251
4	0xbdddf227	-0.108372025
5	0x3d3e355d	0.04643761
6	0xbab0b240	-0.0013480857
7	0xbdaea710	-0.085279584
8	0x3c8a16ef	0.016856639
9	0x3c365b87	0.01113022
10	0x3db42e09	0.08797843
11	0xbd3d9c7e	-0.04629182
12	0xbe74d3b4	-0.23908883
13	0x3d11c0a8	0.035584122
14	0xbda12260	-0.07867885
15	0xbd4a30e9	-0.04936305
16	0xbd1bb94f	-0.03801852
17	0xbe352e13	-0.17693357
18	0xbe2b53de	-0.16731212
19	0xbd7c3bd3	-0.06158049
20	0x3e00db08	0.12583554
21	0x3c97e96a	0.018543918
22	0xbd68ac1b	-0.056804758
23	0x3e1d7207	0.15375529
24	0xbd8f74fd	-0.070047356
25	0xbd956fe7	-0.07296734
26	0x3decb25a	0.11557455
27	0xbe7df3e9	-0.24800076
28	0xbd93b71e	-0.07212661
29	0x3dcfb207	0.10141378
30	0xbd67d783	-0.056602012
31	0x3df105a6	0.117686555
32	0x3e079717	0.1324123
33	0xbd3ea7bd	-0.046546686
34	0xbd300d82	-0.042981632
35	0x3e10e0ea	0.14148298
36	0xbd794b88	-0.060863048
37	0xbde5961d	-0.112102725
38	0x3df13197	0.11777037
39	0xbe095bd4	-0.13413936
40	0xbd0fc601	-0.03510094
41	0xbe3ae9ff	-0.18253325
42	0xbdfe6b46	-0.124228045
43	0xbde7a56f	-0.11310851
44	0x3d18d55a	0.037312843
45	0x3d9f3e62	0.077755705
46	0xbcab859e	-0.020937737
47	0xbdfc75e3	-0.123271726
48	0xbc4c2422	-0.012459787
49	0xbcb50fb0	-0.022102207
50	0x3db1c14b	0.08679446
51	0xbbc6e892	-0.006070205
52	0xbd448dd0	-0.047986805
53	0x3d984765	0.074354924
54	0xbd5221d2	-0.051301785
55	0xbdd953dc	-0.10611698
56	0x3dad05b6	0.08448355
57	0x3dbf7918	0.09349269
58	0xbbcd24e6	-0.006260502
59	0xbd1c6614	-0.038183287
60	0xbdbc29cb	-0.09187659
61	0x3be4b5cd	0.00697968
62	0x3d54d35e	0.051959388
63	0xbddb0ce7	-0.1069582

net.8.weight f4 [1, 64]
0	0x3e2612a2	0.16218045
1	0x3e1af82b	0.15133731
2	0x3ebd111f	0.36927125
3	0x3e084c25	0.13310297
4	0x3e27b02d	0.163758
5	0x3e8663b1	0.26247934
6	0x3d34610b	0.04403786
7	0x3df79386	0.12088685
8	0x3ed2e5e6	0.41191024
9	0x3e4204f3	0.189472
10	0xbead0cc2	-0.33798796
11	0xbe852866	-0.26007384
12	0xbeba9e78	-0.36449027
13	0x3d950c34	0.07277718
14	0x3e48750e	0.19575903
15	0xbeb3c3fd	-0.35110465
16	0x3db943ac	0.090461105
17	0x3f1ed13c	0.62038016
18	0xbeb51397	-0.35366508
19	0x3e81d121	0.25354865
20	0xbe87214f	-0.263926
21	0x3b9c5c47	0.0047717425
22	0xbea03d5b	-0.3129681
23	0xbe7197f4	-0.23593122
24	0x3c45204a	0.012031624
25	0xbb2aed2f	-0.0026081314
26	0xbe68cea9	-0.22735085
27	0xbea3e703	-0.32012185
28	0x3d52666f	0.05136722
29	0x3e377d61	0.17918922
30	0xbea07bc8	-0.31344438
31	0x3ebbb0ef	0.36658427
32	0xbe844bda	-0.2583912
33	0xbeb52a71	-0.35383943
34	0x3e2731c9	0.16327585
35	0xbe769af3	-0.24082546
36	0x3eb07706	0.34465808
37	0x3dc32d77	0.09530156
38	0x3e63ea0f	0.22257255
39	0xbc590e85	-0.013248091
40	0xbe989fde	-0.2980947
41	0xbe9bfdc4	-0.30467045
42	0xb7f9ee75	-2.9794153e-05
43	0x3d5f2a6c	0.054483816
44	0xbd379a2f	-0.044824775
45	0xbe530363	-0.2060676
46	0x3d9db730	0.07700956
47	0x3edac238	0.42726302
48	0xbe2182ff	-0.15772627
49	0xbc6a4820	-0.0142994225
50	0xbe86f59c	-0.2635926
51	0xbedb96c7	-0.4288847
52	0x3dd7df5c	0.10540649
53	0x3e3005e8	0.17189753
54	0xbcb5854a	-0.022158284
55	0xbec7d07d	-0.3902625
56	0xbe6e654e	-0.23280832
57	0xbe2e439b	-0.17017977
58	0x3dd40589	0.10352618
59	0xbe185d1e	-0.14879271
60	0x3e17e710	0.14834237
61	0x3e2fda26	0.17173061
62	0x3e09850c	0.1342966
63	0xbd268af9	-0.04065988
