models/nn/raw/SFR/model.pt (torch, 54492 bytes, 9 tensors)

net.0.weight f4 [64, 3]
0.017976975 0.4997997 0.31804934 -0.5342594 -0.34192777 0.06467872 0.32825273 -0.26837403
-0.7783982 -0.057093233 0.32652685 -0.31293482 -0.44582018 0.12563626 0.4891979 -0.39712122
0.19516519 0.3253865 -0.010170618 -0.33700913 -0.24600774 -0.41248274 0.009284327 -0.2220555
-0.06599323 -0.21261023 -0.5133191 0.54671925 0.12363202 0.33492756 0.34784007 0.23859121
-0.1709846 -0.20008998 -0.3411371 -0.51968235 -0.5277351 -0.30668196 0.5214685 -0.5959425
-0.40872023 -0.49161327 -0.37739438 0.49927673 -0.6106213 -0.5133039 -0.4379538 0.14586417
-0.1832269 -0.38703534 0.59374636 0.0839433 -0.42604038 -0.26416102 0.36327782 0.21739915
-0.35284534 -0.3619257 -0.29508394 0.21312535 -0.4818134 0.52090806 0.037932534 0.2867855
0.22763394 0.45097035 -0.21784921 -0.24705245 -0.3635676 0.5017728 -0.017198293 -0.019537877
0.5550679 -0.09928521 -0.07895167 -0.26675412 0.30605543 0.04145289 -0.296698 0.3911039
0.5425501 -0.1665186 0.09836282 -0.7730961 -0.35398915 -0.1555591 0.25238788 -0.103998855
0.4432564 -0.5269815 0.33363697 -0.64469373 -0.25262558 0.52522266 -0.19720171 -0.15453662
0.2756243 -0.34559155 0.1449642 -0.1534329 0.27995884 -0.38984296 -0.47492567 -0.5562448
-0.059272163 0.59800494 0.35663965 -0.48786435 0.30886328 0.5428957 0.59853435 0.026056591
0.12270194 0.63242966 0.5791581 0.043317154 -0.08894805 0.5434203 -0.0803643 0.43338785
0.51200545 0.18432905 -0.47342208 0.49273303 0.31769848 0.18969625 0.12566903 0.27246213
0.39257792 -0.49857733 -0.5770686 0.26083338 -0.25743684 -0.52429616 0.5286714 -0.42671332
-0.17620192 -0.39489093 0.52690774 -0.048694726 -0.28106645 0.47752467 0.5328143 0.316441
0.5345065 -0.4376167 -0.625373 0.2996474 -0.14551497 0.4667654 0.5292067 -0.13922818
-0.3328038 0.48769477 -0.32998788 -0.3328395 0.45181656 -0.03522175 -0.2972535 0.17921335
-0.31843898 -0.039401677 -0.4794829 -0.1640234 0.46768677 0.016450599 -0.14492425 0.54700094
0.36534032 0.37662745 0.32663867 -0.24654534 -0.5630097 -0.32112357 -0.2701289 0.23384131
0.5682753 0.5537884 0.48239034 0.08712005 0.44033107 0.07165789 0.2039154 -0.41646528
0.5219844 0.32619083 -0.030072976 -0.26019555 0.1033312 -0.12473308 -0.43184116 -0.40812677
00000000: 7344 933c bfe5 ff3e 5dd7 a23e 39c5 08bf
00000010: 2811 afbe 4776 843d be10 a83e 5268 89be
00000020: 1b45 47bf 98da 69bd 872e a73e fe38 a0be
00000030: 8b42 e4be cba6 003e 2678 fa3e 7953 cbbe
00000040: 62d9 473e 0f99 a63e aaa2 26bc 768c acbe
00000050: 74e9 7bbe f030 d3be 4a1d 183c 8462 63be
00000060: 7527 87bd 7fb6 59be e168 03bf cbf5 0b3f
00000070: c932 fd3d a07b ab3e 1818 b23e 4151 743e
00000080: 9616 2fbe 63e4 4cbe 86a9 aebe e709 05bf
00000090: a619 07bf 6b05 9dbe f67e 053f b08f 18bf
000000a0: c743 d1be bcb4 fbbe d639 c1be 33a1 ff3e
000000b0: ad51 1cbf e267 03bf 7b3b e0be 6b5d 153e
000000c0: d59f 3bbe 7f29 c6be c3ff 173f 77ea ab3d
000000d0: f721 dabe 1d40 87be 8dff b93e e29d 5e3e
000000e0: 25a8 b4be 534e b9be 3e15 97be 883d 5a3e
000000f0: 3fb0 f6be 3b5a 053f 255f 1b3d 8dd5 923e
00000100: df18 693e 96e5 e63e dd13 5fbe 51fb 7cbe
00000110: 8825 babe 2f74 003f 6fe3 8cbc e60d a0bc
00000120: ee18 0e3f 0b56 cbbd 6ab1 a1bd ff93 88be
00000130: 4cb3 9c3e 81ca 293d cde8 97be c53e c83e
00000140: 90e4 0a3f da83 2abe 7272 c93d a0e9 45bf
00000150: 113e b5be e24a 1fbe fc38 813e 5afd d4bd
00000160: 81f2 e23e 42e8 06bf 77d2 aa3e a60a 25bf
00000170: 2458 81be fe74 063f 3fef 49be d93e 1ebe
00000180: a11e 8d3e 60f1 b0be 7f71 143e 841d 1dbe
00000190: c456 8f3e 7f99 c7be 7529 f3be 0f66 0ebf
000001a0: 5ec7 72bd da16 193f 7999 b63e 5bc9 f9be
000001b0: 5423 9e3e 36fb 0a3f 8c39 193f a274 d53c
000001c0: 284b fb3d e9e6 213f b543 143f 546d 313d
000001d0: 652a b6bd 981d 0b3f 0a96 a4bd 03e5 dd3e
000001e0: ca12 033f c1c0 3c3e 6164 f2be 8147 fc3e
000001f0: 60a9 a23e bc3f 423e 62af 003e 2880 8b3e
00000200: f9ff c83e 8745 ffbe c5ba 13bf f48b 853e
00000210: c3ce 83be 4638 06bf 0257 073f 2b7a dabe
00000220: 476e 34be 252f cabe 6de3 063f 1f74 47bd
00000230: f1e7 8fbe 1d7e f43e 8566 083f 8e04 a23e
00000240: 6bd5 083f 4c0f e0be 7218 20bf 626b 993e
00000250: e001 15be e0fb ee3e 177a 073f d591 0ebe
00000260: 4265 aabe 21b3 f93e 2cf4 a8be f069 aabe
00000270: 8054 e73e af44 10bd 9c31 98be b483 373e
00000280: 6f0a a3be a763 21bd c87e f5be c0f5 27be
00000290: a474 ef3e 68c3 863c 0667 14be 4108 0c3f
000002a0: e30d bb3e 50d5 c03e 2f3d a73e 6276 7cbe
000002b0: 6721 10bf 4f6a a4be 564e 8abe 1974 6f3e
000002c0: 7d7a 113f 14c5 0d3f defb f63e ff6b b23d
000002d0: 1373 e13e 5fc1 923d 33cf 503e f03a d5be
000002e0: c5a0 053f 7c02 a73e 9a5b f6bc 5a38 85be
000002f0: 4f9f d33d 0f74 ffbd 491a ddbe fef5 d0be

net.0.bias f4 [64]
-0.31031215 0.21039914 -0.32000208 0.37555334 -0.42727 0.48407823 0.066234015 -0.046668578
0.15405275 -0.04038477 0.35396478 0.0034568238 -0.1451193 0.0915908 -0.4298903 0.25790736
0.10456576 0.452468 -0.086688615 0.051393192 -0.29369035 -0.26238385 -0.008332331 0.34564564
-0.2237575 0.5385447 -0.119336374 0.004962256 0.54580575 -0.21685034 0.40391964 -0.07562368
0.3993286 0.17777884 -0.43127993 -0.36778107 0.36406457 0.17452243 -0.03511429 -0.090012655
-0.20619883 -0.4689251 0.25904307 -0.5720777 0.080060266 0.49210158 0.2808654 0.3915599
0.11422911 -0.28380734 0.32746324 0.51812494 0.19261977 0.47502267 -0.60474813 -0.49155316
-0.11607069 0.19925831 0.4771784 -0.17147757 -0.30581844 0.39466313 -0.053107094 0.09807743
00000000: 3ce1 9ebe df72 573e 50d7 a3be 8748 c03e
00000010: 22c3 dabe 1ad9 f73e b3a5 873d 8d27 3fbd
00000020: 01c0 1d3e 806a 25bd df3a b53e e18b 623b
00000030: 279a 14be f593 bb3d 951a dcbe 6f0c 843e
00000040: 9326 d63d e3a9 e73e cd89 b1bd ab81 523d
00000050: 955e 96be 2d57 86be 5484 08bc 77f8 b03e
00000060: b020 65be 11de 093f a166 f4bd 6c9a a23b
00000070: edb9 0b3f 040e 5ebe 8ece ce3e 97e0 9abd
00000080: cc74 cc3e a80b 363e b9d0 dcbe cd4d bcbe
00000090: ac66 ba3e 02b6 323e 00d4 0fbd 8e58 b8bd
000000a0: c925 53be f316 f0be 4ba1 843e af73 12bf
000000b0: a3f6 a33d bdf4 fb3e 97cd 8f3e 8a7a c83e
000000c0: f4f0 e93d 324f 91be 43a9 a73e d6a3 043f
000000d0: 1e3e 453e 2c36 f33e c6d0 1abf dbac fbbe
000000e0: 78b6 edbd 5f0a 4c3e ba50 f43e d197 2fbe
000000f0: 3c94 9cbe 4911 ca3e d386 59bd d2dc c83d

net.2.weight f4 [64, 64]
-0.1192645 -0.011610806 0.048509862 0.108735 0.011646867 0.08557843 0.0050889426 -0.111024804
-0.016358292 -0.05339478 -0.028921641 -0.060949832 0.093444705 -0.11310517 -0.08727157 -0.03353279
0.10472646 -0.037802417 0.03900645 0.06128463 0.106989875 -0.028720587 0.011006726 -0.07290311
-0.02145096 -0.119020976 -0.10199273 0.021860825 -0.087888084 0.05326709 0.08029229 0.03187106
0.036400154 -0.12562844 -0.057804585 -0.10223272 -0.12872326 0.047150347 0.016720828 0.118934885
-0.046434827 -0.09367777 -0.11645189 0.0076975822 -0.06850529 0.009780282 0.07071682 0.0951897
-0.032497335 -0.08128281 -0.07984832 0.06739296 0.02037421 -0.0039536073 -0.12144807 0.06732884
0.06983425 0.0010049245 -0.015534461 -0.071092255 0.0010209531 -0.0042931032 0.035261527 -0.017668687
0.19498184 0.047819708 0.2814146 -0.18094386 0.053387318 0.09057049 -0.14879441 -0.019526003
-0.25814933 -0.0059797936 -0.012980915 -0.112971075 0.101961315 -0.10770347 0.35367602 0.09631252
-0.034602743 -0.38374418 -0.025441756 0.098403305 0.045105692 0.071498565 -0.010310123 -0.14065127
0.004236363 -0.024811499 0.17692263 0.33152834 -0.011070156 0.055105593 -0.2919464 0.014616845
-0.077074304 -0.1243322 -0.11499688 0.11417225 0.12186809 -0.09526307 0.11254792 0.09133175
0.02391091 -0.020335754 0.033073567 -0.037154015 0.018286087 -0.1259772 -0.06711747 -0.034797393
-0.22367038 0.16889079 0.052394733 -0.07397052 -0.15581305 -0.030738903 -0.008261672 0.08636118
0.19352953 -0.05494254 -0.14467809 -0.009270009 0.04683505 -0.112613276 0.080286704 -0.14209574
0.0128998915 0.098158985 -0.016268142 0.0771595 0.16057509 0.10937378 0.06779611 -0.09369734
0.042884745 -0.01080032 0.105696276 0.06468916 0.11416344 0.11003526 -0.08011289 0.06047296
0.1973592 0.081120186 0.031986725 0.093791984 -0.039238945 -0.010865211 -0.08188146 0.13492778
-0.0539533 0.16009457 -0.16919313 -0.14515868 0.059250847 -0.060268987 -0.0070809918 0.027705912
-0.023123031 0.14209436 -0.049578637 -0.03215961 -0.047575336 0.10453912 0.10217448 -0.0054214695
0.0017314852 -0.15798782 -0.033745874 -0.042974588 0.07975532 0.02799424 0.048083723 -0.07943781
-0.10564743 -0.17632818 -0.064308055 0.016724586 -0.020727579 0.106926166 -0.023872765 0.13744348
-0.07341371 -0.101708286 0.15857372 -0.08860587 -0.04849573 0.061965227 -0.023996096 0.018728526
-0.12292032 0.11240439 -0.0811473 0.07621305 -0.07391493 -0.030780643 -0.0029562265 -0.04926811
-0.054153666 -0.105216414 -0.08585444 -0.005864948 -0.036540464 -0.017554477 0.0318875 -0.016025066
-0.11832982 -0.04597257 0.038260102 0.044987574 0.060488567 0.006922111 0.08545983 -0.08553888
-0.10489991 -0.033328205 0.0008429885 0.09075892 -0.0720862 -0.087544516 -0.0033817142 0.03178747
-0.11400965 -0.050388306 -0.0981935 0.029211491 0.01166065 -0.11115548 -0.083235875 0.00578019
-0.03312382 -0.09668329 -0.037878335 -0.114797786 -0.014273241 -0.014570102 0.006552294 0.010616988
-0.021773458 0.09975506 -0.04475425 0.05648908 0.047193736 -0.015321478 -0.09160493 -0.10532589
0.034600854 0.038216934 0.07581331 -0.05533065 0.10092287 0.12498428 -0.019881576 -0.048711404
00000000: f240 f4bd 403b 3ebc 47b2 463d 75b0 de3d
00000010: 80d2 3e3c be43 af3d 25c1 a63b f960 e3bd
00000020: d301 86bc 7cb4 5abd 14ed ecbc 88a6 79bd
00000030: f05f bf3d afa3 e7bd 70bb b2bd ae59 09bd
00000040: d47a d63d b5d6 1abd 3ac5 1f3d 9805 7b3d
00000050: 821d db3d 7047 ebbc 8e55 343c 3a4e 95bd
00000060: ecb9 afbc 45c1 f3bd 90e1 d0bd 7915 b33c
00000070: abfe b3bd 982e 5a3d 4970 a43d 3b8b 023d
00000080: 5418 153d bea4 00be 80c4 6cbd 635f d1bd
00000090: 08d0 03be b920 413d 1efa 883c 2294 f33d
000000a0: 7232 3ebd 21da bfbd 547e eebd 003c fc3b
000000b0: 804c 8cbd 7a3d 203c fbd3 903d d1f2 c23d
000000c0: ed1b 05bd 9a77 a6bd 8487 a3bd 5205 8a3d
000000d0: d1e7 a63c 438d 81bb c4b9 f8bd b4e3 893d
000000e0: 4205 8f3d acb7 833a 4084 7ebc d198 91bd
000000f0: 80d1 853a 29ad 8cbb 646e 103d ecbd 90bc
00000100: 52a9 473e 99de 433d 9315 903e 5949 39be
00000110: a9ac 5a3d 057d b93d 905d 18be fff4 9fbc
00000120: 262c 84be 25f2 c3bb e7ad 54bc 615d e7bd
00000130: 18d1 d03d a393 dcbd 0615 b53e 803f c53d
00000140: 9bbb 0dbd 1e7a c4be 3b6b d0bc ac87 c93d
00000150: bfc0 383d d76d 923d caeb 28bc e306 10be
00000160: 30d1 8a3b 7c41 cbbc 352b 353e 15be a93e
00000170: 995f 35bc 67b6 613d 007a 95be 7e7b 6f3c
00000180: 22d9 9dbd e1a1 febd 7c83 ebbd 24d3 e93d
00000190: fa95 f93d 4919 c3bd 867f e63d 240c bb3d
000001a0: d0e0 c33c 2b97 a6bc 2678 073d cf2e 18bd
000001b0: b4cc 953c 2b00 01be e274 89bd b687 0ebd
000001c0: d909 65be b5f1 2c3e dc9b 563d db7d 97bd
000001d0: 758d 1fbe 27d0 fbbc f75b 07bc 21de b03d
000001e0: 9b2c 463e 6e0b 61bd 7e26 14be 3ce1 17bc
000001f0: 1cd6 3f3d caa1 e6bd 5b6d a43d 8c81 11be
00000200: 115a 533c 9407 c93d c444 85bc cd05 9e3d
00000210: cc6d 243e 5cff df3d b0d8 8a3d 64e4 bfbd
00000220: eaa7 2f3d d3f3 30bc 4a77 d83d c07b 843d
00000230: 86ce e93d 2b5a e13d 3a12 a4bd 7fb2 773d
00000240: 8818 4a3e 5722 a63d 8304 033d 0316 c03d
00000250: 04b9 20bd ff03 32bc 78b1 a7bd 822a 0a3e
00000260: 23fe 5cbd d5ef 233e f740 2dbe 7aa4 14be
00000270: 04b1 723d 9ddc 76bd aa07 e8bb 82f7 e23c
00000280: 836c bdbc 2f81 113e f812 4bbd ccb9 03bd
00000290: 5bde 42bd 9b18 d63d db40 d13d 95a6 b1bb
000002a0: 01f3 e23a 8fc7 21be 1d39 0abd 1f06 30bd
000002b0: c256 a33d 2d54 e53c 70f3 443d 4ab0 a2bd
000002c0: ae5d d8bd 608f 34be f1b3 83bd 0002 893c
000002d0: e2cc a9bc 1bfc da3d d190 c3bc fcbd 0c3e
000002e0: ed59 96bd 6f4c d0bd 2661 223e ff76 b5bd
000002f0: 75a3 46bd 40cf 7d3d 7693 c4bc 916c 993c
00000300: a6bd fbbd 4634 e63d 8e30 a6bd 9615 9c3d
00000310: b660 97bd b027 fcbc 40bd 41bb 5ccd 49bd
00000320: 3cd0 5dbd b47b d7bd 74d4 afbd c02e c0bb
00000330: 74ab 15bd 68ce 8fbc 789c 023d 0047 83bc
00000340: e856 f2bd bc4d 3cbd a0b6 1c3d e444 383d
00000350: dcc2 773d e0d2 e23b 9005 af3d 022f afbd
00000360: c4d5 d6bd 2883 08bd 00fc 5c3a d0df b93d
00000370: eea1 93bd 8a4a b3bd c09f 5dbb 9433 023d
00000380: e47d e9bd f863 4ebd ac19 c9bd f04c ef3c
00000390: 500c 3f3c 7ca5 e3bd 9277 aabd c067 bd3b
000003a0: d8ac 07bd e401 c6bd 5026 1bbd 1a1b ebbd
000003b0: 50da 69bc 70b7 6ebc a0b4 d63b e0f2 2d3c
000003c0: 405e b2bc 624c cc3d 3c50 37bd 1861 673d
000003d0: 384e 413d f006 7bbc 5e9b bbbd 1ab5 d7bd
000003e0: a0b9 0d3d 5c89 1c3d 0244 9b3d 64a2 62bd
000003f0: a6b0 ce3d c2f7 ff3d b0de a2bc 9c85 47bd

net.2.bias f4 [64]
-0.093637414 -0.11759079 0.12927453 -0.0766229 -0.038575977 0.13052048 -0.12781939 -0.10744522
0.027779832 0.09497592 -0.17081247 0.06775846 -0.07936474 0.061295353 0.13130054 0.099456206
0.15620498 0.047774233 -0.057007488 0.09018745 -0.0038390344 0.013209309 -0.100115806 -0.04670128
0.14554732 0.017078955 0.04258784 0.15748699 -0.019894648 0.028133377 0.09919191 -0.13453257
0.18861406 -0.06143716 0.017206786 0.05450096 -0.09540772 0.17615795 -0.039836597 0.079943135
0.1846611 -0.05752138 0.08735824 -0.013790096 -0.08738333 0.1379892 -0.037017178 -0.09848477
0.004857422 0.16156274 0.08659927 0.07060879 0.10198626 0.010682438 -0.07520215 0.097021244
0.11991961 0.06818511 0.043717742 0.15109237 -0.039269093 0.11780828 0.16527183 0.14705467
00000000: f9c4 bfbd 71d3 f0bd 8b60 043e 78ec 9cbd
00000010: d801 1ebd 29a7 053e 16e3 02be 3d0c dcbd
00000020: 8892 e33c bc82 c23d 77e9 2ebe f3c4 8a3d
00000030: fb89 a2bd d610 7b3d a673 063e b2af cb3d
00000040: 33f4 1f3e eaae 433d af80 69bd 33b4 b83d
00000050: 4f98 7bbb dc6b 583c 8409 cdbd d749 3fbd
00000060: 5b0a 153e 2ae9 8b3c 9670 2e3d 4544 213e
00000070: 1afa a2bc f877 e63c 2125 cb3d e8c2 09be
00000080: 0b24 413e 88a5 7bbd 3ff5 8c3c 663c 5f3d
00000090: 1f65 c3bd c062 343e b32b 23bd 3ab9 a33d
000000a0: cd17 3d3e 8a9b 6bbd e0e8 b23d dbef 61bc
000000b0: 08f6 b2bd 0a4d 0d3e 539f 17bd 62b2 c9bd
000000c0: 022b 9f3b b470 253e f55a b13d 579b 903d
000000d0: 2cde d03d 6405 2f3c 9603 9abd 13b3 c63d
000000e0: 6a98 f53d a3a4 8b3d 6011 333d f5b7 1a3e
000000f0: a1d8 20bd 7845 f13d 053d 293e 8095 163e

net.4.weight f4 [64, 64]
0.033208027 0.013644965 0.084147684 -0.11457756 -0.10841423 -0.03205872 -0.0035490205 -0.07163541
-0.040256485 -0.06668404 -0.09732436 0.08916721 0.16819412 -0.108635046 -0.045790635 -0.093372844
-0.013909837 -0.083626166 0.11669976 0.17507008 0.070251495 -0.12886533 -0.09230347 0.11980188
-0.05145728 -0.12902375 -0.0038303072 0.07866509 -0.035037417 -0.14387538 0.13539669 -0.10023344
0.057441533 0.062294498 0.0711566 0.09315278 -0.027867053 0.1255803 -0.009239905 0.06376996
-0.01444776 0.03624073 0.034270883 0.082707405 -0.011256916 0.100517824 -0.19568957 0.06413087
0.13545002 0.06734166 0.015426506 -0.15493411 0.019010467 -0.11168789 -0.12179138 0.17807502
0.02960384 0.16802482 -0.03433115 -0.014389484 -0.11887198 0.06073283 0.06375588 0.10414958
0.118426986 -0.02064256 -0.20743258 0.0035873055 0.11069849 0.16957879 -0.009638901 -0.04933254
-0.10546899 0.059013624 -0.08237877 -0.070636556 0.044126313 -0.03597004 0.056211803 0.13295239
-0.039702736 0.10435626 0.042973563 0.018425986 -0.03429572 0.07177983 0.120060764 -0.046152703
0.122494526 -0.09343567 0.14986072 -0.14461683 0.128149 0.11144567 0.051518157 0.040569533
0.13421188 -0.09872642 -0.121291764 0.10939818 -0.10729557 -0.13973887 -0.05959926 -0.16951638
-0.148727 0.007493207 -0.11286691 -0.1878664 -0.12152902 -0.08066021 -0.032439724 0.08411585
-0.17505018 -0.019255547 -0.052512344 0.14552498 0.044897977 -0.0021881699 -0.05637778 -0.09893279
-0.014375889 0.09658537 -0.101616286 -0.045995392 -0.03453715 0.105086856 -0.05341039 -0.023028567
0.059789997 0.20227975 0.12263797 -0.030317217 0.03067243 -0.10201931 0.19635329 0.06328047
-0.11280033 0.10324058 0.1966573 0.09369856 -0.18725199 0.116544366 0.033571944 -0.039098322
0.080188096 0.08752323 0.06427776 -0.12865165 0.109674215 -0.10324084 -0.10748874 -0.06238547
0.073596545 0.17711589 -0.012051804 0.10618503 -0.14205837 -0.049120188 -0.054923773 -0.41336754
-0.14269754 -0.08925198 -0.010625262 0.053796545 -0.039916936 0.07659901 0.00044666685 0.054857757
-0.047661457 -0.09884499 -0.10145008 0.11948776 0.053839292 -0.04666223 -0.023227282 0.031966664
-0.035593905 0.035212647 0.14258835 0.055986837 0.017726172 0.08427141 0.0829081 0.10687612
0.06346257 -0.16478235 0.06554862 0.08652376 0.12279515 0.18624899 0.13116264 -0.03182791
0.010255501 -0.09205383 0.10731429 -0.0058351457 -0.10802175 0.08102915 0.014741257 -0.036030337
0.11182943 -0.06583537 -0.062017858 -0.04291199 0.014318153 -0.09713657 0.027030483 -0.12095271
-0.06737448 -0.07311839 -0.090824574 0.028638497 0.054914743 -0.030564204 -0.037552267 0.0026478767
-0.10131772 -0.118644774 -0.080963686 -0.090619504 0.01762937 0.10088861 0.08919196 -0.076952696
0.06954704 0.10963279 -0.026445374 -0.040759593 -0.11808999 -0.009006977 -0.04842715 0.031542942
-0.114766434 -0.011970356 0.021984845 -0.031095624 -0.019212008 0.118648335 0.054376945 -0.09302296
-0.056594953 0.05766575 0.05445686 -0.105285466 -0.08544025 -0.051693812 -0.015219554 0.007472977
0.030814275 -0.058281913 -0.06979723 0.07000457 -0.09752166 -0.022047907 -0.112112805 -0.095096186
00000000: 2405 083d 228f 5f3c 9f55 ac3d a4a7 eabd
00000010: 4808 debd 0150 03bd af96 68bb 96b5 92bd
00000020: fce3 24bd a491 88bd fe51 c7bd 4c9d b63d
00000030: 143b 2c3e 0d7c debd f68e 3bbd 433a bfbd
00000040: 16e6 63bc 3244 abbd 4900 ef3d 9245 333e
00000050: 04e0 8f3d 46f5 03be 9a09 bdbd b05a f53d
00000060: dec4 52bd cd1e 04be e405 7bbb 2a1b a13d
00000070: 6583 0fbd 1154 13be 6ea5 0a3e 3147 cdbd
00000080: d047 6b3d 8428 7f3d 8dba 913d e2c6 be3d
00000090: 7249 e4bc 1f98 003e f862 17bc d399 823d
000000a0: 4cb6 6cbc 2971 143d a05f 0c3d 8062 a93d
000000b0: ee6e 38bc 4adc cd3d d962 48be 0c57 833d
000000c0: 69b3 0a3e 6dea 893d 75bf 7c3c 0ca7 1ebe
000000d0: d7bb 9b3c 9fbc e4bd c26d f9bd 4c59 363e
000000e0: c183 f23c b30e 2c3e d29e 0cbd dfc1 6bbc
000000f0: 2773 f3bd fdc2 783d 7192 823d 604c d53d
00000100: d989 f23d 961a a9bc 3569 54be 0019 6b3b
00000110: e4b5 e23d 10a6 2d3e 7bec 1dbc eb10 4abd
00000120: 2000 d8bd 45b8 713d 33b6 a8bd e6a9 90bd
00000130: cbbd 343d 5255 13bd 593e 663d ac24 083e
00000140: 569f 22bd bcb8 d53d 0c05 303d 18f2 963c
00000150: ab79 0cbd 4e01 933d 6be2 f53d 9e0a 3dbd
00000160: 69de fa3d 335b bfbd 1775 193e 6f16 14be
00000170: 7e39 033e a13d e43d b404 533d 3d2c 263d
00000180: d76e 093e 1431 cabd d167 f8bd 270c e03d
00000190: c8bd dbbd b517 0fbe 5b1e 74bd b495 2dbe
000001a0: e44b 18be 9489 f53b c426 e7bd 0d60 40be
000001b0: 35e4 f8bd 2e31 a5bd 84df 04bd ee44 ac3d
000001c0: 5b40 33be cfbd 9dbc 2f17 57bd 8004 153e
000001d0: f1e6 373d 6667 0fbb 63ec 66bd 469d cabd
000001e0: d988 6bbc 8dce c53d 331c d0bd aa65 3cbd
000001f0: d476 0dbd c737 d73d dac4 5abd 68a6 bcbc
00000200: 5be6 743d 6c22 4f3e 9e29 fb3d d05b f8bc
00000210: bf44 fb3c 80ef d0bd d610 493e 3199 813d
00000220: dc03 e7bd cc6f d33d 8860 493e 08e5 bf3d
00000230: fcbe 3fbe d0ae ee3d bc82 093d 9025 20bd
00000240: a839 a43d 613f b33d 0fa4 833d 42bd 03be
00000250: e09c e03d ef6f d3bd 0e23 dcbd e887 7fbd
00000260: c9b9 963d de5d 353e ee74 45bc 8977 d93d
00000270: c077 11be 4032 49bd c0f7 60bd e9a4 d3be
00000280: 4e1f 12be bec9 b6bd 9415 2ebc c459 5c3d
00000290: f17f 23bd f1df 9c3d 9c2e ea39 87b2 603d
000002a0: a938 43bd 3e6f cabd 0fc5 cfbd 00b6 f43d
000002b0: 9786 5c3d e520 3fbd 2447 bebc 7aef 023d
000002c0: eaca 11bd 233b 103d ae02 123e 7452 653d
000002d0: 7a36 913c 7d96 ac3d b9cb a93d dee1 da3d
000002e0: aaf8 813d b4bc 28be 5b3e 863d 5e33 b13d
000002f0: 067c fb3d 0eb8 3e3e 804f 063e fc5d 02bd
00000300: b006 283c b886 bcbd 98c7 db3d c034 bfbb
00000310: 823a ddbd 9cf2 a53d 5085 713c 8c94 13bd
00000320: d406 e53d b2d4 86bd 7006 7ebd 7cc4 2fbd
00000330: b096 6a3c 8aef c6bd 086f dd3c 0eb6 f7bd
00000340: a2fb 89bd 18bf 95bd 3c02 babd 489b ea3c
00000350: 48ee 603d c861 fabc 68d0 19bd 0088 2d3b
00000360: aa7f cfbd 08fc f2bd 4ad0 a5bd b896 b9bd
00000370: 786b 903c b09e ce3d 46aa b63d 6099 9dbd
00000380: ae6e 8e3d 2887 e03d f8a3 d8bc 88f3 26bd
00000390: 2ad9 f1bd 0092 13bc 8c5b 46bd 2c33 013d
000003a0: aa0a ebbd 501f 44bc 9019 b43c 40bc febc
000003b0: 8062 9dbc e6fd f23d 5cba 5e3d d282 bebd
000003c0: 1cd0 67bd ec32 6c3d 280e 5f3d e89f d7bd
000003d0: 4cfb aebd e4bc 53bd 705b 79bc e0df f43b
000003e0: 386e fc3c 04b9 6ebd daf1 8ebd 8e5e 8f3d
000003f0: 70b9 c7bd d09d b4bc 669b e5bd cac1 c2bd

net.4.bias f4 [64]
0.032631397 0.16740496 -0.0437623 -0.07368432 -0.15224004 0.09021876 -0.05856486 0.0008544431
0.18544911 -0.09149088 0.1942352 0.124855004 -0.06446945 0.06118553 -0.06549853 0.09501502
-0.09539997 0.082762875 0.12259308 0.14056934 -0.06578927 0.13051276 0.13308066 -0.038535673
0.09526008 0.05349435 -0.071198374 0.05277847 0.07890076 -0.0933527 -0.051590577 -0.086813696
0.11683528 -0.025567807 -0.11910716 0.068639904 0.08134594 0.0012955324 0.07703603 -0.12279007
-0.0110874 -0.020746186 -0.009410048 -0.08780662 0.013070108 -0.13096082 -0.094918996 0.13420546
0.119294696 -0.046858877 0.0019568263 -0.06836198 0.08506686 -0.04694459 0.12126293 0.046309013
0.08028385 -0.12573335 -0.015087097 0.054087933 0.11463572 -0.07073419 0.10574883 0.029568473
00000000: 80a8 053d 356c 2b3e 1940 33bd cee7 96bd
00000010: d0e4 1bbe 9dc4 b83d b5e1 6fbd b5fc 5f3a
00000020: 5fe6 3d3e 925f bbbd 98e5 463e fbb3 ff3d
00000030: 8f08 84bd ae9d 7a3d 1824 86bd 3c97 c23d
00000040: 0f61 c3bd 957f a93d 1512 fb3d 69f1 0f3e
00000050: 86bc 86bd 23a5 053e 4c46 083e 95d7 1dbd
00000060: b817 c33d e41c 5b3d 74d0 91bd 3d2e 583d
00000070: b996 a13d b32f bfbd a450 53bd 61cb b1bd
00000080: 5647 ef3d 9473 d1bc 74ee f3bd 1493 8c3d
00000090: b398 a63d dbce a93a 11c5 9d3d 5c79 fbbd
000000a0: eda7 35bc e8f3 a9bc 9a2c 1abc f5d3 b3bd
000000b0: 0224 563c 981a 06be e464 c2bd 286d 093e
000000c0: c750 f43d 18ef 3fbd 193e 003b 5e01 8cbd
000000d0: 8937 ae3d f848 40bd b358 f83d 85ae 3d3d
000000e0: dc6b a43d 3ec0 00be df2f 77bc 4f8b 5d3d
000000f0: 22c6 ea3d 16dd 90bd d892 d83d 9539 f23c

net.6.weight f4 [64, 64]
0.1303414 -0.078898914 0.13405053 0.05137618 0.08659054 -0.03992752 0.08520982 0.028114408
-0.029639252 -0.02572645 0.019273652 0.11562352 0.09020997 -0.04379998 -0.0729886 0.09546896
-0.01760752 -0.029841304 0.054639522 -0.03988022 -0.0907669 0.08097363 -0.09222957 -0.06697453
0.03471899 -0.056443278 0.062704116 -0.016052734 0.021430096 -0.20721553 0.03535171 -0.0045828694
-0.03548243 0.10007338 -0.07739803 -0.054533813 0.039940283 0.06803011 -0.022737527 0.004896879
-0.073031776 0.0398973 0.06936426 -0.096852034 -0.076362275 0.019888934 0.27887034 0.026008451
0.12049271 -0.102414355 0.08088313 0.085767575 -0.115724385 0.054768823 -0.039964028 0.14769483
-0.038428787 -0.079860255 -0.12013382 0.063700885 0.01219645 -0.08913275 -0.06930648 0.044203
-0.16740192 -0.038069576 -0.123861074 -0.048779547 -0.0882675 0.05279602 0.030526651 -0.030090239
0.1921944 -0.23986647 -0.0026194951 0.006557507 -0.1549241 0.0049820663 -0.04214489 -0.098133564
-0.16083184 -0.1276617 -0.033208456 -0.10681673 -0.026125565 -0.028755527 -0.013473849 0.036457416
-0.040498927 0.06586778 -0.018381342 -0.04114573 -0.14470047 0.060637265 -0.021014988 0.692514
0.042380534 -0.00866098 -0.08791275 0.06699598 0.091832176 0.11262689 0.072660044 -0.03934197
-0.14733768 0.15429582 -0.13321403 0.02297196 -0.028070977 0.067598164 -0.3230008 0.061346292
-0.1175802 -0.02990219 0.10661795 0.0015323405 0.20508485 -0.13611086 0.1102919 -0.06614919
0.08775395 0.041172888 0.14134619 -0.02607133 0.15610924 -0.16072246 -0.15182967 0.10911565
0.048304684 0.09865382 0.05890049 -0.0141534805 0.25598454 0.106966116 0.08822013 0.021255998
0.09392761 -0.14121495 0.031087294 0.10731694 0.03235484 0.053638984 0.06389219 -0.028411109
-0.13645841 0.010771851 -0.14796676 -0.04904366 -0.035381775 -0.09788666 -0.023838414 0.017997114
0.07037686 0.1326773 -0.044417143 -0.02268773 -0.09243302 0.18978515 0.06680019 0.28886917
0.0476219 0.088863924 0.101680264 0.15082031 0.061342917 0.084393576 -0.034350697 -0.11839622
-0.14657107 0.08027583 -0.009858687 0.05959301 -0.12507568 -0.01711593 -0.25548467 -0.11959712
-0.045943443 0.055729136 -0.10464247 0.25423476 0.023120457 0.054206442 0.025712276 -0.024552029
0.08645189 -0.007912796 -0.040530134 0.11008262 -0.046453208 0.0707869 -0.041241862 0.15634832
-0.0062958044 -0.0005646591 0.11390429 -0.045567796 0.22054304 0.04248701 0.092901625 -0.045914438
0.3105704 0.08405441 -0.29914755 -0.16143133 0.13678297 0.057905473 0.0577702 0.06250411
-0.12129217 0.028362362 0.10088612 -0.014743601 -0.069441184 -0.08359257 0.1046764 0.012595363
-0.054731905 0.16340062 0.062733576 -0.024111502 0.17446475 0.26531932 -0.1082093 0.22781906
-0.107343294 -0.04880684 0.018908009 -0.28790754 -0.031310014 -0.073612176 -0.041282803 -0.0007223189
0.017204285 -0.0050540273 -8.826611e-05 0.01644151 -0.0023306534 -0.050279267 -0.24720618 0.0026487273
-0.11624519 0.01431562 -0.06957566 0.43915102 0.073586434 0.1488369 -0.1924758 -0.08552628
0.03376366 0.13993026 -0.0034818249 0.034170322 0.0055748047 0.08353929 0.073636636 0.21926473
00000000: 3778 053e c195 a1bd 8b44 093e d46f 523d
00000010: 6256 b13d 0a8b 23bd 7c82 ae3d 3050 e63c
00000020: 04ce f2bc 47c0 d2bc c7e3 9d3c 06cc ec3d
00000030: 01c0 b83d 9c67 33bd 0c7b 95bd 3b85 c33d
00000040: a53d 90bc c075 f4bc b1cd 5f3d 7159 23bd
00000050: ffe3 b9bd 81d5 a53d dbe2 bcbd f129 89bd
00000060: 8035 0e3d 1131 67bd 046b 803d 0681 83bc
00000070: 2b8e af3c 4f30 54be f4cc 103d e52b 96bb
00000080: 0656 11bd 46f3 cc3d dc82 9ebd d95e 5fbd
00000090: 6c98 233d 5f53 8b3d 0d44 babc 0076 a03b
000000a0: af91 95bd 5a6b 233d d90e 8e3d 5c5a c6bd
000000b0: d363 9cbd 1eee a23c 18c8 8e3e ad0f d53c
000000c0: e2c4 f63d 9ebe d1bd 0ea6 a53d e9a6 af3d
000000d0: e800 edbd 4655 603d 52b1 23bd 503d 173e
000000e0: 8167 1dbd c68d a3bd b808 f6bd 9c75 823d
000000f0: 9ed3 473c 3b8b b6bd 8ef0 8dbd 340e 353d
00000100: 696b 2bbe d8ee 1bbd e0aa fdbd 10cd 47bd
00000110: 97c5 b4bd a440 583d 0713 fa3c ce7f f6bc
00000120: 9cce 443e 8e9f 75be d6ab 2bbb 5be0 d63b
00000130: 6ca4 1ebe 9a40 a33b 1fa0 2cbd 40fa c8bd
00000140: 1ab1 24be c0b9 02be 9705 08bd bbc2 dabd
00000150: 4805 d6bc b690 ebbc 6bc1 5cbc 5f54 153d
00000160: 34e2 25bd b0e5 863d 7894 96bc 6d88 28bd
00000170: 5c2c 14be c85e 783d a027 acbc 9948 313f
00000180: 3697 2d3d c8e6 0dbc 9a0b b4bd 3035 893d
00000190: 8212 bc3d eda8 e63d cace 943d 0c25 21bd
000001a0: b0df 16be b9ff 1d3e 4269 08be b12f bc3c
000001b0: 1bf5 e5bc e870 8a3d 5c60 a5be 4046 7b3d
000001c0: e3cd f0bd 70f5 f4bc 835a da3d d1d8 c83a
000001d0: c301 523e a560 0bbe b8e0 e13d 3a79 87bd
000001e0: 58b8 b33d e7a4 283d 0ebd 103e 8b93 d5bc
000001f0: 1adb 1f3e 6e94 24be 3d79 1bbe 0778 df3d
00000200: 22db 453d 040b ca3d a441 713d 00e4 67bc
00000210: 6810 833e 0d11 db3d c1ac b43d 0f21 ae3c
00000220: 1e5d c03d a79a 10be c8aa fe3c fcc8 db3d
00000230: 8286 043d 8db4 5b3d e9d9 823d 6abe e8bc
00000240: c1bb 0bbe 6b7c 303c 9984 17be 01e2 48bd
00000250: 7bec 10bd cd78 c8bd c748 c3bc af6e 933c
00000260: be21 903d 8fdc 073e c0ee 35bd 9edb b9bc
00000270: 864d bdbd 0a57 423e 8ace 883d a9e6 933e
00000280: 2e0f 433d 4afe b53d be3d d03d a470 1a3e
00000290: b642 7b3d 8ad6 ac3d 51b3 0cbd b879 f2bd
000002a0: ba16 16be a867 a43d 5586 21bc cd17 743d
000002b0: d713 00be b536 8cbc e3ce 82be 56ef f4bd
000002c0: 312f 3cbd 3c44 643d cb4e d6bd 0f2b 823e
000002d0: 1d67 bd3c 9307 5e3d 8da2 d23c 5621 c9bc
000002e0: b00d b13d aca4 01bc ed02 26bd ff72 e13d
000002f0: b845 3ebd b9f8 903d 3aed 28bd c619 203e
00000300: 094d cebb a105 14ba a746 e93d 4ca5 3abd
00000310: 09d6 613e dc06 2e3d 3543 be3d c710 3cbd
00000320: 1503 9f3e b824 ac3d de29 99be 414e 25be
00000330: d610 0c3e 4a2e 6d3d 72a0 6c3d 2802 803d
00000340: 0768 f8bd 2f58 e83c 629d ce3d 258f 71bc
00000350: 2e37 8ebd 9532 abbd 9560 d63d c85c 4e3c
00000360: 902e 60bd 7e52 273e 767a 803d 7c85 c5bc
00000370: e3a6 323e efd7 873e d69c ddbd 6649 693e
00000380: cdd6 dbbd aee9 47bd f8e4 9a3c 9e68 93be
00000390: ee3e 00bd fbc1 96bd 2818 29bd 005a 3dba
000003a0: 00f0 8c3c 419c a5bb 821b b9b8 58b0 863c
000003b0: e0bd 18bb a2f1 4dbd 9e23 7dbe 4596 2d3b
000003c0: f511 eebd 108c 6a3c af7d 8ebd 67d8 e03e
000003d0: 7cb4 963d b368 183e 6018 45be 6728 afbd
000003e0: c34b 0a3d e149 0f3e 542f 64bb 2ef6 0b3d
000003f0: daac b63b a616 ab3d cece 963d ef86 603e

net.6.bias f4 [64]
0.1074805 0.080730386 0.007107468 -0.054532953 -0.020697176 0.056246374 0.052669786 0.075510226
0.06832654 -0.12615845 -0.021176402 0.14576142 -0.053282425 0.045522884 0.16156197 -0.06488824
0.053332154 0.078434 -0.08333021 0.032206118 -0.061318494 -0.12402849 -0.03822816 0.096838236
0.13716231 -0.02845565 -0.058062244 -0.0822494 0.11934257 -0.102651864 -0.064244874 -0.03996773
-0.008387689 0.092073634 -0.09246447 -0.1354853 -0.1648712 -0.080267504 0.10560795 0.009090456
-0.01732052 0.1090463 0.12622756 0.0783807 0.009675559 -0.0057044444 -0.114055276 0.08139287
0.1433432 0.10498934 -0.011655271 -0.01607809 0.15000023 -0.11873965 0.14543161 0.14534742
0.08701995 0.08425633 0.06265772 0.10405366 -0.01947501 -0.020173496 -0.09247209 0.018112076
00000000: bd1e dc3d f955 a53d c3e5 e83b f25d 5fbd
00000010: 208d a9bc 9962 663d 46bc 573d 1ba5 9a3d
00000020: c9ee 8b3d ae2f 01be 227a adbc 7b42 153e
00000030: ac3e 5abd 3476 3a3d 8070 253e 20e4 84bd
00000040: d172 5a3d 01a2 a03d 07a9 aabd 90ea 033d
00000050: 1a29 7bbd a602 febd 2295 1cbd 2053 c63d
00000060: 4774 0c3e d31b e9bc add2 6dbd 6072 a8bd
00000070: e169 f43d 243b d2bd d192 83bd 34b5 23bd
00000080: 846c 09bc 1a91 bc3d 035e bdbd a9bc 0abe
00000090: ffd3 28be 4a63 a4bd fb48 d83d 23f0 143c
000000a0: c3e3 8dbc ab53 df3d cc41 013e 0f86 a03d
000000b0: 3c86 1e3c 59ec babb d095 e9bd 4eb1 a63d
000000c0: 8fc8 123e a704 d73d c0f5 3ebc 33b6 83bc
000000d0: a999 193e c62d f3bd 06ec 143e f4d5 143e
000000e0: 8437 b23d 958e ac3d b152 803d 161a d53d
000000f0: 0e8a 9fbc e342 a5bc 0262 bdbd c75f 943c

net.8.weight f4 [1, 64]
-0.011754891 0.21439268 0.13083449 0.16829188 -0.1752143 0.11531795 0.19625653 0.14464459
-0.17312972 -0.17001404 0.1330553 0.17438531 0.17593795 -0.13859402 0.15190761 0.119833805
0.08185646 0.16274858 -0.06618745 -0.1552655 0.39014584 -0.068226516 -0.19221705 -0.15551792
0.16021056 0.14379449 0.32704714 0.07177529 -0.32767773 -0.10112472 0.29941586 0.10787994
0.15723619 0.10726839 0.2938856 -0.14936355 0.42247108 0.20045531 -0.18578748 -0.0035911382
0.34490955 0.19727834 -0.110613346 0.17766103 -0.09148596 0.21298684 0.31425482 0.11383308
0.16923824 0.091395855 0.06428155 0.12711173 0.1398309 0.18373024 0.20697547 0.14945379
-0.0961176 -0.15782987 0.11451637 0.13706724 0.18288937 -0.019699207 -0.00844262 -0.20757668
00000000: 9697 40bc c189 5b3e 7af9 053e b554 2c3e
00000010: 616b 33be d12b ec3d 79f7 483e b61d 143e
00000020: eb48 31be 2918 2ebe a63f 083e 1092 323e
00000030: 1429 343e 97eb 0dbe ab8d 1b3e 6d6b f53d
00000040: 5ca4 a73d 90a7 263e 498d 87bd ebfd 1ebe
00000050: 32c1 c73e 58ba 8bbd 8cd4 44be 1740 1fbe
00000060: 3d0e 243e dd3e 133e b972 a73e ecfe 923d
00000070: 60c5 a7be 7a1a cfbd 094d 993e 28f0 dc3d
00000080: 8602 213e 88af db3d 2c78 963e c2f2 18be
00000090: 214e d83e 2844 4d3e 133f 3ebe 4d59 6bbb
000000a0: fc97 b03e 5503 4a3e 4089 e2bd c6ec 353e
000000b0: fe5c bbbd 3919 5a3e 02e6 a03e 5121 e93d
000000c0: ca4c 2d3e c02d bb3d 0ca6 833d 9429 023e
000000d0: d52f 0f3e c823 3c3e 61f1 533e 6a0a 193e
000000e0: 4ed9 c4bd 279e 21be 8f87 ea3d 5b5b 0c3e
000000f0: 5a47 3b3e 3b60 a1bc ea52 0abc fb8e 54be
