CAMELS_outputs/30_centrals/flow_state.pt (torch, 88825 bytes, 6 tensors)

0.nn.layers.0.weight f4 [70, 14]
00000000: e6c6 913e 3484 013f 5bfa c0be 9443 813e
00000010: d05a 1ebe d43e febd 9053 13bd 2902 c13e
00000020: b0d8 a33d c4dc cbbd 4cad 9a3e 5bf0 b5bd
00000030: 20bb 32bd a7a7 20bc 4c4b bf3d 231e 4abd
00000040: fa62 b13e 66d9 3bbe 71d0 acbe 4ed1 eebd
00000050: b5f6 9ebe df33 f8bd bd3f 0c3e 079e b13d
00000060: a929 cabe f823 08be d0e7 15be f5e9 7dbb
00000070: 5362 0b3e b22c d0be 1c75 5dbc ef5a d4be
00000080: ed37 273b c77d 5f3e cabd 15bd 4a34 153e
00000090: 99f0 09bd 043e 4c3d c1d7 253d 518b bc3d
000000a0: 1d4a 553e e215 873d 7630 1b3e 40f4 b43e
000000b0: 8a8c babd 482a 97be a90d 703e 333f 1d3c
000000c0: 27aa 253e 63e1 71be c53e 84be 9869 c4bd
000000d0: f8da 0bbe f1d3 433d 458d 7e3c 650e 283d
000000e0: 42b2 0d3f 754a 1abd c508 9f3d 8aab 6abe
000000f0: 0683 bf3d ff76 2ebe 5ad3 6f3f ced2 33be
00000100: 0394 1c3d 653b fe3c dbb6 8d3d 6560 0dbe
00000110: 1b05 ceba f1fd aebc ef05 0d3e 51e6 cf3d
00000120: 84e5 4f3f 0f4c a1be e903 09bf 1c56 dfbd
00000130: 72d7 09bc 4982 0fbe 34dc 683d 2b76 e63c
00000140: 3e99 37be 3b20 fdbc ad50 0b3d a9cc 6bbd
00000150: 118b 293f 1a14 3cbe 3c76 d33d 0861 6cbe
00000160: 2d4e 11be a676 24bd c193 8f3d c81a c93d
00000170: e313 7e3d aa27 ab3d 46d5 82be 47d8 c4bd
00000180: dee4 5f3e d6d1 5abd a9f9 00bd 2a8f d5be
00000190: 8db5 e63d be0a 19bd 9342 39bd f785 6dbe
000001a0: 3eb8 953e c1fa f8bd ffb6 63be bcd6 b4bd
000001b0: 406f 223c 21f3 83be ef59 ae3c 59be 023d
000001c0: b7d6 5b3e 6fd1 2cbd 3920 583e 25fe d3be
000001d0: 461d f33c d9e7 0d3e faf0 58bd 3239 c4bd
000001e0: f010 6d3d f845 3f3c d45e 62be bc39 b1bd
000001f0: f6a9 03be 37ff 92bd 22eb e6bd 018f 1fbe
00000200: 1aa9 a53e 374a ddbd 4ef4 cc3d 51e0 e63d
00000210: 46b7 0abf ef06 d93e c618 0abd ca3c 0e3d
00000220: f358 b4bd f2a9 febd 5c65 073e 831f 72bb
00000230: a33c c23d 50db 9bbe e4aa e23e e76f bebe
00000240: 13df c3be b15f b0bd 0500 483d f7d1 6a3d
00000250: 18fb e13d af16 493b 5d7f 6c3e 1051 e0bb
00000260: 7e2a 583c d83e 88bd fa6e 063f 2b93 f7bd
00000270: 64ef 3a3e c872 dbba fec5 4f3d 1e44 a0bd
00000280: 09d0 963c edb1 46be 2cf4 f1bb 6b4b e0bd
00000290: bcd9 16be 9ddb 83be d190 dcbd 2c42 5e3d
000002a0: 8eba 63bc 66bc 63be 6c69 68be ac5e 193e
000002b0: f37e 6d3d 00d7 cabd b09c a8bd e55c 043e
000002c0: f02c 37bd c1e1 b03d cb9c aa3e cf52 a3be
000002d0: 6836 003e f717 8c3c 8f75 ab3d 37c7 b1be
000002e0: fe9d 5a3c 8a7a 483e 0d8f 223e 16fe 25be
000002f0: b035 18be e91b 99bc e767 14bd 54f9 8dbd
00000300: 5a94 613e e128 ab3e 8899 c43b 77e5 46bd
00000310: 26f6 0dbd 5749 063e c2b9 89bd f40a cb3d
00000320: 3788 93be 8de6 f9bd 5c79 653e e27b 1b3e
00000330: dfc2 c8bd a43c a3bb f629 3ebe f76e 89be
00000340: 5a6a 63be dee0 ef3c 9a46 01bd 0383 ad3e
00000350: 8f74 61be 0183 abbe cb67 19bd 26fc 6b3e
00000360: 4ec3 473f 8a24 20be eb19 823d 4153 48bd
00000370: 89a2 723d 2d1c ba3e 3c2e 7cbd 6608 3dbb
00000380: 03d5 67be d977 9b3d 50d5 a9bc e798 003f
00000390: 9807 163e 0fd4 2bbf 8867 6dbd 282f d03c
000003a0: c0ef 233d 94ac 963d 5a62 803d 9522 da3d
000003b0: 713f 8d3b 37c7 c2bc 8b58 0dbf 3148 b7be
000003c0: 2906 b63e 001d 74be e3b5 103e 2b02 8c3d
000003d0: 22a3 5ebd 8100 75be bfc1 943d dd04 693d
000003e0: 309c de3c e532 893e 49b5 b8bd 1a45 583d
000003f0: e7d7 253e eb57 29be 395f bfbd 8258 64be
0.2847206 0.5059235 -0.37691006 0.2524687 -0.1546433 -0.12414327 -0.035968363 0.3769696
0.08000314 -0.09954217 0.3021034 -0.08883735 -0.043635488 -0.009805596 0.093405336 -0.049345147
0.34645826 -0.1834465 -0.33752778 -0.116610155 -0.31047598 -0.121192686 0.13696189 0.086727194
-0.3948491 -0.13294971 -0.1463921 -0.0038744186 0.13611726 -0.406591 -0.013516691 -0.41475627
0.0025515512 0.21825324 -0.03655795 0.14570728 -0.033676717 0.04986383 0.040488962 0.0920626
0.20829053 0.06595971 0.15155205 0.35342598 -0.09108837 -0.29524446 0.23442711 0.009597587
0.16178189 -0.23621134 -0.2582914 -0.09590453 -0.13657749 0.047809545 0.015536611 0.041029353
0.55350125 -0.037668664 0.077653445 -0.22917 0.093511626 -0.17037581 0.9368187 -0.17560884
0.038227092 0.03103418 0.069196425 -0.13806303 -0.0015718074 -0.021361323 0.13771795 0.10151351
0.8120959 -0.3150334 -0.5352159 -0.10905096 -0.008413183 -0.14014544 0.056850627 0.028132519
-0.17929551 -0.030899158 0.034012485 -0.057568226 0.66227823 -0.18367043 0.10325286 -0.2308389
-0.14189978 -0.040152214 0.07010604 0.09819561 0.062030684 0.08357175 -0.2555334 -0.09611564
0.2186465 -0.05342277 -0.031488094 -0.41710788 0.11265097 -0.03736376 -0.045229506 -0.23195635
0.29242128 -0.121572025 -0.22237776 -0.0883002 0.009914219 -0.2577143 0.021283118 0.03191981
0.21468626 -0.04219192 0.21106042 -0.41404834 0.029677045 0.13857974 -0.05296419 -0.09581222
0.05787748 0.011674397 -0.22106487 -0.0865359 -0.12857804 -0.071775846 -0.11275317 -0.15581895
0.32355577 -0.10805171 0.10007535 0.11273254 -0.54185903 0.42388102 -0.033715032 0.03472594
-0.08806028 -0.12434758 0.1322226 -0.0036945052 0.09484222 -0.3044076 0.44271004 -0.3719475
-0.3825613 -0.08612002 0.048828144 0.057329144 0.110342205 0.0030683686 0.2309546 -0.006845601
0.013193725 -0.066526115 0.52513087 -0.12088617 0.18255383 -0.0016742582 0.05072593 -0.07825492
0.018409746 -0.19403811 -0.007383844 -0.10951885 -0.14731497 -0.2575349 -0.10769809 0.054262325
-0.013899459 -0.22239837 -0.22696465 0.1497752 0.057982396 -0.09904289 -0.08233011 0.12926061
-0.04472059 0.08636809 0.3332275 -0.31899115 0.12520754 0.017101271 0.08372032 -0.347223
0.013343332 0.19577995 0.15874882 -0.16210207 -0.1486423 -0.018690066 -0.0362319 -0.06932321
0.22029248 0.33429626 0.0059997477 -0.04855868 -0.034658574 0.13113914 -0.067248836 0.099141985
-0.2881486 -0.12202177 0.22409576 0.15183976 -0.09802794 -0.004981594 -0.18570694 -0.26842472
-0.22208539 0.02928203 -0.03156147 0.33889017 -0.2201712 -0.33498386 -0.0374525 0.23045406
0.78032386 -0.15638939 0.063526 -0.048907522 0.059237037 0.3634962 -0.06156753 -0.0028844117
-0.22639851 0.075912185 -0.020731598 0.5023331 0.14651334 -0.6712045 -0.057960063 0.02541311
0.040023565 0.073571354 0.06268759 0.10651127 0.0043105413 -0.023776634 -0.5521323 -0.35797265
0.35551575 -0.23839188 0.14131884 0.06836351 -0.054354794 -0.23925973 0.07263517 0.056889404
0.027174085 0.26796642 -0.090189524 0.052800275 0.16195641 -0.16537444 -0.09344334 -0.22299388

0.nn.layers.0.bias f4 [70]
00000000: e4bc 063d b4b0 85be b4f6 d93e 2b8e a13e
00000010: e1e0 b7be 8232 e0bd 36dc c6be 63f3 48be
00000020: bf96 a63e 2b78 bcbe d100 ccbe a86d a83e
00000030: 3ca4 f03d 62b4 afbe 8cb4 48bd 08ac 36be
00000040: d9d7 133e 8950 2a3e 8240 a0be 3faf 84be
00000050: 21ad 303e aae0 ffbd c3a5 9bbe 2dc2 9c3d
00000060: 00e6 713e 5085 a8bb dd4b ffbe 2bdc e6bc
00000070: e224 1dbe 05ad 2dbe 1187 773e 41d9 b4bd
00000080: 4581 83be 8fb9 70bd 5fba d0bc 576a bb3e
00000090: 5d78 8abe b3c8 cc3d 88ea af3e 2e39 243e
000000a0: 44a4 0dbe eb9f 7abd a2f7 59be 136e 94bd
000000b0: d014 073e ed4a a7bd 6a7e 7e3e ccb1 88bc
000000c0: 9f0a 183e 59f6 b9bd e13d 8a3e a29e 59bd
000000d0: dac8 763a 2276 a3bd d792 20bd c28c ec3e
000000e0: f85f a43e e891 25bd a903 3a3d a5b6 c33d
000000f0: 80f8 a5be 5d79 e03e 06ed 5f3d 44a2 bf3d
00000100: 015c 313d 507b ebbd 7591 adbd a518 5b3d
00000110: f333 01be 466a 88be
0.032894984 -0.26111376 0.42571032 0.31553778 -0.35913756 -0.109471336 -0.38839883 -0.19624095
0.32536885 -0.3681043 -0.39844373 0.3289616 0.11750075 -0.3431731 -0.049000308 -0.17839062
0.14437808 0.16632284 -0.31299216 -0.25914952 0.17253543 -0.12494023 -0.30399904 0.076542236
0.23622894 -0.005142845 -0.49862567 -0.028181156 -0.15346101 -0.16960533 0.24172617 -0.088305004
-0.25684562 -0.058770712 -0.025479494 0.36604568 -0.27044955 0.09999218 0.3435862 0.16037437
-0.13832194 -0.061187666 -0.2128587 -0.072475575 0.13191533 -0.08168588 0.2485291 -0.016686343
0.14847802 -0.0908019 0.27000335 -0.0531298 0.00094140845 -0.079815164 -0.039202537 0.4620114
0.32104468 -0.04042235 0.045413647 0.09556321 -0.32416153 0.43842593 0.054669403 0.093571216
0.043300632 -0.11498129 -0.08475009 0.0534903 -0.12617473 -0.2664358

0.nn.layers.1.weight f4 [70, 70]
00000000: 6d14 163c edfc a1bd 50e5 b4be 5ebc 9abc
00000010: 2dc7 9a3e 61c3 483e 0ce7 6e3e 9603 f8bd
00000020: be9b 38bd 511b c6bc 4262 1fbe f4ff 59bd
00000030: aab1 5f3d ebf4 d33d a0fa cabd f8cb cb3d
00000040: f715 97be ddb8 62be b55f 8e3e e145 3f3e
00000050: 1947 08be a54e a0bd 3996 ab3d ec4f c13c
00000060: 8e1d 34bd 0636 3b3e fd8a d7bd 394f cabe
00000070: 834c 03be 5d7e b1bd cd59 9e3d 9621 7cbe
00000080: b43c 763e 5e62 b93d 5a6d 94bd fef5 7ebd
00000090: 8c0d 043f 0700 753e 5a36 b9be 7c85 96be
000000a0: 3be3 1ebe 73eb 1c3e 01f8 60bf d224 9bbd
000000b0: 10f2 7b3e d206 003f d891 cfbd 22be 82bd
000000c0: accc 383d 865b e9bd af1d 11be 7e42 3a3d
000000d0: 4ef7 3e3d e18e dc3e c6f5 5e3d 6f06 7ebd
000000e0: 6a5c a9bd de30 593d f319 83bd 5a20 6c3e
000000f0: 3417 143e 5ea7 dfbd 4a59 1d3e d426 203e
00000100: 2aa1 423e 335c 10be 5b9c 843d 723d bcbc
00000110: ca3e 7d3e df56 383e cab1 3abe 3297 5fbe
00000120: 3452 923e 3b02 0f3d 39f1 8fbd f4c2 91be
00000130: 5f35 69be 2e26 963d 6ba2 e63d 09aa 83bd
00000140: 1a8b 9ebe 291f 453e 2537 b4bd 9cbb 82be
00000150: 2a1e 123e 559e ee3d 6da2 85be 06be 013e
00000160: 5fd8 b3bd 7481 97bd 1e2e a13c cb68 d5bc
00000170: 6046 0abd 08b0 94be 1477 11bc 535c 6f3d
00000180: 81a4 4e3d 56c2 87bd c453 e23e 1d69 3abd
00000190: 537e 40bd 7196 a53d c8f6 1f3e 1ff6 aa3d
000001a0: 1d77 70be aa71 69bb 41ba 9eba 06ea d83d
000001b0: f38e 62bc 7501 c23e ac3a fcba 4514 8b3c
000001c0: 4133 883d efd6 493d acb7 b8bc 2d5a a33d
000001d0: 35ea 43bd 883b 013e dbd1 94be d1ba b73c
000001e0: 2694 cdbd 0237 15be e7f9 a43d b255 4abe
000001f0: 6b18 383e 030f 4f3e 53e7 063e 9d3d 303e
00000200: fe98 c13d 4c68 9d3d bc44 233e f97e 5a3d
00000210: 2db2 60be 58bc e0bd 4f7b 383d 811f bdbd
00000220: 8adb 8b3b 8fac e5bd 1bc6 ee3d 6567 3e3e
00000230: c98c 6f3e ea9e 9a3e 198a 143e 615b 10be
00000240: fd9b 853e 1db1 c0bd 5f50 01bf 6d24 a83c
00000250: 350f 39be 0fdd 0d3d 166e 39be a763 bbbe
00000260: 06b9 ae3c 47c0 333d 1a58 c63c c2dd e13e
00000270: 2069 423d eaab ab3d 13b1 dabd 768c 113e
00000280: 6f1c 3e3e dd25 bdbe 7f28 c53e d905 57be
00000290: bd97 9bbe 8042 323d 5479 1c3e 4aa5 e1bc
000002a0: 4208 ae3e be89 e8bd fca3 09bc f4d6 083e
000002b0: 1604 93be 6264 d7be 90b0 8cbe c8b5 34be
000002c0: 3f8b 463e 0230 99be dd5f 963c 8a32 1c3d
000002d0: c260 e93d d0f1 aebd 5740 5dbd 47e7 a73e
000002e0: 72fe 03be a75f b6bd d63b e93d aa63 283f
000002f0: 6983 23be 8ef4 573d c266 08bf 3729 bf3d
00000300: e6ef a43d fddb bd3d 202e 2d3d 6434 f9bd
00000310: b03d 48be 666b 77be 8760 4fbe 98a1 183e
00000320: 18f0 933e 34c4 edbe 9e32 733d 8a95 febb
00000330: 5453 833e 3c16 ee3d a6b5 d23d 311c f13d
00000340: bd0e 4e3e 724e a23e b775 2f3e 2655 063c
00000350: 4444 98be ffdf d6bd f187 b13d 344e 40bc
00000360: b2bb c8be d0e3 5f3e 56ec a13d 3683 1dbe
00000370: 2562 b9bd 4c5a 2c3d df01 c3bd ec89 60bd
00000380: 6e79 5cbd 7549 c63c 1085 993e 1d31 093d
00000390: fd3a 2f3d b5a4 753d c7e2 93bc c9a9 753e
000003a0: 33c2 3e3e c74b be3b c98f b3bb dae0 0cbe
000003b0: 59bf 26bc 32a0 1fbe 61c3 b5bd f035 9b3d
000003c0: a9a3 03bd 1007 08be a19b 013c 0049 6dbd
000003d0: 00b3 8c3d 31fe 263e da9d aebd e216 40be
000003e0: 4ecf a63d 59ab 803c b5bf 2fbe 81f3 c03d
000003f0: 1ba0 343e 6b71 5a3c 069e 59be 8397 573d
0.009160143 -0.0790957 -0.35331202 -0.018888649 0.30230084 0.19605781 0.23330325 -0.12110059
-0.045070402 -0.024182947 -0.15564826 -0.05322261 0.054612793 0.10349449 -0.09911084 0.09951013
-0.29508945 -0.22140832 0.27807394 0.18679 -0.13308372 -0.078275 0.08378262 0.02359768
-0.043973498 0.18282327 -0.10524557 -0.39513567 -0.12822156 -0.0866668 0.07731972 -0.24622187
0.24046594 0.09051965 -0.0724742 -0.062246315 0.5158317 0.23925792 -0.3617428 -0.29398715
-0.15516369 0.15324192 -0.87878424 -0.07575382 0.24604058 0.50010407 -0.10135239 -0.06383921
0.045117065 -0.1139441 -0.1417148 0.04547357 0.046622567 0.43077758 0.054433607 -0.062017854
-0.0826958 0.05302512 -0.06401434 0.23059216 0.14461976 -0.10920595 0.15366092 0.15639812
0.19006792 -0.14097671 0.06475135 -0.022978518 0.24730983 0.18001889 -0.18231884 -0.2183502
0.2857834 0.034914237 -0.070284314 -0.2846905 -0.22774266 0.07331501 0.112614475 -0.06428916
-0.309655 0.19250168 -0.087995805 -0.2553376 0.14269319 0.11651293 -0.26100484 0.12670144
-0.08781504 -0.07397738 0.01967531 -0.026050946 -0.03375852 -0.2904055 -0.008878488 0.058437657
0.050449852 -0.066288635 0.44204533 -0.0455104 -0.046995472 0.08085335 0.15621483 0.08347725
-0.23482938 -0.0035620728 -0.0012109951 0.105915114 -0.013828027 0.37891737 -0.001924356 0.016977439
0.06650401 0.049277242 -0.02254852 0.07976184 -0.04783078 0.12620366 -0.29066357 0.022427948
-0.10038023 -0.14571765 0.080554776 -0.19759253 0.17978065 0.2022057 0.1317418 0.17211004
0.09453009 0.07685909 0.15944189 0.053343747 -0.21942969 -0.10973424 0.04503947 -0.092345245
0.0042681145 -0.112145536 0.11658879 0.1859413 0.23393549 0.30199367 0.14505805 -0.14097358
0.26095572 -0.09408782 -0.5051326 0.020525182 -0.18072207 0.034634646 -0.181084 -0.36599466
0.02132846 0.04388454 0.024211932 0.441145 0.047463536 0.083823994 -0.106783055 0.14213738
0.18565534 -0.3694295 0.3850746 -0.20998324 -0.30389205 0.04352045 0.15280658 -0.027544636
0.33990675 -0.11354397 -0.008400913 0.13363248 -0.28714055 -0.42068774 -0.27478456 -0.17647469
0.19389056 -0.2991944 0.018356258 0.038134135 0.11395408 -0.08542216 -0.054016437 0.32793638
-0.12890032 -0.08904963 0.11388366 0.65777075 -0.15968098 0.05272346 -0.53281796 0.09334033
0.080535695 0.09270475 0.042280316 -0.12168196 -0.19554782 -0.24162063 -0.20251666 0.14905393
0.28894114 -0.46438754 0.059374444 -0.0077692913 0.25649512 0.116253346 0.10288553 0.11772955
0.2012281 0.31700474 0.17134748 0.008199012 -0.29739583 -0.104919426 0.08668507 -0.011737395
-0.392057 0.21864247 0.07906406 -0.15382084 -0.09051923 0.0420783 -0.09521841 -0.054819033
-0.053826742 0.024204949 0.2998433 0.033494104 0.042780865 0.05997153 -0.018052472 0.23990549
0.18628769 0.005807373 -0.005479787 -0.13757649 -0.010177457 -0.15588453 -0.08875156 0.07578647
-0.0321385 -0.13283944 0.00791064 -0.057930946 0.06870079 0.16307904 -0.085262015 -0.18758729
0.08145009 0.015706705 -0.17162974 0.09421445 0.176392 0.013332705 -0.21251687 0.052634727

0.nn.layers.1.bias f4 [70]
00000000: 1743 ecbd 8f3b c33d afce acbd 9892 ef3d
00000010: 9c4e b53e f2de 2d3e 955d 1fbe d155 e6bc
00000020: 1293 d7bb e43b 7d3e e645 02be 9782 a3bc
00000030: 15b7 e4bd 85d2 09be 59e2 2abd 6edd aabd
00000040: a212 bf3c 3a5d 843e 98c2 193e ec67 4d3e
00000050: 2b11 fc3d 7a1d 64bd d0b1 993d fb28 523e
00000060: b003 09be a1a5 20be 19ed df3d d667 45bd
00000070: f456 573e a8aa 97bd fc73 1b3e 7664 45bd
00000080: 7978 4f3e 9b85 5a3e e616 babd afb9 ad3d
00000090: ba5c e3bd 7caf 1cbe d199 f53c be26 97bc
000000a0: 2a67 233e 4aa0 b9bc b821 c1bc b553 85bc
000000b0: 781b 403d 6faf 8cbd 3f37 1a3c 54fc 403d
000000c0: 9314 01be e6e2 20be a25a 2cbc c24c a03d
000000d0: 5d8e 863e efdc 9abd d332 e4bd e691 c13c
000000e0: dee9 803e c09a a7bd 477c 13bb e280 c53c
000000f0: 3036 1bbe 02ec aebd 64f8 6d3e 0455 253e
00000100: 56fe a4bd b2f3 9d3d e4a5 1a3e 77f6 363e
00000110: d6e4 40be 49ed 543e
-0.11536234 0.09532844 -0.08437859 0.116978824 0.35411537 0.16979578 -0.15563042 -0.028117092
-0.0065788114 0.24729878 -0.12721977 -0.019959731 -0.111677326 -0.13459213 -0.04171977 -0.083430156
0.023324315 0.25852376 0.15015638 0.20059174 0.12307962 -0.055692174 0.07504618 0.20523445
-0.13380313 -0.15688182 0.10933895 -0.04819473 0.21029264 -0.07405597 0.15180963 -0.04819151
0.202608 0.21340029 -0.09086399 0.08482682 -0.111016706 -0.15301317 0.029980572 -0.01845109
0.15957323 -0.02265944 -0.023575649 -0.016275266 0.046901196 -0.06869399 0.009412586 0.04711564
-0.12605505 -0.15711555 -0.010519655 0.078271404 0.2628049 -0.07561671 -0.111425065 0.02362914
0.25178427 -0.08183813 -0.0022504495 0.024109308 -0.1515739 -0.08541109 0.23239285 0.16145712
-0.08056323 0.07712497 0.15102345 0.17867456 -0.18837294 0.20793642

0.nn.layers.2.weight f4 [217, 70]
00000000: b170 4fbe 8c95 09bf 2c7f b73c 6457 86be
00000010: 710f 2cbe ff43 02bf 4c79 73be 6f31 40be
00000020: 2655 bbbe b30a 64be 127c d9be a09a 66be
00000030: a0c6 d9be df81 be3d 9bd6 cbbe fabe 9ebe
00000040: 0251 e0be 53be e7be 80a2 7abe 566a f1be
00000050: 6796 14be 460d 63be 4de1 a5be 16c7 96be
00000060: 3bc0 80be 606b 133d b487 f5be 0caf c83c
00000070: ded1 52be 3a92 273d 6872 62be 5b50 a4be
00000080: c57f c4be de7f dcbe 244e 80be 40d1 28bd
00000090: d78a 053e c23c cd3d f197 aabd d6bc 3f3e
000000a0: 57ad 38be ef24 78be 2200 bcbe 2bdf 2cbf
000000b0: ff5f 87be 9696 ddbd 232c a4be ba89 f3be
000000c0: c7fb e9bd f5f1 a1be 8b24 03bf 5ee7 d2bd
000000d0: bc4a b7bd 871c 8ebe 5004 a83d d678 a8be
000000e0: 458e 98be 5447 19be a431 65be d330 6dbd
000000f0: b231 cabd 5909 18be 2431 e6be 8023 6dbe
00000100: 7e30 a1be bf22 05bf 8c64 a6be 78ec b2be
00000110: 67aa c0bb 526c e0bd 1230 593e 0166 2bbf
00000120: 0448 a8be 066c f93d 2043 f6bd fc9b ddbe
00000130: 3d7c 723e a236 aa3e c14b 0a3e 1100 90be
00000140: 7a2a 23bf e175 8fbf 8983 2fbd 3436 d23c
00000150: dec4 98bd bc74 c5bd 6e26 28bd 5a2b 733e
00000160: 1200 95be 716c 41be a018 073f c8e4 e33d
00000170: ee04 c9bc cfee 1fbe 8f52 123e 796e 6ebd
00000180: 32d2 81be 3e9d 0c3e 42c0 44be 9982 c83c
00000190: 8bd8 b9be 2852 aa3d 1663 bcbe 3d73 88be
000001a0: b2e5 e0be 42d7 3fbe dd4e 8bbe 9ad1 5c3d
000001b0: 55cb f7be e8b3 3a3f 81bb bc3d 815e 4fbf
000001c0: d672 4cbd c9c4 81be fa5f 27be 3bac 363e
000001d0: 102d 9ebe b6e7 163e c991 05be c67c 0e3f
000001e0: 5470 d2be f36a 04bf fcaa 813e cf28 c83d
000001f0: 49d2 763e 6034 8cbe 9ae5 423b 1681 963e
00000200: 5e7e c4be 5251 0f3d 05b4 283e 4f88 d1be
00000210: 8088 dcbd 0c28 3b3f 14bb 49be 0a7f 39bf
00000220: 639b d53e 1bce 0abe d5b8 523e d158 f53d
00000230: 774c 533e 4380 babe 872f 78bd 5428 b43e
00000240: 894c 85be 4c97 23be 5bce db3e 07a3 933e
00000250: 59d2 ca3e 8108 85bd cff0 ef3d 4bf4 23bf
00000260: 6d7b 8a3e 62aa 833d 801a ef3d 2f99 5a3e
00000270: 1e64 5b3e 6437 593e 3cbe c8bd 11d8 febd
00000280: 55d3 be3e 1130 b83e 53d0 043e 53d3 0cbd
00000290: 8320 2f3e bba2 fa3d 2272 3f3e f05a 9fbd
000002a0: 3bc2 10be 5404 fcbc 3e4e 67be 40fb 1c3f
000002b0: 5c97 f2bd 6d9a 40be f74a 1dbf 1c79 12bc
000002c0: 00bc 3fbf f2b6 1bbd e21c c93e 2602 063f
000002d0: 3aed 0d3e f81d 073d 55d8 d8bb a47c 9bbd
000002e0: 532c 35bb 16c9 b33e d191 403d 7b39 de3d
000002f0: b31a b9bd 31fa 9d3e 6f98 e2bd 9b41 833e
00000300: 7ee7 573e efa1 773e f083 5a3e c6d4 41be
00000310: 4b8a ae3d 8817 ab3e ce3e 35be 727c 9dbd
00000320: adc6 393e 99bc dcbe fddf a03e d9dd 533f
00000330: 74c9 973e e79a 22bf 6485 f83e 6908 7ebd
00000340: 155f 713e 8234 233e 6cda 62be 83f3 22be
00000350: 8860 573e 17c3 2b3e d26d 3b3e 5a6d 46bd
00000360: 2c42 7cbd 7dbf 573d 43ff 173e 902a 07be
00000370: 5150 2ebe 22a9 a8bd 321d 96bd 459c 7fbd
00000380: 67e3 2bbe 4d0f 5a3e 77cd a63d 166a 313d
00000390: e146 333e e9f4 0b3e 672f 693d 9ac6 f63d
000003a0: 2031 a83d 2342 99bc 9538 f4bc 37cc d3bd
000003b0: 773f 023e 80cb a0bd a127 4d3e 6599 b7bc
000003c0: 5dc2 43bd 4a72 8b3e 9293 073e cf73 983d
000003d0: 3aac 54bd ac13 823c d65a 07be 044b 77bd
000003e0: 5259 c5bd 658e 07be c3e3 efbc 8807 fa3c
000003f0: 8441 063e e62a 0e3e 4874 14be 9052 1c3e
-0.20257832 -0.53743815 0.022399507 -0.2623855 -0.16802765 -0.50885004 -0.2377674 -0.18768857
-0.365884 -0.22269706 -0.4247747 -0.22519922 -0.4253435 0.09302115 -0.39812168 -0.3100508
-0.43811804 -0.45262393 -0.24476051 -0.4715144 -0.14510499 -0.22173032 -0.32398453 -0.29448766
-0.2514666 0.035991073 -0.47955096 0.024497531 -0.2058787 0.040910937 -0.22113955 -0.32092556
-0.3837873 -0.43066305 -0.25059617 -0.04121518 0.13041244 0.10021354 -0.08329762 0.18724379
-0.18034874 -0.24232839 -0.3671885 -0.6752803 -0.26440427 -0.108197376 -0.32064924 -0.47566015
-0.11424976 -0.3162991 -0.51227635 -0.10298036 -0.08949801 -0.2775614 0.082039475 -0.3290469
-0.29796043 -0.14968616 -0.22382218 -0.05790789 -0.0987276 -0.14847316 -0.44959366 -0.23158073
-0.3148231 -0.52006143 -0.32498586 -0.34946036 -0.0058796885 -0.109581605 0.21209744 -0.6695252
-0.32867444 0.12178807 -0.12024522 -0.4328307 0.23680206 0.33244807 0.1350546 -0.2812505
-0.6373669 -1.1207849 -0.04285005 0.025660612 -0.074594244 -0.09641406 -0.041052274 0.23747006
-0.29101616 -0.18889023 0.5277195 0.11127621 -0.024538483 -0.15618442 0.14289306 -0.058210824
-0.2535568 0.13731858 -0.19213966 0.024476336 -0.36298022 0.08316451 -0.36794347 -0.2665042
-0.43925244 -0.18734458 -0.27208605 0.05391083 -0.48397318 0.72930765 0.09215451 -0.81003577
-0.049914204 -0.25345448 -0.16345206 0.17839138 -0.30893755 0.14736828 -0.13043894 0.5565914
-0.41101325 -0.5172569 0.25325763 0.097734086 0.24103655 -0.2738371 0.0029738904 0.2939536
-0.3837766 0.034989662 0.16474922 -0.40924308 -0.10768223 0.7310798 -0.19700271 -0.7245947
0.41720113 -0.13555185 0.2057832 0.11979831 0.20634638 -0.3642598 -0.0605922 0.35187018
-0.26034954 -0.15975684 0.42930874 0.28835317 0.39613608 -0.064957626 0.117158525 -0.64044636
0.2704729 0.06428982 0.11674976 0.21347497 0.2142491 0.21212536 -0.09801909 -0.12443555
0.3727061 0.35974172 0.12970094 -0.034381222 0.17102246 0.122380696 0.18695882 -0.07781017
-0.14136593 -0.030763783 -0.22588441 0.6132088 -0.11845276 -0.18808909 -0.6144251 -0.008940008
-0.7489624 -0.038016267 0.39279848 0.5234703 0.13860026 0.032987565 -0.0066175857 -0.07592133
-0.0027644827 0.35114354 0.04701406 0.10850807 -0.090382956 0.30854943 -0.11064231 0.2563599
0.21084401 0.24182867 0.21339393 -0.18928823 0.08522471 0.3341639 -0.1769974 -0.07689752
0.18142195 -0.4311264 0.3142089 0.8276039 0.29645884 -0.6351761 0.4853927 -0.06201974
0.23571427 0.15937999 -0.22153634 -0.15913205 0.21032917 0.1677364 0.18303612 -0.04844413
-0.061586544 0.05267285 0.14843468 -0.1319983 -0.17022826 -0.082353845 -0.07329787 -0.06240489
-0.16785966 0.212949 0.08144658 0.043314062 0.17507507 0.13667645 0.056929972 0.12049599
0.08212495 -0.018708294 -0.029812137 -0.10341685 0.12719522 -0.078513145 0.20034648 -0.022412011
-0.04779278 0.27235633 0.13239887 0.07443964 -0.05192206 0.01587852 -0.13218245 -0.060374275
-0.09636177 -0.13237913 -0.02928341 0.03052117 0.1311093 0.13883552 -0.14497483 0.1526587

0.nn.layers.2.bias f4 [217]
00000000: 8344 b4be f6dc 28bd 4682 24be 2d91 783e
00000010: 3aa3 d4bc d791 953d 4d86 9e3d e408 8ebe
00000020: 6e17 90be ee75 8e3d d55e e63d 0cb6 bebd
00000030: cf3b dabd b82f c3bb 90b8 383e a60c 63be
00000040: 2306 b9be 004d c1be a073 8c3e 3ace d6bc
00000050: 8cf1 693d 9cc1 babd 1275 37be 15d6 b7bd
00000060: 945d 0bbe 46cb 90be 376e 943e eba4 77bc
00000070: 01d8 87be 8cf5 5cbe 78ba e8bd f626 b33d
00000080: eea1 9ebe d793 cabe eb56 b0ba 07b5 f23d
00000090: 1a9d dbbc 602a 08bd a168 7d3d 3cb4 c5bc
000000a0: 3981 8fbe a96b 38be 16b6 62bd 6812 4f3e
000000b0: 0f49 cf3d 5c1b 08bd a642 f43d cfcc fc3d
000000c0: 057d 9abe 6fe9 c8bc a3e9 983c 9280 2ebd
000000d0: 04ca 90bd 7697 77bd f17f 083d 9241 08be
000000e0: 0030 83bc bcc2 843c 72f0 723d eae4 943c
000000f0: d34a a5ba d5e8 5ebd 478e 3bbd 3e97 a23d
00000100: 3fff 92bd bce9 dabd 2d06 20be a3c5 8b3d
00000110: 9799 373e 2086 b93d 7cc4 91bd 3106 bf3d
00000120: c69e 273e b801 b8bc 89b3 90bc 94e0 a9bc
00000130: 8254 d63d 7086 c4bc 5da8 a83d 95e8 c8bd
00000140: 1995 1a3e 0d2b a3bd 5283 87be a965 cabc
00000150: e138 b5bd e98b 6b3c e142 f5bd 9042 c7bc
00000160: 9616 e53d e4f7 3bbc 823a 2a3d fe77 f43d
00000170: ec7d fb3c 36ae 9d3c 9880 a9bd 945f e5bc
00000180: 2124 b13d eb47 26bd a9bd c83d ab41 7ebc
00000190: eba3 81bd d9f1 2cbd 07b2 0fbc 9416 26bd
000001a0: 36f0 153e f35b b4bd ac3a b7bd 0c3e c2bd
000001b0: 7c50 133d ace4 debc 1f73 f8bd 3892 263e
000001c0: b885 283f 6f33 8fbe 77e8 ddbd 31c4 ccbd
000001d0: 83a3 953d 258d cebd f20d 113f a338 6a3e
000001e0: 023f f3be 9cb0 363d efb0 4a3e f662 1abe
000001f0: 2fe3 4bbe e81d e33e 3637 a73e edc9 5a3e
00000200: 1126 47be 0bfb 9ebd 6fa3 513e c2df 0d3e
00000210: f8c4 a4be 0e28 de3a 6bce e73d c901 3dbd
00000220: 98f1 c43c 1b94 ecbd 759f febb aefa fbbd
00000230: 84d7 0a3e dbbe c23c bb03 cfbd e01d 58bd
00000240: 5f2e e0bd 3bd2 983b eeb0 cabe 2d12 283d
00000250: 3162 923b c618 68be 273d 463e ad02 8e3e
00000260: c364 6abe eed8 a2be f783 d53e 70c1 22be
00000270: 9164 fbbd 3a22 fc3d b566 ed3d 5ad0 63bd
00000280: 7485 733e 7ef5 27be 2c8b bb3d a4cd dabd
00000290: 8b45 433e 994b 543e 1922 f53d 4a84 9b3d
000002a0: d039 52bd 4ff1 8b3d 4d67 b4bd 76f8 d83d
000002b0: 8fac 993e 716e 2a3e c804 723d c5da b9bc
000002c0: 99b6 063d 8228 0c3d 246c 81be d98f 1dbd
000002d0: 914d babc 6935 db3c c64a 8f3e 4407 10bd
000002e0: ef21 febd d4a9 d03c e270 36be 96b2 d0bd
000002f0: 6b2c e43e c742 93be 612e 423e 8c8e 473e
00000300: c6ac 7fbd 0e95 753d bcd6 8bbe 32d1 80be
00000310: 8c47 30be ee63 7c3e 0062 e43e 6381 1bbe
00000320: cd13 4f3f d090 97bd 1a65 30be e11c 40be
00000330: f1bd 153e d3fd 9ebd a466 f8bd 660f f3bd
00000340: de61 c9bd bbb4 cfbc 421f 8dbe ea76 9cbe
00000350: 676c 133e eeef dc3e a803 183f 183c 8d3d
00000360: 9049 b93d
-0.3520852 -0.04122635 -0.1606532 0.2427413 -0.025956739 0.07303207 0.077404596 -0.27741158
-0.28142875 0.06956087 0.112485565 -0.093120664 -0.10655939 -0.0059566163 0.18039155 -0.22172794
-0.36137494 -0.3775406 0.27431965 -0.026221383 0.057115123 -0.09118959 -0.17915753 -0.0897638
-0.13609916 -0.28280085 0.28990337 -0.015115003 -0.26531985 -0.21578044 -0.11363691 0.087476656
-0.30982918 -0.39565918 -0.0013453638 0.118509345 -0.02680831 -0.033243537 0.06186736 -0.024133794
-0.28028277 -0.18009819 -0.055349432 0.20221865 0.10121357 -0.033229217 0.11926775 0.12343752
-0.30173507 -0.024525372 0.018666094 -0.042603083 -0.070697814 -0.06044718 0.03332514 -0.13306263
-0.0160141 0.016206138 0.059311338 0.018175561 -0.00126108 -0.054421265 -0.045789983 0.079390034
-0.071775906 -0.106891125 -0.15627356 0.068248056 0.17929684 0.090587854 -0.071175545 0.09327353
0.16369161 -0.022461757 -0.017663734 -0.02073697 0.10465337 -0.023989886 0.08235238 -0.098099865
0.15095939 -0.07967196 -0.26467377 -0.024706678 -0.088487394 0.014376619 -0.11975647 -0.024323732
0.111859486 -0.011472676 0.041559704 0.11936949 0.030699693 0.01924811 -0.082764804 -0.027999677
0.08649469 -0.04059593 0.098018 -0.015518586 -0.06330093 -0.04222283 -0.008770472 -0.040548876
0.14642414 -0.088066004 -0.08946738 -0.09484491 0.035965428 -0.027208649 -0.121313326 0.16266716
0.6582904 -0.27968928 -0.10835355 -0.09998358 0.07306578 -0.10085515 0.56661904 0.22873168
-0.4750901 0.04460202 0.19794057 -0.15076813 -0.19910882 0.44358754 0.3265931 0.21366091
-0.19448115 -0.077627264 0.20472501 0.13854888 -0.32181525 0.0016949193 0.11318668 -0.04614428
0.024040982 -0.115516864 -0.0077704736 -0.12303673 0.13558775 0.023772648 -0.101081334 -0.052762866
-0.109463446 0.0046637333 -0.39588112 0.04103296 0.0044672717 -0.226657 0.19359265 0.27736416
-0.2289 -0.3180613 0.41702244 -0.15894103 -0.12275041 0.12311216 0.115918554 -0.05561862
0.23781377 -0.16402242 0.09157404 -0.10683754 0.19069497 0.20731963 0.11969394 0.075935915
-0.051324666 0.06833135 -0.088087656 0.10594265 0.30014464 0.16643693 0.05908659 -0.022687325
0.032888982 0.03421832 -0.25277817 -0.038467262 -0.022742065 0.026758866 0.27986735 -0.03516318
-0.12408816 0.025471605 -0.17816499 -0.101903126 0.44565138 -0.28761885 0.18963005 0.19487971
-0.06242063 0.059956603 -0.27312267 -0.25159603 -0.17214793 0.24647495 0.44606018 -0.15186076
0.8088959 -0.07400668 -0.17226067 -0.18761016 0.14623238 -0.07763257 -0.12128952 -0.118681714
-0.0983312 -0.025354734 -0.2756291 -0.30559474 0.14396821 0.43151802 0.5938058 0.068962276
0.09047234
