Self project/models/nn/optuna_best/SM/model.pt (torch, 54492 bytes, 9 tensors)

net.0.weight f4 [64, 3]
000000 a0 15 8f 3e a0 1f ad be bb 5f 05 bf ae 1f 12 3f
       0.27946186 -0.3381319 -0.520992 0.5707959
000010 33 00 a8 3e a1 13 c6 bd 00 41 9e 3e ec f4 7a 3d
       0.32812652 -0.09671713 0.30908966 0.061268732
000020 ef bd 03 bf aa b7 8c be 52 b0 0a 3e 9d 12 e0 bd
       -0.5146169 -0.27483875 0.13543823 -0.1094105
000030 7b 2a c6 3c 00 82 93 3e ea d9 0c 3f 79 2a 6e be
       0.024190178 0.2881012 0.5502001 -0.2325839
000040 c4 25 ad be 05 14 e7 be 87 b1 d8 be 07 9b 85 3e
       -0.33817875 -0.4513246 -0.42322943 0.2609484
000050 e1 5c 4f 3e c7 7f 03 bf 84 4d b8 3e 30 95 d7 3e
       0.20250274 -0.5136685 0.3599664 0.4210601
000060 72 c5 0d 3f 2d 19 87 3d 8e 6e 06 bf ae 31 7c 3e
       0.553794 0.06596599 -0.52512443 0.24628326
000070 b7 82 d2 be 61 ad 26 3e 05 d9 0c bd 93 ef 0d 3f
       -0.41115353 0.16277076 -0.034386653 0.55443686
000080 f5 5b d5 3e 42 8c 0c be 5a f6 06 be 9d bd c3 be
       0.4167172 -0.13725379 -0.13179913 -0.382306
000090 6d 93 59 3e 30 ac 70 3e c0 34 11 3f cd 25 99 3d
       0.21247645 0.23503184 0.56721115 0.07477913
0000a0 53 87 cf 3e 99 5d a7 3e a8 78 00 bf 12 72 b9 3e
       0.40532932 0.32688597 -0.50184107 0.3621984
0000b0 02 e6 60 3e 6e 1e 7f bd 9f a1 e8 be af c8 0a be
       0.21962741 -0.06228488 -0.45435807 -0.13553117
0000c0 0c df bf be 6b ee 13 3f c7 a0 19 3f 5c 5a 16 3f
       -0.3747486 0.5778567 0.6001095 0.5873163
0000d0 e7 60 8f be 8b 2a a9 3e da c1 c7 be 5f 01 40 bd
       -0.28003618 0.3304027 -0.39015085 -0.046876308
0000e0 aa 9c 49 be ea 8a 6e bd 94 ba cf be 8b 5c 01 bd
       -0.19688669 -0.058237948 -0.40572035 -0.031582396
0000f0 49 d0 94 be 93 6b 17 bf 01 5f 84 be 7e 02 fd be
       -0.2906516 -0.5914852 -0.25853732 -0.49415964
000100 4d f3 0d bf 7c a5 5a 3e e7 ec f0 3e 3e 3d 6a 3e
       -0.5544937 0.2135219 0.47055742 0.22874925
000110 3f c4 67 be 7f aa 7c 3e 16 4b 00 bf 62 7a 9b 3e
       -0.22633456 0.24674414 -0.5011457 0.30366808
000120 78 e5 10 3f 5f 0e 13 3f df bc 74 be 62 c6 0c bf
       0.5660014 0.57443804 -0.23900174 -0.5499021
000130 a7 0c a0 3d f1 06 a8 be ea 27 08 bf 00 d8 91 bd
       0.07814913 -0.32817796 -0.53185904 -0.07121277
000140 5a 47 aa bd 74 8f 84 3e fb 93 a5 3e 8c 09 ca bc
       -0.083143905 0.25890696 0.32339463 -0.024662755
000150 50 19 04 be 5f d7 07 bf 84 1e cb 3e 83 f5 29 3d
       -0.12900281 -0.53063005 0.3967172 0.041493904
000160 54 a1 6e 3c 3e cc 8d bd c5 0d 06 3f 69 a6 f6 3e
       0.014564831 -0.06923722 0.5236476 0.48173836
000170 d9 02 f3 3e 73 dd 08 3f 31 29 d3 3e 73 8a a5 be
       0.4746311 0.53462905 0.41242364 -0.3233219
000180 b1 a1 98 be f9 b2 ff 3e 60 43 08 bf b7 e9 08 bc
       -0.2981086 0.49941233 -0.53227806 -0.008356503
000190 91 d2 0a 3f 1b e8 a6 3d a5 38 cb bd 17 99 f2 3e
       0.5422755 0.08149739 -0.099229135 0.47382423
0001a0 cc 93 08 3f bb bf 64 be 5b c6 bc be 9f ce e8 3e
       0.5335052 -0.22338764 -0.36870083 0.4547014
0001b0 71 ba b7 be a5 08 82 3e 6d 15 36 3d 3b d0 52 be
       -0.3588443 0.2539722 0.044454027 -0.20587246
0001c0 93 3d a7 bd 91 5c ec be 7b 95 b8 be f7 4a 02 3f
       -0.08166041 -0.46164373 -0.36051545 0.5089564
0001d0 e7 b1 ca be a8 c6 80 3e b0 ab 01 be 88 4c fa 3d
       -0.39588854 0.25151563 -0.1266315 0.122216284
0001e0 de 7d df be bf 8a c6 bd 8b 0a b6 be 3f e1 06 be
       -0.43650717 -0.096944325 -0.3555492 -0.13171862
0001f0 2b db b8 3d 53 48 f1 3e 3e 85 03 3f f2 a8 f5 be
       0.09026178 0.47125491 0.51375186 -0.47980458
000200 d2 58 7b 3e 80 fe 3e be e4 18 96 be 22 ae d4 3e
       0.24545601 -0.18651772 -0.29315865 0.41539103
000210 43 27 b0 3e 78 37 39 3d ed 44 ee be 90 f8 0a bf
       0.34404954 0.045218915 -0.4653696 -0.54285526
000220 df cc 2c 3d 1f c3 65 3e 53 ba 31 bd 44 09 71 be
       0.042187568 0.22437714 -0.043390583 -0.23538691
000230 60 f0 72 be 6b df a4 be 76 ee 13 bf 60 92 00 3f
       -0.23724508 -0.32201704 -0.5778574 0.5022335
000240 e5 9a 8f be d4 37 7e 3e 5b 21 17 3e d5 db fb be
       -0.28047863 0.24825984 0.14758818 -0.49191156
000250 92 39 14 3f 1d 3e 57 bd fe b6 13 3c a0 2e 0c bf
       0.57900345 -0.05254947 0.009015797 -0.54758644
000260 f6 fd 91 3e 05 15 d7 be a6 05 8e be d2 cc f9 3e
       0.2851407 -0.42008224 -0.27738684 0.48789078
000270 46 86 8f be 1e d6 1b 3d 99 81 ab be 5f e4 0f 3e
       -0.2803213 0.038045995 -0.33497313 0.1405196
000280 80 35 b8 be 78 31 a9 be 1d 26 95 be 4e 6c 0d bf
       -0.35978317 -0.33045554 -0.2913064 -0.55243385
000290 59 1f 05 3d 8b 0c 00 3d 3f 5c b1 3d f2 54 bb bc
       0.0325006 0.031261962 0.08660173 -0.022867654
0002a0 17 ff 9f 3c 19 2a 05 3e 6f 14 bf 3e 60 2f 57 be
       0.019530816 0.1300434 0.37320277 -0.21014166
0002b0 8b fb e9 be a1 ae ee be ea bd d9 3d ad 51 74 be
       -0.45699725 -0.46617606 0.10631926 -0.23859282
0002c0 e6 f5 95 be e8 53 f7 be dd f9 65 bd f0 f2 9d 3e
       -0.29289168 -0.48306203 -0.05614649 0.3084941
0002d0 df 66 4d be c2 eb 0b be 4e 51 0d 3f 34 b8 1b 3e
       -0.20058773 -0.13664153 0.55202186 0.15206987
0002e0 89 75 e6 3e 1a 51 ec 3e 4b c7 c6 3c ab 7c db 3c
       0.45011547 0.46155626 0.024264952 0.026792845
0002f0 e7 a4 cb be 39 58 d0 be 0c ce 90 3e be d3 aa 3d
       -0.39774248 -0.4069231 0.282822 0.08341168

net.0.bias f4 [64]
000000 91 b8 c0 bc ef b7 93 be 7b 84 01 3f dc e2 2c be
       -0.023525508 -0.28851268 0.50592774 -0.16883415
000010 68 d9 0a bf 70 3a b6 bd 16 e3 89 be e2 77 42 3e
       -0.54237986 -0.08897865 -0.26931065 0.18991044
000020 86 14 b3 be b5 9d 06 bf 94 2c ae be 77 9c 3f bc
       -0.34976596 -0.5258439 -0.34018385 -0.011695019
000030 58 aa c4 3e 8d 52 04 3f 99 e9 0d bd 56 bd ee be
       0.38411212 0.5168846 -0.034646604 -0.46628827
000040 19 47 f2 be 57 8d b4 bb 5a 4d 91 3e cf d8 02 3f
       -0.47319868 -0.005510013 0.28379327 0.51112074
000050 44 68 b9 bd 7f 44 b4 bd 86 c3 e0 be 3f 70 63 3e
       -0.0905309 -0.08802127 -0.43899173 0.22210787
000060 f8 ec 6f 3e ce 5e 2d 3e 0b 3d b5 3d 3a 10 c3 be
       0.2343024 0.16930696 0.08849534 -0.38098317
000070 09 bb 70 be b0 5b 72 3d 1e 49 a6 3e c9 61 01 bf
       -0.23508848 0.05916947 0.3247766 -0.50539833
000080 e1 ad 60 be 6b 63 cb 3e 36 cc fa 3d cb af 6b bd
       -0.2194133 0.39724287 0.122459814 -0.057540696
000090 c0 2d 22 3e 5f 9c 06 3f cd 85 4d be f6 a6 0b bf
       0.15837765 0.52582353 -0.20070572 -0.5455164
0000a0 2e fe b8 3e 5e c6 c0 bd 03 ef db 3e fd a2 eb 3e
       0.36131424 -0.094128355 0.4295579 0.46022788
0000b0 67 42 17 3f d8 11 03 bf 7e ab 86 be a6 47 7c 3e
       0.59085697 -0.511991 -0.26302713 0.24636707
0000c0 f5 44 c5 3e fa d5 26 3e 9a 69 75 be e6 8b ad bc
       0.38529173 0.16292563 -0.23966065 -0.021184873
0000d0 96 70 f7 be 40 0c 95 be c9 df d6 be 92 d8 79 3d
       -0.48328084 -0.29110909 -0.4196761 0.060997553
0000e0 af 41 93 3d 3d ec 82 3e fc 64 17 3f 5b 8d 80 be
       0.071902625 0.2557086 0.59138465 -0.25107846
0000f0 89 1d aa be 44 26 dd be eb 13 ee be a8 5f bf 3e
       -0.3322566 -0.43193257 -0.4649957 0.37377667

net.2.weight f4 [64, 64]
000000 de a8 c5 3c c9 db ab 3d 55 47 8b 3d a4 df 7f bd
       0.024128374 0.0839153 0.06800715 -0.06246914
000010 1a 05 2b 3e bc 24 09 3c c7 06 aa bd 3e ae 36 3d
       0.16701165 0.008370575 -0.08302074 0.044599764
000020 fe d5 38 3d 17 d2 05 3e 8e 04 33 3d 7b 19 c8 bd
       0.045125954 0.13068424 0.043705516 -0.09770485
000030 e2 21 19 bd 0f 37 5a bd 40 dd d3 3d 99 37 dd bd
       -0.03738583 -0.053275164 0.103449345 -0.1080162
000040 68 44 bc bd f0 74 33 bc 9d 72 be bc 99 ba d3 bd
       -0.09192735 -0.010953173 -0.023248011 -0.10338325
000050 8f 7a d2 bd 87 0e b3 bd 0f d3 db bc 5e 94 02 bd
       -0.102772824 -0.08743005 -0.026834039 -0.031879775
000060 6d 38 e4 3d b6 ff 83 3d 95 f1 5b 3d ef 32 71 bd
       0.11143575 0.06445257 0.053697187 -0.058886465
000070 b4 34 40 bd 0e 13 11 bd ff c0 a4 bd d5 d4 00 bd
       -0.04692526 -0.035418563 -0.080446236 -0.031452972
000080 18 f6 cc bd 36 ae 8b bd 18 d5 89 bd 51 75 8e 3c
       -0.10007876 -0.068203375 -0.067300975 0.017389925
000090 f7 29 b9 3d de 30 a1 3d 11 04 3e bc 80 65 a1 bd
       0.09041207 0.07870649 -0.011597649 -0.07880688
0000a0 4b 31 01 3e f0 77 b0 bd 9a a9 1e bd 0b 78 f5 3d
       0.1261646 -0.08616626 -0.038735963 0.11985787
0000b0 cd 82 90 bb 18 fe ee 3c ac 4a e0 bd d4 ba 92 bc
       -0.004410124 0.029173896 -0.109517425 -0.017911352
0000c0 55 58 03 3e 50 13 9c bd 51 bd c9 3d ca d4 2d 3d
       0.12826665 -0.07620871 0.09850562 0.04243926
0000d0 78 4e 04 3d b9 65 23 bd ff fb d0 bd 77 25 86 bc
       0.032301396 -0.039891932 -0.102043144 -0.016375287
0000e0 a4 49 ca 3d 92 ee e4 3c eb 95 df 3d 9b b3 a0 bd
       0.09877327 0.02794579 0.109172665 -0.07846757
0000f0 8d b6 af 3d 26 95 99 bd 3b 37 1a 3e 87 d2 8b 3d
       0.08579741 -0.07499151 0.15060131 0.06827264
000100 d3 98 94 3d 82 b8 4d bc 0f 68 8e bc de fd 18 be
       0.072557114 -0.012556197 -0.017383603 -0.14940593
000110 25 31 93 3b f8 93 60 bd 24 df 56 bc cc 92 dd 3d
       0.0044919425 -0.054828614 -0.013114724 0.10819015
000120 90 e6 9d b9 36 81 e6 bd ac 65 12 3e e5 04 04 bd
       -0.00030117156 -0.11255114 0.14296597 -0.03223123
000130 0d 53 02 3e 98 71 c5 3d 98 2f 52 bd c1 0a c7 3d
       0.12726994 0.09640807 -0.05131492 0.09718848
000140 e6 1b fa 3d 62 7d eb 3d 25 4c 1b 3d 49 a0 11 be
       0.122123525 0.11498524 0.037914414 -0.142213
000150 08 ad 71 bd 8f f4 11 be e1 fd b8 3d 21 d4 4e bd
       -0.059002906 -0.14253448 0.090327986 -0.05049527
000160 ea 76 3a 3d 0c 7e ef bc c0 36 86 bc 4f 88 b8 3d
       0.04552356 -0.029234909 -0.016383529 0.09010374
000170 3e 1e 17 bd 55 1a 54 bd 04 0a e0 bb 92 4e 12 3d
       -0.036894076 -0.051782925 -0.0068371315 0.03571946
000180 9d 85 ee bc 9d f0 01 3e fd 3b c1 3d a7 d1 6e bd
       -0.029116446 0.12689443 0.0943527 -0.05830541
000190 a9 08 9e bd 8a ed c1 3c 38 f3 54 bd ce d4 b3 bd
       -0.077164955 0.023672838 -0.051989764 -0.08780824
0001a0 6e f3 a0 3d 0c 8c 90 bd 4e 30 f8 3c cd 0f 1b be
       0.078589305 -0.07057962 0.030296471 -0.15142746
0001b0 58 69 d0 3d e2 c2 bb bd 91 28 11 be 1b 8a c4 3d
       0.10176343 -0.0916803 -0.14175631 0.09596654
0001c0 e2 1a 7d bd ae 35 c2 3c b0 23 b9 bd 88 ee a5 bd
       -0.061793216 0.023707237 -0.0904001 -0.08102137
0001d0 14 6b 90 3d 88 8f fc 3d 2f 23 04 3d 45 bf b0 3b
       0.070516735 0.12332064 0.032260116 0.005393895
0001e0 1e b9 de 3c fc 45 58 3d b9 fe 0e 3e 2f f9 9c bd
       0.02718788 0.052801117 0.13964356 -0.076647155
0001f0 23 ac 87 3c 9c 32 ad bc c2 b0 68 bb 19 3d ac bd
       0.016561573 -0.021142296 -0.0035505746 -0.08410091
000200 1c 27 3e 3d 7a 68 6a 3c 51 ba d5 bd fd a8 87 bc
       0.046424016 0.014307136 -0.10435928 -0.016560072
000210 de 72 3d bd 7d b9 06 3e 10 16 22 bd 76 38 63 3c
       -0.046252124 0.13156696 -0.03957182 0.013868442
000220 e4 1e e7 bd a7 f6 ca 3d 61 5f ca 3d 17 97 eb bc
       -0.11285189 0.099103265 0.09881473 -0.028758569
000230 7a 64 30 3c d4 2e 8e bd 4e 34 0a 3e ab 55 3e 3d
       0.010766143 -0.069425255 0.13496515 0.046468418
000240 ce 9a 07 3c 9b dc 08 be a6 95 e2 3b 9a c2 c1 3d
       0.008276654 -0.13365404 0.006914812 0.094609454
000250 11 25 80 bc d3 2d a0 bd 9c b6 b3 3b d1 b4 67 3d
       -0.015642675 -0.0782124 0.005484415 0.056568924
000260 c3 35 f3 bd 67 fd a7 3d 70 fa 61 3c da 2c 90 bc
       -0.118754886 0.082026295 0.013792619 -0.017599512
000270 33 6f b6 bd 55 ab 99 3c 04 2a 93 bd 0c 48 16 bd
       -0.08907928 0.018758455 -0.07185748 -0.036689803
000280 b8 58 e7 3d 3a 03 04 3c ad 0b 7c 3d a3 b3 ab bd
       0.11296219 0.00805741 0.061534572 -0.08383872
000290 33 9f 83 3d fc 20 0d bd 32 f4 3d bd 18 d3 b4 3c
       0.06426849 -0.034455284 -0.04637546 0.022073314
0002a0 fb 12 2e 3d fb e9 05 3d 30 d6 4f 3d be f3 97 bc
       0.04249857 0.032693844 0.050741374 -0.018548843
0002b0 40 9b 3b bc b4 28 91 3d c9 0c 5f bd 42 fd 69 3d
       -0.011450589 0.07087842 -0.054455552 0.05712629
0002c0 99 38 bc bc d9 f6 01 3e 8b 4f 75 3b 11 ff 81 bb
       -0.022976207 0.12691821 0.0037431445 -0.003967174
0002d0 c2 a4 55 3d 33 ac e7 3d b4 37 cf 3d 37 23 bb 3d
       0.05215908 0.11312141 0.101180464 0.09137576
0002e0 d2 9e 68 bc 6b a5 bf 3d 0c 12 d0 bd eb 80 d5 3d
       -0.014198022 0.09357723 -0.10159692 0.1042498
0002f0 60 7b d9 bd 85 00 aa 3d 64 c5 ab bd 15 4e 85 3c
       -0.10619235 0.0830088 -0.08387259 0.016272584
000300 0e 66 f0 bc a0 5f 97 3c 96 62 cd 3c 1f 69 0c 3d
       -0.029345538 0.018478215 0.025071424 0.03427994
000310 13 16 80 3d df bd 8c 3c e5 d8 ab bb 74 fa 47 3d
       0.0625421 0.017180381 -0.0052443617 0.048822835
000320 9a 97 00 3e 6b 31 bd bd 57 60 7d 3c 58 ac e5 bb
       0.12557831 -0.09237941 0.015464864 -0.0070090704
000330 31 6a b1 bd 0c 88 f6 3b 27 8c cc 3d 87 47 2f 3d
       -0.086628325 0.0075235423 0.099876694 0.042792823
000340 1c 8f 92 bc 7f 64 00 bc f2 94 6a 3d 42 bf ec 3d
       -0.017890505 -0.00783646 0.05727095 0.11559917
000350 5b 69 05 3e 25 e8 b9 3d b8 d1 52 3d f7 22 ab bd
       0.13028471 0.09077481 0.051469535 -0.083562784
000360 08 3b f8 3d 77 b8 13 bd d9 4c 09 3d d5 37 a7 3d
       0.12120634 -0.03606459 0.033520553 0.08164946
000370 9f 6d ba 3d ff 18 f9 3d ab 37 33 3d 4a a8 b7 bd
       0.0910294 0.12162971 0.04375426 -0.089676455
000380 4c bd ef 3d cc f4 bb 3c 09 a5 95 3d 38 43 3a bd
       0.117060274 0.022943877 0.073068686 -0.04547426
000390 1f 7e ab bc ff 29 0c 3e a1 8f 96 bd 40 d1 c7 3b
       -0.020934163 0.13687895 -0.07351614 0.0060979426
0003a0 1f 48 03 3d d8 59 e3 3d 82 7a 67 bd 88 35 38 bd
       0.032051202 0.11101121 -0.056513317 -0.044972926
0003b0 44 7c e0 3d 2b 45 b8 3d 86 aa 30 bd d4 05 d2 bd
       0.10961202 0.08997568 -0.043131374 -0.10255018
0003c0 f6 ba d3 3d f8 5e 17 3e 33 5f 92 3d 8c d1 0b 3d
       0.10338394 0.14782321 0.07147064 0.034135386
0003d0 20 e8 a5 bd 08 cf 9a bd 6f 63 98 3c f9 5d 05 3e
       -0.08100915 -0.07559019 0.018602101 0.13024129
0003e0 83 b6 e5 bc a0 e7 30 bd 77 4e e8 3d 02 54 41 3d
       -0.02804113 -0.043189645 0.11343091 0.047199257
0003f0 44 57 78 3d 99 6f 67 3d f8 73 c3 3d d9 a1 5c 3d
       0.060630098 0.056502912 0.09543604 0.053865287

net.2.bias f4 [64]
000000 9b 82 7d bc 8e 5f 19 3e 51 c2 fa 3d 23 ee b5 ba
       -0.015473033 0.14977857 0.12244094 -0.0013880174
000010 7e 96 05 3e 60 9c 73 3d 75 b1 b0 bd 21 88 7e 3d
       0.1304569 0.059475303 -0.08627597 0.06214154
000020 c0 a7 18 bd af e7 f3 3c a5 ba 29 3d 3d 18 fd bc
       -0.037269354 0.029773561 0.041437764 -0.030895347
000030 c2 1d cc 3c 98 37 a6 3d 35 a1 d5 3d 33 0d 1a bd
       0.024916533 0.081160724 0.104311384 -0.037610244
000040 e4 4d 18 3e d9 79 9c bd a1 ef bc bd f8 02 28 3c
       0.14873463 -0.07640428 -0.09225393 0.010254614
000050 d8 68 0e 3d 6c 9a 5b 3d 57 a4 f3 3d 4c a0 4d 3d
       0.034767956 0.053614065 0.1189658 0.0502017
000060 64 05 ef bd 1e 6d d6 3c db 1a 86 bc 29 ce 8d bd
       -0.1167095 0.026175078 -0.016370228 -0.069240876
000070 87 66 4f 3d 22 62 13 3d b7 86 52 3c e5 d9 c3 3d
       0.050634887 0.03598226 0.012849501 0.095630445
000080 e5 3e 04 3e 06 70 af bc 37 72 bc 3c a8 c7 77 bd
       0.12914617 -0.021415722 0.02300368 -0.06049314
000090 70 e2 5e 3d 52 35 0d 3e 8d d0 69 3d 0e 5f ac 3c
       0.054415166 0.13789871 0.057083655 0.02104142
0000a0 6a ea d0 3d 71 29 93 3d 3a b4 42 3d b6 56 2b be
       0.10200961 0.07185639 0.04753516 -0.16732296
0000b0 f0 dd 03 bb 63 1b 0a bd 7f c9 47 bd f4 d6 35 3d
       -0.0020121299 -0.033717524 -0.048776146 0.04439445
0000c0 fc 8f ab 3d e1 37 da 3d a9 ea 25 bc bc 1a bb 3d
       0.08377072 0.10655189 -0.010126748 0.091359586
0000d0 59 6c 1d bd e6 82 ac bd db b7 ed 3d 2c c7 a3 bd
       -0.038433407 -0.084234044 0.11607333 -0.079969734
0000e0 8d db 78 bd c7 a7 ba 3c c7 72 1f bc 52 03 dc 3d
       -0.060756255 0.02278508 -0.009731955 0.10742821
0000f0 ad 61 1a 3e af 46 8c bd 87 ad 10 3e fe 6c 8c 3d
       0.15076323 -0.06849419 0.14128695 0.06856726

net.4.weight f4 [64, 64]
000000 a3 82 e6 bd f1 ba a7 bd ab 51 f5 bc de 3f 0e bd
       -0.11255386 -0.08189953 -0.029946169 -0.034728877
000010 8d 7f 08 3e b3 2b 00 3e 69 8c c9 3d 94 c7 39 bd
       0.13329907 0.1251667 0.09841234 -0.04535635
000020 04 9a 5f bd 65 71 a5 3b 9c 63 ae bd af 81 a6 bd
       -0.05459024 0.005048918 -0.08515093 -0.08130204
000030 e4 83 15 be dc c0 43 3c 32 1c 03 be 8c e2 03 be
       -0.14601094 0.011947837 -0.12803724 -0.1287939
000040 1a 16 06 3e 2b b2 44 3d 3d ce ab bc 3a 28 c1 3d
       0.13094369 0.048021477 -0.020972366 0.09431501
000050 b8 e2 4a bd 1e 0a 82 bb ff 76 06 3e 1b 7c aa 3d
       -0.049532622 -0.003968491 0.13131331 0.083244525
000060 c0 d1 ec bd 84 89 1f 3d cf 42 fd bd 55 35 8b 3d
       -0.11563444 0.038949504 -0.12366258 0.06797282
000070 5e 19 58 bd 9e 44 c7 bb e6 c1 df bd df 50 f5 bc
       -0.052758567 -0.006081178 -0.10925655 -0.029945789
000080 90 bd a7 3d 7c 34 a6 3d f3 43 9e bd ca 26 c0 bd
       0.08190453 0.08115479 -0.07727804 -0.093823984
000090 e7 ca c3 bd ee 3a 02 be 2c bd bf 3d 50 38 51 3d
       -0.09560185 -0.12717792 0.093622535 0.051079094
0000a0 ca 5f 16 be a2 8e 1c 3e fd 42 f9 3d 5c 28 2b be
       -0.14684978 0.15288785 0.1217098 -0.16714615
0000b0 3c eb 61 bd a6 58 a6 bc f5 dc 51 bd d2 1e 88 3d
       -0.055155978 -0.020305943 -0.05123611 0.066465035
0000c0 96 3b 79 3d fa 3a 99 3d 21 43 ed 3d e3 43 a0 3d
       0.06084784 0.07481952 0.115850694 0.07825448
0000d0 50 08 14 3e 54 8d 4b bc 22 03 34 3d f0 b5 ad 3d
       0.14456296 -0.012423832 0.0439483 0.084819674
0000e0 77 96 50 bd 07 c5 ee 3b f6 e7 18 3d 98 e3 a9 3d
       -0.050924744 0.007286671 0.03733059 0.08295363
0000f0 04 01 36 3d 67 66 95 bd 4c 22 5e 3d 78 05 3a 3d
       0.044434562 -0.07294922 0.054231927 0.04541537
000100 25 15 9e bd bb b9 9d bd 91 b4 65 bb 78 a0 a4 bd
       -0.07718877 -0.07701441 -0.0035050253 -0.080384195
000110 8d 32 f1 3d 0b 94 ac 3d ba a7 86 bd 9b dd b1 bd
       0.1177722 0.084266745 -0.0657496 -0.08684846
000120 7c 7b fa 3d 22 37 cd bd eb 9e 44 bd 63 25 85 3c
       0.12230584 -0.100202814 -0.04800312 0.016253179
000130 df 08 46 bc 42 48 c6 3d dc bc 9d bd 6c 63 c6 bc
       -0.012087076 0.09681751 -0.07702038 -0.02421733
000140 d2 21 a9 bb b8 83 88 bd be 61 2f 3d cc c9 9a bd
       -0.0051615024 -0.06665748 0.042817824 -0.07558021
000150 60 5f d2 3d b6 0e 9b bd b4 30 04 3d 07 0e ab bd
       0.102720976 -0.07571165 0.03227301 -0.08352285
000160 a2 92 77 bd 5c a2 76 3d 9a d4 ed 3d b5 49 b5 bd
       -0.060442574 0.06021343 0.11612816 -0.08851949
000170 57 ab 01 3e 5e 44 df 3d ce 7d 5e 3d 6a b0 1e bd
       0.12663017 0.10901712 0.054319195 -0.03874246
000180 2f 93 4a bd 2c 39 43 3d d3 c7 be bd 8c bc c8 bd
       -0.04945677 0.047661945 -0.09315457 -0.098015875
000190 44 13 b2 3d 60 a9 53 bc 00 b5 03 be 3e ee 5d bd
       0.08695081 -0.0129188 -0.12862015 -0.054182284
0001a0 97 be f5 3c f7 f6 ed bd 39 70 00 3e 75 1c 79 3c
       0.029998107 -0.116193704 0.1254281 0.015204539
0001b0 89 67 dc 3d 75 2f cf 3d 32 04 23 3c 12 ff 98 3d
       0.10761935 0.101164736 0.009949731 0.07470526
0001c0 61 27 32 b6 28 40 09 3d 3f 5b d5 bd 67 3e a4 3d
       -2.6546988e-06 0.03350845 -0.104177944 0.08019715
0001d0 77 a8 d5 bd 85 62 b4 bd 55 b9 0b 3e 6b 29 02 3d
       -0.10432523 -0.088078536 0.13644917 0.03177778
0001e0 85 59 10 bd 8f 72 0f 3e ba e0 cc bd 3d 0a de 3d
       -0.035241622 0.14008544 -0.10003801 0.108417965
0001f0 43 e1 99 3d bb 9e 92 bd 4f 8c ab 3b 20 49 a3 bc
       0.075136684 -0.07159182 0.005235232 -0.01993233
000200 83 61 dd bc d0 c2 83 bd 80 e8 de bc 1b 27 f4 3d
       -0.027024036 -0.06433642 -0.027210474 0.11921521
000210 c1 44 73 3c 27 0d b5 3d 82 71 a2 bc 60 52 63 bc
       0.014847935 0.08840399 -0.019829515 -0.01387462
000220 62 db 11 3e d3 66 8a bd 79 89 04 3e cd fe d3 bd
       0.14243844 -0.067578934 0.12943067 -0.10351334
000230 03 f3 b4 3d ff 7a be bc 7f 82 a2 3d e3 5b ec bd
       0.08835413 -0.023252008 0.079350464 -0.115409635
000240 20 9d 0f 3e b4 27 0a 3d ce 15 8a 3d a2 40 9c 3d
       0.14024782 0.03372927 0.0674244 0.07629515
000250 62 a6 ac bd a8 70 08 3e 41 e8 06 3e e3 4a d3 bd
       -0.084301725 0.13324225 0.13174535 -0.10317018
000260 66 f5 a0 bd e6 9d c4 bc c8 0b 9e 3d 70 2c b4 bd
       -0.07859306 -0.024001073 0.07717091 -0.08797538
000270 be cf 27 3d 3d 4e 1f 3d 65 e2 c2 bd 4a 04 1a 3d
       0.040969603 0.038892973 -0.095158376 0.037601747
000280 ed 30 21 bc aa 8a 03 3c 40 e0 69 bd e0 fe 02 3d
       -0.009838325 0.008028666 -0.057098627 0.03198135
000290 8f af 21 bd d5 d2 ca bd 12 60 00 bd 67 23 8d bc
       -0.039474066 -0.09903494 -0.03134162 -0.017228795
0002a0 87 84 18 be 02 1a 52 bd f3 50 25 bd 36 dc 0c be
       -0.14894305 -0.051294334 -0.040360402 -0.13755879
0002b0 40 b5 9a 3d 36 1c 73 3c 20 40 b8 3d ee 48 28 3c
       0.07554102 0.014838269 0.08996606 0.010271294
0002c0 fd eb 72 bd 15 a4 b3 3d 5b a7 f5 3d 2c ea 91 bd
       -0.059307087 0.087715305 0.11994811 -0.07124743
0002d0 d6 78 11 3e 19 27 f4 3c 92 4b be 3d 45 95 9e bd
       0.14206252 0.0298038 0.09291758 -0.07743315
0002e0 7b 41 a6 bd f6 2d ad 3d c0 17 70 bd 11 64 9b 3d
       -0.08117958 0.08456032 -0.0586164 0.075874455
0002f0 07 fb 8b bd 91 4e 8b 3d ed 0b 8a 3c 04 64 af bd
       -0.06834989 0.06802095 0.01685139 -0.08563998
000300 b9 23 1e bd 9a 15 fe 3d e5 ab 1f bc 33 2b 3a 3d
       -0.038608287 0.12406464 -0.009745573 0.045451354
000310 f8 ab 18 bc fa ad 08 3e 97 d7 5b bd 72 ea 4e bd
       -0.009318344 0.13347617 -0.0536724 -0.050516553
000320 ff 90 b8 3d 8d b3 0a 3e 01 48 0e 3e 98 c2 b4 bd
       0.09012031 0.13545056 0.13894655 -0.08826178
000330 d1 23 17 be 9e 10 66 3d 9c 12 7e bd aa 31 9f bd
       -0.14759757 0.05616819 -0.062029466 -0.077731445
000340 f9 4b 45 3d 5c 1d 95 3d f8 0e e1 3d 33 42 8c bd
       0.048168156 0.072809905 0.10989183 -0.06848564
000350 0c 21 0f 3c f8 5c 9c bd 53 bc b4 bb 95 d8 85 bc
       0.008735906 -0.0763492 -0.005515614 -0.016338626
000360 e3 ae c3 bc b1 03 97 3c cd 19 1d 3d 93 0d 51 bd
       -0.023887103 0.018434377 0.038354684 -0.051038336
000370 32 eb 00 be 6c ca d4 3d 1a f0 fa bd bd 36 30 3d
       -0.1258972 0.103901714 -0.12252827 0.043020952
000380 57 11 08 be 1a 66 41 3d a5 3d ce bd a0 61 b5 3c
       -0.13287865 0.047216512 -0.100703515 0.022141278
000390 dc ac 18 bd fc 70 a8 bd 91 89 e4 3c 40 67 74 3b
       -0.037274227 -0.08224675 0.027897628 0.0037292987
0003a0 c9 10 bb bd ca 69 05 3e 22 ea fd 3d 50 f6 00 be
       -0.09134061 0.13028637 0.12398173 -0.12593961
0003b0 2b fb e7 3d ea 32 e2 3d 3b 08 e8 3d 9c 0a d1 3d
       0.11327203 0.11044867 0.11329695 0.10207102
0003c0 c3 d7 0d bc 9b 61 ff bc 0a eb 49 bc 57 ea 54 3d
       -0.008657399 -0.031174472 -0.012324104 0.051981296
0003d0 13 df 7e 3d 45 5a 69 3d 5c d8 a4 bd 77 8a 00 bd
       0.06222446 0.056970853 -0.0804908 -0.03138205
0003e0 98 6d bb 3d 75 91 cf 3c 6f 9d 0a bd 52 5e 97 3d
       0.09151763 0.025337914 -0.033841547 0.07391037
0003f0 c4 4e 3a 3d a3 c9 ec 3d 49 09 cf bd aa b7 a9 bc
       0.045485273 0.11561897 -0.10109193 -0.02071746

net.4.bias f4 [64]
000000 c6 4e 8e 3d 40 23 a4 bd df 49 1c bd 91 d9 53 bd
       0.069486186 -0.08014536 -0.038156386 -0.05172116
000010 ea 75 ab bd aa a5 c8 bd 6f 15 8a 3d 83 2f 5e bd
       -0.083721 -0.09797223 0.067423694 -0.05424453
000020 70 04 36 bd 35 03 5e bd 27 0d f4 3d e2 06 dc 3c
       -0.044437826 -0.054202277 0.11916571 0.02685875
000030 97 7a 02 3e cb b8 ae bd 94 11 b0 bd d5 6b 53 3d
       0.12742077 -0.0853134 -0.08597103 0.05161651
000040 2b 40 69 bd 97 d3 2c 3d 96 0d 01 3d 03 db f0 3d
       -0.05694596 0.042193975 0.031507097 0.11760523
000050 01 2b 9c bb 1f b7 5a bc c9 05 92 bd 52 cf ff bd
       -0.0047658687 -0.0133493235 -0.0713001 -0.12490715
000060 98 74 ec bd 1b 09 9e 3d f8 ce c6 bc c3 e6 4d 3c
       -0.11545676 0.077165805 -0.024268612 0.012567225
000070 4b 04 fe 3b c2 59 fd bd 3e 89 22 bd ae 46 be bd
       0.0077519766 -0.123706356 -0.039681666 -0.09290825
000080 f0 6e 1e 3c fe d8 b8 3d be 5c a5 b9 24 1d c4 bd
       0.009670004 0.09025763 -0.0003154035 -0.09575871
000090 b8 2e 02 3e 1d a0 c7 bc 82 58 b2 3b 5d 79 fd 3c
       0.12713134 -0.02436834 0.00544268 0.03094166
0000a0 e3 ee c6 bd ff eb 68 3d a6 57 cc bd f8 19 d9 bb
       -0.09713533 0.05686569 -0.09977655 -0.00662541
0000b0 6a 95 67 3d ad fd 03 3e a6 eb bd 3d 88 94 ef bd
       0.056538977 0.12889738 0.09273462 -0.11698252
0000c0 88 2c ee bd 4e 26 25 3d 8a d8 7e 3d 2f 31 01 3e
       -0.116295874 0.040319733 0.062218226 0.12616418
0000d0 e6 76 a4 bd 62 bb b5 3d 8c 11 52 bd 4d 67 9d 3b
       -0.080304906 0.08873631 -0.051286265 0.004803574
0000e0 5b f0 49 3d d6 de be 3d 8e ba d9 3d 97 2d 8c bd
       0.049301486 0.09319846 0.106312856 -0.06844633
0000f0 6d eb f9 3d 56 ba 1c 3d 52 66 c2 3c 47 c0 62 3d
       0.12203107 0.03826364 0.02373043 0.05535915

net.6.weight f4 [64, 64]
000000 04 5b 0b 3d 81 25 e8 3c e0 c6 b4 bd fb 50 14 bd
       0.034022346 0.028338196 -0.08826995 -0.03621004
000010 96 c5 da bd 80 b6 ab 3d eb 54 04 be c4 32 f6 3d
       -0.10682218 0.083844185 -0.12923019 0.120214015
000020 a0 0e af 3b 9f 8a e8 3d 41 aa d6 bd 80 a4 a9 bc
       0.0053423196 0.11354565 -0.10481692 -0.020708323
000030 54 0c f4 3d 3f 97 a0 3d 81 25 94 3d 97 02 90 bd
       0.11916414 0.07841348 0.07233716 -0.07031744
000040 91 be a1 3d 1d 15 03 bd d2 e6 91 bc dc c5 ac bd
       0.07897676 -0.032002557 -0.017810259 -0.08436176
000050 59 25 0e bd 4c 78 68 bc 7c 5c 2d 3d e4 e5 3d 3d
       -0.034703586 -0.014188837 0.042324528 0.04636182
000060 52 52 95 3d 4f 2a 57 bd 88 ab cc bd 82 e0 15 3a
       0.07291092 -0.052530583 -0.099936545 0.0005717353
000070 3e d4 d7 3d f3 ac f2 3c 0a a3 23 3d d4 44 21 bd
       0.10538529 0.029623484 0.039950408 -0.03937228
000080 74 cb be bd 29 ec b5 3b be 73 be 3d ef 02 07 be
       -0.09316149 0.005551834 0.0929942 -0.13184713
000090 9f d9 6f bd 51 09 d7 bb 79 99 d6 3d 8a b7 69 3d
       -0.05855715 -0.00656239 0.10478491 0.057059802
0000a0 90 85 eb 3d b1 32 2a bd a7 fc 3d bb c3 62 b7 3d
       0.115000844 -0.04155225 -0.0028989704 0.08954384
0000b0 38 cc 9f bc 9e d4 8c bc f7 42 1b 3d 70 f2 d3 bd
       -0.019506559 -0.017191228 0.03790566 -0.10348976
0000c0 85 eb e5 bd 5b 83 92 bd 3b 15 5b 3c 89 b4 62 3d
       -0.112265624 -0.0715396 0.013371761 0.055347953
0000d0 eb 7d cb ba 7a b2 96 3d c6 eb 9d bd 7e 0b 2f 3d
       -0.0015525197 0.073582605 -0.07710986 0.04273557
0000e0 e0 40 22 bb ea 0e 85 3d b5 08 4b 3d 87 de 45 bd
       -0.0024757907 0.06496985 0.04956885 -0.04830792
0000f0 e7 c9 1f bd e7 6a 6c 3d a9 da d9 bd fe ca 9e 3d
       -0.03901091 0.057719138 -0.10637409 0.077535614
000100 9d 3b 04 3d 31 17 45 bd 44 16 06 3e bc 81 ab 3c
       0.032283414 -0.04811782 0.13094431 0.020935886
000110 fc f4 b7 bd 8e 89 b6 3d 7f cd 88 3c ac 6e c3 bd
       -0.08982274 0.08912955 0.01669955 -0.09542593
000120 22 46 d8 3d 02 0d 7f 3c f3 cc 38 bd 06 a6 1e bd
       0.10560252 0.015567066 -0.04511733 -0.03873255
000130 a7 44 b2 3d db 2c ac bd 9b 1f 83 3d 3c 24 8a 3c
       0.08704501 -0.08406993 0.06402513 0.016862981
000140 4a 65 5c 3d 7e e3 4d 3d 06 f4 d2 3d 2b e3 b0 bd
       0.053807534 0.05026578 0.1030045 -0.08637079
000150 bb a7 97 3c 5b 0c 59 3c 4a 9f f7 3d 80 ee 1b bb
       0.018512597 0.013247575 0.12090929 -0.002379328
000160 07 f9 2f bd 6b 0a 9a 3d d8 96 f7 bd b1 b8 9a bd
       -0.0429621 0.07521518 -0.12089318 -0.07554758
000170 9f d6 9b 3d 7f 98 41 bd 31 37 95 bd 98 56 bc bc
       0.07609295 -0.047264572 -0.072859176 -0.02299051
000180 17 d7 8c 3d a4 0b 38 3c 5f 04 e5 bc c4 05 2d 3e
       0.06876963 0.011233244 -0.027956186 0.1689673
000190 43 fd 04 3d 24 e8 71 bd 9c 42 d9 3d 14 d1 34 3d
       0.03246809 -0.059059277 0.10608408 0.044144705
0001a0 b9 99 a5 3d fb d2 ff 3d 4c b7 0f 3e 48 1f e3 3d
       0.08085961 0.12491413 0.14034766 0.11089951
0001b0 e6 cc 9b bd b2 e1 a5 3d e6 24 99 bd 70 29 76 3c
       -0.07607441 0.080996886 -0.07477741 0.015024528
0001c0 9e 63 26 3e 2c 62 36 bd cf 88 1d bd 37 0a 46 3d
       0.16248938 -0.044527218 -0.03846055 0.048349585
0001d0 bc f7 d1 3d e2 96 dc 3d 6d 01 a5 3d 32 da af 3c
       0.1025233 0.10770966 0.080569126 0.021466348
0001e0 fc f7 90 bd 6e fa 83 3d d4 fb d2 bc 4f 89 7d 3d
       -0.07078549 0.0644425 -0.025754847 0.061898526
0001f0 7d 79 41 3a c9 e9 ae bc 2b 6f 8e 3d c7 ca 3c 3d
       0.0007380469 -0.021351712 0.06954797 0.04609182
000200 d4 29 82 3c ae d1 b4 3c 62 96 83 bd 90 84 73 3d
       0.015889086 0.02207264 -0.064251676 0.059452593
000210 1c 3b ab bd 00 a7 da 3d 9d ed 14 3e 7b d6 42 bd
       -0.083608836 0.10676384 0.14543767 -0.047567826
000220 80 72 ca bc 74 19 0e bd 1b 3e 0d 3e 70 f2 6f 3d
       -0.024712801 -0.034692243 0.13793223 0.058580816
000230 de f2 2e bd 2b 72 d8 bd c0 6d bc bd f0 ce c7 3d
       -0.042712085 -0.10568651 -0.09200621 0.09756267
000240 e5 ca b9 3d ce 26 d9 bd 71 61 b2 3d 0f 20 6d 3d
       0.09071902 -0.106031045 0.08709992 0.0578919
000250 09 41 de bc 64 cd dc 3d 36 53 c8 bd 44 d3 68 3d
       -0.02713062 0.10781363 -0.09781496 0.056842104
000260 2a e9 8d 3d 9e 3e c9 3d 40 9d a7 3c 37 a2 9c 3d
       0.06929238 0.098263964 0.020460725 0.076481275
000270 2f e6 eb bc 7a 95 00 3e a8 71 91 bd c0 d1 13 bb
       -0.028796284 0.12557021 -0.07101756 -0.002255544
000280 f0 f8 93 bd 4d 7d f7 3d 2c 38 02 be c4 59 39 bd
       -0.072252154 0.12084446 -0.1271674 -0.045251623
000290 c5 76 c9 bc db 97 61 3d dc ae f9 3d 0b 38 53 bd
       -0.024592767 0.05507646 0.12191555 -0.05156712
0002a0 2c 56 6c 3c 1a 51 08 3e 02 21 92 bd 03 4a d1 3d
       0.014424842 0.13312188 -0.07135202 0.10219195
0002b0 f9 5d d2 3c eb f2 93 bd 7b ce fa 3d 14 82 8b bd
       0.025679575 -0.07224067 0.12246414 -0.0681192
0002c0 ee 78 28 3e ba 6f 1c 3c 83 55 90 bc 63 ac ed 3c
       0.16452381 0.009548122 -0.0176189 0.029012864
0002d0 f5 25 cf bc a4 47 c6 3c a0 f7 cd 3d 58 7d f6 3c
       -0.025286654 0.024204083 0.10056996 0.030089065
0002e0 3f d7 99 bd fa fc 8b 3d 07 85 7b bd 0c 9c e2 3c
       -0.07511758 0.06835361 -0.06140616 0.0276623
0002f0 4e 95 4c 3d d4 b8 58 3b ae 13 ad 3c 1b 96 41 3d
       0.049947076 0.003306915 0.021127548 0.047262292
000300 bf e7 99 bd 48 0a a2 3d e9 6b 86 3d 96 01 3f 3c
       -0.07514905 0.07912117 0.06563551 0.011658093
000310 9a ac ec bd bc c9 ba 3d 77 97 d4 bc a9 bb fb bd
       -0.11556359 0.09120509 -0.02595113 -0.12291653
000320 f4 60 ef 3d 11 16 b2 bd c0 99 ee 3b 65 6d 08 be
       0.11688414 -0.08695615 0.007281512 -0.1332298
000330 ed 5f a6 bd c4 c6 26 3d a7 16 81 bd f2 97 f3 bd
       -0.08123765 0.0407169 -0.06303149 -0.11894216
000340 87 21 1e 3c 7d 8a e6 3c 6b 6e 4d 3d c6 13 03 bd
       0.009651548 0.028142208 0.05015413 -0.03200128
000350 99 51 84 3d a9 96 18 3d da e3 8c 3d f6 99 c8 3d
       0.06460876 0.037253056 0.06879397 0.09794991
000360 d6 1d e1 3d 68 bd 14 3d 34 ea 84 3d f1 59 22 bd
       0.10992019 0.036313444 0.06489983 -0.039636556
000370 4f 9d a4 3c f1 0f 4d 3d 59 d1 4b 3d 28 ff 3c bd
       0.020094542 0.05006403 0.049760196 -0.046141773
000380 d3 30 81 3c d0 3d e6 bd a4 b4 02 be 5c 74 d1 3d
       0.015770352 -0.112422585 -0.12764221 0.10227272
000390 58 ba 88 bd 68 58 f3 bd c7 1e a6 3c f3 fd 0b 3d
       -0.06676167 -0.118820965 0.020278348 0.03417773
0003a0 95 ec 92 3d 80 11 d9 bd 5e a3 86 bd 90 b2 fd bd
       0.07174031 -0.10599041 -0.065741286 -0.12387574
0003b0 52 97 66 3d 2a fd 44 3d 7c cc b1 3d 40 04 80 bc
       0.056296654 0.048093 0.086815804 -0.015627027
0003c0 48 b4 b1 3d ca e3 d1 3d 9c ba 99 3d e1 5e c9 bd
       0.08676964 0.102485254 0.07506296 -0.0983255
0003d0 64 17 20 3d d8 3c a2 bc d4 97 66 bd 93 ce e8 bd
       0.039084807 -0.019804403 -0.05629714 -0.11367526
0003e0 da a8 81 bd fa dc ad 3d cf 95 66 3d c0 23 15 3e
       -0.06331034 0.084894136 0.056295212 0.14564419
0003f0 b8 1c 53 3d 6f 91 1d be f1 b4 7b 3d a9 27 c8 3d
       0.05154106 -0.1538751 0.061451856 0.097731896

net.6.bias f4 [64]
000000 b9 c2 2a 3d 9d 82 c5 bd fe 3a 9b 3d b0 dd ab bd
       0.04168961 -0.09644053 0.07579611 -0.08391893
000010 b0 27 79 bc 58 5e 42 bd 66 9b e7 bd e2 17 f3 3d
       -0.015207216 -0.047453254 -0.11308937 0.1186979
000020 aa 3d b8 bd b5 d7 0c 3e 31 7e c8 3d 8f 6f af bd
       -0.089961365 0.1375416 0.09789694 -0.085662
000030 55 25 fc 3d 15 03 21 bd 42 ae 64 bd 00 c5 a1 bc
       0.12311808 -0.03930958 -0.055830248 -0.019747257
000040 2f bf 55 bd 07 f2 11 3e 7c 3e 44 3d f4 8a 55 3d
       -0.05218428 0.14252482 0.047911152 0.05213447
000050 87 d5 b2 3d 16 86 ef bd 22 6a 5b 3d 67 51 17 3c
       0.08732133 -0.11695497 0.053568013 0.009235716
000060 76 ea fc bd 2a 8e 04 3e 83 64 e0 3c 67 23 79 3d
       -0.123494074 0.12944856 0.027391678 0.060824778
000070 71 47 ef 3d e4 17 fc bd 76 d3 f0 3d fa 42 06 3e
       0.11683548 -0.12309244 0.11759083 0.13111487
000080 24 3c f3 3d 00 73 e9 3a 17 0f 0c 3e 73 12 ed 3d
       0.11876705 0.0017810762 0.13677631 0.115757845
000090 5e 65 e4 3d 8c 4c fc 3d aa ff 5c 3d 37 85 19 be
       0.11152147 0.12319288 0.053954758 -0.14992224
0000a0 78 0f bb 3d 7f b8 f5 bc 80 a1 de bc 68 e0 f1 3c
       0.0913381 -0.029995201 -0.027176619 0.02952595
0000b0 ce fc f2 3d 44 0d ac bc 22 14 0c 3e 12 d0 8f bd
       0.11864625 -0.02100242 0.13679555 -0.07022108
0000c0 d3 f6 d7 3d 54 77 07 3e 4b 18 a7 3d ee e7 e9 bc
       0.10545125 0.13229114 0.081589304 -0.028552976
0000d0 30 2f 9a 3c 4f 60 09 3d 77 f4 b7 3d 9d 41 34 bd
       0.018821329 0.033539113 0.08982175 -0.044007886
0000e0 ba 1e 29 3d d9 94 e6 3d 25 6e a7 bd 81 56 05 3e
       0.04128907 0.11258859 -0.08175305 0.1302128
0000f0 77 7b e4 3d c8 a4 d9 bd 55 67 0d bd 0d 56 bd 3c
       0.111563616 -0.10627133 -0.034522373 0.023112321

net.8.weight f4 [1, 64]
000000 24 6a 15 be d4 6d 74 3d 97 b5 bb 3d 59 e0 6f 3d
       -0.1459127 0.059675053 0.09165495 0.058563564
000010 36 c6 f9 3d 20 4e a5 bc b8 cf ed 3d b1 d5 ff 3d
       0.12196009 -0.020178854 0.11611885 0.1249193
000020 8c bd 3c be bc ef 0b be 9f ca c5 3d d5 0b 3f 3d
       -0.18431681 -0.1366567 0.096577875 0.046642143
000030 a4 fa dc bd 44 d2 b1 bc e6 90 f1 3d 26 94 bb 3d
       -0.107899934 -0.021706708 0.11795215 0.091591164
000040 ab 56 29 bd 7b b9 08 be 7b 6f 4e 3d 55 22 98 3d
       -0.04134242 -0.13352005 0.050399285 0.07428423
000050 3a e1 e2 3d a5 22 be 3d ca 9d 0d be 41 09 6c 3d
       0.11078115 0.09283952 -0.13829723 0.057626013
000060 fd 10 de bd 72 4d a0 bd 1b e6 09 3e 31 da 04 3e
       -0.10843084 -0.078272715 0.13466685 0.12973858
000070 8a 08 88 3d a4 a1 bf 3d 82 14 d8 3d e9 1d ec bc
       0.06642254 0.093570024 0.105507866 -0.028822856
000080 be ce a9 3d 18 e0 af bd 70 1f 16 be a3 93 fb 3d
       0.08291386 -0.08587664 -0.1466043 0.12284019
000090 ef b3 e2 bd ce ae b5 3d 29 6b 70 3d d5 32 01 be
       -0.11069476 0.08871232 0.058695946 -0.12617047
0000a0 55 67 9e bd bd 78 10 3d 70 82 b8 3c 2f 85 27 bd
       -0.07734553 0.035271395 0.022523135 -0.0408985
0000b0 57 49 fd bd a3 0d 0d be ae f6 10 be 83 9d 2c bd
       -0.12367504 -0.13774733 -0.14156601 -0.042142402
0000c0 2e 74 9d 3d 7f 0b 05 3d 38 db d5 3d 39 e0 c4 3d
       0.07688175 0.032481667 0.10442203 0.096130796
0000d0 1d 5e 16 be 64 4a 0a be bb 79 09 be 8a b2 ce 3d
       -0.14684339 -0.1350494 -0.13425343 0.100926474
0000e0 59 27 3f 3d 73 c2 b9 3c f0 34 9c 3c 74 84 e8 3c
       0.046668384 0.022675728 0.019068211 0.028383471
0000f0 f9 c7 0b be e8 74 46 bd fb 1a 6c 3d 81 3f 5d 3c
       -0.13650502 -0.048451334 0.057642918 0.01350391
