models/nn/smogn/SR/model.pt (torch, 54492 bytes, 9 tensors)

net.0.weight f4 [64, 3]
0	0x3d8531a8	0.06503612
1	0x3db881f4	0.090091616
2	0x3f176de3	0.5915205
3	0xbf02018e	-0.5078362
4	0xbf1c6cd1	-0.6110354
5	0x3eaccb98	0.3374908
6	0xbea3d304	-0.3199693
7	0xbef0db4a	-0.47042304
8	0x3e096960	0.13419104
9	0xbf068a3a	-0.52554667
10	0x3ebc8754	0.36821997
11	0xbe83f62f	-0.2577376
12	0x3ea6799c	0.32514656
13	0xbf2d7fe7	-0.6777329
14	0xbf3c53c7	-0.73565334
15	0xbea8d4d0	-0.32974863
16	0x3ec84a57	0.39119217
17	0xbf2111ea	-0.6291796
18	0xbeeaf739	-0.4589174
19	0x3ed71ab0	0.42012548
20	0x3f11f57c	0.57015204
21	0xbd2bff26	-0.041991375
22	0xbf13710d	-0.57594377
23	0x3ef3f505	0.47647873
24	0x3eb2dc4d	0.349337
25	0x3ef7618f	0.4831662
26	0x3e3b95c8	0.18318856
27	0xbeef8c0c	-0.46786535
28	0xbf1ad708	-0.6048436
29	0xbec5c176	-0.3862416
30	0x3f1b5439	0.6067539
31	0x3e3a4fd5	0.18194516
32	0x3ebf9b73	0.37423286
33	0xbe156070	-0.14587569
34	0x3f200d66	0.62520444
35	0x3e034264	0.12818295
36	0x3ef0f193	0.47059307
37	0x3eb8c722	0.36089426
38	0xbe947b4b	-0.29000315
39	0x3f1c0475	0.609443
40	0xbe2cb03a	-0.168641
41	0x3eda7385	0.4266626
42	0x3d4067b7	0.04697391
43	0xbe6b935d	-0.23005433
44	0x3efce55e	0.49393743
45	0x3e8f7861	0.2802153
46	0x3d8a360f	0.06748592
47	0xbf111bca	-0.5668303
48	0x3e910aeb	0.28328642
49	0x3eaa5e6c	0.33275163
50	0xbe7d677b	-0.24746506
51	0x3e321655	0.17391331
52	0xbe723702	-0.23653796
53	0x3ed9452a	0.4243558
54	0xbefb6b4f	-0.49105307
55	0x3e3de8c7	0.18545829
56	0xbf20c6fc	-0.62803626
57	0x3e658176	0.22412667
58	0x3eb9b0d3	0.3626772
59	0x3e8e5922	0.27802378
60	0x3e4b5463	0.1985641
61	0x3f125827	0.5716576
62	0xbf35f344	-0.7107432
63	0xbe014ded	-0.12627383
64	0xbdec54dd	-0.11539624
65	0x3f26c1fa	0.65139735
66	0x3e39ed47	0.1815692
67	0xbe3811bf	-0.1797552
68	0x3ecacc34	0.3960892
69	0x3c2a5add	0.01039764
70	0xbf16660e	-0.58749473
71	0x3dd0f41a	0.10202809
72	0xbec2db63	-0.38058004
73	0xbf0789d6	-0.52944696
74	0x3e1629e9	0.14664425
75	0x3e57622e	0.21033546
76	0xbf1dd3d2	-0.6165134
77	0x3f17e3d4	0.59332013
78	0xbdd18504	-0.10230449
79	0xbda9b98a	-0.08287342
80	0xbf3069b9	-0.6891132
81	0xbd574d17	-0.052563753
82	0x3dedef25	0.11617879
83	0xbf2563a2	-0.6460515
84	0xbf12b0db	-0.5730111
85	0xbc5ab4af	-0.013348742
86	0xbc9cb1d1	-0.019127758
87	0x3f1f2ff6	0.6218256
88	0x3d674105	0.05645849
89	0xbe0dcea5	-0.1384836
90	0xbec122fd	-0.37722006
91	0xbe8794eb	-0.26480803
92	0x3e7b9729	0.24569382
93	0xbf137873	-0.57605666
94	0x3c482aac	0.012217205
95	0x3ef4e434	0.47830355
96	0xbe06eec6	-0.13177022
97	0xbf02bd1b	-0.510698
98	0xbf1de698	-0.61679983
99	0xbea6d088	-0.32580972
100	0x3b483858	0.0030551162
101	0x3ec4a656	0.38408154
102	0x3ef89409	0.48550442
103	0x3e3572e6	0.17719612
104	0xbe4c87f3	-0.19973736
105	0x3d9bee33	0.07613792
106	0x3b3ba653	0.0028633073
107	0xbe9b527e	-0.30336374
108	0x3e6248bc	0.22098058
109	0x3dfab24b	0.12241038
110	0x3ef0556d	0.46940175
111	0x3e9c8cea	0.3057626
112	0x3ef35b2e	0.47530502
113	0x3df8ed5b	0.12154647
114	0xbde0adc1	-0.10970641
115	0xbf002bea	-0.5006701
116	0xbea5e2c5	-0.32399574
117	0xbeb2e52b	-0.34940466
118	0x3e87c7c0	0.26519585
119	0xbee55dd5	-0.4479815
120	0x3ee41836	0.4454972
121	0xbe46349b	-0.19356005
122	0xbf17b37c	-0.59258246
123	0xbeb59292	-0.35463387
124	0xbe8bd6e1	-0.27312377
125	0xbe3c4e05	-0.18389137
126	0xbeae6a41	-0.3406544
127	0x3e9ad001	0.3023682
128	0xbed3d617	-0.41374275
129	0xbeb29a6f	-0.34883448
130	0x3ef4769b	0.4774674
131	0xbd7536e9	-0.05986682
132	0xbd993395	-0.074805416
133	0x3eb57fea	0.35449153
134	0x3f2e4693	0.6807644
135	0x3d80d722	0.06291033
136	0x3f10529c	0.5637605
137	0x3e8f48f8	0.27985358
138	0xbefe7935	-0.4970185
139	0x3e8e84ae	0.27835602
140	0xbe4c325c	-0.19941086
141	0xbebefa8c	-0.37300527
142	0xbef9fb2a	-0.48824435
143	0x3f02d5ec	0.5110767
144	0x3e7151f5	0.2356642
145	0xbc18f7ea	-0.009336451
146	0xbe83f244	-0.25770772
147	0xbf0473cc	-0.5173919
148	0x3eb3ac1e	0.35092252
149	0x3ecbb5ca	0.39787132
150	0xbe00f5ce	-0.12593767
151	0xbeb59229	-0.35463074
152	0x3da1cd0a	0.07900436
153	0x3d84189c	0.06450006
154	0x3dffd31f	0.1249144
155	0xbd315b08	-0.043299705
156	0xbe5fd102	-0.21857074
157	0x3e18d24f	0.14923976
158	0x3ed99398	0.42495418
159	0xbedc1d41	-0.4299107
160	0xbe2697c2	-0.16268829
161	0xbe8a4815	-0.2700812
162	0xbe8cd0e3	-0.27503118
163	0x3e21656d	0.15761347
164	0xbe941d15	-0.28928438
165	0x3e1fe91a	0.15616265
166	0x3f196d01	0.5993195
167	0xbee13ffa	-0.43994123
168	0x3f15db5f	0.5853786
169	0x3e47139c	0.19441074
170	0xbd808aaf	-0.06276452
171	0x3e4826d8	0.19546068
172	0xbe83baed	-0.2572855
173	0x3eb7827f	0.35841748
174	0xbe1bc91b	-0.15213434
175	0xbdd6c452	-0.10486664
176	0xbef51282	-0.47865683
177	0x3ec80bc1	0.39071468
178	0x3eacb79b	0.3373383
179	0xbf099643	-0.53744906
180	0x3f0fe770	0.5621252
181	0xbd3b8169	-0.045777712
182	0xbe9d34c4	-0.3070432
183	0xbe021607	-0.12703715
184	0x3f1352b0	0.57548046
185	0x3dd73a83	0.10509207
186	0x3e6e4250	0.23267484
187	0x3e813ff1	0.25244096
188	0xbe57da58	-0.21079385
189	0xbe5a7ff9	-0.2133788
190	0xbe854e50	-0.2603631
191	0x3dde723c	0.10861632

net.0.bias f4 [64]
0	0x3e8cf82e	0.27533096
1	0xbe7bc0e3	-0.24585299
2	0xbf27279d	-0.6529482
3	0x3f116207	0.567902
4	0xbcf5b4ef	-0.029993502
5	0xbeff928f	-0.49916503
6	0xbdc8e26d	-0.09808812
7	0x3dcf8749	0.101332255
8	0xbf0bcd4d	-0.5461014
9	0xbe99981e	-0.2999887
10	0x3ee6d0ec	0.4508127
11	0xbe78d2b7	-0.24299131
12	0x3ed07ff4	0.4072262
13	0xbea03769	-0.31292275
14	0xbe44edf0	-0.19231391
15	0xbf0f3603	-0.5594179
16	0x3e58ec44	0.21183878
17	0xbedda962	-0.4329329
18	0xbc914773	-0.017734265
19	0xbf103b3a	-0.5634037
20	0xbd85e088	-0.065369666
21	0xbe81df95	-0.25365892
22	0x3ee7f17b	0.45301422
23	0xbe352ed4	-0.17693645
24	0x3e222aa0	0.15836573
25	0xbed4fd63	-0.4159957
26	0xbeca68ea	-0.39533168
27	0x3e5e3fa3	0.21703963
28	0x3e1a1cbc	0.15050024
29	0xbe5de681	-0.21669962
30	0xbf03a26e	-0.51419723
31	0xbd273560	-0.040822387
32	0x3d716446	0.05893352
33	0x3e892703	0.26787576
34	0x3e153f7a	0.14574996
35	0xbf4c4e70	-0.79807186
36	0x3ea07bd9	0.31344488
37	0xbe109ae9	-0.14121594
38	0xbeb764ff	-0.3581924
39	0xbe8f7e8e	-0.2802624
40	0xbe5c92d9	-0.21540393
41	0x3f35fadc	0.71085906
42	0xbecbc42b	-0.39798102
43	0xbf475639	-0.7786594
44	0x3e7a1303	0.24421315
45	0xbf37e84e	-0.71838844
46	0x3f28f276	0.65994966
47	0x3ed470d4	0.4149233
48	0x3f0e536e	0.55596054
49	0xbecef3ab	-0.4042028
50	0x3f1eaebd	0.6198538
51	0x3ec3c4bd	0.38236037
52	0x3f12b3aa	0.57305396
53	0xbdadd4bf	-0.08487844
54	0xbee99989	-0.4562495
55	0x3f18970f	0.596055
56	0xbe81808c	-0.25293386
57	0xbd3f5ab0	-0.046717346
58	0x3eb77d9c	0.3583802
59	0x3e9f34e9	0.31095055
60	0x3cf7ce6a	0.030249793
61	0xbe69c602	-0.2282944
62	0x3dda25fd	0.10651777
63	0xbe4ff21f	-0.20307206

net.2.weight f4 [64, 64]
0	0x394b7091	0.00019401523
1	0xbd86e3a2	-0.06586386
2	0xbdcd78f5	-0.10032836
3	0xbe32b050	-0.1745007
4	0x3e1b2c2a	0.15153566
5	0xbd9b1308	-0.07571989
6	0x3d665268	0.056230932
7	0x3df94e94	0.12173191
8	0xbd340406	-0.04394915
9	0x3aa34072	0.0012455119
10	0x3e16b2fe	0.14716718
11	0x3e1e35a7	0.15450154
12	0xbd908466	-0.07056503
13	0xbcfd307c	-0.030906908
14	0xbe212b35	-0.15739138
15	0x3c24cecf	0.010059073
16	0xbda8e2e5	-0.08246402
17	0x3dbff321	0.09372545
18	0x3d1d183c	0.03835319
19	0x3e7999f8	0.2437514
20	0x3e1423bc	0.14466757
21	0xbd809a2f	-0.06279408
22	0x3e202db3	0.15642433
23	0x3d163985	0.03667595
24	0xbe074c79	-0.13212766
25	0x3d006d71	0.03135437
26	0x3e6b52a7	0.22980748
27	0xbec1e98c	-0.37873495
28	0xbcc464ea	-0.0239739
29	0x3e41f2e3	0.1894031
30	0xbd1f33bd	-0.0388677
31	0xbda2c957	-0.07948559
32	0xbe7737f3	-0.24142437
33	0xbdac5569	-0.08414728
34	0x3d02065f	0.031744357
35	0x3e5c5c01	0.21519472
36	0xbd69ffec	-0.05712883
37	0x3c1dc508	0.009629495
38	0x3e4b4715	0.19851334
39	0x3e32704b	0.17425649
40	0x3cb0b70e	0.021571662
41	0x3d511ac3	0.051050913
42	0x3e62b003	0.22137456
43	0x3e2a4e8e	0.16631529
44	0x3de7e213	0.11322417
45	0x3d63cb1e	0.05561363
46	0xbbf27737	-0.0073994654
47	0x3df9e976	0.12202732
48	0xbe06f4d9	-0.1317934
49	0xbced0309	-0.028932111
50	0x3dc0c461	0.09412456
51	0xbdce7393	-0.10080638
52	0x3c6db22c	0.0145078115
53	0x3e340eb6	0.17583737
54	0x3e8b3b0a	0.2719348
55	0x3c067bda	0.008208239
56	0x3c18ae02	0.00931883
57	0x3dc2ad5f	0.09505724
58	0xbe628fe0	-0.22125196
59	0x3c7e6b18	0.015528463
60	0xbbc6274e	-0.006047166
61	0x3e8654dd	0.2623662
62	0xbe1892d8	-0.14899766
63	0xbe59f7b8	-0.21285903
64	0x3dcdd3b7	0.10050147
65	0x3e1ffe93	0.15624456
66	0x3da150b0	0.07876718
67	0x3dfaeeab	0.122525536
68	0x3deb5741	0.11491252
69	0xbd419faa	-0.04727141
70	0xbdf5a4fe	-0.119943604
71	0xbd22245a	-0.03958545
72	0x3dcd6f80	0.100310326
73	0xbd07f381	-0.033191208
74	0x3d5a5e80	0.05331278
75	0xbe2758cb	-0.16342466
76	0x3d4cae09	0.04997066
77	0xbde06570	-0.10956848
78	0x3ce2dfe0	0.027694643
79	0xbe9defce	-0.3084702
80	0xbcad7a06	-0.02117635
81	0x3c03f05b	0.008052911
82	0x3e1607ed	0.14651461
83	0xbe3ee3db	-0.18641607
84	0xbe95b645	-0.29240623
85	0x3e040c44	0.12895304
86	0x3d768c82	0.060192592
87	0x3e065b67	0.13120805
88	0xbc394fc9	-0.011310526
89	0xbe5a4e2e	-0.21318886
90	0x3e68facb	0.2275192
91	0x3e033f55	0.12817128
92	0x3db1d3a1	0.08682943
93	0xbe1030ec	-0.14081162
94	0x3e3e11b6	0.18561444
95	0x3e090dac	0.13384122
96	0x3cadbdfe	0.02120876
97	0x3bd92833	0.0066271066
98	0xbd877975	-0.06614963
99	0x3d661854	0.056175545
100	0xbc096d61	-0.008387894
101	0x3da20e07	0.07912832
102	0x3e02c753	0.12771349
103	0x3d14823d	0.036257017
104	0xbdbccd98	-0.092189014
105	0x3df693d3	0.12039914
106	0xbe7a4d9a	-0.24443665
107	0x3d1ab01f	0.03776562
108	0x3da83480	0.082131386
109	0x3df0199e	0.11723636
110	0xbd8fef52	-0.070280686
111	0x3e2785b5	0.16359599
112	0xbdb3317a	-0.08749671
113	0x3da1a784	0.07893279
114	0x3ddacdff	0.10683822
115	0x3db94e64	0.09048155
116	0x3df7d671	0.12101448
117	0x3cb7c614	0.022433318
118	0x3dfe1d1d	0.12407897
119	0xbe0d1e62	-0.13781121
120	0x3ccbc046	0.024871957
121	0xbe0f7895	-0.14010842
122	0xbd6fa800	-0.058509827
123	0xbc76e0ed	-0.015068275
124	0xbe3a5eb9	-0.18200196
125	0xbe8381cf	-0.25684974
126	0xbe310849	-0.17288317
127	0x3cf62f58	0.030051872
128	0x3d8898ba	0.06669755
129	0x3d8f52f4	0.06998244
130	0xbdbed29d	-0.09317515
131	0x3d757bc8	0.0599325
132	0x3a06e9cb	0.0005146532
133	0xbde7efbc	-0.113250226
134	0xbd2e6322	-0.04257501
135	0x3debe07a	0.11517425
136	0xbdfc3753	-0.1231524
137	0x3da85cc9	0.08220822
138	0x3cafdbf7	0.021467192
139	0x39d74f10	0.00041066902
140	0xbdc32195	-0.0952789
141	0xbe18f1c4	-0.14935976
142	0xbe1efaf1	-0.15525414
143	0x3dc004d7	0.09375923
144	0xbdc6712d	-0.09689555
145	0xbdcc5ee5	-0.09979037
146	0x3d3a2f79	0.04545543
147	0xbda9c99f	-0.08290409
148	0x3db4c85e	0.088272795
149	0xbe174c66	-0.14775237
150	0x3d062314	0.032748297
151	0xbd8d3c4c	-0.06896266
152	0xbd519c28	-0.051174313
153	0x3dd82473	0.10553827
154	0xbd1091b5	-0.035295207
155	0x3d5a2b14	0.05326374
156	0x3cd6ccde	0.026220735
157	0x3e0beee1	0.13665344
158	0x3cf80a56	0.030278366
159	0xbc264e41	-0.010150493
160	0xbd3772a5	-0.044787068
161	0x3cf377fa	0.029720295
162	0xbe06e0fc	-0.13171762
163	0xbe853b01	-0.2602158
164	0x3cab75ad	0.020930136
165	0xbcb853bf	-0.02250087
166	0xbe3d3ac6	-0.18479452
167	0xbc90be2e	-0.01766881
168	0x3c6d937e	0.014500497
169	0x3e08fdba	0.13378039
170	0xbe344f5e	-0.17608401
171	0xbe2a61b9	-0.1663884
172	0x3cc9a9e7	0.024617149
173	0xbd8c7049	-0.06857354
174	0x3d14df4f	0.036345776
175	0xbc86b2e3	-0.016442722
176	0x3e0ae104	0.13562399
177	0xbdcaba00	-0.09898758
178	0x3ded1b73	0.11577501
179	0x3ba896ee	0.0051449453
180	0x3e10aaf7	0.14127718
181	0x3dc7ccba	0.09755845
182	0x3d65741e	0.05601894
183	0x3db5889f	0.08863949
184	0xbc9d0429	-0.019167023
185	0x3c308377	0.010773531
186	0xbcf52c82	-0.02992845
187	0x3ddf0811	0.108902104
188	0x3d96fd62	0.07372548
189	0x3d69c3ab	0.05707137
190	0xbe0c87ba	-0.1372365
191	0xbc0e0e14	-0.008670349
192	0xbbd7c7d6	-0.0065851016
193	0xbe4f0dda	-0.20220128
194	0xbd09db31	-0.033656303
195	0x3da01960	0.0781734
196	0x3e1d7186	0.15375337
197	0xbcb625a1	-0.02223474
198	0xbeba5607	-0.3639376
199	0xbe73a03e	-0.23791596
200	0xbea3368a	-0.31877548
201	0x3d648937	0.05579492
202	0x3d20adc4	0.039228216
203	0x3d129312	0.03578479
204	0x3de7ee71	0.11324776
205	0x3d324301	0.04352093
206	0xbe57df11	-0.21081187
207	0x3d277179	0.0408797
208	0xbda3cbd2	-0.0799786
209	0xbc22508f	-0.009906902
210	0x3cbb778a	0.02288415
211	0xbd6dd27b	-0.058062058
212	0xbe1e1b93	-0.15440206
213	0xbe672a25	-0.2257467
214	0xbc8de70a	-0.017322082
215	0xbb13836c	-0.0022508753
216	0xbc518b75	-0.012789597
217	0xbed5ea04	-0.41780102
218	0xbd593fa8	-0.053039223
219	0x3d4fff29	0.05078045
220	0x3dbddf5a	0.092711166
221	0xbbdf2a94	-0.0068104956
222	0xbdb0748a	-0.08615978
223	0xbe339ed0	-0.17541051
224	0x3e6484ae	0.22316238
225	0xbd129833	-0.03578968
226	0xbc8ce51b	-0.01719909
227	0xbeb0da97	-0.3454177
228	0xbe3e83de	-0.18604991
229	0xbdaebd87	-0.08532243
230	0x3c63095b	0.013857211
231	0xbbb028a1	-0.005375937
232	0xbe46303b	-0.19354336
233	0x3dfe9dcb	0.1243244
234	0xbcdfbaeb	-0.02731081
235	0x3a3f4486	0.00072962826
236	0xbd560e93	-0.052259993
237	0xbdce7f2c	-0.1008285
238	0xbb2b2abb	-0.0026117999
239	0xbe646d42	-0.22307304
240	0xbbfeb654	-0.0077732
241	0xbd9b79c5	-0.07591585
242	0x3e05882e	0.1304023
243	0x3cc7b69f	0.024379073
244	0xbb0b8ff6	-0.0021295524
245	0x3e2090cf	0.1568024
246	0x3df7cfaf	0.121001594
247	0xbca55db3	-0.02018628
248	0xbcc845ac	-0.024447285
249	0xbe01560c	-0.1263048
250	0x3e088249	0.1333095
251	0x3db9c90d	0.090715505
252	0x3d718a34	0.05896969
253	0x3d22b865	0.039726634
254	0xbd7b4d9d	-0.061353315
255	0xbe413cef	-0.188709

net.2.bias f4 [64]
0	0x3c469bd7	0.012122116
1	0xbc9394a8	-0.01801522
2	0x3e291bfe	0.16514584
3	0x3b91ada8	0.0044457503
4	0xbc376ea3	-0.011195811
5	0xbcd02554	-0.025408424
6	0xbe11085c	-0.14163345
7	0xbd3e421d	-0.04644977
8	0xbcfdb814	-0.030971564
9	0xbc4fd391	-0.012684719
10	0x3d84269c	0.06452677
11	0x3d9297a0	0.071578264
12	0x3d6c2455	0.057651836
13	0xbd4283c5	-0.047488946
14	0x3dec3e99	0.11535377
15	0xbc966120	-0.01835686
16	0xbda67803	-0.08128359
17	0xbdfef1c7	-0.12448459
18	0xbe28b392	-0.1647475
19	0xbdf0976b	-0.11747631
20	0xbc61797e	-0.013761876
21	0xbcd1888e	-0.02557781
22	0x3d8001bf	0.06250333
23	0x3bfa1000	0.007631302
24	0xbdff6341	-0.12470103
25	0xbd504948	-0.050851136
26	0x3dcf3250	0.10117018
27	0xbdfe7198	-0.1242401
28	0xbd9924d3	-0.07477727
29	0x3e05a161	0.13049842
30	0x3e3760b6	0.17907986
31	0xbce30b42	-0.02771533
32	0x3d9ad1cc	0.07559547
33	0xbe08e8f6	-0.13370118
34	0x3db8d0bc	0.09024188
35	0xbde289ba	-0.110614255
36	0x3de9c8c7	0.11415248
37	0xbbf8c6d2	-0.0075920606
38	0xbda145c5	-0.078746356
39	0x3d1e51a5	0.03865208
40	0x3d0a3113	0.033738207
41	0xbe2eb043	-0.17059426
42	0x3a3cf3e9	0.00072079763
43	0xbddcd5b8	-0.10782951
44	0xbc946cf3	-0.018118357
45	0x3e1ab570	0.15108275
46	0xbd948100	-0.07251167
47	0xbe0576be	-0.13033578
48	0x3c846437	0.016161067
49	0xbdc7ebef	-0.09761798
50	0x3db67a35	0.08910028
51	0xbd40a14d	-0.04702883
52	0xbd21bdde	-0.039487712
53	0xbd37fcf5	-0.044918973
54	0x3d87722e	0.06613575
55	0x3e083bf0	0.13304114
56	0x3dd885f5	0.10572425
57	0xbc9f5870	-0.01945135
58	0x3e180a6e	0.14847729
59	0x3d137270	0.035997808
60	0xbb24c094	-0.00251392
61	0xbdf6764e	-0.120342836
62	0x3d5d3952	0.054009743
63	0x3d8a75cc	0.06760749

net.4.weight f4 [64, 64]
0	0x3a7ea292	0.0009713556
1	0x3c983f3e	0.018584844
2	0xbda986ec	-0.082776874
3	0xbd984d9d	-0.074366786
4	0xbcd493fb	-0.025949469
5	0x3c0a56ac	0.008443516
6	0xbc19ee9a	-0.009395266
7	0xbc01a612	-0.007913129
8	0xbd1bb9c6	-0.038018964
9	0x3d067162	0.032822974
10	0xbe03ddb5	-0.12877543
11	0xbd41d248	-0.04731968
12	0xbe04957e	-0.12947652
13	0x3dd50c00	0.104026794
14	0x3d38e1f0	0.045137346
15	0xbd7a4f74	-0.06111093
16	0x3db12c98	0.08651084
17	0xbd891d4f	-0.06695043
18	0x3d9206b5	0.071301855
19	0x3dcec6f2	0.100965396
20	0x3d53ac24	0.051677838
21	0xbd347f76	-0.04406687
22	0xbdf75870	-0.12077415
23	0xbc0965a4	-0.008386049
24	0x3cec27a0	0.028827488
25	0xbdc280ad	-0.09497199
26	0xbccba418	-0.02485852
27	0xbba55591	-0.0050456007
28	0xbd144997	-0.036202993
29	0xbe0c5e90	-0.13707948
30	0xbd4a714a	-0.049424447
31	0xbd7bad1c	-0.061444387
32	0xbb8dcfa2	-0.0043277303
33	0x3c9f5f05	0.019454489
34	0xbe073750	-0.13204694
35	0xbdf4c8a6	-0.11952333
36	0x3c07ecb4	0.0082961805
37	0x3dba9274	0.09109965
38	0xbce4af50	-0.027915627
39	0xbe032377	-0.12806498
40	0x3ca144e4	0.01968617
41	0x3c1c6401	0.009545327
42	0xbd005634	-0.03133221
43	0xbd9e14c5	-0.07718805
44	0xbbeba592	-0.0071913684
45	0x3d004bce	0.031322293
46	0xbe04391d	-0.12912412
47	0x3df27ef6	0.11840622
48	0x3c5fcfe9	0.0136604095
49	0xbd2b6a38	-0.041849345
50	0x3dbd12c4	0.09232095
51	0xbbd9d892	-0.0066481316
52	0x3d8d6deb	0.06905731
53	0xbd1c40dd	-0.038147796
54	0xbd1872c3	-0.03721882
55	0xbdf94ba5	-0.12172631
56	0x3b880060	0.0041504353
57	0x3c5bebd0	0.013422921
58	0xbe0f7844	-0.14010721
59	0x3cd434a4	0.025904007
60	0x3dcc8944	0.09987119
61	0x3d2b13a6	0.041766785
62	0x3cf6a84d	0.030109549
63	0x3d30f560	0.043202758
64	0x3dabc917	0.08387964
65	0xbb072fc0	-0.0020627826
66	0x3c3f0d1d	0.011660841
67	0x3d55f2c0	0.052233458
68	0xbe13fd2e	-0.14452049
69	0xbddf4e6a	-0.10903628
70	0xbd13fcad	-0.036129642
71	0x3e29f312	0.1659663
72	0xbdbad2f2	-0.09122266
73	0xbc9a5a0f	-0.018841771
74	0xbdd704fd	-0.10498998
75	0xbd838146	-0.06421141
76	0x3da346e3	0.07972505
77	0x3d16f871	0.036858026
78	0x3b3d5627	0.0028890462
79	0xbc81fb40	-0.015866876
80	0x3e03e2a4	0.12879425
81	0xbd7fd02d	-0.06245439
82	0x3d43c770	0.04779762
83	0xbb43fb26	-0.0029904335
84	0x3ddf0d73	0.10891237
85	0x3cd15ed6	0.025557917
86	0x3d2cf3d2	0.042224713
87	0x3dfde7f5	0.12397758
88	0x3defd049	0.11709649
89	0x3d2c9404	0.042133346
90	0x3cbda399	0.023149299
91	0xbd816e29	-0.063198395
92	0xbdb00f03	-0.08596613
93	0xbdb116db	-0.086469375
94	0xbb2ce2ab	-0.0026380222
95	0x3db0c223	0.08630779
96	0x3de57668	0.11204225
97	0x3c69c51a	0.014268184
98	0xbc8f2565	-0.017473886
99	0xbdb6e75e	-0.089308485
100	0xbd7f5525	-0.06233706
101	0xbd31d3bd	-0.04341482
102	0xbe81d4ad	-0.2535757
103	0x3d895a69	0.067066975
104	0x3dc125e2	0.09431054
105	0xbe403618	-0.18770635
106	0xbd79d0e1	-0.060990218
107	0xbe94c58f	-0.29056975
108	0x3ca3a6b0	0.019976944
109	0x3daedc6a	0.085381344
110	0xbd629173	-0.055314492
111	0x3ce65566	0.028116893
112	0x3e05eb73	0.13078098
113	0x3d493ce5	0.04913034
114	0xbc96d6df	-0.018413005
115	0x3da1d3e5	0.07901744
116	0xbcbe1cd1	-0.0232071
117	0xbd2e5ab6	-0.042566977
118	0xbe1771c8	-0.14789498
119	0xbd2aa6ea	-0.041663088
120	0xbe88f256	-0.26747388
121	0xbd11cf10	-0.03559786
122	0x3ccba8fa	0.024860848
123	0x3ddd5f49	0.1080919
124	0xbd86a9dd	-0.065753676
125	0xbe099db6	-0.13439068
126	0xbdb7f94d	-0.08983097
127	0xbdfe0bf5	-0.124046244
128	0xbdd29d2a	-0.10283883
129	0xbab39130	-0.0013699885
130	0xbdfa1bd2	-0.122123376
131	0x3e32f183	0.17474942
132	0x3d96c50e	0.07361804
133	0xbd9ca8a3	-0.076493524
134	0x3c51b9b0	0.012800619
135	0xbe3e5711	-0.185879
136	0x3d66fdb2	0.056394286
137	0x3d55a08b	0.05215506
138	0x3dd9abb6	0.106284544
139	0x3e1ea450	0.15492368
140	0x3c8ba518	0.017046496
141	0x3e2dec15	0.1698459
142	0x3be4df20	0.0069846064
143	0x3d335900	0.04378605
144	0x3dc132ad	0.09433494
145	0x3ec9aa15	0.39387575
146	0xbdd9e9b1	-0.10640276
147	0x3c88edbc	0.016714923
148	0xbe102182	-0.14075282
149	0xbe86dbf3	-0.26339683
150	0x3d0e627c	0.03476189
151	0xbdb8b1f2	-0.090183154
152	0x3e6e080a	0.23245254
153	0xbdcd874f	-0.10035574
154	0x3e20b0a1	0.15692379
155	0x3b28a500	0.0025733113
156	0x3d862406	0.0654984
157	0x3d9290a3	0.071564935
158	0xbe548d1f	-0.20756958
159	0x3e1c2f90	0.15252519
160	0xbe443744	-0.19161707
161	0x3e876561	0.26444533
162	0xbda399e8	-0.0798834
163	0x3b909ea0	0.004413441
164	0xbcb27408	-0.021783844
165	0x3dfcdb14	0.12346473
166	0xbea265b2	-0.31718212
167	0x3ca99d48	0.02070488
168	0x3db7a863	0.08967664
169	0xbeddfea7	-0.43358347
170	0x3dd04273	0.10168924
171	0x3d24a540	0.040196657
172	0x3cc12538	0.023577318
173	0xbdb73d81	-0.08947278
174	0x3ddeff3d	0.108885266
175	0x3d68b03f	0.056808706
176	0x3df954ec	0.12174401
177	0x3ded2ca8	0.11580783
178	0xbe378a65	-0.17923887
179	0x3d1d37a8	0.038383156
180	0xbe0f5b38	-0.13999641
181	0xbea8d984	-0.3297845
182	0x3ddf090a	0.10890396
183	0xbc32e03b	-0.0109177185
184	0x3e2e85c3	0.17043214
185	0x3d05fef0	0.03271383
186	0xbe874890	-0.26422548
187	0x3d3986c7	0.04529455
188	0x3e3eff14	0.18651992
189	0xbe291009	-0.16510023
190	0x3c4d050e	0.012513412
191	0xbdb2430e	-0.08704196
192	0x3c3d1021	0.01153949
193	0x3d34bbda	0.04412446
194	0xbda5fdee	-0.08105074
195	0xbe580de2	-0.21099046
196	0x3dcb52c4	0.09927896
197	0xbc293488	-0.010327466
198	0x3d9eec2a	0.077598885
199	0x3cf02edd	0.029319221
200	0xbe283c5d	-0.16429277
201	0xbce2d9c2	-0.027691726
202	0xbd333e40	-0.043760538
203	0x3db79c74	0.08965388
204	0x3d1eaa4d	0.03873663
205	0x3e258dd5	0.16167386
206	0xbd9e1188	-0.077181876
207	0xbd4ea134	-0.050446704
208	0x3d10f0e6	0.03538599
209	0x3d0dccfd	0.03461932
210	0x3dff4689	0.124646254
211	0xbc74d2a5	-0.0149428
212	0x3e1af6e8	0.1513325
213	0x3da3dcbc	0.08001086
214	0xbc173516	-0.009228965
215	0x3e1bda59	0.15220012
216	0x3e4c9612	0.19979122
217	0x3d4b5eb2	0.049650855
218	0xbd3bf919	-0.045891855
219	0x3dd0db99	0.10198135
220	0x3dbdc3d5	0.092658676
221	0xbdeb08fe	-0.114763245
222	0xbd2b8a44	-0.041879907
223	0xbcfcf3d7	-0.03087799
224	0x3d8c1951	0.06840766
225	0x3d80db08	0.06291777
226	0xbd8dbad6	-0.06920402
227	0xbd83d5f2	-0.06437291
228	0x3d6d6deb	0.057966154
229	0xbd123f97	-0.035705175
230	0x3d423d95	0.04742201
231	0x3d941643	0.072308086
232	0x3db8f8c8	0.09031826
233	0xbce00009	-0.027343767
234	0xbd13c33a	-0.036074854
235	0x3e0bb111	0.13641764
236	0x3cbfd64c	0.023417614
237	0xbdb36ed9	-0.08761377
238	0xbd34281f	-0.043983575
239	0x3da1a85f	0.07893442
240	0xbdf99647	-0.12186866
241	0x3df8f248	0.121555865
242	0xbd8410d0	-0.06448519
243	0x3da8c19e	0.082400545
244	0x3eb9e654	0.3630854
245	0xbe321dd5	-0.17394193
246	0xbd893230	-0.06699026
247	0xbe150b53	-0.14555101
248	0xbf06ddcd	-0.5268219
249	0xbd3d5d94	-0.04623182
250	0xbb8a8655	-0.0042274394
251	0x3de1849d	0.11011622
252	0x3df77573	0.120829485
253	0xbd97b649	-0.07407815
254	0xbd2f64b8	-0.042820662
255	0x3dff2bec	0.12459549

net.4.bias f4 [64]
0	0x3acdf30d	0.0015712694
1	0x3d7c9f1d	0.06167518
2	0xbdccdf7a	-0.10003562
3	0xbe1e579e	-0.15463111
4	0x3c68ce61	0.014209361
5	0x3dc327b7	0.095290594
6	0xbc53c195	-0.0129245715
7	0x3e05fe88	0.13085377
8	0x3de58cd3	0.11208501
9	0x3d4a40bb	0.049378138
10	0xbdc52409	-0.09626014
11	0xbd7a9160	-0.061173797
12	0xbb510a5d	-0.0031897046
13	0xbd5ac649	-0.053411756
14	0x3deaaad2	0.11458363
15	0x3d894313	0.067022465
16	0xbcd84dc8	-0.026404276
17	0x3de5ab11	0.11214269
18	0x3e631765	0.22176893
19	0xbd51d9cb	-0.051233094
20	0x3de95b80	0.11394405
21	0xbbdc6dfd	-0.006726979
22	0x3e0d790a	0.13815704
23	0x3d164b4d	0.036692906
24	0x3d013885	0.03154804
25	0xbdc3d173	-0.09561434
26	0x3dbb1805	0.09135441
27	0x3d037495	0.032093603
28	0xbc0793e7	-0.008275009
29	0xbcef7db3	-0.029234743
30	0x3df253f0	0.11832416
31	0xbd61c5b9	-0.055120204
32	0x3ded16e0	0.11576629
33	0x3d6e857a	0.058232762
34	0x3c9dcb8a	0.019262094
35	0x3df27553	0.11838784
36	0x3c387052	0.011257248
37	0x3ca6f0f4	0.020378567
38	0x3de9929c	0.11404917
39	0xbd56f4dc	-0.05247961
40	0x3d563dcd	0.05230503
41	0x3e04e91b	0.12979548
42	0x3db60b97	0.08888929
43	0x3ddecc43	0.108788036
44	0x3d36830d	0.044558574
45	0x3e06b84b	0.1315624
46	0x3d695bc2	0.056972273
47	0x3e1e4080	0.15454292
48	0xbc96dde8	-0.01841636
49	0xbd6b653f	-0.057469603
50	0xbbed646d	-0.0072446377
51	0x3d31d339	0.04341433
52	0xbd9fd8a0	-0.0780499
53	0xbd28f7d0	-0.041251957
54	0x3d637a04	0.055536285
55	0xbd80188a	-0.062546805
56	0xbd154165	-0.03643932
57	0x3d7b1620	0.061300397
58	0xbcbfdf8e	-0.023422029
59	0xbd6f9e68	-0.058500677
60	0xbe9c8f8b	-0.30578265
61	0xbc24027d	-0.010010359
62	0xbc1f2a31	-0.009714649
63	0xbd83843f	-0.06421708

net.6.weight f4 [64, 64]
0	0xbd34f804	-0.04418184
1	0xbd815dcf	-0.06316721
2	0xbcb8c677	-0.022555573
3	0x3dc57fe6	0.09643535
4	0xbd340957	-0.04395422
5	0xbd844089	-0.064576216
6	0xbd524449	-0.051334653
7	0xbca87954	-0.020565666
8	0xbd7611a9	-0.060075436
9	0xbdaa1f8f	-0.083068006
10	0x3da4182f	0.08012425
11	0xbd94e7da	-0.07270785
12	0x3d6dc612	0.058050223
13	0x3df1c18e	0.11804496
14	0x3d2eb8c6	0.042656682
15	0x3d0164d2	0.03159029
16	0x3d66bd92	0.056333132
17	0xbe95811d	-0.29200068
18	0xbdcff3a5	-0.101538934
19	0xbe1230e7	-0.14276467
20	0x3c244a9f	0.010027557
21	0x3d01f203	0.03172494
22	0x3d03f812	0.032219
23	0xbde04597	-0.10950773
24	0xbd23c5e3	-0.03998364
25	0xbb61f1f3	-0.0034476488
26	0x3dc2f6ce	0.095197305
27	0x3d0ca722	0.034339078
28	0xbd0dfeac	-0.034666702
29	0xbdc3ed40	-0.09566736
30	0xbde7800d	-0.113037206
31	0xbcad1a75	-0.02113078
32	0x3d8ff28e	0.070286855
33	0xbcfeca42	-0.031102303
34	0x3d41b510	0.047291815
35	0xbccb69f4	-0.024830796
36	0xbda906b1	-0.082532294
37	0x3d22994a	0.03969697
38	0x3d6d3cc9	0.057919297
39	0x3dcb72b2	0.09933986
40	0xbdef9e22	-0.11700083
41	0xbd46e6ee	-0.048560075
42	0x3dde9f6d	0.10870252
43	0xbc684ef2	-0.014178978
44	0x3daa7527	0.08323126
45	0x3d915be4	0.07097605
46	0x3d70652d	0.05869024
47	0xbdb72bfa	-0.08943935
48	0x3dddd936	0.10832445
49	0xbd6e5cc1	-0.058193926
50	0xbde9841c	-0.11402151
51	0xbdc57b01	-0.09642602
52	0x3c44cd9e	0.012011914
53	0x3dfba3ee	0.122871265
54	0x3d9f4097	0.077759914
55	0xbd07fc83	-0.0331998
56	0x3bd70090	0.0065613464
57	0xbd1f5e8f	-0.038908537
58	0xbcea10cd	-0.028572464
59	0x3c3e90c3	0.011631194
60	0x3e2da25c	0.16956466
61	0xbdbc3c3c	-0.09191176
62	0xbcfb39b7	-0.030667169
63	0xbc6a26c0	-0.014291465
64	0xbd63c45b	-0.05560718
65	0x3d994116	0.07483117
66	0xbc1229b7	-0.008921078
67	0x3e98ed70	0.2986865
68	0xbd08dddc	-0.033414707
69	0x3e61c0b0	0.2204616
70	0x3d6fb042	0.058517702
71	0x3e31a270	0.17347121
72	0xbc98a487	-0.01863314
73	0x3c5e1a80	0.013556123
74	0xba815a42	-0.0009868818
75	0xbdf29a5a	-0.118458465
76	0xbd241161	-0.040055636
77	0x3eb0000c	0.34375036
78	0x3e0adde2	0.13561204
79	0xbda72127	-0.0816062
80	0x3c6604cf	0.014039232
81	0x3e4725de	0.19448039
82	0x3d8a73a3	0.06760337
83	0xbd94db56	-0.072683975
84	0xbac4f4a6	-0.0015026524
85	0x3d68eae1	0.056864623
86	0xbcb056c9	-0.021525757
87	0xbd588d4f	-0.052869137
88	0xbe1bddb6	-0.15221295
89	0x3e7c47e2	0.24636796
90	0x3d90d74a	0.07072313
91	0x3e35d2e4	0.1775623
92	0x3da6dcc4	0.081475765
93	0xbf24f634	-0.64438176
94	0x3cb455ca	0.022013564
95	0xbf080e2e	-0.53146636
96	0x3cbd55ce	0.023112204
97	0xbc9679d6	-0.018368643
98	0xbd8bf68c	-0.068341345
99	0x3dd85a95	0.10564152
100	0x3da72a47	0.08162361
101	0xbd0d432e	-0.034487896
102	0xbdebd47f	-0.1151514
103	0xbe128411	-0.14308192
104	0x3e2f697f	0.17130087
105	0x3e4d0efd	0.20025249
106	0xbe2725b1	-0.16322972
107	0x3d2a4e2a	0.04157845
108	0xbdc1d181	-0.09463788
109	0x3c84773d	0.016170138
110	0xbde29e0c	-0.11065301
111	0xbe37c153	-0.17944841
112	0x3e061fc2	0.13098052
113	0x3e031bf4	0.12803632
114	0xbdebd38a	-0.11514957
115	0x3f3b636b	0.73198575
116	0x3c23a5ad	0.009988231
117	0x3c113630	0.008863017
118	0x3e4268b7	0.18985258
119	0x3e248e04	0.160698
120	0x3e240e82	0.1602116
121	0x3d31037f	0.043216225
122	0xbe2f4e8b	-0.17119806
123	0x3d8ee67a	0.06977554
124	0x3ea9a650	0.331347
125	0xbda1be02	-0.07897569
126	0xbc1893b4	-0.009312559
127	0xbdb65f96	-0.0890495
128	0x3ddfa69b	0.10920449
129	0xbc6f71fd	-0.014614579
130	0xbdf37875	-0.1188821
131	0x3e71d775	0.23617347
132	0xbb7e898c	-0.0038839309
133	0xbd2bd674	-0.041952565
134	0x3d2018f3	0.039086293
135	0xbe0e7dcd	-0.13915177
136	0x3dd47a29	0.10374863
137	0xbdaf1fbe	-0.08550976
138	0xbe03d27c	-0.12873262
139	0x3c0f3960	0.008741707
140	0xbe05f581	-0.13081934
141	0xbbcc1f33	-0.006229305
142	0x3d206037	0.039154258
143	0xbc060bfd	-0.008181569
144	0xbe9f0693	-0.31059703
145	0xbe06c82b	-0.13162296
146	0x3d86cca1	0.065819986
147	0x3e0b1712	0.1358302
148	0xbdf90030	-0.12158239
149	0x3d0e3ab5	0.034723956
150	0x3e15e306	0.14637384
151	0x3e295de8	0.16539729
152	0xbd870b9b	-0.065940104
153	0xbdbc2395	-0.09186474
154	0xbcdf0b94	-0.0272272
155	0x3dc82a5b	0.09773704
156	0xbd960f16	-0.07327096
157	0x3e16250a	0.14662567
158	0x3c35289b	0.011057044
159	0xbd600f58	-0.054702133
160	0x3e1c25aa	0.15248743
161	0xbd973515	-0.073831715
162	0x3c2b87a6	0.010469353
163	0x3dce7725	0.10081319
164	0x3dc1c1c8	0.09460789
165	0x3dbff5cf	0.09373056
166	0x3d175dc0	0.03695464
167	0xbe0ac5df	-0.13552044
168	0x3cc22242	0.023697976
169	0xbe30522c	-0.17218846
170	0xbcd933d6	-0.026513975
171	0xbe3f53d1	-0.18684317
172	0x3d344af3	0.04401679
173	0x3e22fbfd	0.15916438
174	0x3d9375a5	0.07200173
175	0x3e1f0a4f	0.15531276
176	0xbe2a0218	-0.16602361
177	0x3ce1a8a1	0.027546229
178	0x3a05e7dd	0.00051080977
179	0xbf2401f0	-0.64065456
180	0x3d9f1bea	0.07768996
181	0x3c85e7a8	0.016345814
182	0xbdbbe5a5	-0.091746606
183	0xbd46f05d	-0.048569072
184	0x3db31859	0.08744878
185	0x3e105401	0.14094545
186	0xbbf12b94	-0.0073599312
187	0xbe1d7e9e	-0.15380332
188	0x3d09b7cc	0.033622548
189	0xbd7ed284	-0.062212482
190	0x3e08f3ab	0.13374202
191	0xbce91416	-0.02845196
192	0xbd0096d9	-0.03139386
193	0xbc54157e	-0.012944577
194	0xbe8426b9	-0.25810793
195	0x3e017159	0.12640895
196	0x3e0c43a4	0.13697678
197	0xbe2f49f8	-0.1711806
198	0xbdea7434	-0.11447945
199	0xbdea46be	-0.11439274
200	0x3cce0c02	0.02515221
201	0xbdd031b2	-0.10165729
202	0xbd21d6ff	-0.039511677
203	0x3bf743e0	0.007545933
204	0x3bd94710	0.0066307858
205	0xbe6e4235	-0.23267443
206	0xbc83a23b	-0.016068568
207	0x3d07d204	0.03315927
208	0xbe84658d	-0.25858727
209	0xbe303776	-0.17208657
210	0xbd458204	-0.048219696
211	0xbd60053b	-0.05469249
212	0x3d916065	0.07098464
213	0xbd432e96	-0.04765185
214	0x3e1bdf3a	0.15221873
215	0x3de3b8da	0.11119242
216	0xbdcb881d	-0.09938071
217	0xbecbc248	-0.39796662
218	0xbdc4e2c9	-0.09613568
219	0x3b811c95	0.003940175
220	0xbd009638	-0.03139326
221	0x3c83644f	0.016039042
222	0xbc515be5	-0.012778257
223	0xbdda808b	-0.10669049
224	0x3e059dba	0.13048449
225	0x3d3a2dde	0.0454539
226	0x3df95993	0.12175288
227	0xbbb55e3e	-0.005534916
228	0x3da591ec	0.08084473
229	0xbd61542c	-0.055011913
230	0xbc3fec7f	-0.0117141
231	0x3dc47ea3	0.095944665
232	0x3cdcb3ad	0.026941145
233	0x3d93bd57	0.07213848
234	0x3d8c6b9c	0.06856462
235	0xbe353249	-0.17694964
236	0xbe231a0a	-0.15927902
237	0x3df748ce	0.12074433
238	0xbd8a3b86	-0.067496344
239	0x3daec2fe	0.085332856
240	0xbdcc716e	-0.099825725
241	0xbdbd83bc	-0.09253642
242	0xbd4183aa	-0.047244705
243	0xbea1c194	-0.31593
244	0xbd0e67b4	-0.034766868
245	0x3d8b9464	0.06815413
246	0xbe1aa4e1	-0.15101959
247	0xbe0862bc	-0.13318914
248	0xbdf3023c	-0.118656605
249	0x3cc0261b	0.02345567
250	0x3c4af938	0.01238852
251	0xbcf34761	-0.029697122
252	0xbd05d670	-0.032675207
253	0x3c1f0fb1	0.009708331
254	0x3e1d8d5d	0.15385957
255	0xbe012c3b	-0.12614529

net.6.bias f4 [64]
0	0xbdcf8218	-0.10132235
1	0xbe7eea03	-0.24893956
2	0xbd97eb35	-0.07417909
3	0x3e04fe79	0.12987699
4	0x3d9b2faa	0.075774506
5	0x3d956102	0.072938934
6	0xbe27dbed	-0.16392489
7	0x3ddd621a	0.10809727
8	0x3d8c88cc	0.068620294
9	0x3d85b6e8	0.06529027
10	0x3d5a24b3	0.053257655
11	0x3aec8933	0.001804626
12	0x3d927189	0.07150561
13	0x3dec770d	0.11546145
14	0x3c3d314e	0.0115474
15	0x3dfc0642	0.12305881
16	0x3d83ec7e	0.06441592
17	0x3d27653b	0.040868025
18	0x3d9f4077	0.077759676
19	0x3c035a36	0.008017113
20	0x3d85270b	0.065015875
21	0x3c22a11a	0.009926105
22	0xbda10bfc	-0.07863614
23	0x3d34dd97	0.044156637
24	0x3ccff3d1	0.025384815
25	0x3d45ceba	0.048292853
26	0x3d6dfd96	0.058103167
27	0xbc7ff048	-0.015621252
28	0x3decdd52	0.11565651
29	0xbdd5d492	-0.10440935
30	0x3a83ba27	0.0010049985
31	0x3d1f85cf	0.03894597
32	0x3d59191b	0.053002458
33	0xbd3e96ba	-0.046530463
34	0xbb9b817d	-0.004745661
35	0xbdd33790	-0.10313332
36	0x3d1b4f66	0.037917517
37	0xbd11b644	-0.035574213
38	0x3de7a731	0.11311186
39	0x3dea403e	0.114380345
40	0x3e05d726	0.13070354
41	0xbdae672a	-0.08515771
42	0x3d624dd0	0.05524999
43	0xbab0a29c	-0.0013476196
44	0x3d81ad04	0.06331828
45	0x3da6d1fa	0.081455186
46	0xbdf02b0d	-0.11726961
47	0xbe0dc48f	-0.13844512
48	0xbbf5c59b	-0.007500363
49	0x3d5ea06f	0.05435222
50	0xbdb083c4	-0.08618882
51	0x3d8e08cd	0.06935272
52	0x3d6ea709	0.058264766
53	0x3c929e4d	0.01789775
54	0xbe4bceb7	-0.19903074
55	0x3be03341	0.0068420474
56	0xbd8d41a1	-0.06897283
57	0xbbd774ca	-0.0065752016
58	0xbda7585e	-0.081711516
59	0x3d9c07c6	0.0761867
60	0x3d90089f	0.07032894
61	0xbde21de3	-0.11040857
62	0xbe0b1a3b	-0.13584225
63	0xbd0e4767	-0.034736063

net.8.weight f4 [1, 64]
0	0xbdeca255	-0.115544
1	0x3e8e1979	0.2775381
2	0xbe256ef1	-0.16155602
3	0xbe2d064f	-0.16896938
4	0xbe952722	-0.29131418
5	0x3e611a11	0.219826
6	0xbe9874af	-0.29776523
7	0xbe76a48c	-0.24086207
8	0x3ebb4687	0.36577246
9	0xbe14694e	-0.14493296
10	0xbe2d956a	-0.16951528
11	0x3f241115	0.64088565
12	0xbe256b35	-0.16154177
13	0x3e9ced87	0.3064997
14	0xbe0fe98b	-0.14053933
15	0x3e543f73	0.20727329
16	0xbec57600	-0.3856659
17	0xbe180395	-0.14845116
18	0xbe0acd98	-0.1355499
19	0x3e8cac7f	0.27475354
20	0xbe501103	-0.2031899
21	0x3e2ce015	0.16882356
22	0x3e7f4f65	0.2493263
23	0xbe57a57b	-0.2105922
24	0xbe021e1c	-0.12706798
25	0xbe17c7a0	-0.14822245
26	0x3e39d0cc	0.18146056
27	0x3e9e08eb	0.3086618
28	0x3e623095	0.22088845
29	0x3d17e814	0.03708656
30	0xbe14c0d1	-0.14526679
31	0xbe8578ed	-0.26068822
32	0x3e005093	0.12530737
33	0xbd9c9e57	-0.076473884
34	0xbdacf212	-0.08444609
35	0x3d81efdc	0.06344578
36	0xbe3a9a7a	-0.1822299
37	0xbe448c4a	-0.19194141
38	0x3e7b14d4	0.24519664
39	0xbe1aa0e6	-0.1510044
40	0xbe4b68d6	-0.1986421
41	0xbcb75c60	-0.022382915
42	0x3db7a347	0.089666896
43	0xbedf1abf	-0.43575093
44	0xbe7ab9dd	-0.24484964
45	0xbe729513	-0.2368968
46	0x3eb3fd83	0.35154352
47	0x3dce16be	0.100629315
48	0xbe077e00	-0.13231659
49	0xbe5f2125	-0.21789987
50	0xbb8c0810	-0.004273422
51	0xbe54550d	-0.2073557
52	0xbdfed934	-0.12443772
53	0xbe5209ed	-0.20511599
54	0xbecbd0e4	-0.39807808
55	0xb79637a1	-1.7907298e-05
56	0xbdf98dee	-0.12185274
57	0x3e615c8f	0.22007965
58	0xbf09c278	-0.5381236
59	0x3e366a21	0.17813922
60	0xbe26a206	-0.16272745
61	0xbd1f489b	-0.0388876
62	0xbd4c1824	-0.04982771
63	0x3e5adaaf	0.21372484
