Self project/models/nf/nf_halo_asn1/flow_state.pt (torch, 34805 bytes, 14 tensors)

0.unnormalized_widths f4 [4, 8]
0	0x3fb1eada	1.3899796
1	0x3f503079	0.81323963
2	0x3e6401b6	0.22266278
3	0xbe439123	-0.19098334
4	0x3f8781aa	1.0586445
5	0xbf3ade4c	-0.7299545
6	0x3f2fb24e	0.68631446
7	0xbf59aff0	-0.85034084
8	0xbf9ba31c	-1.2159152
9	0x3f97ac3b	1.1849436
10	0xbf5b33ca	-0.856259
11	0xbfcbf35a	-1.593364
12	0x3e78ff4c	0.24316138
13	0xc00f17c6	-2.235826
14	0x3d29c91c	0.04145156
15	0x3fb69cab	1.4266561
16	0x3fd82a7e	1.6887968
17	0xbdeae99d	-0.114703394
18	0xbee4694b	-0.44611582
19	0x3f304a8d	0.68863755
20	0xbe26e7fc	-0.16299433
21	0x3fa5e6b9	1.2961036
22	0x3f0a1e40	0.5395241
23	0x3fb48eb3	1.4106048
24	0x3f47e3d1	0.78081995
25	0x3f4c6f8b	0.798577
26	0x3de86c53	0.11348786
27	0x3f87779a	1.0583375
28	0xbfdbf50b	-1.7184156
29	0xbff48323	-1.910252
30	0x3f24eb89	0.644219
31	0x3fde45e3	1.7365078

0.unnormalized_heights f4 [4, 8]
0	0xbe9ab16b	-0.30213484
1	0x400b8a37	2.180311
2	0x401d59b5	2.4586003
3	0x401f3a1c	2.4879217
4	0xbf7fa58b	-0.99861974
5	0xc029ac35	-2.6511357
6	0xbfefcfe1	-1.8735315
7	0xc03a3e14	-2.910039
8	0xbf9f316e	-1.243696
9	0x3fa79e1c	1.3095126
10	0xbf10df52	-0.5659076
11	0xbeb191ca	-0.3468154
12	0xbf47f480	-0.7810745
13	0x3fcc44b9	1.5958472
14	0x3e3e276b	0.18569724
15	0x3f87fb6a	1.06236
16	0xbf8827c9	-1.0637141
17	0xbf540c0e	-0.82830894
18	0xbdcb163a	-0.09916349
19	0x3f4bdb5a	0.7963158
20	0xbde69549	-0.11258943
21	0x3f8bf622	1.0934489
22	0xbf13de73	-0.57761306
23	0xbf0d6a4b	-0.55240315
24	0xbfb06da3	-1.3783458
25	0x3da7e6bd	0.08198307
26	0xbcaaaaa3	-0.020833319
27	0x3f514915	0.8175214
28	0x3f1370ca	0.5759398
29	0x3fc16c64	1.5111203
30	0xbf974638	-1.1818304
31	0x3fabe0fc	1.3428035

0.unnormalized_derivatives f4 [4, 7]
0	0xc069459c	-3.6448736
1	0x401fb038	2.4951305
2	0x40b5c2fb	5.6800513
3	0x4003ca7f	2.0592344
4	0xbf86762e	-1.0504816
5	0x3f907027	1.1284226
6	0xc06872ec	-3.6320143
7	0x3fa3955c	1.2779956
8	0xbe30529c	-0.17219013
9	0x3f74046c	0.9531925
10	0xbf92990c	-1.1452956
11	0x3f0a5c97	0.5404753
12	0xbf5fbb46	-0.8739513
13	0x415f3e8b	13.952769
14	0xbedb3dcf	-0.42820594
15	0x3f61cffb	0.8820798
16	0xc022636f	-2.537319
17	0x40026e3a	2.0379777
18	0x3fc9b4bb	1.575828
19	0x3fc39353	1.5279335
20	0x3fe7637c	1.8077235
21	0xbfbbc724	-1.4670148
22	0x3ec8e7b3	0.39239272
23	0x3f88d4db	1.0689958
24	0xbfef076a	-1.8674138
25	0x401e4a2f	2.4732778
26	0xbff28a7c	-1.8948512
27	0x3e844c49	0.2583945

0.unnormalized_lambdas f4 [4, 8]
0	0xbfbdf09f	-1.4839057
1	0x3f819a8b	1.0125288
2	0x40a3f8a7	5.124103
3	0x3fc47eec	1.5351233
4	0x4040abb4	3.01048
5	0x40005c90	2.0056496
6	0xbe807e2a	-0.25096256
7	0xbf08196a	-0.5316378
8	0x3f1403f8	0.57818556
9	0x3d75ebd0	0.06003934
10	0x3e91b24e	0.28456348
11	0xbe8c297c	-0.273754
12	0x3f467543	0.7752268
13	0xbe6c884a	-0.23098865
14	0x3ffdf64d	1.984079
15	0x3e250db8	0.16118515
16	0x3dae6faf	0.08517396
17	0x3e9c7ab0	0.30562353
18	0x3f01bee4	0.506819
19	0xbfab9b9c	-1.3406863
20	0xbf4087a6	-0.75206983
21	0x3f874988	1.0569315
22	0x3f8469de	1.0344808
23	0x3f3a13ac	0.72686267
24	0xbc07a5d5	-0.0082792835
25	0x3f40002f	0.7500028
26	0x3eff34d2	0.49844986
27	0xbfc5b7ed	-1.5446755
28	0x40943c74	4.6323795
29	0xc01cc925	-2.449777
30	0x3e8deefc	0.27721393
31	0x3ea51415	0.32241884

1.nn.layers.0.weight f4 [40, 2]
0	0x3de3b5fc	0.11118695
1	0xbe74d37a	-0.23908797
2	0x3df0a9b2	0.11751117
3	0xbede34fb	-0.43399796
4	0xbd6762a7	-0.056490567
5	0x3dab0634	0.083507925
6	0x3d4fd889	0.050743613
7	0x3e845d72	0.25852543
8	0x3eb31df7	0.349838
9	0xbec0173c	-0.37517726
10	0x3c3288d3	0.010896879
11	0x3bc0ee2d	0.0058877678
12	0xbc0a98e3	-0.008459303
13	0xbf05d389	-0.522759
14	0x3ddf29a2	0.10896613
15	0xbe5e77e2	-0.21725419
16	0x3e07afa3	0.13250594
17	0x3dc9973c	0.09843299
18	0x3df11af5	0.1177272
19	0xbe8e2e2a	-0.27769595
20	0x3e167c9d	0.14695974
21	0x3df8e241	0.121525295
22	0x3b8f745f	0.004377886
23	0xbd9d7940	-0.07689142
24	0x3c8c2ed0	0.017112166
25	0xbd0d0ca0	-0.03443587
26	0xbdb7f23d	-0.0898175
27	0x3f50d351	0.81572443
28	0x3d9106d0	0.070813775
29	0xbcac3ac7	-0.021024121
30	0xb9a18ea6	-0.00030814594
31	0x3b585bec	0.0033013774
32	0x3c7c0fe9	0.015384653
33	0xbe12bc5f	-0.1432967
34	0xbe6f5afa	-0.23374549
35	0xbe0bf55f	-0.1366782
36	0xbea31713	-0.31853542
37	0x3dd0b2ba	0.101903394
38	0x3db62c86	0.08895211
39	0xbe5c4e6a	-0.21514288
40	0x3be807f1	0.007081025
41	0x3e37d976	0.17954049
42	0xbd10b9bc	-0.03533338
43	0xbdb0027a	-0.08594222
44	0x3d9ed3bd	0.077552296
45	0x3e0d48eb	0.13797347
46	0x3dd766c6	0.10517649
47	0xbb0a7e0b	-0.0021132256
48	0xbd83db74	-0.06438342
49	0x3d153cf1	0.03643507
50	0xbd91283f	-0.070877545
51	0xbe205c49	-0.15660204
52	0x3e475749	0.1946689
53	0x3f3d84ae	0.7403058
54	0x3c1bf8ac	0.009519737
55	0xbe7d2f49	-0.24725069
56	0x3c290e00	0.010318279
57	0xbd2cef00	-0.042220116
58	0x3b0b236b	0.0021230828
59	0x3c491ad4	0.012274463
60	0xbe724095	-0.23657449
61	0x3cda7b3a	0.026670087
62	0x3dc5eae2	0.09663941
63	0x3e39126f	0.18073438
64	0xbc2629f8	-0.010141842
65	0xbe98e9d9	-0.29865912
66	0xbe24e31c	-0.1610226
67	0xbee6b155	-0.4505717
68	0xbe00ac87	-0.12565814
69	0x3da20a0e	0.07912074
70	0x3e18d982	0.14926723
71	0x3de78fc2	0.113067165
72	0xbd8e89f5	-0.06959907
73	0xbe4eb315	-0.20185502
74	0xbdcd214c	-0.100161165
75	0x3f877e02	1.058533
76	0x3b374d62	0.0027969708
77	0x3ae4f6e6	0.0017468601
78	0x3cf0e3a2	0.029405419
79	0xbdc46fe0	-0.09591651

1.nn.layers.0.bias f4 [40]
0	0xbf3ab701	-0.7293549
1	0x3e28a02a	0.16467348
2	0xbec5836a	-0.38576823
3	0xbef00f37	-0.46886608
4	0xbf9690b1	-1.1762906
5	0xbd76e1d6	-0.060273968
6	0x3f0962f6	0.5366663
7	0xbebbfc20	-0.36715794
8	0xbf49ef56	-0.7888082
9	0xbf4dc5e4	-0.8038008
10	0xbf40c4da	-0.7530037
11	0xbd5dfd91	-0.054196898
12	0xbc8d10e5	-0.01721997
13	0x3f05c057	0.5224661
14	0xbe4649c4	-0.19364077
15	0xbbbe4dd1	-0.0058076163
16	0xbe171ed2	-0.14757851
17	0xbf22e748	-0.6363416
18	0xbf614c59	-0.8800712
19	0xbf874f7a	-1.0571129
20	0x3c8e5390	0.01737383
21	0xbef3f921	-0.47651008
22	0xbeb9f990	-0.36323214
23	0xbf11e371	-0.56987673
24	0xbe8c3fd4	-0.27392447
25	0xbf0d43d2	-0.5518161
26	0xbec47f8f	-0.3837857
27	0x3d97a79f	0.07405018
28	0xbe573174	-0.21014959
29	0xbc89ea79	-0.016835438
30	0xbf067ba9	-0.5253244
31	0xbf203fb4	-0.62597203
32	0xbe81c68d	-0.25346795
33	0xbf05b936	-0.52235734
34	0xbeba6a4b	-0.3640922
35	0xbf6c0328	-0.92192316
36	0x3d87f1a9	0.0663789
37	0xbde56c9b	-0.112023555
38	0x3c12d157	0.008961043
39	0xbde03941	-0.1094842

1.nn.layers.1.weight f4 [4, 40]
0	0xbf4e5bda	-0.80608904
1	0xbed26f33	-0.41100463
2	0x3d50bea2	0.05096305
3	0xbd694042	-0.056946047
4	0xbf489ac9	-0.78361183
5	0x3d298f1f	0.041396257
6	0xbe009d9d	-0.12560125
7	0xbdfaf126	-0.12253027
8	0x3cc01aed	0.02345034
9	0xbe5dbb50	-0.21653485
10	0x3d92d545	0.07169584
11	0xbe8018a6	-0.25018805
12	0xbda55933	-0.08073654
13	0x3e9a826e	0.30177635
14	0xbc7e1394	-0.0155075975
15	0x3d8ed2bb	0.069737874
16	0xbdd74dd5	-0.10512892
17	0x3f98d01d	1.1938511
18	0x3b6b350b	0.003588977
19	0xbf478f90	-0.77953434
20	0xbc035634	-0.008016158
21	0xbe379145	-0.1792651
22	0xbd1385c0	-0.036016226
23	0xbc72cc8f	-0.014819278
24	0xb72fb786	-1.0473543e-05
25	0x3b6386a6	0.0034717708
26	0xbea137bc	-0.31487834
27	0xbc532e0e	-0.012889398
28	0x3e07bba9	0.1325518
29	0xbccd6979	-0.025074707
30	0x3e1361c2	0.1439276
31	0xbd53d9d6	-0.051721416
32	0xbe3f2170	-0.18665099
33	0x3f8f3d22	1.1190531
34	0x3dc6b05d	0.097016074
35	0xbca07d87	-0.019591106
36	0xbd943564	-0.07236746
37	0x3d91d0bf	0.07119893
38	0xbe49f54d	-0.19722481
39	0xbe0e1d59	-0.13878383
40	0xbc8527b8	-0.016254291
41	0xbe24efb3	-0.16107063
42	0xbe0c1809	-0.13681044
43	0x3de08950	0.1096369
44	0x3cb5dde3	0.02220053
45	0x3c04b2ef	0.008099302
46	0xbe906134	-0.2819916
47	0x3a5ec2f3	0.00084976776
48	0x3dbab14a	0.091158465
49	0xbd8dcc59	-0.06923742
50	0x3d2b2b8e	0.041789584
51	0xb918e552	-0.00014581278
52	0xbc845a09	-0.016156213
53	0x3e879c15	0.2648627
54	0x3c26f72a	0.010190764
55	0xbb62b9c3	-0.0034595586
56	0x38db2c5b	0.000104509956
57	0xbc8d2f3f	-0.017234443
58	0xbdce01f9	-0.1005897
59	0x3cd29c13	0.025709188
60	0x3d896ad1	0.06709827
61	0xbd04c7bf	-0.032417055
62	0x3d9b56d8	0.075849235
63	0x3cdfd8c8	0.027325049
64	0x3d42cb81	0.047557358
65	0xbe37f712	-0.17965344
66	0x3e398155	0.18115743
67	0xbe230b72	-0.15922335
68	0xbdf9deb8	-0.12200683
69	0x3b901a2f	0.0043976526
70	0xbbcfd847	-0.006342921
71	0x3d09c4c0	0.0336349
72	0xbcc63db3	-0.024199342
73	0xbd5acfed	-0.05342095
74	0x3d812cd5	0.06307379
75	0x3cfa1155	0.030525843
76	0xbdb1cc21	-0.086815126
77	0x3f1adb4b	0.60490865
78	0xbad618d3	-0.0016334302
79	0x3af1e3d1	0.0018454735
80	0xbf6143c4	-0.8799403
81	0x3d33fb19	0.043940637
82	0xbc86c9da	-0.016453672
83	0xbdb7ec3b	-0.08980604
84	0xbec9982e	-0.39373916
85	0xbcbb5d4c	-0.022871636
86	0x3f0b0d56	0.54317224
87	0xbdbca365	-0.092108525
88	0xbd535689	-0.0515962
89	0x3db6934a	0.08914812
90	0x3c89d64a	0.016825814
91	0x3e72b1a0	0.23700571
92	0x3e403706	0.1877099
93	0x3e69de02	0.22838596
94	0xbe34efe6	-0.17669639
95	0x3ddeb46e	0.10874258
96	0x3e046a77	0.12931238
97	0xbfa33361	-1.2750055
98	0xbdc9773d	-0.09837196
99	0xbd73a3c9	-0.05948237
100	0x3d067de0	0.032834888
101	0xbf157da0	-0.58394814
102	0xbe08efe7	-0.13372765
103	0x3d97adc0	0.07406187
104	0x3e58321b	0.21112864
105	0x3c4be9ce	0.01244588
106	0x3d55fda2	0.052243836
107	0x3e80d65f	0.25163552
108	0xbe173453	-0.14766054
109	0x3d8cedd5	0.068813
110	0xbde058d6	-0.10954444
111	0x3dc3d672	0.095623866
112	0x3e1c1387	0.15241824
113	0xbf0f3284	-0.55936456
114	0xbc927f7a	-0.017883051
115	0xbc8790b0	-0.016548485
116	0x3ebd191c	0.3693322
117	0x3e910bbe	0.2832927
118	0x3e8816f1	0.26580003
119	0xbde2bdf2	-0.110713854
120	0xbcdcb912	-0.026943717
121	0xbd8c8fd2	-0.06863369
122	0xbc8c6dae	-0.017142143
123	0x3e6ec5b0	0.233176
124	0xbbe558ad	-0.0069990964
125	0x3cc4dbc0	0.024030566
126	0xbe02b9b2	-0.1276615
127	0xbaacfeb4	-0.0013198466
128	0x3e25ca3d	0.16190429
129	0x3d458048	0.04821804
130	0x3d8ab7e2	0.06773354
131	0x394044b4	0.00018336141
132	0x3b7ee0ef	0.0038891395
133	0xbe0bd3ae	-0.13654968
134	0xbb82bf96	-0.003990124
135	0xbc01dcae	-0.007926149
136	0x3bb417f9	0.005496022
137	0x3c329da8	0.010901846
138	0x3dbdf633	0.092754744
139	0x3d5550fc	0.052079186
140	0xbd142e2e	-0.036176853
141	0x3e295d58	0.16539514
142	0x3e1467e3	0.14492755
143	0x3d9dea29	0.07710678
144	0xbda1138b	-0.07865056
145	0xbdb975ee	-0.090556964
146	0xbdcc5bbd	-0.09978435
147	0xbd3e4029	-0.046447907
148	0xbda49a6d	-0.08037267
149	0x3c28887c	0.010286447
150	0x3bc98525	0.0061499053
151	0x3d4a114f	0.049332913
152	0x3c24cc31	0.010058449
153	0x3cfa2b2c	0.030538164
154	0x3def6612	0.1168939
155	0x3d4975f6	0.049184762
156	0xbd03e00f	-0.0321961
157	0xbee657f0	-0.44988966
158	0xbb4f2e5a	-0.003161332
159	0x3a2dba7f	0.00066272164

1.nn.layers.1.bias f4 [4]
0	0xbde7c10a	-0.11316116
1	0xbdf33b9b	-0.11876603
2	0x3dbf56c7	0.09342723
3	0xbdb459cf	-0.08806192

2.nn.layers.0.weight f4 [40, 4]
0	0x3ed6ab8f	0.41927764
1	0x3e3c8635	0.18410571
2	0xbce0445a	-0.027376343
3	0xbe8e3bbc	-0.2777995
4	0x3cea9c37	0.028638942
5	0xbd0cb6fc	-0.034354195
6	0x3e9ba2f0	0.3039775
7	0xbe9112a0	-0.28334522
8	0x3d8bccf8	0.06826204
9	0x3e8a53a2	0.27016932
10	0xbe10cbef	-0.14140294
11	0x3e87a54d	0.26493302
12	0xbea80e35	-0.3282334
13	0xbda81123	-0.082063936
14	0xbe1db2d7	-0.15400253
15	0x3d919e3f	0.07110261
16	0xb8ce447e	-9.835603e-05
17	0x3e90e9f1	0.28303483
18	0xbdf5f047	-0.1200872
19	0x3e9261ba	0.28590184
20	0x3e9fb28e	0.31190914
21	0xbda7366d	-0.08164678
22	0x3d0fb92d	0.035088707
23	0x3ef7d155	0.48401895
24	0x3ea79a94	0.3273512
25	0xbed598c7	-0.41718122
26	0x3e2fd5a2	0.17171338
27	0xbeaa0570	-0.33207273
28	0xbe5d8055	-0.21630986
29	0x3bb9c630	0.0056693777
30	0x3d6a5b9c	0.05721627
31	0x3d6ccd2a	0.057812847
32	0xbe7572f6	-0.23969635
33	0x3eb35c9a	0.35031587
34	0x3e6a5936	0.22885594
35	0xbe72ca95	-0.23710091
36	0xbd5c0a73	-0.053720903
37	0x3c371a59	0.011175715
38	0x3e3e1efe	0.1856651
39	0xbed3d67a	-0.4137457
40	0x3e9f3d43	0.31101426
41	0xbde11b23	-0.10991504
42	0xbe873034	-0.26403964
43	0xbe89c270	-0.26906157
44	0x3efcfead	0.49413052
45	0x3e2b3cd0	0.16722417
46	0x3e774985	0.24149139
47	0x3e2f3be6	0.17112693
48	0x3ef17832	0.47162014
49	0x3c965e95	0.018355647
50	0xbe80ede3	-0.25181493
51	0x3e89541e	0.2682199
52	0xbf175854	-0.59119153
53	0xbefa5c4e	-0.48898548
54	0xbd27e6d7	-0.04099163
55	0x3e5020e3	0.20325045
56	0x3e610d48	0.21977723
57	0xbdffc3f2	-0.124885455
58	0xbddde1b2	-0.108340636
59	0x3e56dbd5	0.20982297
60	0xbd86582f	-0.065597884
61	0xbe80eb79	-0.2517965
62	0x3ca00d2f	0.019537536
63	0xbc353bba	-0.011061603
64	0x3ec4286f	0.38312098
65	0x3ec9dbd3	0.39425525
66	0x3d63408b	0.055481475
67	0x3c7f85fa	0.015595907
68	0x3d94247b	0.072335206
69	0xbda13e6d	-0.07873235
70	0xbe15c736	-0.14626774
71	0x3c994f33	0.018714523
72	0x3f0b2087	0.5434651
73	0x3e00870d	0.12551518
74	0x3da49123	0.08035495
75	0xbe95b81f	-0.29242036
76	0xbe825327	-0.25454065
77	0xbed1a3b3	-0.40945205
78	0xbcca8130	-0.024719805
79	0x3eaa309e	0.33240217
80	0x3ee436d4	0.4457308
81	0x3dfe02aa	0.12402852
82	0xbe526c53	-0.20549135
83	0xbea9c70f	-0.33159682
84	0xbbf380af	-0.0074311118
85	0xbebf8f00	-0.37413788
86	0x3f189c39	0.59613377
87	0xbe902986	-0.2815668
88	0xbc0c9abc	-0.008581813
89	0xbe0ed432	-0.13948134
90	0xbea6ac7f	-0.3255348
91	0xbef2f543	-0.47452745
92	0x3ef5b232	0.47987515
93	0xbe928f87	-0.28625128
94	0x3d9679bb	0.07347437
95	0xbda42b45	-0.080160655
96	0xbc289fe7	-0.01029203
97	0x3e1a806c	0.15088052
98	0xbe076c7b	-0.13224976
99	0x3e50aeb9	0.20379151
100	0x3e8e51e3	0.2779685
101	0xbef7e345	-0.4841558
102	0x3da5d64c	0.080975145
103	0x3e16e973	0.14737491
104	0x3e41c982	0.18924525
105	0x3d414c58	0.047191948
106	0xbd3b12ed	-0.045672346
107	0xbe0917cc	-0.13387984
108	0x3dcde1e7	0.10052853
109	0x3ed7cefe	0.4215011
110	0x3e3857a0	0.18002176
111	0xbd99e177	-0.07513707
112	0xbf1193f8	-0.5686641
113	0xbdddde8b	-0.10833462
114	0xbe72514a	-0.23663822
115	0x3eb75d5d	0.35813418
116	0xbe17052d	-0.14748068
117	0xbd32ae01	-0.043622974
118	0xbc4f5f3d	-0.012656984
119	0x3c5af7c3	0.013364735
120	0x3ee25646	0.44206446
121	0xbcfabe26	-0.030608248
122	0x3d43b833	0.047783088
123	0x3e88d85b	0.26727566
124	0x3e854fcf	0.26037452
125	0xbdf54547	-0.11976104
126	0x3d7efd87	0.0622535
127	0x3e818619	0.2529762
128	0x3dc544a0	0.0963223
129	0x3e95bc67	0.29245302
130	0x3d2f6816	0.042823873
131	0xbeb94eef	-0.36193034
132	0x3df1ad97	0.11800688
133	0x3cf89d89	0.030348556
134	0x3ebe9190	0.3722043
135	0x3ea77d5a	0.32712823
136	0x3eb13bc2	0.34615904
137	0x3ee0ba47	0.43892118
138	0x3d11c761	0.035590533
139	0xbf1bc4ea	-0.6084734
140	0xbde0ae7e	-0.10970782
141	0xbead0da6	-0.33799475
142	0xbeb6b176	-0.35682267
143	0xbe3d2b9d	-0.18473668
144	0xbed11e26	-0.40843314
145	0xbeb746d9	-0.3579624
146	0xbd8b39e8	-0.06798154
147	0xbecce276	-0.40016526
148	0xbef6cf1f	-0.48204896
149	0xbd56d0fd	-0.0524454
150	0x3ea134a0	0.31485462
151	0xbe6291c7	-0.22125922
152	0xbe167891	-0.1469443
153	0x3e9a0069	0.30078438
154	0xbf0fa4d0	-0.5611086
155	0xbecf0f9d	-0.404416
156	0x3e9d2a60	0.30696392
157	0xbf0b1594	-0.543298
158	0x3e8222ab	0.25417075
159	0x3e56d430	0.2097938

2.nn.layers.0.bias f4 [40]
0	0xbc1d983c	-0.009618815
1	0x3d204bc1	0.039134745
2	0xbec2945d	-0.38003817
3	0xbdde3279	-0.10849471
4	0xbdab2c50	-0.08358061
5	0xbcb8e37b	-0.022569409
6	0xbd94eca9	-0.07271702
7	0x3ea2893e	0.31745332
8	0xbf338c1d	-0.7013567
9	0xbe678a61	-0.22611381
10	0xbeff5510	-0.49869585
11	0xbeca03bb	-0.3945597
12	0xbe035be8	-0.12828028
13	0xbebab0ef	-0.36463115
14	0x3d8031a5	0.06259469
15	0xbdc9199e	-0.09819339
16	0xbed31a05	-0.4123079
17	0x3dd85e86	0.10564904
18	0xbf15ec0f	-0.5856332
19	0xbe5d2e61	-0.21599723
20	0xbe8886b2	-0.26665264
21	0xbf884a32	-1.0647643
22	0xbf1b6a9e	-0.6070956
23	0xbe1db378	-0.15400493
24	0x3e65e40c	0.22450274
25	0x3eeb9e1d	0.46019068
26	0x3e738b78	0.23783672
27	0xbeb52436	-0.3537919
28	0xbf2dbbdf	-0.67864794
29	0x3e61ea77	0.22062097
30	0x3cced9fd	0.02525043
31	0xbce8ce5c	-0.028418712
32	0xbc6ec8f7	-0.014574281
33	0xbf1c202e	-0.609866
34	0xbe8cd7bc	-0.27508342
35	0x3e61edff	0.22063445
36	0xbe6d01a8	-0.23145163
37	0xbedfeba9	-0.43734482
38	0xbf823c83	-1.0174717
39	0xbf4bf2ed	-0.7966755

2.nn.layers.1.weight f4 [40, 40]
0	0xbd45941e	-0.04823696
1	0x3b949229	0.004534025
2	0xbe898f6d	-0.26867238
3	0x3e19e2c2	0.15027907
4	0xbdc324bc	-0.09528491
5	0x3d2ae9ba	0.041726805
6	0xbd0e2c82	-0.034710415
7	0xbd3b0260	-0.04565656
8	0xbf0b536e	-0.5442418
9	0x3db8ceee	0.09023844
10	0x3eaae2f6	0.33376282
11	0x3e9f0d1b	0.31064686
12	0xbdc9bcca	-0.09850462
13	0x3e6070b4	0.21917993
14	0xbe2f8cd4	-0.17143565
15	0x3d6ac33d	0.0573151
16	0x3e659929	0.22421707
17	0xbe74e45f	-0.23915242
18	0xbddeae17	-0.10873049
19	0x3e978d0c	0.29599798
20	0xbde27b86	-0.110587165
21	0xbf64d535	-0.8938783
22	0xbd8e4f3c	-0.069487065
23	0xbdcbcc5c	-0.09951088
24	0x3d825cf7	0.06365388
25	0xbd686f06	-0.056746505
26	0x3e54f8d3	0.20798044
27	0x3d8744ab	0.06604894
28	0x3ed68eae	0.4190573
29	0x3cb4ad43	0.022055274
30	0x3db6ddda	0.089290336
31	0x3e4c065e	0.19924304
32	0x3cba8e3e	0.022772904
33	0x3da91983	0.08256819
34	0xbd815071	-0.06314171
35	0x3e9a8fae	0.30187744
36	0x3bc4fe6d	0.006011775
37	0xbf238ef3	-0.6389
38	0xbe395bf3	-0.18101482
39	0xbe1415f3	-0.14461498
40	0x3e85c097	0.26123497
41	0x3bd809ad	0.0065929503
42	0x3d9ae7f0	0.0756377
43	0xbd8ddedd	-0.069272734
44	0x3e0bd59c	0.13655704
45	0xbbcfcf3e	-0.006341844
46	0x3d5e629b	0.054293256
47	0x3d999027	0.07498198
48	0xbba17841	-0.0049276655
49	0x3e2c56f2	0.16830042
50	0x3d9fc22d	0.07800708
51	0xbe17b0f8	-0.14813602
52	0xbdc20dfe	-0.09475325
53	0xbdfa56b5	-0.12223569
54	0xbe39af08	-0.18133175
55	0x3c0e6aac	0.008692425
56	0x3e8f1087	0.27942297
57	0xbca2d7d8	-0.019878313
58	0xbf3187c5	-0.6934779
59	0x3d47b5ee	0.048757486
60	0xbe9126e0	-0.28349972
61	0x3f5007e5	0.81262046
62	0xbe349b5a	-0.17637387
63	0xbe15b7e9	-0.14620937
64	0xbdb4496c	-0.088030666
65	0xbe16007d	-0.14648624
66	0x3e02436c	0.12721032
67	0x3e0335b3	0.12813453
68	0xbd953267	-0.07285004
69	0x3df82075	0.12115566
70	0x3e29669e	0.16543052
71	0x3ca7cfa6	0.020484757
72	0x3e14334b	0.14472692
73	0xbe1783d4	-0.14796382
74	0xbf199ec6	-0.60007894
75	0x3d85c9c7	0.065326266
76	0x3e4ec359	0.20191707
77	0xbe377bfa	-0.17918387
78	0xbe8bc8c5	-0.27301612
79	0x3d5d0fb6	0.05397006
80	0xbd62bac3	-0.05535389
81	0xbedc5a79	-0.43037775
82	0x3bde8c57	0.006791632
83	0x3e82361a	0.254319
84	0xbf042c91	-0.516305
85	0xbcd62c52	-0.02614418
86	0xbe5aa3b4	-0.2135151
87	0xbdc940cf	-0.098268144
88	0x3fea6cd9	1.8314468
89	0xbe253def	-0.16136907
90	0x3de25781	0.11051846
91	0x3e1ba151	0.15198256
92	0x3e04f9f8	0.1298598
93	0x3f3464ca	0.7046629
94	0xbd86aad5	-0.065755524
95	0xbe03eed1	-0.1288407
96	0xbbf8db81	-0.0075945263
97	0xbced59d5	-0.0289735
98	0x3dddc9e8	0.10829526
99	0xbe506b8f	-0.2035353
100	0xbe6a5396	-0.22883448
101	0x3e9e8f86	0.30968875
102	0xbca5d1ac	-0.02024158
103	0xbe46ae0f	-0.19402336
104	0xbe8744a8	-0.26419568
105	0xbe80fb11	-0.25191548
106	0xbd94cb2a	-0.07265313
107	0xbf7ca5b3	-0.98690337
108	0xbfa92ee9	-1.3217441
109	0xbd0d1728	-0.03444591
110	0x3cfcca99	0.030858325
111	0x3d837e15	0.064205326
112	0xbea143e9	-0.31497124
113	0xbf055fce	-0.5209931
114	0x3e494c96	0.19658121
115	0x3b214438	0.0024607312
116	0x3b866941	0.0041019027
117	0x3d7f4ddd	0.062330116
118	0x3ef77aa8	0.48335767
119	0x3da5d919	0.08098049
120	0xbd20c1ee	-0.039247446
121	0xbce21cc1	-0.027601602
122	0x3e480a71	0.19535233
123	0xbc3134df	-0.010815828
124	0x3c9a77a1	0.018855872
125	0x3e20ffbd	0.15722556
126	0x3e2b82b1	0.16749074
127	0xbd091fbc	-0.03347753
128	0xbe9926bd	-0.29912367
129	0x3c144071	0.009048567
130	0x3c8cef67	0.017204
131	0xbe60157b	-0.21883194
132	0xbdc448dc	-0.09584209
133	0x3dc5340b	0.09629067
134	0xbdd98ed9	-0.10622949
135	0x3e288f48	0.16460907
136	0xbcd0fb26	-0.025510382
137	0x3d137182	0.03599692
138	0xbeaf0ce0	-0.3418951
139	0xbe2e6296	-0.17029795
140	0xbd74ef0c	-0.059798285
141	0x3d9fd9fd	0.0780525
142	0x3e4e94ea	0.20173994
143	0xbd38319a	-0.04496918
144	0xbcc6df88	-0.02427651
145	0x3e316fb2	0.17327765
146	0x3e44bd45	0.19212826
147	0x3db0e7b9	0.086379476
148	0xbea7dcac	-0.32785547
149	0xbd8ad0bf	-0.067780964
150	0x3d1ad942	0.03780485
151	0xbe345a7b	-0.1761264
152	0x3c2a8810	0.010408416
153	0x3da6e7fa	0.08149715
154	0x3cdf1c69	0.027235227
155	0x3d47ff11	0.048827235
156	0x3dc139a5	0.09434823
157	0x3bdf3e7c	0.0068128686
158	0xbeb27573	-0.34855232
159	0x3eb09385	0.34487548
160	0xbe0c1742	-0.13680747
161	0xbe293486	-0.16523942
162	0x3d4cf2ed	0.05003636
163	0x3cfcaa26	0.030842852
164	0xbd5c853d	-0.053838003
165	0x3c4a367a	0.01234209
166	0xbae9062c	-0.0017778329
167	0x3dee94d8	0.116494834
168	0xbd563a6a	-0.0523018
169	0xbd281266	-0.04103317
170	0xbdc23f0a	-0.0948468
171	0xbd036d1f	-0.032086488
172	0xbeb8f66b	-0.36125502
173	0xbe259260	-0.16169119
174	0xbe879a4d	-0.2648491
175	0x3e1b3e65	0.1516052
176	0xbdc306c5	-0.095227756
177	0x3c198ce6	0.009371972
178	0xbf9dbd65	-1.2323424
179	0x3ab68864	0.0013926146
180	0x3c990c56	0.01868264
181	0x3e42f95b	0.19040434
182	0x3e63294b	0.22183721
183	0xbe6e6fa4	-0.23284775
184	0x3e1a93a7	0.15095387
185	0xbd375aa3	-0.044764172
186	0xbe17ae14	-0.148125
187	0x3d80ae2d	0.062832214
188	0x3ddd3ba5	0.10802392
189	0x3cc8d3e0	0.024515092
190	0xbd0f932b	-0.03505246
191	0xbde2ff38	-0.11083835
192	0x3d24ac24	0.04020323
193	0x3da933b1	0.082618125
194	0xbe9e1db9	-0.30882052
195	0x3e0f71c0	0.14008236
196	0x3e09a738	0.13442695
197	0x3d0b593a	0.03402064
198	0xbe873078	-0.26404166
199	0xbec3d094	-0.3824507
200	0x3c922a8d	0.017842555
201	0x3e4cbbf3	0.19993572
202	0x3d999bbb	0.07500406
203	0xbe771784	-0.24130064
204	0x3d1b06f9	0.037848447
205	0x3c12fa33	0.008970785
206	0x3e868819	0.2627571
207	0xbe62529b	-0.22101824
208	0xbf3b06c7	-0.73057216
209	0x3db4eeae	0.08834587
210	0xbe02136c	-0.12702721
211	0x3d81dc60	0.06340861
212	0xbe0beaf0	-0.1366384
213	0x3d768659	0.060186718
214	0x3dd4b8c4	0.10386804
215	0xbc82c11a	-0.015961219
216	0x3e6b4e37	0.22979055
217	0xbd872fe1	-0.06600929
218	0xbebd7723	-0.37004957
219	0x3ede5f3a	0.43432027
220	0xbe1ae8eb	-0.15127914
221	0xba8e89b3	-0.0010874778
222	0x3e1cfd45	0.1533099
223	0xbe83d76a	-0.25750285
224	0x3e408a1f	0.18802689
225	0x3e332bf8	0.17497241
226	0x3e1b0094	0.1513694
227	0xbddc9b2f	-0.107717864
228	0xbe99e32c	-0.3005613
229	0xbd6690b4	-0.056290343
230	0x3d4833ab	0.0488774
231	0xbdea5dec	-0.114436954
232	0x3e0122c9	0.12610926
233	0x3eb4f67c	0.35344303
234	0xbe03e4d5	-0.12880261
235	0x3e821b78	0.25411582
236	0x3d6514cc	0.055928037
237	0xbee3c7e7	-0.4448845
238	0x3ebf132f	0.37319323
239	0x3eab2773	0.33428535
240	0xbe1cf4dc	-0.15327781
241	0x3d368c8a	0.044567622
242	0x3d14356d	0.036183763
243	0xbd52874f	-0.05139857
244	0xbd9d78c2	-0.07689048
245	0xbe515c03	-0.20445256
246	0xbdcae297	-0.099065
247	0x3d8246ca	0.06361158
248	0xbd83becc	-0.06432876
249	0xbd9508d3	-0.07277074
250	0xbdf1654e	-0.117869005
251	0xbe0c1173	-0.13678531
252	0x3cc24d2d	0.02371844
253	0xbddf07cc	-0.10890159
254	0x3cd15384	0.025552519
255	0xbde33118	-0.11093348

2.nn.layers.1.bias f4 [40]
0	0xbbd1c5d6	-0.0064017577
1	0x3df81152	0.121126786
2	0xbe42166f	-0.1895387
3	0x3e7858a6	0.24252567
4	0x3e4e5a89	0.20151724
5	0xbd818a7d	-0.06325243
6	0xbda723f1	-0.08161152
7	0xbe1c27e5	-0.15249594
8	0xbdb57669	-0.088604756
9	0xbe00ae08	-0.12566388
10	0x3c6ad9e5	0.014334177
11	0xbdde08d0	-0.108415246
12	0x3e8608f7	0.26178715
13	0x3e237a7b	0.15964691
14	0x3db4611b	0.08807584
15	0xbebfc16d	-0.3745226
16	0xbe586c74	-0.21135122
17	0xbe22c98e	-0.158972
18	0x3d80912d	0.0627769
19	0xbe8a49ea	-0.27009517
20	0x3db3c9f4	0.08778754
21	0xbde8b6f2	-0.11363019
22	0xbccfdc81	-0.0253737
23	0x3d735b44	0.05941321
24	0x3dac21cc	0.08404884
25	0x3d2e1005	0.042495746
26	0xbe3338e8	-0.17502177
27	0xbe37a48b	-0.17933862
28	0xbe26a058	-0.16272104
29	0xbe53b846	-0.20675763
30	0xbdeb38ea	-0.11485465
31	0x3e73c0f5	0.23804076
32	0x3d8a20e6	0.06744556
33	0xbe01eb4c	-0.12687415
34	0xbd79e98d	-0.061013747
35	0xbe414a64	-0.18876034
36	0xbd8b8f39	-0.06814427
37	0x3d8b2d48	0.06795746
38	0x3e4d9a6b	0.20078437
39	0xbe062154	-0.13098651

2.nn.layers.2.weight f4 [124, 40]
0	0xbe21a585	-0.15785797
1	0xbdce23dd	-0.10065434
2	0x3d8585c2	0.06519653
3	0xbde29ff0	-0.11065662
4	0x3df40ea9	0.11916859
5	0x3e8c0150	0.2734475
6	0x3d9a93c1	0.07547713
7	0x3bccff27	0.0062560025
8	0x3de99bc1	0.11406661
9	0x3da0d880	0.07853794
10	0x3d035d14	0.032071188
11	0xbe1e188a	-0.15439048
12	0xbe3097f1	-0.17245461
13	0xbd9eb4e1	-0.07749344
14	0xbcf6edff	-0.030142782
15	0xbe6d5ef9	-0.2318076
16	0xbe5a8639	-0.21340264
17	0x39da0d83	0.00041590267
18	0xbd88ae2a	-0.06673844
19	0xbe07fa12	-0.13278988
20	0xbcf6d8f6	-0.030132752
21	0xbd80bb4c	-0.06285724
22	0xbd7eddec	-0.06222336
23	0xbe888278	-0.2666204
24	0x3e16cb43	0.14725976
25	0xbc893035	-0.01674662
26	0x3e4c53d1	0.19953848
27	0x3d0cfaa4	0.034418717
28	0xbd4fba0a	-0.05071453
29	0xbc9dd5fc	-0.019267075
30	0x3db0be4f	0.086300485
31	0x3ddc24e7	0.10749226
32	0x3e1bb267	0.15204774
33	0xbc76559f	-0.015035062
34	0xbdb7242c	-0.08942446
35	0xbe5118ff	-0.20419692
36	0xbe50d630	-0.20394206
37	0x3da96579	0.082713075
38	0xbdc38f47	-0.09548812
39	0xbd48017a	-0.048829533
40	0xbe1a666f	-0.15078138
41	0xbdf2e5c6	-0.11860232
42	0xbcfa70a3	-0.030571287
43	0xbdc18376	-0.09448902
44	0xbc8733d9	-0.016504215
45	0x3e4eecfd	0.20207591
46	0x3e0eb725	0.13937052
47	0xbde2d10d	-0.110750295
48	0x3d106ef2	0.035262056
49	0x3d80f26c	0.06296238
50	0xbcb1d694	-0.021708764
51	0xbe0bc7ac	-0.13650388
52	0xbde39a01	-0.11113358
53	0xbc193586	-0.00935114
54	0x3cadeda2	0.021231476
55	0xbefb07a3	-0.49029264
56	0x3d442efc	0.04789637
57	0x3c8a608c	0.01689174
58	0x3e56e5e9	0.20986141
59	0xbbf96ff1	-0.0076122214
60	0x3d44596f	0.047936853
61	0x3c6875b7	0.014188222
62	0xbdf55f14	-0.11981025
63	0xbd812960	-0.0630672
64	0xbd1301b2	-0.03589029
65	0xbe5b8087	-0.21435748
66	0x3da00b32	0.07814635
67	0x3ca65526	0.020304274
68	0xbdb55a55	-0.0885512
69	0x3dfbb79b	0.12290879
70	0x3e483c5e	0.19554278
71	0xbd0c5286	-0.034258388
72	0x3e100c0b	0.14067094
73	0x3d115978	0.035485715
74	0x3d5e5912	0.054284163
75	0xbd676ae2	-0.056498416
76	0x3a337391	0.0006845529
77	0x3e1bc307	0.15211116
78	0xbdc10232	-0.09424247
79	0x3c9639da	0.018338133
80	0xbe070efb	-0.13189308
81	0x3c63d2cd	0.013905239
82	0x3df23959	0.118273444
83	0xbc98f9f9	-0.018673884
84	0xbd3acec6	-0.04560735
85	0xbd2f9448	-0.04286602
86	0x39dd2c74	0.00042185525
87	0xbdbbb6e6	-0.091657445
88	0x3c67e7b3	0.0141543625
89	0x3df7f622	0.12107493
90	0xbd4e7515	-0.050404627
91	0xbd1fe1bf	-0.039033648
92	0x3d166662	0.036718734
93	0x3e21b267	0.15790711
94	0x3d54276e	0.051795416
95	0xbc31ce11	-0.010852353
96	0x3e15dcc8	0.14635003
97	0xbd82c74d	-0.0638567
98	0x3d46be66	0.04852142
99	0xbe2e31e6	-0.17011222
100	0x3e0f03dc	0.13966316
101	0x3dc30fb3	0.09524479
102	0xbcb5d0de	-0.022194322
103	0x3dce3679	0.100689836
104	0xbd98a054	-0.07452455
105	0x3da2680a	0.0793
106	0x3eceb727	0.4037411
107	0x3d1cc124	0.03827013
108	0xbddcf91c	-0.10789701
109	0x3c13f2e2	0.009030076
110	0x3cb2d2f1	0.0218291
111	0xbb5627f7	-0.003267763
112	0xbd867f73	-0.06567278
113	0x3d9377e8	0.07200605
114	0xbbbb5844	-0.005717309
115	0xbdda2fb1	-0.10653628
116	0xbe7333d2	-0.23750237
117	0x3db05dc5	0.08611635
118	0xbe10cd6f	-0.14140867
119	0xbb83224d	-0.0040018917
120	0xbd2427cc	-0.040077016
121	0x3e8c4941	0.27399638
122	0x3c784bff	0.015154838
123	0xbd6a2e74	-0.057173207
124	0x3e901377	0.2813985
125	0xbdaa7d8e	-0.08324729
126	0xbe47027f	-0.19434546
127	0x3db37fa8	0.08764583
128	0xbda35be6	-0.079765126
129	0xbe0b7176	-0.136175
130	0xbe277c32	-0.1635597
131	0xbe9a14e8	-0.30094075
132	0x3dec6cc7	0.11544185
133	0x3b973e75	0.0046155998
134	0x3e052fb5	0.1300648
135	0xbf42fd89	-0.76168114
136	0xbeaa10fb	-0.3321608
137	0xbe06ce96	-0.13164744
138	0xbdac1f5b	-0.08404418
139	0xbd35f205	-0.04442026
140	0x3ef2f0ee	0.4744944
141	0x3e8f3c57	0.27975723
142	0xbdcd1d43	-0.10015347
143	0xbe187d02	-0.14891437
144	0xbcd385b7	-0.025820596
145	0x3ef2bba0	0.47408772
146	0x3de56374	0.1120061
147	0xbcacff27	-0.02111776
148	0x3d8a65bd	0.06757686
149	0xbe0a0f61	-0.13482429
150	0xbe35c121	-0.17749454
151	0x3dbb598f	0.09147941
152	0xbde934ea	-0.11387046
153	0x3d951b00	0.072805405
154	0xbe09f2ef	-0.13471578
155	0x3c406754	0.011743385
156	0x3eaa6992	0.3328367
157	0xbd9f66f0	-0.07783306
158	0xbe83c6fb	-0.25737748
159	0xbc81326a	-0.01577111
160	0x3ddacd11	0.106836446
161	0xbdc766f2	-0.09736432
162	0xbe4b4da9	-0.19853844
163	0xbe719d84	-0.23595244
164	0xbeca63c2	-0.39529234
165	0x3d1cd319	0.038287256
166	0xbd9135ac	-0.07090315
167	0xbd81667d	-0.06318376
168	0xbe4cdb31	-0.2000549
169	0x3ddde65a	0.10834952
170	0xbde5a279	-0.1121263
171	0x3e2cec1b	0.16886942
172	0xbe00f8d6	-0.12594923
173	0x3d7304d4	0.059330776
174	0xbda12c8b	-0.07869824
175	0x3e180593	0.14845876
176	0xbcc805d3	-0.02441684
177	0x3c63969b	0.013890888
178	0x3c5738dc	0.013136115
179	0xbcd63bea	-0.026151616
180	0xbe0ab630	-0.13546062
181	0xbe317205	-0.17328651
182	0x3e3d9a40	0.18515873
183	0x3e97bc27	0.29635736
184	0xbdc73e0a	-0.0972863
185	0x3dc38b2d	0.0954803
186	0xbbf72d49	-0.00754324
187	0x3d623d21	0.05523408
188	0x3dde6fde	0.10861181
189	0xbd09111e	-0.03346359
190	0xbe25fd9e	-0.16210029
191	0xbe736e21	-0.2377248
192	0x3de74c2b	0.11293825
193	0x3d3df80c	0.046379134
194	0x3d010843	0.03150202
195	0xbe40d998	-0.18833005
196	0x3e907618	0.28215098
197	0xbe104c59	-0.14091624
198	0x3e2180e4	0.15771824
199	0x3d798660	0.060919166
200	0x3b3503a9	0.002762059
201	0xbd871413	-0.06595626
202	0x3dd6c29f	0.1048634
203	0xbca35149	-0.01993622
204	0x3d96fb26	0.073721215
205	0xbdf67275	-0.1203355
206	0xbe0137cb	-0.1261894
207	0xbd4ed80a	-0.050499
208	0xbdee83e1	-0.11646248
209	0x3d897fbc	0.067138165
210	0xbe01f43d	-0.12690826
211	0x3c7c256b	0.0153897805
212	0x3d2b45af	0.041814502
213	0xbd46bed0	-0.048521817
214	0xbcf78eb6	-0.030219417
215	0xbe776379	-0.2415904
216	0xbed12f35	-0.4085633
217	0xbcbc41f1	-0.022980662
218	0x3dc1876b	0.09449657
219	0x3da2fab3	0.07957973
220	0xbe36f75e	-0.178678
221	0xbdfed142	-0.124422565
222	0xbe273cf1	-0.16331841
223	0x3bb48cb7	0.0055099386
224	0x3d298971	0.04139084
225	0x3dfe5a56	0.12419574
226	0xbe3f0241	-0.18653204
227	0x3dae0531	0.08497084
228	0xbe474c47	-0.19462691
229	0xbdf7fad6	-0.1210839
230	0xbde5c1e8	-0.11218625
231	0xbe1e80da	-0.1547884
232	0xbcc83008	-0.024436966
233	0xba2ee352	-0.00066714466
234	0x3d5f8e17	0.054578867
235	0xbd946c6c	-0.07247242
236	0x3e138c50	0.14408994
237	0xbe70c952	-0.23514298
238	0x3daa79d2	0.08324017
239	0xbe0a6a34	-0.13517076
240	0x3e0cd1bb	0.13751881
241	0x3c81b643	0.01583398
242	0x3e23e4c3	0.16005234
243	0xbd25cae9	-0.040476713
244	0x3dfb09f7	0.1225776
245	0xbe3eb473	-0.18623523
246	0xbe45710a	-0.19281402
247	0x3e865ba9	0.26241806
248	0x3a757457	0.0009363344
249	0x3d9a50e6	0.075349614
250	0x3dea08ba	0.11427446
251	0xbe063275	-0.13105185
252	0xbd900967	-0.07033043
253	0x3da40ca1	0.08010221
254	0x3ece4e44	0.40294087
255	0xbdf39c0e	-0.118949994

2.nn.layers.2.bias f4 [124]
0	0x3db2a7ea	0.08723433
1	0x3d4e6a26	0.0503942
2	0xbe12d5ff	-0.14339446
3	0xbdb091da	-0.08621569
4	0xbeb0f813	-0.34564266
5	0x3de229c5	0.11043123
6	0x3c7d95a7	0.015477574
7	0x3e209ce1	0.15684845
8	0x3d98ad77	0.07454961
9	0x3f0ad392	0.5422908
10	0xbf8e6039	-1.1123115
11	0xbf08df39	-0.5346561
12	0x3e2767e0	0.16348219
13	0xbd972162	-0.07379414
14	0x3d34c965	0.044137377
15	0xbe4dcd64	-0.20097882
16	0x3c89c951	0.016819628
17	0x3ccb4a7a	0.024815787
18	0x3cabf0f5	0.02098892
19	0xbcdd0aea	-0.026982743
20	0xbdf9b3b4	-0.12192479
21	0xbf16127b	-0.5862195
22	0xbe939452	-0.28824097
23	0x3e93d03c	0.28869808
24	0x3ed73b10	0.4203725
25	0xbe26c193	-0.1628478
26	0xbe9e7c14	-0.3095404
27	0xbe913584	-0.28361142
28	0xbe6ce500	-0.23134232
29	0x3d9578f1	0.07298458
30	0x3e165a0d	0.14682789
31	0x3dae8e50	0.08523238
32	0x3dc1e8f4	0.094682604
33	0x3c91b796	0.017787736
34	0xbc7c28b8	-0.0153905675
35	0x3de1143d	0.10990188
36	0x3c701d6b	0.014655451
37	0xbc2c7604	-0.010526184
38	0x3ddbf0e3	0.10739305
39	0xbd08208a	-0.033234157
40	0xbe59269f	-0.21206139
41	0xbd87cbb7	-0.066306524
42	0x3eed7b58	0.46383166
43	0x3e0b4a5b	0.13602583
44	0xbe0e803e	-0.13916108
45	0xbdea74ef	-0.114480846
46	0xbd8b3747	-0.06797653
47	0x3d02d8a1	0.031944875
48	0xbe0e9152	-0.13922623
49	0xbdd00cbb	-0.10158678
50	0x3e1826ff	0.14858626
51	0x3ed447e2	0.41461092
52	0x3e90d72d	0.28289166
53	0x3dfd1efd	0.12359426
54	0xbeb20187	-0.3476679
55	0xbeeec703	-0.4663621
56	0xbe7ac80b	-0.24490373
57	0xbf0a8569	-0.5410982
58	0x3e991178	0.2989614
59	0x3e52f9cf	0.20603107
60	0x3eaae5ca	0.3337844
61	0xbdb2e974	-0.08735934
62	0xbe497701	-0.19674303
63	0xbd7e6aa4	-0.06211342
64	0x3d864be4	0.06557444
65	0x3d06d732	0.03292007
66	0xbdf071da	-0.117404655
67	0x3f1f1915	0.6214765
68	0x3e079c8e	0.13243315
69	0xbf362ed1	-0.71165186
70	0x3c6be083	0.0143967895
71	0x3f80456b	1.0021185
72	0xbebc07ec	-0.36724794
73	0x3ea23098	0.316777
74	0xbcb63b77	-0.022245152
75	0x3db8ffc8	0.090331614
76	0x3e587cb2	0.21141317
77	0xbdbe5995	-0.0929443
78	0xbe31f78d	-0.1737959
79	0xbe25a6ac	-0.16176862
80	0x3f46da15	0.77676517
81	0x3f836a6a	1.026685
82	0xbd30a746	-0.043128274
83	0x3dc431ed	0.09579835
84	0x3f82b24b	1.0210661
85	0x3dd6ee7f	0.10494708
86	0x3ed8b11a	0.42322618
87	0x3f63c77d	0.8897627
88	0x3f5d7fd6	0.8652319
89	0x3f06468a	0.52451384
90	0x3f3d7d74	0.7401955
91	0xbe65dc3b	-0.22447293
92	0xbc0b9440	-0.008519232
93	0x3c12c600	0.00895834
94	0xbd5504f3	-0.052006673
95	0x3eccd72d	0.40007916
96	0xbed5b44f	-0.41739127
97	0xbf1cc50a	-0.6123816
98	0xbeea95bb	-0.4581736
99	0x3e93238c	0.28738058
100	0x3dea9482	0.11454107
101	0x3f22601d	0.6342791
102	0x3f6d7743	0.92760104
103	0xbf92fd53	-1.1483558
104	0xbb8c8330	-0.0042880997
105	0x3c891266	0.016732406
106	0xbdd34eae	-0.10317741
107	0x3d573e38	0.05254957
108	0xbda3dbe5	-0.08000926
109	0xbdbdaf63	-0.09261968
110	0xbe271586	-0.16316804
111	0x3cf6bad3	0.030118382
112	0x3f0a49b4	0.5401871
113	0xbdd592b7	-0.10428374
114	0x3f9c8732	1.2228758
115	0x3ead1258	0.33803058
116	0xbe2d567b	-0.16927521
117	0x3de610d0	0.112336755
118	0x3ea70984	0.32624447
119	0xbf288e99	-0.65842587
120	0xbe98fabd	-0.29878798
121	0xbec346b9	-0.38139895
122	0xbd2b4a41	-0.04181886
123	0xbdae0b4e	-0.0849825
