Self project/models/nn/smogn/SFR/model.pt (torch, 54492 bytes, 9 tensors)

net.0.weight f4 [64, 3]
000000 77 0d c3 3b 0e c1 f9 3e cc 7f b6 3e ed ce 18 bf
       0.005952533 0.48780102 0.35644376 -0.59690744
000010 e8 28 cf be 9a 8c 4c 3d b3 31 ae 3e 52 3f 83 be
       -0.40460896 0.049938776 0.34022292 -0.25634247
000020 b3 c7 1f bf c9 b6 a5 bd e0 f7 9a 3e 71 2c b7 be
       -0.6241409 -0.08091504 0.3026724 -0.35776094
000030 72 66 fd be 13 97 9c 3d e5 af 12 3f f1 30 cc be
       -0.49492222 0.076460026 0.57299644 -0.3988109
000040 95 24 46 3e 2e be d3 3e 02 96 45 bd 09 0b c0 be
       0.19349892 0.41356033 -0.04823876 -0.3750842
000050 1b 11 89 be b6 20 d4 be 15 0f f3 3b fe cf a0 be
       -0.26770863 -0.41431206 0.0074175694 -0.31408685
000060 49 da 9a 3d 3b 5c 91 bd 33 5e 06 bf 0f 78 12 3f
       0.07561166 -0.0709767 -0.52487487 0.57214445
000070 8e b3 18 3e 66 bc 81 3e cd 5e b0 3e d8 d9 70 3e
       0.14912245 0.2533905 0.34447327 0.23520601
000080 61 d4 0d be bb 10 59 be 2e c7 b4 be 80 c4 18 bf
       -0.13850547 -0.21197788 -0.35308212 -0.59674835
000090 fe 64 cb be 52 8e 34 be a0 cd 25 3f 35 d2 1a bf
       -0.39725488 -0.17632416 0.64766884 -0.60477
0000a0 ee c0 d5 be 53 53 e9 be 22 05 c3 be 69 df fd 3e
       -0.41748756 -0.45571384 -0.38089854 0.4958451
0000b0 29 bd 14 bf d6 3d d5 be 71 a6 ae be 3b 78 8e 3e
       -0.58101135 -0.4164874 -0.3411136 0.27826104
0000c0 b2 14 81 be c9 81 e9 be 5c f0 07 3f 50 6d 10 3e
       -0.25211102 -0.4560683 0.53101134 0.141042
0000d0 a0 ed bc be 1b 77 aa be 81 17 cc 3e b5 6f 81 3e
       -0.36900043 -0.33293995 0.39861682 0.25280538
0000e0 bb 71 93 be 9f d6 a7 be 17 94 85 be 19 d3 67 3e
       -0.28797707 -0.3278093 -0.26089546 0.22639121
0000f0 2f ab f7 be c6 dc 04 3f 45 53 19 3d dc 57 6c 3e
       -0.4837279 0.51899374 0.037432928 0.2308039
000100 f7 c6 2f 3e 95 bc ec 3e 74 5e 3a be 08 61 58 be
       0.17165743 0.46237627 -0.18200094 -0.21130764
000110 f3 39 e5 be 31 3b 01 3f c5 e8 67 bc 41 fb b0 bc
       -0.44770774 0.50480944 -0.014154618 -0.021604182
000120 4a 0f 16 3f 91 73 8b bd 0f 87 e8 bd 3f 13 91 be
       0.5861708 -0.06809152 -0.113538854 -0.28334996
000130 05 28 94 3e 9f 60 e2 3d 4a e9 a1 be d8 3a be 3e
       0.28936782 0.11053585 -0.31623298 0.3715427
000140 ee db e2 3e 92 1d 80 bd 8c 32 4f 3e 32 c1 2e bf
       0.44308418 -0.0625564 0.20234126 -0.6826354
000150 d4 6e db be 8f a2 6b be 78 7f 08 3e c1 71 0d be
       -0.42857993 -0.2301123 0.13329875 -0.13812925
000160 e9 80 d1 3e ce 3c 49 bf 6e 49 c4 3e b1 4d 18 bf
       0.40918663 -0.78608406 0.38337272 -0.5949355
000170 9a ec 89 be 4d 5b 15 3f 92 4a 0e be b3 de 1f be
       -0.26938325 0.5834244 -0.13895634 -0.15612297
000180 de de ae 3e 3b 35 8f be 6f 2f 0d 3e 26 04 52 be
       0.3415441 -0.279703 0.13787626 -0.20509395
000190 ce c1 69 3e 25 6e dd be 16 e3 f1 be 3b be 0d bf
       0.22827837 -0.43248096 -0.47243565 -0.55368394
0001a0 37 21 b6 be 21 07 26 3f 77 82 d0 3e 25 4f bf be
       -0.35572216 0.6485463 0.40724537 -0.3736507
0001b0 a0 10 a0 3e ec f2 0b 3f 87 85 10 3f f7 85 64 3d
       0.31262684 0.54667544 0.56453747 0.05579182
0001c0 cd 03 1c 3e 43 6b 0b 3f b2 cb 11 3f a3 f2 09 3d
       0.15235825 0.54460543 0.5695144 0.033678662
0001d0 ad 43 4a be 35 43 02 3f 52 5a eb bd 63 58 12 3f
       -0.19752379 0.508838 -0.114918366 0.5716612
0001e0 66 f7 e6 3e 29 d5 fc 3d 31 bb 17 bf 20 fb 01 3f
       0.45110625 0.123453446 -0.59270006 0.5077381
0001f0 c4 60 aa 3e c3 d1 dd 3d 34 42 09 3e c6 b8 8f 3e
       0.3327695 0.108310245 0.1340416 0.28070658
000200 70 b8 d2 3e 5b 63 e7 be ed d2 07 bf 46 84 d6 3e
       0.4115634 -0.4519299 -0.5305622 0.41897792
000210 2e 47 89 be a6 ef 08 bf 06 d2 ee 3e 61 c3 ed be
       -0.26812118 -0.53490674 0.4664461 -0.46438125
000220 43 45 5b be f6 cc ee be 07 6c 02 3f da 99 87 bd
       -0.2141314 -0.46640748 0.50946087 -0.06621142
000230 52 5a a5 be 97 df f3 3e 6e 17 08 3f 36 3d a5 3e
       -0.3229547 0.47631523 0.5316075 0.32273263
000240 bf d3 e2 3e 6b 74 07 bf 79 4f 1b bf 21 d0 7f 3e
       0.44302174 -0.52912015 -0.6066814 0.24981739
000250 6f 09 48 be a5 87 e8 3e 7f 04 10 3f 25 cc d8 bd
       -0.19534849 0.4541599 0.5625686 -0.105858125
000260 85 0e 9f be 2f 4e 09 3f 9b 18 90 be 3c c1 e3 be
       -0.31065765 0.53634924 -0.28143772 -0.44483364
000270 4a d6 f6 3e 70 0c a4 bb 2d 22 af be 7b f5 42 3e
       0.48210365 -0.0050063655 -0.34205762 0.19038956
000280 fb 57 9d be f8 fd 66 3d 72 8b 1f bf 5b 87 9d be
       -0.30731186 0.056394547 -0.6232215 -0.3076733
000290 c3 4e da 3e 10 f5 03 3d f1 35 04 be b7 df 05 3f
       0.42638215 0.03221613 -0.12911202 0.52294487
0002a0 35 34 b5 3e e8 ff ba 3e 4c 1b b5 3e 55 76 8d be
       0.35391393 0.36523366 0.35372388 -0.27629343
0002b0 56 ba 17 bf 8a bb d2 be 13 ee d0 be 99 71 c4 3d
       -0.592687 -0.41158706 -0.40806636 0.095919795
0002c0 ef 3e 19 3f c8 0a 09 3f 0f 8d ed 3e ec b4 59 3e
       0.59861654 0.53532076 0.46396682 0.21260422
0002d0 e4 55 cd 3e 69 a9 04 3d ff 1f 8d 3e 6d 76 d6 be
       0.40104592 0.032388125 0.27563474 -0.41887227
0002e0 d8 f9 04 3f a6 62 1d 3e d7 43 87 bc db 90 7c be
       0.5194373 0.15369663 -0.01651184 -0.24664633
0002f0 1c b3 cd 3d a4 fa 92 bd fb 02 c2 be 06 e1 e5 be
       0.10043928 -0.07176712 -0.378929 -0.44898242

net.0.bias f4 [64]
000000 92 2e 74 be ce e7 20 3e f9 42 bb be 54 4f cb 3e
       -0.2384589 0.15713426 -0.36574534 0.3970896
000010 ca 5a 9e be 50 f6 e0 3e 94 fb cf 3d e6 6e 84 bc
       -0.30928642 0.43937922 0.101554066 -0.016166162
000020 b3 37 04 3e 08 46 c1 bd 05 c7 a6 3e f2 a1 dc bc
       0.12911873 -0.094371855 0.32573715 -0.02693269
000030 25 37 3f be 71 51 da 3d 85 87 ca be 87 70 90 3e
       -0.1867338 0.10660065 -0.39556518 0.28210852
000040 3a 7c 70 3e 59 32 bd 3e ea 60 ca bd c9 ab 9b 3c
       0.23484889 0.36952475 -0.09881766 0.019002812
000050 91 84 97 be eb 61 58 be 2e cb 8b bd 42 bb 9e 3e
       -0.29593328 -0.21131103 -0.06825863 0.3100224
000060 d1 2b 82 be 20 bc fe 3e 99 39 bd be 07 de 93 bc
       -0.25424054 0.49752903 -0.36958006 -0.018050207
000070 fa 49 06 3f 28 50 69 3c 7d c3 aa 3e aa 48 c3 bd
       0.5245663 0.014240302 0.3335227 -0.09535344
000080 fc b2 d0 3e a3 79 94 3d 0f c2 86 be 62 b2 bf be
       0.40761554 0.07249763 -0.2631993 -0.37440783
000090 3b 20 cf 3e 19 c3 35 3e df ee 04 bd 7a 18 a3 bd
       0.40454277 0.17750205 -0.032454368 -0.07963653
0000a0 39 94 5e be fc 77 e0 be 35 8c 4c 3e ae c4 02 bf
       -0.2173623 -0.4384154 0.1997536 -0.5108136
0000b0 aa 3d 32 bd 74 1b fa 3e 5d 81 92 3e 6c 78 c1 3e
       -0.04351584 0.4884907 0.2861432 0.37787187
0000c0 8c ac 37 3e 98 dc cb be 83 32 af 3e fe 85 ec 3e
       0.17936915 -0.39816737 0.34218225 0.46195978
0000d0 67 e1 4c 3e 0c 71 f3 3e be 0c 06 bf f7 82 1e bf
       0.20007859 0.47547185 -0.52363193 -0.61918586
0000e0 ad d0 3e be c7 0e dc 3d 5a 9f c9 3e c3 bb 66 be
       -0.18634291 0.10745006 0.39379388 -0.22532563
0000f0 dc 12 aa be b7 c2 dc 3e f5 ef 83 bd aa 72 7f 3c
       -0.33217514 0.43117306 -0.064422525 0.015591303

net.2.weight f4 [64, 64]
000000 f2 40 f4 bd 40 3b 3e bc 93 19 4b 3d 10 7f e1 3d
       -0.1192645 -0.011610806 0.049584936 0.110105634
000010 80 d2 3e 3c 19 3b 93 3d b3 80 bb 3b 42 1f e2 bd
       0.011646867 0.07189006 0.0057221293 -0.11041118
000020 88 9a 7a bc 75 71 4f bd c7 64 e0 bc 93 0a 78 bd
       -0.015295632 -0.05064531 -0.027391804 -0.06055696
000030 f0 5f bf 3d 96 58 e7 bd 7a b4 b0 bd 11 2e 25 bd
       0.093444705 -0.11296193 -0.08628173 -0.040327135
000040 d4 7a d6 3d 85 27 17 bd 73 f4 25 3d 98 05 7b 3d
       0.10472646 -0.036902923 0.040516328 0.06128463
000050 82 1d db 3d 70 47 eb bc 64 d1 3b 3c eb 18 92 bd
       0.106989875 -0.028720587 0.011463497 -0.07133659
000060 72 70 a1 bc f6 de f0 bd 90 e1 d0 bd 13 c1 bb 3c
       -0.019706938 -0.117612764 -0.10199273 0.022919213
000070 c3 d1 d6 bd 36 74 5f 3d 90 bf a6 3d 2b ad 08 3d
       -0.104892276 0.054554187 0.081420064 0.03336827
000080 b5 d6 19 3d 1c e6 fe bd 80 c4 6c bd d8 06 ce bd
       0.037558276 -0.12446234 -0.057804585 -0.10059899
000090 12 26 02 be b6 cc 41 3d 7a a1 97 3c 22 94 f3 3d
       -0.12709835 0.04731437 0.018509615 0.118934885
0000a0 5e 0d 38 bd e5 fb ad bd 77 a8 ec bd 00 3c fc 3b
       -0.044934623 -0.08495311 -0.115555696 0.0076975822
0000b0 80 4c 8c bd 2b ff 2d 3c 88 bb 93 3d 2b fd c6 3d
       -0.06850529 0.010619919 0.07213503 0.09716257
0000c0 87 8b 00 bd 9a 77 a6 bd 34 ab a0 bd 25 bf 8c 3d
       -0.031383064 -0.08128281 -0.078451544 0.068723954
0000d0 f3 a6 b2 3c 9c 29 35 bb c4 b9 f8 bd b4 e3 89 3d
       0.021808123 -0.002764321 -0.12144807 0.06732884
0000e0 77 2b 96 3d 95 be c0 3a 1b 02 f4 bc 0c d7 8c bd
       0.07332509 0.0014705235 -0.02978616 -0.068769544
0000f0 ca c7 9f bb c8 e3 56 bb 64 6e 10 3d 69 5b 8c bc
       -0.0048761116 -0.0032789577 0.035261527 -0.017133432
000100 53 56 4c 3e d7 0d bc 3d f1 a4 d8 3d 42 28 fc bd
       0.19954805 0.09182327 0.10578335 -0.12312366
000110 14 c8 cf bd 50 6b 65 3d 91 44 71 be 68 b7 08 be
       -0.10145584 0.056010544 -0.23561312 -0.13351214
000120 23 2c 9a bd 14 91 51 ba b6 9d 28 3d cf 39 69 3d
       -0.0752795 -0.00079943356 0.04116603 0.056939896
000130 86 ba 0d 3d 6d ee 40 3d 6e 4b 54 3e 0e b9 02 3e
       0.03460171 0.04710238 0.20731899 0.12765905
000140 9b 6c 9a bd 26 0e 8d bd eb 1f 89 3b f3 43 d7 3d
       -0.07540246 -0.06887464 0.004184713 0.10511007
000150 22 01 59 3d 9b 1f d1 3d e3 3a 29 3e 4c 18 af bd
       0.052979596 0.102111064 0.1652637 -0.08549556
000160 13 e7 f3 3c 97 89 e7 3b 00 05 d5 3d bd 9c 6d 3c
       0.02977327 0.0070659625 0.10401344 0.014502701
000170 a3 99 e7 bc 5a ec 85 3e 02 73 f8 bd c8 b8 48 3d
       -0.028271502 0.26156884 -0.12131311 0.049004346
000180 fc 01 6b bd f3 ae 20 be e4 01 49 be 0f 68 1a 3e
       -0.05737494 -0.15691738 -0.19629627 0.15078758
000190 a8 7b 22 3e 20 87 c6 3d 10 41 04 3e 3b 1c 23 3e
       0.15867484 0.09693742 0.12915444 0.15928738
0001a0 1f 26 b1 3d 33 81 e3 bc ba d8 0f 3d 99 9a f6 bc
       0.08649849 -0.027771568 0.035118796 -0.030103015
0001b0 9c 92 42 3d d6 94 1a be fa 23 6e bb ff 88 0d bd
       0.0475031 -0.15095839 -0.0036337362 -0.034554478
0001c0 c0 90 51 be d4 26 b4 3d 30 4d f0 3d 8f 9c 0b bd
       -0.20465374 0.087964684 0.11733472 -0.034084853
0001d0 5b 14 d6 bd de 3e cf bb 4d 1b 2d 3c 9c 8f ee 3e
       -0.10453101 -0.006324633 0.010565591 0.4659394
0001e0 43 4c 3d 3e 7e c8 e3 3b 04 72 a4 bd 1c 18 02 bd
       0.18486123 0.0069513908 -0.08029559 -0.031761274
0001f0 63 d4 95 3b 1e 0c 9a bd c5 f7 70 3d c4 ac 6f bc
       0.0045724376 -0.075218424 0.05883004 -0.014628593
000200 ea 33 d4 3d d6 8b c3 3d 6f fa 10 bd 21 b1 65 3d
       0.10361464 0.09548156 -0.035395082 0.056077126
000210 89 80 c0 3d 3a 82 b5 3d 83 13 9e 3d a2 96 c0 bd
       0.09399516 0.08862729 0.07718565 -0.09403731
000220 c5 85 0a 3d 8d e3 2a bb c4 ec b5 3d e3 43 83 3d
       0.03381898 -0.0026075572 0.0888305 0.06409433
000230 1e 0a dd 3d b5 5d 00 3e 02 a5 01 be 42 5f 44 3d
       0.10792945 0.12535746 -0.12660602 0.047942407
000240 71 df 1e 3e 8a 89 8c 3d a4 5b da 3c 5b 7c a2 3d
       0.15514924 0.06862171 0.026655026 0.07933875
000250 bb 0b f0 bc 85 66 57 3d 65 62 9a bd 4c c4 eb 3d
       -0.029302469 0.052588005 -0.075382985 0.1151205
000260 b9 ff 15 bd 37 39 16 3e bd fd 78 be 8c e7 db bd
       -0.03662083 0.14670263 -0.24315543 -0.107375234
000270 c9 dc 1e 3d 25 09 49 bc a3 e8 b3 bc 99 4e ce 3c
       0.038784776 -0.012270247 -0.021961516 0.025183963
000280 d5 74 09 bd d8 95 0d 3e 69 4f dc bd a5 05 94 3c
       -0.033558685 0.13826692 -0.10757334 0.018069098
000290 a9 00 a3 bd eb f6 5d 3d 42 8d ed 3d 68 22 23 3d
       -0.0795911 0.054190557 0.115992084 0.039827734
0002a0 1c 44 2c 3c 4f b9 ab bd 04 69 8f bd b5 be 88 bd
       0.010514285 -0.08384954 -0.07002452 -0.066769995
0002b0 cd 27 c3 3d 43 1e bd 3c c2 09 ce 3c a5 79 da bd
       0.09529076 0.023085719 0.025151137 -0.10667733
0002c0 41 63 95 bd 23 5d 93 be ed 1b b3 bd c3 a9 c3 bb
       -0.07294322 -0.28781995 -0.08745561 -0.005971165
0002d0 59 39 55 bd d1 6d c3 3d 29 89 9d bc 55 d2 56 3e
       -0.052056644 0.0954243 -0.019230442 0.20978673
0002e0 7d 5a 96 bd 96 10 c2 bd f0 9b 10 3e 7a 55 fc bd
       -0.07341478 -0.0947582 0.14121985 -0.12320991
0002f0 cb e2 b7 bb 7e f4 f9 3c 63 42 b0 bc 4c 06 a0 3c
       -0.0056117526 0.03051209 -0.02151603 0.019534253
000300 a6 bd fb bd 46 34 e6 3d 8e 30 a6 bd 96 15 9c 3d
       -0.12292032 0.11240439 -0.0811473 0.07621305
000310 b6 60 97 bd b0 27 fc bc 40 bd 41 bb 5c cd 49 bd
       -0.07391493 -0.030780643 -0.0029562265 -0.04926811
000320 3c d0 5d bd b4 7b d7 bd 74 d4 af bd c0 2e c0 bb
       -0.054153666 -0.105216414 -0.08585444 -0.005864948
000330 74 ab 15 bd 68 ce 8f bc 78 9c 02 3d 00 47 83 bc
       -0.036540464 -0.017554477 0.0318875 -0.016025066
000340 e8 56 f2 bd bc 4d 3c bd a0 b6 1c 3d e4 44 38 3d
       -0.11832982 -0.04597257 0.038260102 0.044987574
000350 dc c2 77 3d e0 d2 e2 3b 90 05 af 3d 02 2f af bd
       0.060488567 0.006922111 0.08545983 -0.08553888
000360 c4 d5 d6 bd 28 83 08 bd 00 fc 5c 3a d0 df b9 3d
       -0.10489991 -0.033328205 0.0008429885 0.09075892
000370 ee a1 93 bd 8a 4a b3 bd c0 9f 5d bb 94 33 02 3d
       -0.0720862 -0.087544516 -0.0033817142 0.03178747
000380 e4 7d e9 bd f8 63 4e bd ac 19 c9 bd f0 4c ef 3c
       -0.11400965 -0.050388306 -0.0981935 0.029211491
000390 50 0c 3f 3c 7c a5 e3 bd 92 77 aa bd c0 67 bd 3b
       0.01166065 -0.11115548 -0.083235875 0.00578019
0003a0 d8 ac 07 bd e4 01 c6 bd 50 26 1b bd 1a 1b eb bd
       -0.03312382 -0.09668329 -0.037878335 -0.114797786
0003b0 50 da 69 bc 70 b7 6e bc a0 b4 d6 3b e0 f2 2d 3c
       -0.014273241 -0.014570102 0.006552294 0.010616988
0003c0 40 5e b2 bc 62 4c cc 3d 3c 50 37 bd 18 61 67 3d
       -0.021773458 0.09975506 -0.04475425 0.05648908
0003d0 38 4e 41 3d f0 06 7b bc 5e 9b bb bd 1a b5 d7 bd
       0.047193736 -0.015321478 -0.09160493 -0.10532589
0003e0 a0 b9 0d 3d 5c 89 1c 3d 02 44 9b 3d 64 a2 62 bd
       0.034600854 0.038216934 0.07581331 -0.05533065
0003f0 a6 b0 ce 3d c2 f7 ff 3d b0 de a2 bc 9c 85 47 bd
       0.10092287 0.12498428 -0.019881576 -0.048711404

net.2.bias f4 [64]
000000 e4 18 bd bd 15 bd b1 bd 67 c9 f4 3d 78 ec 9c bd
       -0.09233263 -0.08678643 0.11952477 -0.0766229
000010 d2 d8 98 bc 12 a3 14 3e 1c eb dd bd 91 92 ef bd
       -0.018658075 0.14515331 -0.10835859 -0.11697877
000020 88 92 e3 3c 0d 01 ee 3d 01 d1 10 be 72 91 41 3d
       0.027779832 0.11621294 -0.14142229 0.047257848
000030 06 84 b2 bd c5 c2 53 3d b6 56 fe 3d e8 92 9b 3d
       -0.08716588 0.05169942 0.124188825 0.075963795
000040 f2 9c 3c 3e dd 89 f2 3c 1d 50 6c bd 53 43 79 3c
       0.18419245 0.029606754 -0.05769359 0.015213805
000050 23 16 67 3d 54 2f 43 bc 8b 95 fd bd 8c 63 3e bd
       0.056417596 -0.011913139 -0.12382039 -0.046481654
000060 9f 1e c9 3d b3 aa 1f 3d 7e a4 e5 bc e3 a0 06 3e
       0.09820294 0.03898115 -0.028032538 0.13147311
000070 18 f2 61 bd 11 ab b4 3c a0 10 b8 3d 89 62 c0 bd
       -0.05516252 0.022054227 0.08987546 -0.09393794
000080 07 28 47 3e 88 a5 7b bd 0f 19 cc 3c 93 3a d5 3c
       0.19448863 -0.06143716 0.024914293 0.026028907
000090 f2 74 4e bd c8 71 1f 3e aa 1e 26 bd 18 c3 4f 3d
       -0.050404496 0.15570748 -0.040556587 0.050723165
0000a0 df e0 1f 3e 68 d0 ac bd 02 37 ac 3d 68 7b a0 3c
       0.15613125 -0.08438188 0.084089294 0.019590095
0000b0 a9 1d a8 bd ee 16 2a 3e e4 9e 41 bc 32 e6 cc bd
       -0.08208782 0.1661031 -0.011817668 -0.10004844
0000c0 28 32 f9 bb 07 44 08 3e ba 50 fc 3d ec ad 93 3d
       -0.007604856 0.133072 0.12320085 0.07210907
0000d0 39 fe dd 3d 85 30 64 3c 5c 73 2b be 31 7c ac 3d
       0.10839505 0.013927584 -0.16743225 0.08422125
0000e0 0c c0 00 3e ec 00 07 3c a1 35 0d 3d a8 a2 21 3e
       0.1257326 0.008239966 0.034474973 0.15784705
0000f0 13 7b 44 bd 91 6a 07 3e ca 42 28 3e 33 e6 00 3e
       -0.047968935 0.13224246 0.16431728 0.12587814

net.4.weight f4 [64, 64]
000000 24 05 08 3d b2 1f aa 3d bd 39 84 3d a4 a7 ea bd
       0.033208027 0.08306827 0.06456325 -0.11457756
000010 cc c8 81 bd 91 3a 01 bd 4c a8 08 bd 77 fe 41 bc
       -0.06337127 -0.031549994 -0.033363625 -0.011840454
000020 fc e3 24 bd ea 65 8f bc 11 27 42 bd f8 5b 44 3d
       -0.040256485 -0.017504651 -0.047400538 0.04793927
000030 74 5a 0a 3e ec cd 43 bd a9 d6 45 3c 69 fc a5 bc
       0.13511068 -0.047803804 0.012075105 -0.02026196
000040 02 d4 bf 3c 59 6a 6b bd e0 80 ef 3d 4b 55 d8 3d
       0.023416523 -0.057474468 0.11694503 0.10563143
000050 e9 ad 14 3e 5f 5d e2 bd 2c db 9e bd a1 06 f5 3d
       0.14519466 -0.110529654 -0.077566475 0.11964155
000060 68 85 24 bc 67 3b 88 bd 14 69 d9 bd c9 82 68 3d
       -0.010041572 -0.06651955 -0.10615745 0.05676535
000070 43 b9 21 bc 19 57 d6 bd 26 ab 26 3e 02 c3 c4 bd
       -0.00987083 -0.10465831 0.16276225 -0.09607507
000080 31 87 95 3d 84 28 7f 3d ea 4e 8d 3d 47 35 e5 3d
       0.07301176 0.062294498 0.06899817 0.111918025
000090 9e c2 73 3b ca 96 c1 3d 67 8f 95 bc a6 53 94 3d
       0.0037194858 0.09452589 -0.018256856 0.07242517
0000a0 cb cf 38 3b 2d 8c 73 3d ec 88 b2 3c 8c 3c a6 3d
       0.0028200026 0.059459854 0.021793805 0.08117017
0000b0 68 08 25 3b 53 d0 49 3e 1e f3 bd bd 3b 33 cc 3d
       0.0025182012 0.19708376 -0.092748865 0.09970709
0000c0 9d 12 0c 3e 49 d7 77 3d 90 e8 30 3d 00 9f 42 bd
       0.13678975 0.060508046 0.04319054 -0.047514915
0000d0 8c 87 c3 b9 3d 1b e4 bd 48 97 28 be f3 16 43 3e
       -0.0003729429 -0.11138008 -0.16463959 0.19051723
0000e0 88 5b da 3c f8 8c 39 3d 0e 4b 68 bd 3d d0 6e 3c
       0.026654974 0.045300454 -0.056712203 0.014576015
0000f0 f9 b0 d9 bd 17 15 2d 3d 90 a8 af 3d 23 f8 a6 3d
       -0.10629458 0.04225644 0.085770726 0.08152797
000100 df 63 f3 3d 0f c4 83 bb 38 30 1f be 00 19 6b 3b
       0.11884283 -0.0040211747 -0.15545738 0.0035873055
000110 8d ff dc 3d 1a 88 18 3e c2 f2 13 bc e8 3a 32 be
       0.1079093 0.14895669 -0.009030046 -0.17405283
000120 20 00 d8 bd 45 0b a9 3d bd 34 08 be 29 75 16 bd
       -0.10546899 0.082541026 -0.13301368 -0.036732826
000130 e6 16 a7 bd db 43 87 bc e5 3d 8a 3d 2d 47 e6 3d
       -0.081586644 -0.016511848 0.06750087 0.112440445
000140 cd e3 ef bb 96 c5 d4 3d a9 1a 30 3d fe 3a ef bc
       -0.007320857 0.10389249 0.042994175 -0.029202934
000150 c1 a1 91 bd f9 a7 90 3d 0d 78 12 3d 0f 5b 3f bd
       -0.0711093 0.07063288 0.03575902 -0.0467177
000160 78 32 fb 3d ee 6c c6 bd ad ef 37 3e 60 6a 20 be
       0.122654855 -0.096887454 0.17962523 -0.15665579
000170 51 05 df 3d 64 97 d6 3d e7 5f 99 3d 0d 16 b2 bc
       0.10889686 0.10478094 0.07488995 -0.02173903
000180 aa 13 a5 3d 14 31 ca bd d6 35 fa bd 99 a7 ed 3d
       0.08060391 -0.09872642 -0.122173 0.11604232
000190 dc 6c d5 bc 43 d7 f5 bd 59 45 5c bd 8d 87 43 be
       -0.026052885 -0.120039485 -0.053777073 -0.19094677
0001a0 fd a8 01 be 1c 0f 35 3c 7e b7 e1 bd 4a c0 48 be
       -0.1266212 0.011050966 -0.110213265 -0.19604602
0001b0 cb 81 da bd f9 31 28 be d7 d8 87 bd 52 c7 4b 3d
       -0.10669287 -0.16425313 -0.06633156 0.049750634
0001c0 6d a0 35 be 95 94 9c bc 30 98 2d bd bb d2 fb 3d
       -0.17736979 -0.019113818 -0.042381465 0.12296053
0001d0 e9 2e 7e 3d 96 73 f3 b9 77 dd dd 39 1e 26 84 bd
       0.062056456 -0.0004643469 0.0004231741 -0.06452583
0001e0 d4 1b ae 3b aa ed c1 3d 2d 43 00 be 80 df b8 bd
       0.005313376 0.09469159 -0.12525626 -0.09027004
0001f0 9e 24 5f 3c e9 b8 84 3d 26 b6 b8 bc 59 a9 dc 3c
       0.01361957 0.06480581 -0.022547793 0.02693622
000200 55 72 51 3d 97 48 0a 3e b4 b7 d3 3d d0 5b f8 bc
       0.051134426 0.13504253 0.10337773 -0.030317217
000210 1f 0b 8b 3b dc 60 40 bc 25 c7 93 3d df f7 eb 3d
       0.004243269 -0.011741843 0.07215718 0.11521887
000220 dc 03 e7 bd 36 4b 02 3e fd b5 13 3e 3c 35 8b 3d
       -0.11280033 0.12724003 0.14424892 0.06797263
000230 6a 24 0d be 83 a5 4f 3d 1b 2e 36 3d cf fe 18 bd
       -0.13783422 0.050694954 0.044477563 -0.03735238
000240 c5 31 cd 3d aa 6d 1d 3e 48 13 83 3d 64 a1 99 bd
       0.100192584 0.15373865 0.06400162 -0.07501486
000250 f0 83 b1 3d 34 2e ce bd b1 da 5b be 79 69 7f bd
       0.08667743 -0.10067406 -0.21470143 -0.062356446
000260 95 e6 06 3e a3 7f ea 3d dd 32 e9 3d de e4 c6 3d
       0.13173898 0.11450126 0.113866545 0.09711622
000270 8d 83 e2 bd a1 3c b2 bd 99 6b 10 bd f2 c0 3b be
       -0.110602476 -0.0870297 -0.035258863 -0.18335322
000280 9e dc 16 bd be c9 b6 bd d7 40 bf bd f5 18 27 3d
       -0.03683149 -0.08925198 -0.09338539 0.040795285
000290 52 ca fc 3c a7 8e 67 3d 6e 96 33 bb ed 5d 66 3d
       0.030858193 0.05653253 -0.0027402896 0.05624192
0002a0 5d 59 5c bd 27 e0 e0 bd f4 44 ce bd a6 30 0e 3e
       -0.05379616 -0.10980254 -0.100717455 0.13885745
0002b0 38 5b f9 3c 69 8c 52 bd 37 ad 47 bd 6e 2b 91 3c
       0.030439004 -0.051403437 -0.048749175 0.017720904
0002c0 f5 b8 13 bd ef 52 10 3e 8b 32 0f 3e db 12 7c 3d
       -0.03606506 0.14094137 0.13984124 0.06154142
0002d0 30 d0 3b 3c 43 61 81 3d cb 9d d8 bd 3a 21 aa 3d
       0.01146321 0.06317379 -0.105769716 0.08307119
0002e0 19 d6 ea 3c 6c 18 99 bd 81 c0 84 3d 95 75 cf 3d
       0.028666543 -0.07475361 0.0648203 0.10129849
0002f0 36 bb 91 3d 08 31 b9 3d 83 8a 15 3e 68 11 0b bd
       0.07115786 0.09042555 0.1460362 -0.033952147
000300 b0 06 28 3c b8 86 bc bd 98 c7 db 3d c0 34 bf bb
       0.010255501 -0.09205383 0.10731429 -0.0058351457
000310 82 3a dd bd 9c f2 a5 3d 50 85 71 3c 8c 94 13 bd
       -0.10802175 0.08102915 0.014741257 -0.036030337
000320 d4 06 e5 3d b2 d4 86 bd 70 06 7e bd 7c c4 2f bd
       0.11182943 -0.06583537 -0.062017858 -0.04291199
000330 b0 96 6a 3c 8a ef c6 bd 08 6f dd 3c 0e b6 f7 bd
       0.014318153 -0.09713657 0.027030483 -0.12095271
000340 a2 fb 89 bd 18 bf 95 bd 3c 02 ba bd 48 9b ea 3c
       -0.06737448 -0.07311839 -0.090824574 0.028638497
000350 48 ee 60 3d c8 61 fa bc 68 d0 19 bd 00 88 2d 3b
       0.054914743 -0.030564204 -0.037552267 0.0026478767
000360 aa 7f cf bd 08 fc f2 bd 4a d0 a5 bd b8 96 b9 bd
       -0.10131772 -0.118644774 -0.080963686 -0.090619504
000370 78 6b 90 3c b0 9e ce 3d 46 aa b6 3d 60 99 9d bd
       0.01762937 0.10088861 0.08919196 -0.076952696
000380 ae 6e 8e 3d 28 87 e0 3d f8 a3 d8 bc 88 f3 26 bd
       0.06954704 0.10963279 -0.026445374 -0.040759593
000390 2a d9 f1 bd 00 92 13 bc 8c 5b 46 bd 2c 33 01 3d
       -0.11808999 -0.009006977 -0.04842715 0.031542942
0003a0 aa 0a eb bd 50 1f 44 bc 90 19 b4 3c 40 bc fe bc
       -0.114766434 -0.011970356 0.021984845 -0.031095624
0003b0 80 62 9d bc e6 fd f2 3d 5c ba 5e 3d d2 82 be bd
       -0.019212008 0.118648335 0.054376945 -0.09302296
0003c0 1c d0 67 bd ec 32 6c 3d 28 0e 5f 3d e8 9f d7 bd
       -0.056594953 0.05766575 0.05445686 -0.105285466
0003d0 4c fb ae bd e4 bc 53 bd 70 5b 79 bc e0 df f4 3b
       -0.08544025 -0.051693812 -0.015219554 0.007472977
0003e0 38 6e fc 3c 04 b9 6e bd da f1 8e bd 8e 5e 8f 3d
       0.030814275 -0.058281913 -0.06979723 0.07000457
0003f0 70 b9 c7 bd d0 9d b4 bc 66 9b e5 bd ca c1 c2 bd
       -0.09752166 -0.022047907 -0.112112805 -0.095096186

net.4.bias f4 [64]
000000 4d 73 5a 3d 53 84 1b 3e be ec 5e bb ce e7 96 bd
       0.053332616 0.15187196 -0.003401562 -0.07368432
000010 92 69 05 be 55 8e 1a 3d 9c 80 b4 bd 5c 62 b2 3c
       -0.13028553 0.037733395 -0.08813593 0.021775417
000020 ac bb 14 3e 08 5f 83 bd 7b 56 27 3e 32 ef c6 3d
       0.14524716 -0.0641461 0.16341583 0.09713592
000030 4f ac 19 bc 25 be c4 3d 1c 1f 31 bc 20 82 08 3d
       -0.0093794605 0.0960658 -0.01081064 0.033327222
000040 56 f5 0b be fc 66 c1 3d 69 46 ba 3d 62 5f fb 3d
       -0.13667807 0.09443471 0.09095461 0.12274052
000050 5e 60 9d bd 6c 11 f5 3d 08 6b 02 3e 7d 7b 26 bd
       -0.07684396 0.119662136 0.12736142 -0.04064511
000060 5e fa b1 3d 8a e6 f6 3c 74 d0 91 bd 9c 08 28 3d
       0.08690332 0.030139226 -0.071198374 0.041023836
000070 31 2d ad 3d 85 d0 f4 bd a4 50 53 bd 3b d8 25 be
       0.08455885 -0.119538344 -0.051590577 -0.16195767
000080 6e b1 08 3e 66 87 23 3d 74 ee f3 bd 38 9f 83 3d
       0.13348934 0.039924048 -0.11910716 0.06426853
000090 5a 9a b0 3d 64 12 e6 3b f6 e9 9c 3d 5c 79 fb bd
       0.0862319 0.0070212353 0.07661812 -0.12279007
0000a0 8a 14 d5 3c 3c 1e b6 bc 0d 6e 68 bd bd c0 d4 bd
       0.02601077 -0.022231214 -0.056745578 -0.103883244
0000b0 aa 46 54 3b 5b f3 05 be 51 cd 23 be a3 52 f4 3d
       0.0032390752 -0.13081114 -0.1599629 0.11929824
0000c0 ef e2 f1 3d 18 ef 3f bd 02 5a 58 bd 69 46 6b bd
       0.11810862 -0.046858877 -0.052820213 -0.057440195
0000d0 fa dc 94 3d 02 6e 14 bd 63 0b d6 3d d5 25 df 3c
       0.072687104 -0.036237724 0.104513906 0.02723972
0000e0 0b e7 aa 3d 7d b5 92 bd 8f b4 41 bd 58 2c 3a 3d
       0.08344849 -0.071635224 -0.047291335 0.045452446
0000f0 ac 41 db 3d 9d 7f 66 bd a7 31 e0 3d 73 55 f5 3c
       0.10705885 -0.056274045 0.109469704 0.029947972

net.6.weight f4 [64, 64]
000000 7d c6 08 3e 38 e3 a8 bd 05 73 04 3e d4 6f 52 3d
       0.13356967 -0.082464635 0.12934501 0.05137618
000010 fe c9 e7 3d f2 27 97 bc fd 36 ec 3d 0e d4 f4 3c
       0.11317824 -0.018451665 0.11533926 0.029886272
000020 fa db 00 bd 5a eb 40 bd 11 0f ef 3b c2 76 1d 3e
       -0.031459786 -0.04709945 0.007295497 0.15377334
000030 c4 3b dc 3d e7 90 41 bd c1 b2 96 bc ac 75 b3 3d
       0.10753587 -0.04725733 -0.018395783 0.087626785
000040 8d 2d 75 bc 17 af ea bc 7b 56 5f 3d 8e fe 33 bd
       -0.014964473 -0.028647942 0.054525834 -0.043943934
000050 57 8e 73 bd 2d b7 93 3d 63 e7 c0 bd 24 26 8a bd
       -0.059461918 0.072126724 -0.094191335 -0.06745556
000060 d4 5b 41 3d 06 ae 85 bd 04 6b 80 3d 21 5b 0d 3c
       0.047206715 -0.06527333 0.062704116 0.008627684
000070 ba 90 03 3d 25 4e a7 bc f4 cc 10 3d 9a 1a f3 be
       0.032120444 -0.020423004 0.03535171 -0.47481233
000080 fd 42 10 bd f7 cd d3 3c dc 82 9e bd 67 0f 70 bd
       -0.035220135 0.025855048 -0.07739803 -0.05860844
000090 04 bd 2d 3d a0 a8 92 3d 83 d1 b1 bc 00 76 a0 3b
       0.042416587 0.07161069 -0.021706348 0.004896879
0000a0 64 b2 b8 bd e6 06 f4 3c e1 7e ac 3d 61 3c 9b 3c
       -0.090184 0.029788446 0.08422638 0.01894969
0000b0 11 6d 9b bd 7a f3 a1 3c 1b 39 0b 3e 7e a2 18 3d
       -0.07589162 0.019769419 0.13596003 0.03726434
0000c0 ae 4a 08 3e 9e be d1 bd 6a b3 d2 3d fe b3 04 3e
       0.13309738 -0.102414355 0.10288127 0.12959287
0000d0 69 f2 ea bd 16 bd 80 3d 10 19 2b bd a6 1e 17 3e
       -0.11472017 0.06286065 -0.04177195 0.14757785
0000e0 19 2c 2f bd 5c f5 2f 3e b1 3f 80 bd c9 cb 5d 3d
       -0.042766664 0.17183441 -0.06262148 0.054149423
0000f0 d5 d1 69 3c cd ea ac bd e8 e5 83 bd 4e 62 24 3d
       0.014271219 -0.08443222 -0.064403355 0.040132813
000100 f0 94 af bd 56 ba 46 bd ff 56 92 bd 10 cd 47 bd
       -0.085733294 -0.048517548 -0.071454994 -0.048779547
000110 ea 77 b3 bd 38 e8 f1 3c f4 2b a3 3d 8c ef f6 3b
       -0.08763106 0.029529676 0.07967368 0.0075358804
000120 cf 40 23 3e e9 75 7c bd 60 c8 e0 3b b6 af 06 bc
       0.15942691 -0.061635885 0.006859824 -0.008220604
000130 db a5 b7 bb 8e a7 08 3d e8 ed b3 bd 28 0f 1d be
       -0.0056044883 0.033362918 -0.087856114 -0.15337813
000140 1e dc 44 be 1e e1 0d be 21 a0 dd bc 96 52 82 bd
       -0.19224593 -0.13855407 -0.027053894 -0.06363408
000150 c7 97 6e be fa be a0 bc 5f c4 1b bc d9 17 1a 3d
       -0.23300086 -0.019622315 -0.009507268 0.0376204
000160 89 2c 91 bc 93 f2 36 3d 78 94 96 bc ec 0f 22 bd
       -0.017721431 0.04466493 -0.018381342 -0.039565966
000170 4c 54 2c be c8 5e 78 3d a0 27 ac bc 41 9e 01 3f
       -0.16829032 0.060637265 -0.021014988 0.506321
000180 23 90 8a 3d 21 63 fa 3d 9a 0b b4 bd 42 9b 60 3d
       0.06765773 0.122259386 -0.08791275 0.054835565
000190 d9 d1 ae 3d 8f 03 80 3e 51 79 8e 3d 0c 25 21 bd
       0.08536119 0.25002715 0.06956733 -0.03934197
0001a0 87 8c 3d be e3 02 2c 3e 4b 5a 88 bd 1c af a6 be
       -0.18510638 0.16797976 -0.06657847 -0.32555473
0001b0 6a 94 27 bc b2 2a 89 3d 92 1c 00 bf 69 43 8d 3d
       -0.010228256 0.066975966 -0.50043595 0.06897623
0001c0 57 aa 0e be 70 f5 f4 bc b9 36 36 3d 3a cc 97 3a
       -0.13932167 -0.02990219 0.04448578 0.001158125
0001d0 5c 5a 25 3e 32 ba 08 be 27 18 cb 3d 0d 1a 51 bd
       0.1614775 -0.13352278 0.09916716 -0.051050235
0001e0 d9 bc d6 3d 8b 99 f1 bc 76 b0 02 3e c2 2b 02 bd
       0.104852386 -0.02949216 0.12762627 -0.031780012
0001f0 bd 33 12 3e 9c 46 15 be 9d 87 67 be 46 66 0a 3e
       0.14277549 -0.14577717 -0.22610326 0.13515577
000200 ec 90 0d 3d f9 37 ce 3d 56 86 bd 3d 00 e4 67 bc
       0.034562036 0.1006927 0.09254138 -0.0141534805
000210 49 ba 84 3c 1b a1 aa 3d b9 50 05 3e 59 5c eb 3c
       0.016202109 0.0833151 0.13019074 0.028730558
000220 1f 4d 44 3d ca d1 e2 bd f0 f4 86 3d 16 5d ad 3d
       0.04792511 -0.1107517 0.06589687 0.0846502
000230 e4 7a 0e 3d c0 ce 77 3d 35 14 cb bc d1 4f 6f be
       0.034785166 0.060499907 -0.024789909 -0.23370291
000240 9e 94 3e be a3 94 08 bd fe 04 0c be ef a5 3c 3b
       -0.1861138 -0.033344876 -0.1367378 0.0028785428
000250 d3 2b 6c be d1 64 6a bd 09 4b b1 39 45 81 7d 3c
       -0.23063593 -0.057225052 0.00033815976 0.015472715
000260 3c 88 f6 3d a0 b5 16 3e c0 ee 35 bd 5c 9b a1 bc
       0.120377034 0.14717722 -0.044417143 -0.019727401
000270 71 ff 14 be 9c c9 02 bb 8a ce 88 3d 82 ec dd 3e
       -0.14550568 -0.0019956594 0.06680019 0.43344504
000280 63 dd ba 3d 78 fc 84 3e be 3d d0 3d 71 bc 31 3e
       0.091242574 0.25973868 0.101680264 0.17357041
000290 e5 c2 b3 3d 3d dc 73 3e cc ee b3 bc b8 79 f2 bd
       0.087774076 0.23814483 -0.021964453 -0.11839622
0002a0 96 ba 10 be 2a a7 13 3e 7c 79 cd bc 96 a1 86 bd
       -0.14133677 0.14419237 -0.025082342 -0.06573789
0002b0 cc c1 ed bd 4d 6e 89 bc d1 3e 01 be cc 63 c7 bd
       -0.116092294 -0.016776228 -0.12621619 -0.097358316
0002c0 88 20 9d bd 3c 44 64 3d 9c 7e 09 be 2f 8f 80 bd
       -0.076722205 0.055729136 -0.13427204 -0.0627731
0002d0 37 c9 e7 bb b6 44 26 3c 36 75 a8 ba 12 32 9c bc
       -0.007073547 0.010148218 -0.0012852314 -0.019066844
0002e0 13 97 d0 3d 41 f4 ef bd 4a f8 04 be a0 96 08 3e
       0.10185065 -0.117165096 -0.1298534 0.13338709
0002f0 33 57 6c bd aa 87 12 3d cf 07 90 bd c1 da 56 3e
       -0.057700347 0.03577391 -0.07032739 0.20981885
000300 da 55 1a bc 7b 1d 98 bc b0 78 04 3e 4c a5 3a bd
       -0.009419883 -0.018568745 0.12936664 -0.045567796
000310 1b c2 cc bc 36 31 25 3d 21 22 65 3d df fb 57 bd
       -0.0249949 0.040330134 0.05594075 -0.052730437
000320 32 29 a6 3c 55 9a b1 bc 2b ba 7b bd 1b fc d4 bd
       0.020283315 -0.021680037 -0.06145684 -0.10399648
000330 58 fa 1f 3e ea 1b b4 3d b3 06 82 bd 6a 84 38 be
       0.15622842 0.08794387 -0.06348934 -0.18019262
000340 b2 fa e0 bd c6 77 de 3c c2 33 d7 3d eb 8d 03 3d
       -0.10985316 0.027156722 0.10507919 0.032117765
000350 2e 37 8e bd 62 47 e4 bc ba dc 08 3e 7e 72 4f 3c
       -0.069441184 -0.02786607 0.1336545 0.012661574
000360 27 0f 5b 3d d5 f5 39 3e 76 7a 80 3d 6f c4 ab bd
       0.053481247 0.18160184 0.062733576 -0.08387076
000370 bb fa f2 3d e0 9c a3 3d d6 9c dd bd 14 a6 9e 3e
       0.11864229 0.07988906 -0.1082093 0.30986083
000380 4f dd 7e bd 2e 99 50 3e f8 e4 9a 3c d6 0b 61 be
       -0.062222775 0.20370933 0.018908009 -0.21977171
000390 f6 e8 b3 3c 75 c9 fd bd 00 82 29 bd 00 5a 3d ba
       0.02196167 -0.123919405 -0.041383743 -0.0007223189
0003a0 0c 4a 6f be 81 a0 3d 3e 17 84 96 bd 58 b0 86 3c
       -0.2336809 0.18518259 -0.07349413 0.01644151
0003b0 79 8a e6 3b 04 b7 53 bd 15 a4 77 bd 63 47 3d bd
       0.00703555 -0.05168821 -0.060459215 -0.046210658
0003c0 ce a0 23 be 10 8c 6a 3c 86 40 8f 3d 5f be d0 3d
       -0.15979311 0.01431562 0.06994729 0.101925604
0003d0 98 b5 1f be 40 0e 2c bb 5d 34 51 be ae 79 4f bd
       -0.15596616 -0.002625361 -0.20430131 -0.050653152
0003e0 26 13 60 3d ac 23 4b bd ae b9 8e be 5f 21 c5 3d
       0.05470576 -0.049594566 -0.27876037 0.09625506
0003f0 2b 19 5a bc 9f be 43 3d 02 8b ca 3d 60 fb 4b 3e
       -0.013311665 0.047789212 0.09889795 0.1992011

net.6.bias f4 [64]
000000 af 15 b3 3d de 9b b6 3d f4 76 96 3c 3c dd d1 bc
       0.0874437 0.08916448 0.018367268 -0.025618188
000010 ad cb ca bc 3c fd 55 3d c5 a1 03 3d b6 a8 94 3d
       -0.024755323 0.052243456 0.032136697 0.072587416
000020 3b 51 80 3d 8f cc e1 bd 71 ac c0 bd 68 da 19 3e
       0.062654935 -0.110253446 -0.094078906 0.15024722
000030 da 21 98 bd 70 55 83 3c 1e cf 27 3e 2a e5 a8 bd
       -0.07428332 0.01603195 0.16387603 -0.082468346
000040 31 ad 83 3d f5 48 9f 3d 83 e0 ef bd e0 be 90 bd
       0.06429518 0.07777587 -0.11712744 -0.070676565
000050 73 a8 a3 bd a6 02 fe bd 98 a4 39 bd ae 57 8b 3d
       -0.079911135 -0.12402849 -0.045322984 0.06803833
000060 f4 d8 25 3e 12 ff e0 bd 03 db 9e 3a 76 05 b3 bd
       0.16196042 -0.10986151 0.0012119714 -0.08741276
000070 e1 8e 9e 3d e9 fe 0e be 7a f1 97 bc 34 b5 23 bd
       0.07742096 -0.13964428 -0.018547762 -0.03996773
000080 cf e9 25 bc 4a 58 dc 3d 29 c2 71 bd 07 9d 0d be
       -0.010126545 0.10759027 -0.059023056 -0.13829432
000090 5f f3 e8 bd ae c8 3c bd fd eb e3 3d 9d e3 3a 3c
       -0.11374544 -0.04608982 0.111289956 0.011406806
0000a0 72 f0 8e bc 41 28 18 3e ed a4 f6 3d 9d fc 9f 3d
       -0.017448638 0.14859106 0.12043176 0.07811854
0000b0 fc 35 9f 3c f1 69 04 bc fa 69 0c be f4 9f 94 3d
       0.019434921 -0.008081899 -0.13712302 0.07257071
0000c0 e2 f7 06 3e 91 9f 0e 3e c0 f5 3e bc 9e c5 84 bc
       0.13180497 0.13928057 -0.011655271 -0.016207512
0000d0 a5 c5 28 3e 51 25 04 be be 28 1e 3e 78 eb 26 3e
       0.16481645 -0.1290486 0.1544523 0.16300762
0000e0 17 0d f7 3d 5c 02 aa 3d d3 77 5c 3d b5 0e b7 3d
       0.120630436 0.08301231 0.05382521 0.08938352
0000f0 3e 62 a2 bc db 90 f0 bc 97 55 ab bd 19 b1 04 3d
       -0.019822236 -0.029365947 -0.08365934 0.032395456

net.8.weight f4 [1, 64]
000000 10 ce cb bc 55 3a 5b 3e 9f 2f 40 3e a8 8b 53 3e
       -0.024878532 0.2140897 0.18768166 0.20658743
000010 68 40 27 be f1 42 0c 3e 10 7e 57 3e 49 49 24 3e
       -0.16333163 0.13697411 0.21044183 0.16043581
000020 98 a4 24 be 9d 4c 9e be e5 c1 1b 3e 93 3e 41 3e
       -0.16078413 -0.30917826 0.15210684 0.18871526
000030 0f 8b 68 b9 d7 78 ec bd 26 d5 26 3e cf b6 31 3e
       -0.00022177048 -0.11546486 0.16292247 0.17354892
000040 8e ee f9 3d e1 86 28 3e 1c c4 d6 be 86 7c 33 be
       0.12203704 0.16457702 -0.41946495 -0.1752797
000050 a8 bb 79 3d 58 ba 8b bd 8e 4b 31 be 6b 75 1e be
       0.06096998 -0.068226516 -0.17313978 -0.15474479
000060 e6 97 36 3e f4 26 8e 3c 89 81 2b 3e a8 e7 8a 3d
       0.17831382 0.017352559 0.16748632 0.06782466
000070 ae 14 5c be d6 4f 96 be a2 7d 13 3e 28 f0 dc 3d
       -0.21492264 -0.29357785 0.14403394 0.10787994
000080 96 d9 3c 3e e9 0c d0 bd 04 92 81 3e ba 7b 3b be
       0.18442377 -0.101587124 0.25306714 -0.18308917
000090 32 da c8 3d b3 6f 47 3e 38 ac 23 be ac 5f ac bb
       0.098072425 0.19476204 -0.15983665 -0.0052604284
0000a0 12 f5 bf 3d 0d 8c 4f 3e 3f 06 b0 bd 9f 22 4a 3e
       0.09372915 0.20268269 -0.08594941 0.1973977
0000b0 0f 60 e6 bd 7a 97 14 3e dc d9 f7 3b b1 b8 e0 3d
       -0.112487905 0.14510909 0.0075638127 0.10972727
0000c0 f7 01 41 3e d9 1b dc 3d 0c a6 83 3d 79 f1 b3 3d
       0.18848406 0.10747499 0.06428155 0.08786292
0000d0 0e 8f 19 3e 37 96 10 3e 02 46 64 3e 86 69 31 3e
       0.14995977 0.14119802 0.22292331 0.1732541
0000e0 d6 bd 36 be ee ab 24 be b0 4e 27 3e 31 b9 11 3e
       -0.17845854 -0.16081211 0.1633861 0.14230801
0000f0 50 fb 49 3e 9c 43 db bc f9 c2 05 be 93 df 3b be
       0.19724774 -0.026765637 -0.13062657 -0.18347006
