Self project/models/nn/smogn/SM/model.pt (torch, 54492 bytes, 9 tensors)

net.0.weight f4 [64, 3]
000000 6a 67 d5 3e 87 c2 e8 3e e2 e6 38 be aa 53 12 3f
       0.4168046 0.45460913 -0.18056825 0.5715891
000010 6a 95 ae bd 00 1a fa 3c 3b f4 8b be b6 8e b1 3e
       -0.08524592 0.030529976 -0.2733477 0.34679192
000020 7f 91 f2 3e e1 96 dd be c6 35 fc 3e 22 3c b6 3d
       0.4737663 -0.43279174 0.49259776 0.08898188
000030 70 ec d6 3e f5 44 92 3d 34 51 9b 3e 47 26 8a bd
       0.41977262 0.07142059 0.3033539 -0.06745582
000040 c5 13 eb 3e 97 bc 08 3d b1 13 a0 be c9 1e d5 3d
       0.4591352 0.03338298 -0.31265023 0.104062624
000050 d6 43 89 be 41 41 87 bd 9e 6b 6e be 81 ae b4 3e
       -0.26809567 -0.06604243 -0.2328324 0.35289386
000060 0c 1f 02 bf 61 2e a3 be 89 a5 fe bd 6a e0 b1 be
       -0.50828624 -0.31871322 -0.12433917 -0.34741527
000070 2d 1a 5e 3d b5 1a 0f bf c4 17 09 3f 6f e0 f3 be
       0.054224182 -0.55900127 0.5355189 -0.47632167
000080 3a a6 be 3e 71 ea 88 3d 7a e1 5d be 0c bb a5 3e
       0.37236196 0.06685341 -0.21668044 0.32369268
000090 95 46 00 3e 29 74 00 3f d1 47 a0 3c 8a 0d 01 be
       0.12526925 0.50177246 0.019565495 -0.12602821
0000a0 84 37 58 3e 28 69 45 be 19 52 80 3e 81 eb 05 3f
       0.21114928 -0.19278395 0.25062636 0.52312475
0000b0 66 38 ba 3e cb 3a 81 be 30 a4 aa 3e 98 90 d3 3d
       0.36371154 -0.25240168 0.3332839 0.103303134
0000c0 4f 54 7a 3e e0 1f cd be 26 0d 0d bf fc ad 83 be
       0.24446224 -0.4006338 -0.5509819 -0.25718677
0000d0 86 34 f4 be e8 80 e1 3e cd 45 4f 3e 02 f1 8c 3e
       -0.47696322 0.4404366 0.2024147 0.27527624
0000e0 6d 5a c6 3d 49 5c ec 3c c7 42 fb 3e 67 46 cf be
       0.09685216 0.028852599 0.49074385 -0.404834
0000f0 6f 67 31 bd 8d 8f f2 be f8 44 60 3d 91 ff ba be
       -0.043311533 -0.47375146 0.054753274 -0.36523107
000100 4d 21 2b 3c ef ca de bc 09 6a f6 3e 09 f5 ad be
       0.010444951 -0.027196376 0.48127773 -0.3397601
000110 cb 01 ba be 8a 88 a2 be 18 d4 0b 3f 16 ea 14 3e
       -0.36329493 -0.31744796 0.54620504 0.14542422
000120 51 e9 11 3f 7f 91 ec be 0b 4f 11 bf c9 6e ef be
       0.5699664 -0.46204755 -0.56761235 -0.4676421
000130 a0 03 cf be 9c e6 67 3e 6d 74 69 3e f0 40 00 3f
       -0.40432453 0.22646564 0.22798319 0.50099087
000140 39 d8 bc be 36 d8 c8 be 53 83 9d 3e 50 b8 60 be
       -0.36883715 -0.39227456 0.30764255 -0.2194531
000150 a0 53 a1 3e e9 5a 30 be 95 a7 c4 3e eb 2d f3 be
       0.31509113 -0.1722218 0.38409105 -0.4749597
000160 5d ae a2 be a1 fe 07 3e 96 3c dd 3d f9 15 25 be
       -0.31773654 0.13280727 0.108025715 -0.16121663
000170 92 31 ca 3e 63 74 d9 3e c2 da c5 be 98 2d a8 be
       0.39490944 0.4247161 -0.3864346 -0.32847285
000180 b4 b7 14 3f 5a f8 11 be 77 ee 64 be 21 03 19 bf
       0.5809281 -0.14254895 -0.22356592 -0.597704
000190 7e 48 bd be 97 c7 19 3e 69 14 cb bd 2d 53 e2 be
       -0.3696937 0.15017544 -0.09916002 -0.44204083
0001a0 e8 58 b3 bc 89 b9 db be 20 4c 06 bf a5 b6 84 be
       -0.02189298 -0.4291499 -0.5245991 -0.25920597
0001b0 b2 8e 02 bf 78 9f be be e1 9d 0a 3f fa 25 10 3e
       -0.50998986 -0.3723104 0.54147154 0.14076987
0001c0 e9 ac 56 3e 77 55 0a bf 73 0d c1 be ef 9c 42 be
       0.20964397 -0.5403666 -0.37705573 -0.19005178
0001d0 8e 5d 3a 3d 09 b8 0a bf cc b2 90 be c8 3b 9d be
       0.045499377 -0.54187065 -0.2826141 -0.30709672
0001e0 e7 d5 99 bd 4c 41 95 be 3c 44 7b bd 46 ab da be
       -0.07511502 -0.2915138 -0.06134437 -0.42708796
0001f0 e1 42 dd be 79 64 a1 be e1 89 68 be d7 66 f8 be
       -0.43215087 -0.31521967 -0.22708847 -0.4851596
000200 7c 56 e6 3e 35 05 9c bd ea ff 08 3f ed 27 30 3e
       0.44987857 -0.07618181 0.53515494 0.1720273
000210 c4 d8 eb be a9 09 db 3e 3d f8 35 be 66 b5 77 be
       -0.46063817 0.42780808 -0.17770477 -0.24190292
000220 0d ea ff be 91 0b 1c bf c5 01 2e 3e c6 5c f8 bd
       -0.49983254 -0.6095515 0.16992863 -0.1212707
000230 a4 84 86 3e aa c4 ed be 0a 4a e0 3e 65 a0 e3 be
       0.26273072 -0.46439105 0.43806487 -0.4445831
000240 f3 db 8e bd 4b 26 1a 3e 5f c5 89 3e 20 17 07 3f
       -0.06975546 0.1505367 0.26908395 0.5276966
000250 a6 69 16 3f f4 aa e5 be 64 25 e9 3d 88 41 8f be
       0.58754957 -0.4485699 0.11384085 -0.27979684
000260 f1 c7 93 bd f4 25 e4 be aa 2e 03 3f 73 cf cd be
       -0.0721587 -0.44560206 0.5124308 -0.40197334
000270 a6 66 af 3e ac 9b 72 3e c3 3c 2f 3e 65 df ac be
       0.34258002 0.23692197 0.17113023 -0.33764187
000280 c9 ab ff 3e 48 d2 06 3e 64 4d 17 3d fe ce 0b bf
       0.4993575 0.13166153 0.03693904 -0.5461272
000290 ca 94 79 3e c3 34 ee bd 5c a1 96 be af f9 ef 3e
       0.24373165 -0.11631157 -0.29419982 0.4687018
0002a0 d8 45 b1 3d ee 22 b9 be d8 f0 91 be 36 f1 ee bc
       0.086559 -0.36159462 -0.28504062 -0.029167753
0002b0 b3 3d a4 3e de 4a 78 bd 91 18 b4 be 00 51 61 be
       0.32078323 -0.060618274 -0.35174993 -0.22003555
0002c0 c8 73 fc be 50 47 52 3e ad 87 e4 3e c9 e5 06 bf
       -0.49307084 0.20535016 0.44634762 -0.52694374
0002d0 aa bb 31 3e fa eb ac 3e 26 cd 36 3d 60 26 74 be
       0.17356744 0.33773786 0.04462924 -0.23842764
0002e0 1e 7c 89 3e 38 bf 9f 3e 52 e0 6d 3e 01 25 ae bd
       0.26852506 0.31200576 0.23230103 -0.08503152
0002f0 57 3c 29 be 19 35 01 bc bf bd 2f be 52 2b 1f be
       -0.16526924 -0.007886195 -0.17162226 -0.15543869

net.0.bias f4 [64]
000000 0b d4 c9 3e 89 a5 09 3f f4 26 d0 bd ee 99 25 be
       0.39419588 0.5376821 -0.1016368 -0.16172001
000010 85 85 43 3c 19 03 41 bd 7c ef 24 3e 34 ad f1 3d
       0.011933689 -0.047122095 0.16106981 0.11800614
000020 b8 d9 e9 be a6 3c 74 be c7 0e 06 3f a6 fa 89 3e
       -0.4567392 -0.2385126 0.523663 0.26949042
000030 a0 a7 3d bc 55 7b ef be 17 d3 b4 be 55 65 04 bf
       -0.011575609 -0.46773782 -0.353173 -0.5171712
000040 3a bd 69 be c3 1c 5d 3e 86 3b d0 3e 0a 49 97 3e
       -0.2282609 0.21593003 0.40670413 0.29547912
000050 25 c4 14 bf ba e2 c7 be be c8 9a bd 75 e7 15 3f
       -0.5811179 -0.39040166 -0.0755782 0.585563
000060 b5 c2 da 3d 03 a8 25 be a5 08 88 3e 27 0a 80 be
       0.10681669 -0.16177373 0.26569095 -0.25007746
000070 ec 78 d7 be 9b 13 df 3e 33 8c 61 be 91 52 cc bd
       -0.42084444 0.43569645 -0.22026138 -0.09976686
000080 dd ec 05 bf af 98 cf 3e 7e 13 dd 3e f3 77 74 3e
       -0.5231455 0.40546176 0.43178934 0.23873882
000090 04 c3 cd be 88 3b 0d bf a1 5e 12 bf 11 3c ee 3e
       -0.40187848 -0.5516896 -0.5717564 0.46530202
0000a0 47 7f 93 3e ee 20 f4 3e fc 08 81 3e 94 98 41 3e
       0.28808042 0.47681373 0.25202167 0.1890586
0000b0 92 0d 8a ba ce 9f d8 be ae 60 fb be af 62 03 bf
       -0.0010532609 -0.4230942 -0.49097198 -0.51322454
0000c0 c8 7a 82 3e cb b4 55 be be a6 b0 bd 56 05 b4 be
       0.254843 -0.20869748 -0.086255535 -0.3516032
0000d0 3b 90 94 bd e6 60 dc be ef 1f af be 1f 50 6f 3e
       -0.07254072 -0.43042678 -0.3420405 0.23370408
0000e0 14 ef 15 be 45 a1 bd 3e dc 1e 33 be fa 8b e2 be
       -0.14641982 0.370371 -0.1749224 -0.4424742
0000f0 04 2d 9e bd f7 9e 9a be eb 2a 2f be 74 0b 1b bf
       -0.0772343 -0.30199406 -0.17106216 -0.6056435

net.2.weight f4 [64, 64]
000000 ef eb d1 3d 30 06 69 bd 6f 63 34 3d 27 67 f6 3c
       0.10250079 -0.056890666 0.04404014 0.030078484
000010 87 53 eb 3d 81 03 85 bd 38 93 ec 3d c9 0a b0 bd
       0.11490541 -0.06494809 0.11551517 -0.08595807
000020 98 eb d2 3d d1 85 11 3e 49 55 1f 3a a8 26 0c 3a
       0.10298842 0.14211203 0.0006078077 0.00053463364
000030 d9 d8 0d 3b a8 7f 8c be cc 47 b1 3d c2 22 fe bd
       0.0021644144 -0.27441144 0.08656272 -0.12408973
000040 67 df c7 3d f3 3e d4 3d 3c 08 15 3e 9f 47 b0 3b
       0.097594075 0.10363569 0.14553922 0.0053796316
000050 8f 0d d0 3d 5c b0 57 3e da a9 b4 3d 05 46 ca bd
       0.10158836 0.2106337 0.08821459 -0.098766364
000060 6d 2c 0e bc 7b 17 8c bc d0 a4 bd 3c c3 b9 24 bd
       -0.008677584 -0.01710104 0.023149878 -0.04021622
000070 53 9d e6 bd b9 54 ed 3a 3c cf 3f be f1 2f 00 3e
       -0.11260476 0.0018106914 -0.18731397 0.12518288
000080 8a 5c 02 3e 4f 6f 01 3d 49 69 0f 3d f9 7b f1 bb
       0.12730613 0.031600293 0.035012517 -0.007369515
000090 6a 7f 16 bd 69 0e c5 bd cd 03 4c 3e bb 1a dc bc
       -0.036742605 -0.09621889 0.19923325 -0.026868215
0000a0 08 f3 0d bd 10 14 04 3d 08 e9 29 bd 31 b7 58 bc
       -0.0346556 0.032245696 -0.041482 -0.01322727
0000b0 06 80 e2 3c 52 5c f7 3c ec d1 a8 be 93 d8 55 bd
       0.027648937 0.030195389 -0.32972658 -0.052208494
0000c0 c2 59 b2 bd 4f 34 13 3e 1e aa 64 bb cf 85 3b 3d
       -0.08708526 0.14375423 -0.0034891437 0.045781907
0000d0 f6 0c 7e bc 02 cd 3f bd 26 b4 52 3e 22 91 fc 3c
       -0.01550602 -0.04682637 0.20576534 0.030830923
0000e0 b4 21 8b bd 17 93 ac 3d 41 f6 26 3e d3 b3 4e 3d
       -0.06793538 0.08426493 0.16304876 0.050464462
0000f0 40 3e ea 3d f0 b4 d2 3d 32 47 45 3b 6b ef 25 3e
       0.114376545 0.10288417 0.003010225 0.16204612
000100 4e 0c 0b be a0 27 57 bd 55 b5 d7 3d 48 73 3e bd
       -0.13578913 -0.052528024 0.10532633 -0.04649666
000110 d9 3d ee bd 8f e5 d1 bd 15 16 54 bd 77 6e bf bd
       -0.1163289 -0.10248863 -0.05177887 -0.09347241
000120 77 91 92 bd 31 7b 0d bc fd e8 e7 3d d6 58 4f 3d
       -0.071566515 -0.008635328 0.11323736 0.05062183
000130 8f d7 0b bd 9e ef 10 bc 8a 28 8c bb 62 6c be bd
       -0.03414112 -0.008846192 -0.0042772936 -0.09298016
000140 c4 8d 9f bb da 0a be 3d 27 a3 d5 bd 96 d5 cf bc
       -0.0048691947 0.092794135 -0.104315095 -0.0253704
000150 6e 97 99 bd d4 9a 30 be a4 b9 99 bd 1d 5a a9 bd
       -0.07499586 -0.17246562 -0.07506111 -0.08269141
000160 68 5a ac bd 82 17 0a bd 87 f4 c2 3d 5b ee 5c bd
       -0.08415681 -0.033713825 0.09519296 -0.05393825
000170 c4 c3 07 3d 9f 03 84 3d 30 9a 5e 3d 76 1a a2 3d
       0.03314568 0.06446003 0.054346263 0.07915203
000180 4f 6b 46 3e 2c cc d4 3d c5 42 b8 bd d9 eb 3b 3d
       0.19376872 0.10390505 -0.0899711 0.04587922
000190 2b b8 cc 3d f8 60 8b bc 8d cb a8 bd 1c 76 1d 3e
       0.09996065 -0.017014012 -0.08241949 0.15377086
0001a0 cf 94 52 bc e9 f0 15 bd 63 b9 a3 bd 18 a7 54 bd
       -0.012852862 -0.036606703 -0.07994344 -0.051917166
0001b0 90 2e a3 3d b6 13 50 3d 88 08 95 3d 28 da c4 bd
       0.079678655 0.050800048 0.07277018 -0.096119225
0001c0 b2 28 b8 bd ff 71 00 bd 25 2e 11 3e 14 7b 87 3d
       -0.08992137 -0.031358715 0.14177759 0.06615272
0001d0 3b ce d7 bd 88 ec 84 bc 28 c4 9a bd eb 98 f6 bc
       -0.10537382 -0.016226068 -0.07556945 -0.030102214
0001e0 ab e1 41 3d 5b 79 72 3d 2d f0 08 3e 53 ed 09 be
       0.047334354 0.059197765 0.1337287 -0.13469438
0001f0 36 23 c0 3d ff a1 f9 bd 8d ae e9 3c e9 c5 13 3d
       0.09381716 -0.121891014 0.028525615 0.036077414
000200 ad cd aa bc 4e 4d 8c 3d 81 d2 b9 bd 34 f5 df bd
       -0.020850027 0.06850682 -0.090733536 -0.10935441
000210 7c 80 1c 3d d5 4f 4c bd 95 e6 d2 3b ff 89 b6 bc
       0.03820847 -0.04988082 0.006436179 -0.022282599
000220 40 4e ee 3d c1 48 b4 3d 7b 8f 85 3d 8c 5d 28 bd
       0.11636019 0.08802939 0.06521507 -0.04110484
000230 07 d5 fa bd a3 05 05 3e 37 43 33 3c 80 65 6c bd
       -0.12247663 0.12990431 0.010941318 -0.057713985
000240 82 fa bd bc e7 40 ef 3d 3d 29 fc bc 7d 6c ad bc
       -0.02319074 0.11682301 -0.030781383 -0.021169895
000250 70 55 8a bd 9e a4 78 be 4d 6b 13 be e2 80 76 bd
       -0.06754577 -0.24281546 -0.14396401 -0.060181506
000260 d0 ee 8f bd 19 b2 94 3d 8e ef 71 bd 1a 58 d1 bc
       -0.07027972 0.07260532 -0.059066348 -0.025554705
000270 14 d4 1a 3e a1 99 9b 3d a5 06 f5 3d 3c 8c 53 bd
       0.15119964 0.07597662 0.11964158 -0.05164741
000280 fb 89 48 bd 77 33 a1 3d 56 9b 52 bd e8 79 45 bd
       -0.048959713 0.07871144 -0.05141767 -0.048211962
000290 d6 ac ba 3c 3c 28 60 bd e7 8b bb bd b7 45 db 3d
       0.022787493 -0.05472587 -0.09157544 0.107066564
0002a0 33 41 07 3e b3 8a 59 3d 21 48 24 3c d4 3c 1a be
       0.13208465 0.05311079 0.0100269625 -0.15062267
0002b0 20 70 99 bc cd 09 71 3d 91 cd f0 3d f4 8a 45 3c
       -0.018730223 0.058847237 0.11757959 0.012057055
0002c0 92 79 d6 bc 3d b7 51 3d e1 e4 8f bd ef 7f 8c 3d
       -0.026181016 0.05120014 -0.07026077 0.06860339
0002d0 3f 65 95 bd 4c 87 5f bc 43 38 7d b9 ad f7 3a 3d
       -0.07294702 -0.013643097 -0.0002414892 0.04564636
0002e0 c5 af 22 bc ee 67 6e 3d 39 a4 e3 3c 19 a7 a6 3d
       -0.009929602 0.058204584 0.027788268 0.0813734
0002f0 74 e3 c6 3d e7 0c ba bd fb 74 d6 bd 33 c7 87 3d
       0.09711352 -0.09084492 -0.10471531 0.06629791
000300 0a 96 03 3e 5a f6 81 bd e8 d6 e0 bc c7 39 0b be
       0.12850204 -0.06345816 -0.027446225 -0.13596259
000310 9e 5b 99 bd a6 42 6d 3d 98 5a 5b 3d c3 67 3d 3c
       -0.07488178 0.05792489 0.053553194 0.011560383
000320 7a 15 29 3c 96 85 06 3e 2f 5a 1d 3d f3 33 8e bd
       0.010320062 0.13136896 0.038416084 -0.06943502
000330 f1 ac d8 3c 6d c5 c9 bd 74 dd 9b 3d 40 03 b5 bd
       0.026449652 -0.09852109 0.07610598 -0.088385105
000340 39 e8 84 3d 21 6c 63 bd 30 7e 97 bd 70 0f 0a bd
       0.064896055 -0.05552304 -0.07397115 -0.03370613
000350 72 18 91 3e 47 ea 84 3e 4b b6 06 3e fd 29 cb 3d
       0.28338963 0.2595999 0.13155477 0.09920118
000360 4e f2 e9 3d 7f 22 b7 3c 50 f9 11 bd cc 97 95 3d
       0.11423169 0.022355316 -0.035638154 0.073043436
000370 f0 e5 dd bd 57 49 78 bd 21 0c b2 bd 13 ed 38 3d
       -0.10834873 -0.060616817 -0.0869372 0.045147967
000380 94 e6 af 3d be 35 83 bc 20 e2 2d bd 75 e1 38 3d
       0.08588901 -0.016016837 -0.042451978 0.045136888
000390 d4 24 96 bc 54 9d 67 bd 33 bf 44 3e 8c 88 b9 3b
       -0.018328108 -0.056546524 0.19213562 0.0056620296
0003a0 3a f2 14 3e e8 56 18 3e 9f ff 18 3d 49 36 94 3d
       0.14545527 0.14876902 0.037353154 0.072369166
0003b0 08 01 35 3d 48 c7 4b 3d f8 d1 65 be 27 fb ae 3b
       0.044190437 0.049750596 -0.22443378 0.0053399983
0003c0 a9 1c 87 3d dc 1a 1e 3e 39 b6 d2 bb f0 28 22 bd
       0.06597263 0.15439934 -0.006430414 -0.039589822
0003d0 c5 82 fd 3a 09 48 c1 bd 35 ff b2 3d 97 89 a2 3d
       0.001934134 -0.09437568 0.08740083 0.079363994
0003e0 61 c9 00 3e c5 59 b6 3d a0 a7 78 bd e4 e8 44 bd
       0.1257682 0.08903841 -0.060706735 -0.048073664
0003f0 5c e3 e7 3b 77 a9 07 bd 0d 37 09 3d 53 30 5a bd
       0.007076664 -0.0331206 0.033499766 -0.05326874

net.2.bias f4 [64]
000000 7b 0c ed 3c ec cb ba 3d 3c 7b 27 3d 40 23 86 bd
       0.028936615 0.09120926 0.04088901 -0.06549692
000010 cb 64 52 3d 53 7d ce 3d e9 46 92 bd a2 c5 51 bd
       0.051365655 0.100824974 -0.07142431 -0.051213868
000020 24 54 37 bd 92 79 14 bd ff 9a da bc 5d c9 70 3d
       -0.044757977 -0.03624875 -0.026685236 0.058785785
000030 42 11 b7 3c d3 52 50 bd 2f fd e2 3d 1b 81 2d 3d
       0.022347096 -0.050860237 0.11083447 0.042359453
000040 40 4d 3a bd 34 80 07 bd 1b 89 2c bd d4 a8 71 bd
       -0.045483828 -0.03308125 -0.04212294 -0.058998898
000050 ac ae 0f be 83 69 1c 3d c3 ac 93 bd 0e f5 81 3d
       -0.14031476 0.03818656 -0.07210686 0.063455686
000060 ce 7c ed 3d 32 5a d4 bd e0 36 17 bc 64 46 ca bd
       0.1159607 -0.10368766 -0.009229392 -0.09876707
000070 df d8 43 3d 10 6a e7 3c 44 4b 1c bd 0a a5 9a 3d
       0.047814246 0.028248817 -0.038157716 0.0755101
000080 43 17 97 3d 4c 4e e7 bd b5 81 8f 3c 95 18 56 bd
       0.07377484 -0.11294231 0.017517904 -0.052269537
000090 de 62 40 bc 3c 90 79 3d db 18 f3 3b 58 26 c5 bd
       -0.011742322 0.06092857 0.0074187345 -0.09626454
0000a0 67 ce ee 3d c3 a1 c0 bd 64 f2 c5 bc 2a 11 a4 3d
       0.11660462 -0.094058536 -0.024163432 0.08011086
0000b0 93 c2 ed 3d 17 b1 01 3e 70 73 c1 3b 48 da 2a 3d
       0.11609378 0.1266521 0.005903654 0.041712075
0000c0 2b 37 d3 bd 16 7b 25 bd 96 21 69 bd 47 61 8e 3d
       -0.10313257 -0.040400587 -0.056916796 0.06952148
0000d0 99 69 6e bd c0 b7 8d 3c 6f ea b5 3d 08 b0 bd 3d
       -0.058206175 0.017299533 0.08882605 0.09262091
0000e0 7e 10 83 3c 88 5c 12 3e 55 8b e2 bd fa 39 24 bc
       0.015999075 0.1429311 -0.11061732 -0.010023588
0000f0 58 1b 42 3d 0d 7e 7c 3d c2 61 b4 3d 29 b4 59 bd
       0.04738936 0.06164365 0.08807708 -0.05315033

net.4.weight f4 [64, 64]
000000 a4 a0 9d 3d 26 43 f0 bd 9c 88 af bd e0 47 0b bc
       0.076966554 -0.117315575 -0.08570978 -0.008501023
000010 ae b4 f8 bd dc 55 f3 bd 70 42 e3 bd 36 d2 cd 3d
       -0.12143837 -0.11881611 -0.11096656 0.1004986
000020 98 9e e0 3c 50 5d 23 bd 40 57 a8 bb 66 22 df bd
       0.027419373 -0.03988391 -0.005137354 -0.10895233
000030 84 c7 f1 bd 70 87 b2 bd 0c aa f7 bd f6 6c a8 3d
       -0.11805633 -0.08717239 -0.12092981 0.08223908
000040 28 2a 33 bd 20 36 0a bd 0a 74 dc bd 90 98 a9 3c
       -0.043741375 -0.033743024 -0.1076432 0.02070263
000050 90 a2 99 bc 1a 48 ae bd 1a 23 a4 3d ee c8 d7 3d
       -0.018754274 -0.08509846 0.080145076 0.10536371
000060 b6 78 b6 bd 68 0b 91 3d 20 46 a6 bc 80 ae 9a ba
       -0.089097425 0.07082254 -0.02029711 -0.0011801273
000070 9c ee 59 3d 80 b1 ba bc 3a 82 d9 3d 10 82 9d 3d
       0.05320607 -0.022789717 0.10620542 0.07690823
000080 82 2d a6 bd c0 ca 9b bd 12 a5 fd bd cc ec 23 3d
       -0.08114149 -0.07607031 -0.12385 0.04002075
000090 50 8f c0 bd e6 92 d6 bd 6c 16 a4 bd 98 19 fd bd
       -0.09402335 -0.104772374 -0.08012089 -0.12358397
0000a0 3c 72 d0 bd d0 57 e4 3d 74 ff 8e 3d 9a d2 e2 3d
       -0.101780385 0.111495614 0.069823176 0.11075325
0000b0 8c 5c 78 bd 60 ff 51 bd f4 a4 33 bd 80 fe 1f 3b
       -0.060635135 -0.051268935 -0.043858483 0.0024413168
0000c0 7a bf b7 bd d8 1e 96 3c f2 11 a4 bd 08 d0 a1 3c
       -0.08972068 0.018325254 -0.08011235 0.019752517
0000d0 d0 7e ea 3d e0 f3 ac 3c da bc ba 3d 56 53 b6 bd
       0.11449969 0.021112382 0.09118052 -0.08902614
0000e0 c0 82 90 bc 12 13 9e bd 20 38 63 bc 08 ac 4b bd
       -0.017640471 -0.07718481 -0.013868362 -0.04972461
0000f0 94 5a 91 bd e2 47 f7 bd 90 d8 3d bd e8 21 89 3c
       -0.070973545 -0.120742574 -0.04634911 0.0167398
000100 0c ac f4 bc a2 6c ee bd 66 86 b1 3d 82 b5 ad 3d
       -0.029867195 -0.11641814 0.086682126 0.084818855
000110 8c 1f a1 bd a0 30 50 3c 79 e6 99 3d 26 1c f3 bd
       -0.07867345 0.012706906 0.07514662 -0.11870603
000120 9d 45 f2 bd fb 1e 7c 3d 80 40 22 bb 50 0a 23 3d
       -0.11829684 0.061552983 -0.0024757683 0.039804757
000130 57 d5 74 bd 78 a9 b9 3c 91 b5 99 3d 8c 5f 1d bd
       -0.05977377 0.022663817 0.07505334 -0.0384212
000140 f8 60 25 bd aa c2 f3 bd 00 03 9e bc 9a 23 92 3d
       -0.04037568 -0.119023636 -0.01928854 0.07135697
000150 94 ee 00 be 80 33 1e bc 78 9b ba 3d 93 4c 32 bd
       -0.1259101 -0.009655833 0.091116846 -0.043530058
000160 f4 2a 3d bd 4a 8e 37 bd 87 6d 6f bd 10 1e 75 3c
       -0.04618354 -0.04481343 -0.058454063 0.014960781
000170 e9 73 ff bd 8a a2 23 3d 00 4f 01 bd c8 5f 82 bc
       -0.1247328 0.03994993 -0.03156948 -0.015914813
000180 40 2d 0a bc ac 02 8f 3d 24 24 af bd b2 f4 e8 bd
       -0.00843364 0.069829315 -0.08551815 -0.11374797
000190 fc c2 c6 bd 96 cc bb bd 49 ac 8a bd 5a 31 ca 3d
       -0.09705159 -0.09169881 -0.06771142 0.09872694
0001a0 dc fd d5 bd ac 6b a5 bd 5a be e0 bd b6 b9 90 bd
       -0.104488105 -0.080771774 -0.10973807 -0.070666716
0001b0 6e 3f 37 bc 9a 19 9c bd 00 2e ad 3a 54 06 2d 3d
       -0.011184556 -0.076220706 0.0013212562 0.042242363
0001c0 c8 38 ae bc 50 e8 5c 3d 90 f9 ea 3c 4a 4c f7 3d
       -0.02126731 0.053932488 0.028683454 0.12075098
0001d0 a0 1d d1 bb f0 e3 dd 3d 38 9d bf 3d 84 91 54 3d
       -0.0063817054 0.10834491 0.09356159 0.051896587
0001e0 06 e1 90 3d 94 71 ab bd 74 74 ab bd cc 7b 3a 3d
       0.0707417 -0.08371273 -0.08371821 0.04552822
0001f0 6c e8 39 3d 71 e5 d6 3d e9 be c5 bc 33 9c ee bc
       0.04538767 0.10492981 -0.024138885 -0.029127216
000200 a1 4d 3b 3d 40 0e b5 3c b6 63 0b 3e 55 ae c6 bd
       0.04572833 0.022101521 0.13612255 -0.0970122
000210 43 97 b1 bb 34 40 ea bd cd 9b 87 3d 79 dc a1 bd
       -0.005419643 -0.11438027 0.066215135 -0.0790338
000220 d6 e8 d4 bd 49 1a fa 3d 50 0d 6c 3d a7 a5 54 bb
       -0.103959724 0.12212045 0.057629883 -0.003244737
000230 ce 5a b6 bd 2b d9 82 bd 66 be ae bd bc a4 d6 bd
       -0.08904038 -0.06389078 -0.08532409 -0.10480639
000240 19 aa 1e be 44 bb 7d 3d d7 64 3f 3d 72 29 2e bd
       -0.15494575 0.06194617 0.046727028 -0.042519994
000250 04 61 07 3e 0d 3d 56 3c 01 c7 92 3d fb 66 3a bd
       0.13220602 0.013076079 0.07166863 -0.045508366
000260 4e a5 bb 3d 5c 94 b4 bd c6 cf 94 3e 2e 1d 8b bd
       0.09162389 -0.0881736 0.2906477 -0.06792675
000270 16 da 6c 3c a6 2f 5d bd cf ab cd 3d 28 b3 d6 bd
       0.014456293 -0.05400052 0.100425355 -0.1048339
000280 2d 00 85 bc 78 32 0a bd be 9f e6 bd 56 d3 14 bd
       -0.016235435 -0.033739537 -0.11260937 -0.03633436
000290 34 84 79 bd e4 b4 c2 3b 55 db e7 3d e5 dd e8 bc
       -0.060917094 0.005941974 0.11321131 -0.02842612
0002a0 49 ee b1 3d fb 75 1a bd 12 f7 c8 bd 34 00 e7 bc
       0.086880274 -0.03771017 -0.0981275 -0.028198339
0002b0 3d 01 19 3b bb 54 81 3d 45 44 13 3e c0 4d 2f 3d
       0.0023346685 0.06314989 0.14381512 0.042798758
0002c0 a7 08 4d bd 88 7f f5 bc 89 4d 11 bd fc a4 2c be
       -0.05005708 -0.029968038 -0.035474334 -0.16859812
0002d0 5e 29 24 3e cf 81 cf 3d da c9 bc 3c f3 26 a9 3b
       0.16031405 0.10132181 0.02304547 0.005162114
0002e0 18 c3 d2 bd dd 5e 73 bd 45 b0 9c bd dd 58 e4 3d
       -0.102911174 -0.05941664 -0.07650808 0.11149762
0002f0 86 9d 83 bd 5b c6 06 3d 02 55 7c bd 62 64 ad bb
       -0.064265296 0.03290401 -0.061604507 -0.0052915076
000300 3d 62 0f bc 30 4e c1 bd 0f 1f a6 3c 0f 1c fd bd
       -0.008751449 -0.09438741 0.020278482 -0.123588674
000310 c7 53 6b bd 1b eb a5 3d f6 a2 d1 3d c6 96 a9 bc
       -0.057452943 0.081014834 0.102361605 -0.020701777
000320 48 15 d7 bd b5 7b ef bd 70 a6 fb bc 1a 02 a0 bd
       -0.10502106 -0.11693517 -0.030719012 -0.07812901
000330 31 eb ac 3d 98 1d c5 bd c7 c8 78 3d 8f 10 0a 3c
       0.08443297 -0.09624785 0.06073835 0.008426799
000340 b0 ec 5b bd 7e ad d0 3d 14 76 8e 3d a1 94 97 bc
       -0.05369252 0.10189341 0.06956115 -0.018503489
000350 4d c6 cc bd 1f 0f 4f bd 5e 77 d5 3c 13 1c c0 3d
       -0.0999876 -0.05055153 0.026057895 0.09380355
000360 a9 7f 6c bd 50 c7 54 bd a8 78 02 be 4e 59 9d 3d
       -0.057738934 -0.05194789 -0.12741339 0.07683049
000370 15 d2 db 3d 0f fc 91 3d 6a a5 8e bd 8e 64 b7 3d
       0.10733429 0.071281545 -0.06965144 0.08954726
000380 26 5a 57 bd 78 d7 85 3d be a7 6a 3d 1e 5e df bd
       -0.052576207 0.06535238 0.057288878 -0.10906623
000390 8a 03 7f 3c be d0 2e 3d 11 a9 ba bd 31 1f db 3d
       0.015564809 0.04267954 -0.09114278 0.10699309
0003a0 9c c8 a8 3d b2 f4 d5 3d 6b af 87 bc 28 ef a8 bd
       0.08241388 0.104470626 -0.016563138 -0.082487404
0003b0 a5 24 ac bd ea 7c eb 3c 12 94 26 bd 30 79 cb 3d
       -0.08405427 0.028746087 -0.040668555 0.09935224
0003c0 fb 34 c5 3d a7 f4 09 3b d4 fa ec bd d0 c2 0b 3d
       0.09629246 0.0021050365 -0.11571279 0.034121335
0003d0 d8 17 e5 3d fe d0 28 bd 21 59 a4 bd 82 5a 34 bd
       0.111861885 -0.041214935 -0.080248125 -0.044031627
0003e0 bb f1 3e 3b 83 13 de bd 55 43 55 3d e8 a7 1a 3d
       0.0029135782 -0.10843565 0.052066166 0.037757784
0003f0 fc c0 43 bd fb 6d 7e bd b6 60 95 bd 40 1d c8 3d
       -0.047791466 -0.062116604 -0.07293837 0.09771204

net.4.bias f4 [64]
000000 80 f7 9b bc 1d 47 9e bd 96 f7 10 3d da ec ad bd
       -0.019038916 -0.077284075 0.035392366 -0.084924415
000010 2b 3a c1 3d 37 5a 0b 3e 93 2f 3b 3d 54 d0 5e 3b
       0.09434923 0.13608633 0.045699667 0.0033998685
000020 94 6f d9 3c a5 c8 ab 3d b4 d1 dc bd 01 ee 8e bc
       0.026542462 0.08387879 -0.10782185 -0.017447473
000030 00 6c af bd 4a d6 d3 bd 2e 2b b7 bd 0c 7c a4 bd
       -0.08565521 -0.10343607 -0.08943783 -0.080314726
000040 b2 1f 05 3e 14 ef db 3d 6a a3 c0 bd c9 86 a8 bd
       0.13000372 0.1073896 -0.09406169 -0.08228833
000050 9c 9f 13 3e 82 04 7b 3d 6b 61 b3 3d 68 f3 53 3d
       0.14416355 0.061283596 0.087588154 0.051745802
000060 a8 4e 3f bd a2 06 9f bd d2 bb 89 3d 81 c5 07 be
       -0.04670587 -0.07764937 0.06725277 -0.13258936
000070 1b f8 ea bd c2 fe 6f 3d 8c d6 3d 3a c1 87 45 3d
       -0.114731036 0.058592565 0.0007241748 0.04822517
000080 42 0e d4 3d 33 ab 59 bd 31 4f 7f bd 41 df 35 bd
       0.10354282 -0.053141784 -0.062331382 -0.044402365
000090 51 19 a2 bd 08 d5 75 3c 1b 55 c3 3d 23 76 ca 3c
       -0.07914985 0.015004404 0.09537717 0.024714535
0000a0 34 19 c7 3d df 90 18 bd 1f 83 c3 3c b0 de cf bd
       0.09721604 -0.037247535 0.023866234 -0.10149896
0000b0 d1 43 22 3c 5c 61 69 3d b5 11 c1 bc 1a b5 11 3e
       0.009903864 0.056977615 -0.023568014 0.14229241
0000c0 2a 4a 8c 3d e2 b1 9c 3d 0b 92 01 3e 96 c1 90 3d
       0.06850083 0.07651116 0.12653367 0.070681736
0000d0 60 e5 20 bc cd f2 84 3d 91 55 1f 3e 58 4d 02 be
       -0.009820312 0.06491623 0.15559985 -0.12724817
0000e0 cc fb 0f bd 72 0c bc 3d 18 31 f8 bc 0a ed ba bd
       -0.03515224 0.09182061 -0.030296847 -0.09127243
0000f0 bb f3 2a bd 23 28 9a bd fb 53 a7 3d 6a 8e ad 3d
       -0.041736346 -0.07527187 0.08170315 0.08474429

net.6.weight f4 [64, 64]
000000 40 10 69 bc d2 78 d1 bd 90 7e 91 3c 8c 24 0f 3d
       -0.014225066 -0.10228123 0.017760545 0.034946963
000010 c2 85 71 bd db eb fc 3c 88 7f 80 bd fa 4f f9 3c
       -0.058965452 0.030874183 -0.06274325 0.030433644
000020 a7 0f 9e 3d fa ff 4d 3d 30 8b 41 bc 04 f4 dd 3d
       0.07717829 0.050292946 -0.01181297 0.10837558
000030 f0 16 34 bc 52 86 f2 bd f6 03 b8 3d 38 0b ee 3d
       -0.010991797 -0.11842026 0.089851305 0.116232336
000040 ea d2 38 3d b5 31 c5 3d e5 b5 96 3d 37 a3 1d 3d
       0.04512302 0.096286215 0.073589124 0.038485732
000050 3f c4 7d 3d b3 07 dd bd f2 dc 62 bc 9d 75 87 bd
       0.061954733 -0.10792484 -0.013846623 -0.0661423
000060 40 d8 0c 3d b4 63 e2 bd e0 25 f2 3b 0a 9e 18 3d
       0.03438592 -0.11054173 0.007389769 0.037260093
000070 9c 40 3e bd f3 bc 7d bd e9 64 b1 bd 4c 56 b3 3c
       -0.046448335 -0.061947774 -0.08661825 0.021891735
000080 b6 5b f0 bd d2 c5 f8 bc c2 55 82 3a cd 23 b8 3c
       -0.117362425 -0.030367766 0.0009943771 0.022478009
000090 95 95 f4 bd 8f a0 4d 3c 54 de 48 bd 4c 40 dd bc
       -0.11942593 0.012550487 -0.049040154 -0.027008198
0000a0 d5 f4 d2 bd dd 1b e0 bd b2 b5 b9 3b c8 e2 ad 3c
       -0.10300604 -0.109428145 0.0056674117 0.021226302
0000b0 ea 5d c3 3d bb e1 d8 3d e5 ba a2 3d df 3a 15 3d
       0.09539397 0.1058993 0.079458036 0.036433097
0000c0 31 e2 92 3d f8 a5 5a 3d 27 d2 01 be 19 da a1 3d
       0.07172049 0.053380936 -0.12677823 0.07902927
0000d0 60 a5 78 3c 38 5d ff bc 45 a6 49 bd 0a 33 cc 3d
       0.015176147 -0.03117238 -0.049230833 0.099706724
0000e0 8a a4 b2 3d 40 cb be bc e4 64 3f bd 68 05 a7 bd
       0.087227896 -0.023290277 -0.046727076 -0.08155328
0000f0 88 88 76 3d dc 3f 9b bd 86 a8 c1 bd b8 45 b3 bd
       0.0601888 -0.075805396 -0.094559714 -0.08753532
000100 78 a9 14 3d fa 3d c4 3d 20 ab cc 3c 74 d8 3e 3d
       0.03629443 0.095821336 0.024983943 0.046593145
000110 10 c2 ce bd ae 00 ba bd c0 ef 95 bd 6e d0 a3 bd
       -0.10095608 -0.09082161 -0.07321119 -0.07998739
000120 70 8c 64 bd ea 33 9b bd 2c 86 27 bd 46 79 9e bd
       -0.055797994 -0.07578261 -0.04089944 -0.07737975
000130 68 82 18 3d 80 69 53 3b 00 71 d0 3b d4 13 59 3d
       0.03723374 0.0032258928 0.006361127 0.052997425
000140 d8 7c e6 bd d4 72 48 bd 40 21 8b bb c8 33 ef bd
       -0.11254281 -0.048937634 -0.004245907 -0.11679798
000150 40 09 88 3d 2c 3a c0 bd 7a 0d ad 3d e8 58 fd 3d
       0.06642389 -0.093860954 0.08449836 0.12370473
000160 70 08 d3 3c fc 33 79 bd 66 ad b4 3d 34 d4 a7 bd
       0.02576086 -0.06084059 0.088221356 -0.081947714
000170 80 ee c1 3b 56 81 a0 3d 6a ff ef 3d 10 11 16 3c
       0.005918324 0.07837169 0.11718638 0.009159341
000180 e0 6f 1b bc a0 b7 31 bc ac 32 f8 bd 88 f6 b5 3c
       -0.009487122 -0.010847002 -0.1211904 0.022212282
000190 2a 32 cb bd 50 1a 38 3c e0 52 f3 bc 72 c9 a2 3d
       -0.099216774 0.011236742 -0.029702604 0.07948579
0001a0 80 01 4d bd d6 f2 b5 3d 30 02 f4 bc 10 0d c6 bc
       -0.05005026 0.08884208 -0.0297862 -0.02417615
0001b0 0e 0d e9 bd 14 7c de 3d 30 24 31 3c 0c b9 e6 bd
       -0.11379443 0.1086351 0.01081185 -0.11265764
0001c0 20 5a e6 3b 0c b3 51 3d 80 64 d8 bc c2 e8 d0 3d
       0.0070297867 0.051196143 -0.02641511 0.10200645
0001d0 70 69 7a 3d 48 41 83 bc 2a f0 ff 3d 82 8b b4 3d
       0.06113571 -0.01602234 0.124969795 0.088156715
0001e0 50 35 7b bc 20 e8 30 bc 14 22 1d 3d 5c 69 32 bd
       -0.015332535 -0.01079753 0.038362578 -0.04355751
0001f0 30 98 9d 3d 14 4c f6 bd 90 26 89 bd 50 b1 6a 3d
       0.07695043 -0.120262295 -0.06696808 0.057298005
000200 94 b3 f5 bd e0 62 19 bd e2 e4 b9 bd ac ee a5 3d
       -0.119971424 -0.03744781 -0.09076859 0.08102164
000210 1b 94 2a 3c 8e 62 68 bd 0f ae a8 3d d4 a7 80 bd
       0.010411288 -0.056734614 0.08236324 -0.06282011
000220 fa 1a a3 3c 4d ad 9a 3d f4 3f be bd fa 4a 1f bd
       0.019910324 0.07552586 -0.09289542 -0.038889863
000230 e7 0b 50 bd 2b a5 85 bd 50 b9 39 bd 2a dd a3 3d
       -0.0507926 -0.06525644 -0.045342743 0.08001168
000240 33 81 e8 bc 31 8e e0 bd e4 01 8e 3c 7c ff 69 3d
       -0.02838192 -0.10964621 0.017334886 0.057128415
000250 0a 8f dc bc 1b bb 36 3d 2b 0d 1c 3e 21 d0 82 bc
       -0.026923675 0.04461203 0.15239398 -0.015968384
000260 6e 75 e4 bd f3 ae df bd 98 bc 04 3d 2f fd 5a 3d
       -0.111552104 -0.10922041 0.03240642 0.05346411
000270 a7 12 d7 bb a1 59 07 be 4c 2b 01 be 1a 7b 5b bd
       -0.006563503 -0.13217784 -0.12614173 -0.053584196
000280 e2 d9 59 3d f3 fe 81 bb 15 2f b1 bd 7f c7 1a be
       0.053186305 -0.00396716 -0.08651558 -0.15115164
000290 8a 4d 43 3d b1 4a bf bc dc 0b c5 3d 34 f6 8e bd
       0.04768137 -0.023351045 0.096214026 -0.06980553
0002a0 b2 ec 96 bd 07 ac 3e 3d 0c 21 bb 3d 8c 31 a9 3d
       -0.07369365 0.046550777 0.091371626 0.082614034
0002b0 83 ed 1c 3e e7 ac 82 3d c4 47 b5 3d 7d 92 33 bd
       0.15324979 0.06380635 0.08851579 -0.043840874
0002c0 14 12 c4 3d a1 bd f4 bd b9 a8 71 3d a9 9d 21 3d
       0.09573761 -0.11950231 0.058998797 0.039456997
0002d0 5a bd 97 bd d7 c5 44 bd 5f 11 a3 3c 87 b6 b3 3d
       -0.07409163 -0.048040237 0.019905744 0.08775049
0002e0 8e 78 93 3d 3a 59 72 3d a8 7b 91 bd a6 6e 4d 3d
       0.07200728 0.059167124 -0.07103664 0.05015435
0002f0 03 c8 09 3e 52 fb 9f bd f9 96 08 3e a3 fe 6b 3d
       0.13455205 -0.078116074 0.13338841 0.057615887
000300 de 9b 8d 3d 20 a0 2f 3d 6c c7 e6 3d 66 cd d9 bd
       0.06914495 0.042877316 0.112685055 -0.1063488
000310 88 a3 6f 3d 83 2f 97 be a3 2a bc 3c 3c 2a fe 3d
       0.058505565 -0.29528436 0.02296955 0.12410399
000320 64 67 17 be 14 24 fe bd 6c 66 60 bd 9c 1e 17 3d
       -0.14785534 -0.12409225 -0.054785177 0.036894426
000330 c0 92 8d bc 69 8c 7d bd b8 6c 85 3c 40 9e 00 bd
       -0.01728189 -0.061901484 0.016287193 -0.03140092
000340 8b d2 f4 bd 84 a1 0c 3d ef ad 8a 3d ea 41 05 be
       -0.119542204 0.03433372 0.067714565 -0.13013425
000350 26 d4 42 bd 1c 5a fb 3c 47 e0 4a 3d 8f 81 7a bd
       -0.0475656 0.030682616 0.049530294 -0.061158713
000360 6e 97 dd 3d 80 6b ce 3c b0 1f 85 3d 0f bf 9f 3d
       0.108198985 0.025197744 0.065001845 0.078001134
000370 40 fd 11 bb e1 dc 0b 3e 6d 3a 03 3d d9 b5 ae 3d
       -0.0022276193 0.13658477 0.03203814 0.085307784
000380 d8 62 45 3d 4b 1a b3 3d 1f 0b c1 3d db c9 20 bd
       0.048189968 0.08745249 0.09425949 -0.039255004
000390 33 ed 0a 3e 91 a5 fb 3c b2 a2 ba 3d fd 78 9f bd
       0.13567047 0.030718597 0.09113063 -0.077867486
0003a0 53 7f 5e bd c0 93 09 3d 92 83 78 bd 20 de 8d 3c
       -0.054320645 0.03358817 -0.06067235 0.017317832
0003b0 49 72 fe 3d 04 e5 9a bd 66 96 c3 bc 7a d2 ec 3c
       0.12424142 -0.075632125 -0.023875427 0.028908957
0003c0 63 a0 f8 3d cb 2b ff 3c 65 3b b5 bd 11 ad 3a bd
       0.12139966 0.031148812 -0.08849219 -0.045575205
0003d0 44 aa 19 3d 8a 25 3f bd c5 90 d9 bd 80 b0 4e bb
       0.037515894 -0.04666666 -0.10623316 -0.0031538308
0003e0 b4 22 2b 3d 5e f1 91 be 38 dd 46 bd db 28 4b 3d
       0.041781142 -0.2850446 -0.048550814 0.04959951
0003f0 44 ec e4 bd c2 92 d2 bd e1 8e 97 bc b9 d9 a8 3d
       -0.111778766 -0.10281898 -0.018500747 0.08244652

net.6.bias f4 [64]
000000 d7 e2 f4 bd 00 4d cf bd 24 58 83 3d be ff 2d bd
       -0.11957329 -0.101221085 0.06413296 -0.042480223
000010 16 21 14 3e 69 10 d9 3c fc bd f3 bc 63 8e d0 bd
       0.14465746 0.026497083 -0.029753678 -0.10183408
000020 24 10 19 bd d1 7c ab 3d ad e5 69 bd ea 2d d0 bd
       -0.03736891 0.08373416 -0.0571038 -0.101650074
000030 e8 92 ce 3c ac 73 f3 3c e3 d0 c5 bd 29 d8 93 bd
       0.025216535 0.029718243 -0.096589826 -0.07218964
000040 1b 5d 13 3e 34 03 72 bd 9f 1f 22 3d fd bf 8c bd
       0.14390986 -0.059085086 0.039580937 -0.06872556
000050 5a fa fb bd 87 62 09 be 6e df 06 3e 02 59 c0 3c
       -0.1230361 -0.13416491 0.13171169 0.023479942
000060 fc c9 87 3d f5 b8 17 3d fc ba ac 3d f5 99 eb 3d
       0.06630322 0.037041623 0.08434102 0.11503974
000070 25 6b df 3d 00 45 db 3d 4d 2d 2c 3d b1 5c e5 3b
       0.10909108 0.1070652 0.04203539 0.006999575
000080 03 ff 6f 3d ca 7e f8 bd 16 6e b3 3d 96 d9 bc 3c
       0.058592808 -0.12133558 0.087612316 0.023052972
000090 52 c0 a8 3d 7e af b2 bb 99 0b 9d 3d 41 44 40 3d
       0.08239807 -0.005453049 0.07668228 0.046940092
0000a0 f7 f3 2b bd 01 40 bf 3c f9 d5 1a bd f8 74 96 bc
       -0.04198071 0.02334595 -0.037801716 -0.018366322
0000b0 10 4e 0f 3e de ac 51 3d 4f dc 9a 3c 0f 0d 00 3d
       0.13994622 0.05119025 0.01890388 0.031262454
0000c0 d4 b0 79 3d 95 d1 bd bd 3e ba 9d bd 4b 45 16 3e
       0.060959652 -0.0926849 -0.077015385 0.1467487
0000d0 00 90 32 3a 9b 4c 9d 3b b9 73 ce bc 9c 2e e4 bd
       0.0006811619 0.004800392 -0.025201665 -0.111417025
0000e0 53 b2 4d 3d 40 21 b1 3d ca 1d f1 bd 6f 3e 07 be
       0.05021889 0.0864892 -0.1177326 -0.1320741
0000f0 d8 34 6e bd 0a 4d d1 3d 44 be e4 bd 0d 2c 07 3e
       -0.058155864 0.10219772 -0.11169103 0.13200398

net.8.weight f4 [1, 64]
000000 f7 3f cc 3d 00 cf e5 bc 3f c6 23 3d 4b 18 52 bd
       0.09973138 -0.028052807 0.039983984 -0.0512927
000010 77 78 1e 3e 3a 79 25 3d 1b a1 81 3d fa 89 95 bc
       0.15475641 0.040398814 0.063295566 -0.018254269
000020 80 1c c8 ba a1 7e 7d bd 32 0e e8 3c c2 44 50 bd
       -0.0015267283 -0.06188834 0.028327081 -0.050846823
000030 81 b2 e3 bb a5 9b 58 3c 3d b2 0f be 4f 82 8f 3d
       -0.0069487696 0.013220702 -0.14032836 0.07007276
000040 96 50 d2 3d d8 54 b4 3d 13 2e ab 3d 5b 3e cb 3c
       0.10269277 0.08805245 0.08358397 0.024810007
000050 a0 1c 66 3d 4f b7 47 3d 66 15 dc 3d 16 e7 80 bd
       0.056179643 0.0487588 0.10746269 -0.06294076
000060 c1 53 bb 3d 84 70 a0 bb c4 0e 9d 3d 28 eb 95 3d
       0.09146834 -0.0048962254 0.07668832 0.07320243
000070 31 4b ff bd 9d b8 c8 bd d8 ef 00 be 30 71 99 bc
       -0.124655135 -0.09800837 -0.12591493 -0.01873073
000080 a0 a9 92 3d 78 6c 0d 3c 79 33 03 3e ff 50 c1 bd
       0.0716126 0.008631818 0.12812604 -0.09439277
000090 f5 6e 56 3d b8 bf 01 3e c6 24 0a be 53 e3 0f be
       0.05235191 0.12670791 -0.1349059 -0.14051561
0000a0 f6 8a 9b 3c a2 4f bc bd bf 1c 04 3d ac 76 77 bd
       0.01898716 -0.09194876 0.032253977 -0.06041591
0000b0 dd c3 48 3d ff 92 0b be 20 6f f9 3d 9b 46 f8 bd
       0.049014915 -0.13630293 0.121793985 -0.12122842
0000c0 36 0b 1d be d6 0e 39 bd 0a 24 e9 bb bf 4e 05 3e
       -0.15336308 -0.045180164 -0.007114892 0.1301832
0000d0 48 19 d6 3c 83 09 6d bd 54 e9 01 be 2b 8f 1a 3d
       0.026135102 -0.0578704 -0.12686664 0.037734192
0000e0 9e ef 61 3c 3d a5 a0 bd 44 94 0f bd 59 e6 35 3c
       0.013790039 -0.07844017 -0.035053506 0.011102282
0000f0 b4 72 d3 3d 41 dd fb bd b8 54 f7 bc dc ec b8 3d
       0.10324612 -0.1229806 -0.030191764 0.09029552
