models/nn/smogn/SM/model.pt (torch, 54492 bytes, 9 tensors)

net.0.weight f4 [64, 3]
000000 e7 74 e2 3e 2d d0 f5 3e 80 b1 ec bd a9 a0 08 3f
       0.44229814 0.48010388 -0.11557293 0.5337015
000010 e3 3b fc bd cc 6e fa 3d 0e 8c 82 be 26 fa ba 3e
       -0.1231611 0.12228164 -0.25497478 0.36518973
000020 56 00 13 3f 3d 22 d4 be 61 d4 02 3f ff 5c 52 3e
       0.5742239 -0.41432372 0.51105314 0.20543288
000030 71 f0 ca 3e 7d 00 45 3d ec 52 b3 3e a0 08 67 bd
       0.39636567 0.04809617 0.35024202 -0.05640471
000040 4a bc f0 3e 4f 55 59 3d d8 5a 73 be 72 57 37 3e
       0.47018653 0.053059872 -0.23765123 0.17904451
000050 ea 1d a3 be 28 2c 9c bd 33 f5 78 be f1 b2 b9 3e
       -0.3185876 -0.0762561 -0.24312286 0.36269334
000060 f4 1a fb be 2d 1c 9a be b5 9c 15 be 30 b4 b1 be
       -0.49044 -0.3009962 -0.1461056 -0.34707785
000070 be 77 5f 3d b2 d9 11 bf 0f f7 0f 3f 57 21 e6 be
       0.054557554 -0.569728 0.56236356 -0.4494731
000080 58 3a e2 3e 3b 52 03 3e cc 08 1f be c4 b2 b6 3e
       0.44185138 0.12824337 -0.155307 0.35683262
000090 54 d6 fb 3d 0b bd ff 3e 9e 89 4b 3c 04 2a 73 be
       0.12296739 0.49948916 0.012422947 -0.23746496
0000a0 0a 43 cc 3d 90 3c 6e be 16 f7 82 3e 89 3d 07 3f
       0.09973724 -0.2326529 0.25579137 0.5282827
0000b0 b0 78 aa 3e cb 3a 81 be 30 a4 aa 3e 98 90 d3 3d
       0.33295202 -0.25240168 0.3332839 0.103303134
0000c0 f2 9f 87 3e 3e b3 c2 be d5 b9 0d bf e0 59 74 be
       0.26489216 -0.38027376 -0.5536168 -0.2386241
0000d0 c6 af ea be dc 08 09 3f f7 4d 44 3e 80 74 87 3e
       -0.4583723 0.53529143 0.19170366 0.2645607
0000e0 cd 2e 25 3e 68 19 f8 3b 92 5c f0 3e d0 5a d9 be
       0.16131134 0.007571388 0.46945626 -0.42452097
0000f0 85 37 0e be 1b 91 11 bf 58 ee 5a 3e 47 db 31 be
       -0.13888367 -0.5686204 0.21379983 -0.17368804
000100 59 d6 4e 3e 65 4f 0b be 3f 3d 01 3f bf e4 a1 be
       0.20198955 -0.13604505 0.5048408 -0.31619832
000110 bd f5 bd be b9 56 a8 be d2 ec 08 3f 13 ca 43 3e
       -0.37101546 -0.32878664 0.5348636 0.19120054
000120 ee 5b 12 3f e5 aa eb be a8 2e 12 bf 62 cd b0 be
       0.57171524 -0.4602882 -0.5710244 -0.34531695
000130 50 50 90 be 30 ff 9b 3e 29 9b 63 3e c9 94 fd 3e
       -0.28186274 0.3046813 0.22227158 0.49527577
000140 4c 76 9d be 83 1f c8 be 70 3a 9e 3e 91 30 57 be
       -0.30754316 -0.39086542 0.3090396 -0.2101462
000150 03 7a ba 3e 0d 52 fc bd 27 f2 ac 3e 8a 96 df be
       0.36421213 -0.123203374 0.33778498 -0.4366954
000160 b1 0f 8f be 21 54 16 3e 79 8b 08 3e 46 be 0a be
       -0.2794166 0.1468053 0.13334455 -0.13549146
000170 67 ac fc 3e b2 f3 d0 3e 9a 5c ce be ee fb a9 be
       0.49350283 0.40810925 -0.40305024 -0.3320002
000180 90 81 0a 3f 85 d2 3a be f3 ff 5d be a2 62 0f bf
       0.54103947 -0.1824437 -0.21679668 -0.56009877
000190 3e 07 aa be b3 54 12 3e 9f c5 f7 bd ec 82 ed be
       -0.3320865 0.14290123 -0.1209824 -0.46388948
0001a0 ae a9 97 bc c8 a1 ce be 3d 79 ff be e9 39 ac be
       -0.018513527 -0.40357804 -0.49897185 -0.33637932
0001b0 9b ce 11 bf 44 fc dc be 24 ff 0c 3f 16 a0 d2 3d
       -0.5695588 -0.43161213 0.55076814 0.1028444
0001c0 14 dc 2f 3e 70 6e 0c bf 58 85 ed be ea da 8d be
       0.17173797 -0.54856014 -0.46390796 -0.2770608
0001d0 ed 4f 65 3e ea 64 fe be c6 4d 73 be fc b1 ad be
       0.2239377 -0.49686366 -0.23760137 -0.33924854
0001e0 b1 6f fc 3c 69 01 3e be 0e 66 8a bd 2a cb cb be
       0.030814977 -0.18555225 -0.06757747 -0.3980344
0001f0 51 5d ce be f6 5c 9b be de 3a 64 be d7 32 f6 be
       -0.4030557 -0.3034436 -0.22288081 -0.48085663
000200 7f 67 0a 3f 8f 95 d1 bd 26 49 02 3f da d4 4f 3e
       0.5406417 -0.10233604 0.50892866 0.2029604
000210 d2 21 f3 be 91 bf d3 3e 09 8d 32 be c0 c1 95 be
       -0.4748674 0.4135709 -0.17436613 -0.29249382
000220 a3 e7 0c bf 3d 34 29 bf fa 95 4d be 18 f5 fb be
       -0.5504095 -0.66095334 -0.20076743 -0.4921043
000230 15 2a 64 3e 43 79 f5 be f6 96 d8 3e 5d 06 d6 be
       0.22281678 -0.47944078 0.42302674 -0.4180173
000240 97 56 6a bd b3 f7 26 3e bd 3d 80 3e d7 7e fb 3e
       -0.057211485 0.16305427 0.25047103 0.4912021
000250 ee 11 0d 3f dd 54 f7 be c0 e1 82 3d 02 c7 a8 be
       0.55105484 -0.48306933 0.06390715 -0.3296433
000260 ca 05 06 be 44 31 e6 be 3d 28 02 3f 5f ec ca be
       -0.13088146 -0.44959462 0.5084265 -0.39633462
000270 09 70 a8 3e ed ad 64 3e 90 ad 34 3e 1c 32 9b be
       0.32897976 0.22331972 0.17644334 -0.30311668
000280 af a4 08 3f c4 07 07 3e 9e 99 35 bd 5e 65 20 bf
       0.5337629 0.13186556 -0.044335954 -0.62654674
000290 f2 2f 4f 3e 52 66 9c bd b7 22 82 be 45 c2 1e 3f
       0.20233133 -0.076367036 -0.2541711 0.6201518
0002a0 be 61 db 3d d5 91 ae be d8 cc 95 be 96 6d 7f bc
       0.10712002 -0.34095636 -0.29257846 -0.015590092
0002b0 03 30 ab 3e 46 2d 36 be 9b ed a7 be 6f f5 48 be
       0.33435068 -0.17790708 -0.32798466 -0.19624875
0002c0 15 9a 04 bf c4 ce 6b 3e c2 4b f1 3e 23 6f 15 bf
       -0.5179761 0.23028094 0.4712811 -0.58372706
0002d0 35 9e 15 3e 43 dd 9e 3e 3e ab c0 3d 9e 3e 47 be
       0.14611132 0.31028184 0.09407662 -0.1945748
0002e0 11 e7 9f 3e 7c 5e e5 3e ab 27 73 3e 39 9a a3 bd
       0.31230977 0.44798648 0.23745601 -0.079884
0002f0 63 b2 29 be 20 30 4b 3d a4 eb e9 bd df 10 2e be
       -0.16571955 0.049606442 -0.11421898 -0.16998623

net.0.bias f4 [64]
000000 fb f8 ed 3e 30 07 09 3f e5 2a a0 bd 5c 83 eb bd
       0.4647902 0.5352659 -0.078206815 -0.11499664
000010 89 a0 ec 3c 98 b8 33 bc 9e d1 15 3e 20 e2 0d 3e
       0.028885143 -0.010969304 0.14630744 0.13855791
000020 d8 2d 0c bf 70 2a 6b be 8b c3 0d 3f 80 c8 93 3e
       -0.5475745 -0.22965407 0.553765 0.28863907
000030 13 3c 03 3c 57 f6 ac be c1 dd a5 be 55 65 04 bf
       0.008009928 -0.33781692 -0.32395747 -0.5171712
000040 93 00 4e be 76 0e 59 3e 5c 32 d6 3e 59 46 9a 3e
       -0.20117407 0.21196923 0.41835296 0.30131796
000050 31 79 f1 be 8f 9b ac be 1e ec 1e bd e2 e5 15 3f
       -0.47162774 -0.33712432 -0.038799398 0.585539
000060 fb 01 4f 3d 78 23 a0 be 72 47 98 3e 62 e7 8e be
       0.050538998 -0.3127706 0.29742008 -0.27910906
000070 72 08 b5 be bb 44 f2 3e 00 2d 8c be 25 ac 85 bd
       -0.35358006 0.47318062 -0.27378082 -0.065269746
000080 5d 41 0f bf 5f 33 da 3e 5d 34 f8 3e c8 50 6d 3e
       -0.5595911 0.42617318 0.4847745 0.23175347
000090 0e d8 08 bf a8 73 0a bf f8 d3 fc be 5d b0 f4 3e
       -0.53454673 -0.5408273 -0.4938047 0.47790805
0000a0 74 44 ad 3e ea a1 09 3f e2 ee 89 3e f5 02 bb 3d
       0.33841288 0.53762686 0.26940066 0.091314234
0000b0 35 1c b0 3a 20 da a6 be 0e c5 05 bf 7f f1 09 bf
       0.0013436141 -0.3258829 -0.52253807 -0.5388412
0000c0 f5 48 73 3e 96 39 86 be b1 8c f2 bd ff 0a bd be
       0.237583 -0.2621581 -0.11843241 -0.36922452
0000d0 93 cf a5 bd 7c f1 cb be ac b1 e4 be 81 4d 57 3e
       -0.08096232 -0.39832675 -0.44666803 0.21025659
0000e0 04 91 33 be 65 de c6 3e 4e 46 2c be 9b d9 b2 be
       -0.17535788 0.3884155 -0.16823694 -0.34931645
0000f0 83 a5 95 bd 9c 9a 92 be 79 bf 1a be 99 ab 11 bf
       -0.073069595 -0.28633583 -0.15112104 -0.5690246

net.2.weight f4 [64, 64]
000000 a0 43 a7 3d 1f 16 8b bd c4 36 8a 3d 50 e6 6d 3d
       0.08167195 -0.06791329 0.06748727 0.05808097
000010 2c 8e df 3d b0 da a8 bd 50 2a d9 3d 7f fd 81 bc
       0.10915789 -0.08244836 0.106037736 -0.015867947
000020 69 f8 d8 3d 6a 78 fc 3d 66 42 8e 3c f2 cc f7 3c
       0.105942555 0.12327655 0.017365646 0.030249093
000030 63 05 6f bc 48 d9 ca bd 7b 31 90 3d c2 22 fe bd
       -0.014588687 -0.09904724 0.07040688 -0.12408973
000040 75 1a a2 3d 2b a8 15 3e 0e 5b 0b 3e f7 35 8b bc
       0.079152025 0.14614932 0.13608953 -0.016993506
000050 76 cd 62 3e ae cf 00 3d e3 0b 98 3d 9a 12 cb bd
       0.2214869 0.03144806 0.07424142 -0.09915657
000060 45 20 9f bc ff 7f f7 bd 1f bf 9c b6 e0 a0 61 bd
       -0.019424567 -0.1208496 -4.6714117e-06 -0.055085063
000070 a0 5b 49 bd a0 3e e9 3c b6 25 82 3d df e0 d8 3d
       -0.049159646 0.028472245 0.06354849 0.10589766
000080 cc 06 cf 3d 46 ae fd 3c 4b 8e 0a 3d e0 44 2f bc
       0.10108718 0.03096689 0.033827107 -0.010697573
000090 e0 50 7c be 59 46 f7 bd c7 85 9f 3e fc 67 db bc
       -0.24640226 -0.120739646 0.31156752 -0.026782982
0000a0 bb 5e e3 3a 1b 3f 04 3d 05 90 50 3c 2b f1 ae bc
       0.0017346957 0.032286745 0.012729649 -0.021355232
0000b0 1b 14 e5 3b 37 3f 52 bd 55 7f 87 be 71 4a 8a bd
       0.006990922 -0.051329818 -0.26464334 -0.0675248
0000c0 26 52 8f bd fc 43 eb 3d 1f ce f5 bd 73 07 05 3d
       -0.069980904 0.11487576 -0.12002205 0.032477807
0000d0 17 a1 00 bd d4 7f 56 3c 0d 6d c7 3e fd 58 d0 3d
       -0.031403627 0.013092 0.38950387 0.10173223
0000e0 39 e3 c8 bd b0 f3 85 3d 46 f4 c8 3d 09 b6 22 3d
       -0.09808964 0.0654062 0.098122165 0.039724384
0000f0 b9 51 c5 3d 74 19 ad 3d 4e 6e 84 bc 6e 4c 30 3d
       0.09634728 0.084521204 -0.016165879 0.04304164
000100 50 54 b8 3c 61 9d 42 3d e6 34 07 3e 8c a8 6a 3e
       0.02250114 0.04751337 0.13203773 0.22915858
000110 c1 b4 1b be 34 8a 49 be d5 57 66 bd 0e 16 c5 bd
       -0.15205671 -0.19681627 -0.056236107 -0.09623347
000120 9a ab 45 be ed 97 e9 bc 66 cc 08 3e 10 fa 7d 3d
       -0.19303742 -0.028514827 0.13359222 0.062006056
000130 aa 52 75 be 53 e7 7a bc 00 95 39 bd 62 6c be bd
       -0.23957315 -0.015313941 -0.045308113 -0.09298016
000140 2e 12 c3 3b 1c f4 a6 3d 2e 90 0e 3d 29 1a 87 3c
       0.005953095 0.08152029 0.03480547 0.016491966
000150 5c e3 87 be 4f f3 16 bd 38 f9 be bc 2f fb 6a bd
       -0.2654065 -0.03685313 -0.023312196 -0.057368454
000160 dc 11 91 bd c2 6b 28 bd 45 26 41 3e 90 25 13 bd
       -0.070834845 -0.04111839 0.18862255 -0.035924494
000170 3d 93 f9 bb dd b9 50 3d 24 54 89 bd 50 00 b4 3d
       -0.007616429 0.050958503 -0.06705502 0.08789122
000180 d6 2e 5c bd 82 a7 b4 3d 1a 42 c5 bd 76 9e ba 3c
       -0.053755604 0.08821012 -0.096317485 0.022780638
000190 af e5 e1 3d e7 f2 d9 bc 49 d2 86 be c5 3d 0e 3e
       0.11030137 -0.026605083 -0.2633231 0.1389075
0001a0 60 f6 51 bc 07 e0 4e bd a9 2e b6 bd 17 de ff 3a
       -0.012815088 -0.050506618 -0.088956185 0.0019521144
0001b0 86 a1 9c 3d f2 6c 20 3d 63 f2 98 3e f2 82 8c bd
       0.07647996 0.0391664 0.29872426 -0.06860913
0001c0 3e d4 89 bd 4b b2 16 bd d4 3d 08 3e 74 27 b8 3d
       -0.06729935 -0.036791127 0.13304836 0.089919
0001d0 57 ef 63 bd 53 88 2b be be db 47 be eb 28 03 bd
       -0.055648174 -0.16751222 -0.19517419 -0.032021444
0001e0 7f 40 99 3c b9 f9 0d 3e a6 0e 02 3e 74 bd 0d be
       0.018707512 0.13864793 0.127009 -0.13841802
0001f0 67 1a 86 bd a2 05 00 3e ef 3b c6 3c 2c 61 5c 3d
       -0.065480046 0.12502149 0.0241985 0.053803608
000200 72 9b 61 3c 54 31 14 3e 66 0b af bd 96 6a 51 bc
       0.013769971 0.14471942 -0.08547096 -0.01278176
000210 c9 5b ff 3c 39 df 57 bd 9d f1 bc bc a6 49 61 bc
       0.031171696 -0.052703116 -0.023064429 -0.013750469
000220 dd 8c 04 bd ad 01 b6 bc c8 6a b5 3d 1e 18 c0 bc
       -0.0323609 -0.022217596 0.088582575 -0.023449
000230 ab 0f 02 be 2b 3a 88 bc 24 b3 2e 3b 80 65 6c bd
       -0.1270129 -0.0166293 0.002665707 -0.057713985
000240 65 0e 9b bd 5b b3 ef 3d de 34 02 3d 46 d9 2c bc
       -0.07571105 0.11704131 0.0317887 -0.010549849
000250 03 7d 7a be 0b b2 cb bd 98 d7 f0 bd ff 27 a0 bc
       -0.2446175 -0.099460684 -0.11759871 -0.019550322
000260 52 f7 b7 bd 76 40 9d 3d c5 67 d4 bc af 93 c7 bd
       -0.089827195 0.076783106 -0.025928387 -0.09744965
000270 1e 7a f8 3d 84 af 8b 3d ec 40 5a bd 83 86 c5 bd
       0.12132667 0.06820586 -0.05328457 -0.09644797
000280 a9 2c 7f bd cd 9d 8c 3d 1d 89 69 bd da 71 97 bd
       -0.06229845 0.068660356 -0.057015527 -0.07394762
000290 7e 9d 45 3d 60 f1 53 bd 8b 47 84 be 8c b5 b9 3d
       0.0482459 -0.051743865 -0.25835833 0.090678304
0002a0 02 73 07 3e 1c 07 1b 3d f4 1a 40 3c d1 fc 15 be
       0.13227466 0.037848577 0.011725176 -0.14647223
0002b0 4b 4a 8a bd 69 8c 78 bc 7b 70 8a 3e 3d 0f 03 bd
       -0.067524515 -0.015170195 0.2703894 -0.031996954
0002c0 b4 78 3f bb 38 45 7f 3d 7c 8d 31 be 67 8d 8c 3d
       -0.0029216232 0.06232187 -0.17339128 0.06862908
0002d0 b0 26 92 bd c4 44 84 bc 75 36 e3 bd 0e 0f 5f 3d
       -0.07136285 -0.016146071 -0.11094371 0.054457717
0002e0 53 2a fe bd aa 9b cf 3d 3d 96 4e bc 77 2f bf 3d
       -0.124104165 0.101371124 -0.012609062 0.09335225
0002f0 e0 ac b2 3d 1a 0c 9b 3c 17 18 be bd 90 e5 df 3d
       0.087243795 0.018926669 -0.092819385 0.109324574
000300 f4 8e fc 3d 54 1a 87 bd 44 a1 06 bc 5b b0 01 be
       0.12331954 -0.065968186 -0.00821716 -0.1266493
000310 da d5 8c bd b4 d3 5b 3d c9 3c 8f 3d 76 60 3c 3d
       -0.068767264 0.053668693 0.06994016 0.04599043
000320 ab 56 be 3d cd bd 19 3e 31 43 3a 3d 07 37 62 bd
       0.09293874 0.1501381 0.045474235 -0.05522826
000330 ba 1e c5 3c cc 57 47 bd 6b fe 8d 3d 40 03 b5 bd
       0.024062503 -0.048667714 0.06933292 -0.088385105
000340 dc 98 8e 3d ad e8 43 bd 5a 32 9b bd f4 95 1e bd
       0.06962749 -0.04782932 -0.07577963 -0.038717225
000350 54 e6 c4 3e 8f e6 cd 3d a8 e6 09 3e 58 5a d8 3d
       0.38456976 0.10053741 0.13466895 0.10564107
000360 71 9b fc 3d 2e 3b 52 bd 0a d9 30 bd 3d d2 aa 3d
       0.123343356 -0.05132597 -0.043175735 0.08340881
000370 c5 a5 7b bd 63 d4 84 bd 15 86 d6 3d 07 13 4f 3d
       -0.061437387 -0.06485822 0.10474793 0.050555255
000380 a7 ef a5 3d 71 ad f0 bc 8f f3 0f bd fe 8f 89 3d
       0.08102351 -0.029379578 -0.035144385 0.067169175
000390 df f9 24 be 52 59 7c bd 37 a3 83 3e ef d2 d2 3c
       -0.16110943 -0.06160862 0.2571046 0.025735347
0003a0 d6 84 30 3e 79 70 2b 3e 74 3f 6f 3d 43 34 9a 3d
       0.17238173 0.16742124 0.058410123 0.075294994
0003b0 ff 45 5c 3d 00 d2 8f ba e6 51 80 be 90 5a 49 3c
       0.05377769 -0.0010972619 -0.25062484 0.012289658
0003c0 d2 eb 92 3d e7 a5 12 3e e7 eb a5 bd 69 c2 0f bd
       0.071738854 0.14321099 -0.081016354 -0.035097513
0003d0 36 ca 75 bb 96 93 4d bd 39 20 2b 3e 7b 68 e4 3d
       -0.003750456 -0.050189577 0.1671151 0.111527406
0003e0 8b 48 0b 3e 21 71 b2 3d 48 54 c3 bd c0 a8 2f bd
       0.13601892 0.08712984 -0.0953756 -0.042885542
0003f0 3a 47 db 3a 3c ed bb bd b9 11 02 3d cd 87 bc bd
       0.0016729601 -0.09176108 0.031755183 -0.092055894

net.2.bias f4 [64]
000000 5d 33 ec 3c 49 4c cf 3d 71 b6 4f 3d a0 d7 4c bd
       0.028833086 0.10121972 0.0507111 -0.050010324
000010 0b 81 b8 3c ad bc d9 3d c0 51 52 bd 67 47 26 bd
       0.02252247 0.1063169 -0.051347494 -0.04059544
000020 96 90 4e bd 95 3a c4 bc 95 47 b5 3c a7 c6 51 3d
       -0.050430857 -0.023953715 0.02212886 0.05121484
000030 aa 2c fb 3c 6a de 63 bd f5 4a fd 3d c8 d5 2e 3d
       0.030660946 -0.055632032 0.123678125 0.042684346
000040 0b 5c 26 bd 34 80 07 bd 51 4b 0c bd 19 76 59 bd
       -0.040615123 -0.03308125 -0.034251515 -0.053091142
000050 da 60 02 be c4 bb 3b 3d d3 00 d2 bd 85 c4 ad 3d
       -0.12732258 0.045833364 -0.102540635 0.08484749
000060 73 11 06 3e 4d 78 d6 bd 04 96 c2 bd 64 46 ca bd
       0.13092594 -0.10472164 -0.095012695 -0.09876707
000070 e6 fa 28 3d 45 ee 7a 3d 6e cc 8b bc 0a a5 9a 3d
       0.0412549 0.061262388 -0.017065253 0.0755101
000080 34 b9 c3 3d 4c 4e e7 bd c2 8f 17 3d 27 d4 cd bd
       0.09556809 -0.11294231 0.037002333 -0.100502305
000090 19 6b 77 bc 4b 22 7b 3d 64 06 c5 3c ff 15 c5 bd
       -0.015101218 0.061312 0.024050899 -0.09623336
0000a0 54 38 d1 3d 48 d0 9f bd 56 3d 43 3b 56 8b ab 3d
       0.10215822 -0.07803398 0.0029791198 0.083761856
0000b0 db 86 10 3e 03 ca 02 3e f7 5f 64 3c 48 da 2a 3d
       0.14113943 0.12772374 0.013938895 0.041712075
0000c0 bf 25 f5 bd bf 95 72 bb 3c 43 6c bd 16 f5 87 3d
       -0.1197009 -0.0037015525 -0.057681307 0.06638543
0000d0 e5 a0 35 bd 40 38 b0 3d ef ad ce 3d 47 89 11 3e
       -0.044342894 0.08604479 0.10091769 0.14212523
0000e0 1b c0 3b bb d2 76 1d 3e 5a 43 e3 bd 5b 75 b2 3b
       -0.002864844 0.15377358 -0.11096831 0.005446119
0000f0 58 1b 42 3d c8 38 8f 3d 79 b0 cc 3d b6 81 27 bd
       0.04738936 0.06993252 0.09994597 -0.040895186

net.4.weight f4 [64, 64]
000000 a4 a0 9d 3d 26 43 f0 bd 9c 88 af bd e0 47 0b bc
       0.076966554 -0.117315575 -0.08570978 -0.008501023
000010 ae b4 f8 bd dc 55 f3 bd 70 42 e3 bd 36 d2 cd 3d
       -0.12143837 -0.11881611 -0.11096656 0.1004986
000020 98 9e e0 3c 50 5d 23 bd 40 57 a8 bb 66 22 df bd
       0.027419373 -0.03988391 -0.005137354 -0.10895233
000030 84 c7 f1 bd 70 87 b2 bd 0c aa f7 bd f6 6c a8 3d
       -0.11805633 -0.08717239 -0.12092981 0.08223908
000040 28 2a 33 bd 20 36 0a bd 0a 74 dc bd 90 98 a9 3c
       -0.043741375 -0.033743024 -0.1076432 0.02070263
000050 90 a2 99 bc 1a 48 ae bd 1a 23 a4 3d ee c8 d7 3d
       -0.018754274 -0.08509846 0.080145076 0.10536371
000060 b6 78 b6 bd 68 0b 91 3d 20 46 a6 bc 80 ae 9a ba
       -0.089097425 0.07082254 -0.02029711 -0.0011801273
000070 9c ee 59 3d 80 b1 ba bc 3a 82 d9 3d 10 82 9d 3d
       0.05320607 -0.022789717 0.10620542 0.07690823
000080 82 2d a6 bd c0 ca 9b bd 12 a5 fd bd cc ec 23 3d
       -0.08114149 -0.07607031 -0.12385 0.04002075
000090 50 8f c0 bd e6 92 d6 bd 6c 16 a4 bd 98 19 fd bd
       -0.09402335 -0.104772374 -0.08012089 -0.12358397
0000a0 3c 72 d0 bd d0 57 e4 3d 74 ff 8e 3d 9a d2 e2 3d
       -0.101780385 0.111495614 0.069823176 0.11075325
0000b0 8c 5c 78 bd 60 ff 51 bd f4 a4 33 bd 80 fe 1f 3b
       -0.060635135 -0.051268935 -0.043858483 0.0024413168
0000c0 7a bf b7 bd d8 1e 96 3c f2 11 a4 bd 08 d0 a1 3c
       -0.08972068 0.018325254 -0.08011235 0.019752517
0000d0 d0 7e ea 3d e0 f3 ac 3c da bc ba 3d 56 53 b6 bd
       0.11449969 0.021112382 0.09118052 -0.08902614
0000e0 c0 82 90 bc 12 13 9e bd 20 38 63 bc 08 ac 4b bd
       -0.017640471 -0.07718481 -0.013868362 -0.04972461
0000f0 94 5a 91 bd e2 47 f7 bd 90 d8 3d bd e8 21 89 3c
       -0.070973545 -0.120742574 -0.04634911 0.0167398
000100 f2 91 f0 bc a2 6c ee bd 5e c8 b4 3d f1 51 ae 3d
       -0.029366467 -0.11641814 0.088272795 0.08511723
000110 bf 03 ab bd a0 30 50 3c aa bc 9a 3d 26 1c f3 bd
       -0.08350324 0.012706906 0.07555516 -0.11870603
000120 f6 d3 f1 bd e0 dc 7b 3d 80 40 22 bb 50 0a 23 3d
       -0.118080065 0.06148994 -0.0024757683 0.039804757
000130 bb b3 72 bd 78 a9 b9 3c 44 8b 9a 3d 3a 97 1b bd
       -0.059253436 0.022663817 0.07546094 -0.037986018
000140 a0 f9 41 bd aa c2 f3 bd 00 03 9e bc 60 97 92 3d
       -0.0473572 -0.119023636 -0.01928854 0.07157779
000150 54 cd 00 be 80 33 1e bc 78 9b ba 3d 1a c2 30 bd
       -0.12578326 -0.009655833 0.091116846 -0.04315386
000160 f4 2a 3d bd 47 92 37 bd 78 36 6e bd 10 1e 75 3c
       -0.04618354 -0.044817235 -0.058157414 0.014960781
000170 7b 91 01 be 94 53 25 3d 4c 84 15 bd c8 5f 82 bc
       -0.12653153 0.04036291 -0.03650312 -0.015914813
000180 13 14 67 bc ac 02 8f 3d 72 92 ae bd b2 f4 e8 bd
       -0.014103907 0.069829315 -0.08524026 -0.11374797
000190 f3 35 c9 bd 96 cc bb bd 58 86 88 bd 5a 31 ca 3d
       -0.09824743 -0.09169881 -0.06666249 0.09872694
0001a0 66 59 d4 bd 03 09 a6 bd f8 6f e0 bd 54 00 90 bd
       -0.10368614 -0.081071876 -0.10958856 -0.070313126
0001b0 ed 65 42 bc 9a 19 9c bd 00 2e ad 3a 54 06 2d 3d
       -0.011865121 -0.076220706 0.0013212562 0.042242363
0001c0 c8 38 ae bc 50 e8 5c 3d 90 f9 ea 3c 4a 4c f7 3d
       -0.02126731 0.053932488 0.028683454 0.12075098
0001d0 c3 5c 69 bc f0 e3 dd 3d 38 9d bf 3d 38 05 56 3d
       -0.0142433075 0.10834491 0.09356159 0.05225107
0001e0 06 e1 90 3d 94 71 ab bd 74 74 ab bd 2a 9c 3b 3d
       0.0707417 -0.08371273 -0.08371821 0.045803227
0001f0 6c e8 39 3d ea a3 d7 3d 84 e5 c3 bc b4 dd fe bc
       0.04538767 0.10529311 -0.023913153 -0.031111576
000200 0c 91 63 3d 26 ae 50 3d bc 21 18 3e 02 ab fb bd
       0.05555825 0.05094733 0.14856619 -0.122884765
000210 db 8c 6c bc 13 1f 2b be 25 9d bb 3c 4e ed 8c bd
       -0.014437879 -0.16711073 0.02290208 -0.068812
000220 c1 76 9d bd 73 c1 fc 3d cd 0f 3d 3d 2b 74 64 3d
       -0.07688666 0.12341585 0.046157647 0.05577485
000230 8a f8 79 bd 51 db e5 3d 5c 98 42 bd a2 f1 6a bd
       -0.06102804 0.11223472 -0.047508582 -0.057359345
000240 50 ad f6 bd 44 bb 7d 3d fb f0 78 3d a3 60 21 be
       -0.120447755 0.06194617 0.060776692 -0.1575952
000250 38 b4 f7 3d 53 94 85 3d ae 0e ae 3d 34 1e ce bc
       0.12094921 0.06522431 0.08498894 -0.025160886
000260 5c f6 0a 3e 04 37 c7 bd 34 c9 aa 3d 2e 1d 8b bd
       0.13570541 -0.0972729 0.08339158 -0.06792675
000270 1e d2 c9 3c f8 e7 12 bd a1 ac 11 3e 28 b3 d6 bd
       0.024636324 -0.035865754 0.14226009 -0.1048339
000280 84 a0 fb bb 78 32 0a bd ae f9 e1 bd 37 5f 6b 3d
       -0.007679047 -0.033739537 -0.11033951 0.05746385
000290 99 dc f3 bd 2d 0f d1 3b 54 21 c4 3d 97 d6 e4 bc
       -0.1190731 0.006379983 0.09576669 -0.027934356
0002a0 8b 64 c0 3d cd 65 ce bc db a8 d9 bd 0a d4 81 3c
       0.09394177 -0.025195027 -0.1062791 0.015848178
0002b0 dd de 64 3c 9f 55 c4 3d 79 24 1b 3e c0 4d 2f 3d
       0.01396915 0.095866434 0.15150632 0.042798758
0002c0 c5 42 e2 bd 5f 25 09 be 57 61 0b bd 23 9d 21 be
       -0.110478915 -0.13393162 -0.034028377 -0.15782599
0002d0 a5 cb ac 3d 11 a6 5d 3c 8f e4 61 3d fd f4 97 3c
       0.084372796 0.013528363 0.05514961 0.018549437
0002e0 bb fb ba bd e5 78 1f bd 1d 87 99 bd ca 10 02 3e
       -0.09130045 -0.038933653 -0.07496474 0.12701717
0002f0 86 9d 83 bd b7 f8 41 3b 79 16 6f bd 81 d8 b3 bb
       -0.064265296 0.0029597708 -0.05837104 -0.0054884558
000300 33 e3 17 bc 30 4e c1 bd 28 70 9d 3c a5 bd ff bd
       -0.009270477 -0.09438741 0.01921852 -0.12487344
000310 7f 67 68 bd 4f 5f a2 3d b1 bc ce 3d d8 0c c0 bc
       -0.056739327 0.07928335 0.10094584 -0.023443624
000320 fe 04 db bd 9a 5a eb bd 70 a6 fb bc 45 df a2 bd
       -0.106943116 -0.1149189 -0.030719012 -0.079527415
000330 bf 78 a9 3d c9 93 a9 bd a1 52 75 3d 4a b7 d5 3b
       0.082749836 -0.08280141 0.059893254 0.006522094
000340 29 cf 63 bd 7e ad d0 3d 41 49 55 3d d7 20 b4 bc
       -0.055617485 0.10189341 0.052071813 -0.021988316
000350 3b 1e d1 bd 34 45 4b bd 1b 0a de 3c c3 fe bd 3d
       -0.10210844 -0.049626544 0.027104428 0.092771076
000360 8f ef 63 bd e7 76 7e bd 27 0d 06 be 4e 59 9d 3d
       -0.055648383 -0.062125113 -0.13090955 0.07683049
000370 ea a8 d8 3d e4 a2 8e 3d 10 65 b2 bd 8e 64 b7 3d
       0.10579093 0.06964663 -0.087106824 0.08954726
000380 15 58 60 bd 78 d7 85 3d ab ed 62 3d bf 3f e6 bd
       -0.0547715 0.06535238 0.05540244 -0.11242627
000390 00 4e 48 3c 78 cb 2f 3d 15 ce bd bd d5 c9 db 3d
       0.012225628 0.042918652 -0.09267823 0.10731856
0003a0 8c 1d a5 3d 54 d3 ac 3d 21 3e 9a bc 26 2d a7 bd
       0.08062276 0.08438745 -0.018828453 -0.08162908
0003b0 a9 1b b1 bd f0 b0 dc 3c 70 53 22 bd 30 79 cb 3d
       -0.08647854 0.02693984 -0.039630353 0.09935224
0003c0 a0 b1 c5 3d 2e 0a bc bb 3f 5a ef bd 04 9a 06 3d
       0.0965302 -0.005738518 -0.11687135 0.032861724
0003d0 d9 e7 c1 3d c3 85 27 bd 96 01 a6 bd b4 07 3a bd
       0.094680496 -0.04089905 -0.08105771 -0.045417503
0003e0 9b 04 46 3a 91 28 e3 bd 76 3f 52 3d 37 5c 13 3d
       0.0007553787 -0.11091722 0.051330052 0.035976615
0003f0 fc c0 43 bd d3 82 82 bd de f0 8d bd 0f f3 a3 3d
       -0.047791466 -0.06372609 -0.069307074 0.08005344

net.4.bias f4 [64]
000000 80 f7 9b bc ac 7e 9d bd 59 b5 95 3d 7b 69 b1 bd
       -0.019038916 -0.07690176 0.0730998 -0.08662697
000010 fd c1 c3 3d 14 ed e4 3d b3 93 7c 3d bf 08 99 3c
       0.09558485 0.111780316 0.061664294 0.018680928
000020 28 20 18 3d c0 19 88 3d bc 75 d6 bd c5 16 a0 3b
       0.03714004 0.066455364 -0.10471675 0.004885527
000030 f8 b1 b2 bd ef 56 09 be 38 c8 af bd 17 f3 bc bd
       -0.08725351 -0.13412069 -0.085831106 -0.09226053
000040 c7 32 0d 3e 7b 05 f2 3d 94 c7 b3 bd e0 c5 70 bd
       0.13788901 0.118174516 -0.08778301 -0.05878246
000050 f4 f9 1b 3e a8 cb 73 3d 40 ab c7 3d 96 4d 2f 3d
       0.15232068 0.059520394 0.0974946 0.0427986
000060 a8 4e 3f bd 04 8a ab bd 24 b7 74 3d 87 63 0c be
       -0.04670587 -0.08375934 0.05974497 -0.13709842
000070 d6 05 d5 bd ff 5b 92 3d 8f c3 b7 3b 88 96 1d 3d
       -0.10401504 0.07146453 0.005608029 0.038473636
000080 db 69 dd 3d 97 64 11 bd ec 03 a3 bd 3a 9e 30 bd
       0.10811206 -0.03549632 -0.079597324 -0.043119647
000090 26 48 ad bd 69 b0 d8 3c 3b 84 f3 3d 0f 6c 0b 3d
       -0.08461027 0.026451306 0.11890455 0.0340386
0000a0 13 a5 b7 3d 4b 31 02 bd 50 7d 0b 3d c0 3a c0 bd
       0.08967032 -0.03178529 0.034055054 -0.09386206
0000b0 9e 86 b4 3c f7 6c 96 3d 2d 3f 6c bc 71 2c 1f 3e
       0.022036847 0.07345002 -0.014419359 0.15544297
0000c0 25 3d 9e 3d db de b1 3d 9d fa 13 3e c4 bb cb 3d
       0.07726506 0.086850844 0.1445107 0.09947923
0000d0 60 e5 20 bc a1 2f 84 3d 26 d6 17 3e 1d bc ac bd
       -0.009820312 0.06454397 0.14827785 -0.08434317
0000e0 3e 0a 07 3c 91 70 91 3d b7 b1 14 bd bf 92 ea bd
       0.008242188 0.071015485 -0.036302295 -0.11453771
0000f0 a2 9d 1c bd 2d 5c 50 bd c6 b7 b9 3d 89 91 bc 3d
       -0.038236268 -0.050869156 0.09068255 0.09207446

net.6.weight f4 [64, 64]
000000 40 10 69 bc d2 78 d1 bd 92 f0 0c 3c d7 8c 4b 3d
       -0.014225066 -0.10228123 0.008602278 0.049694862
000010 53 e7 78 bc 50 f5 a5 3d f5 5e 9a bc 99 65 93 3d
       -0.015191871 0.0810343 -0.018844107 0.071971126
000020 0e b6 fd 3d 70 15 c4 3d 30 8b 41 bc 5a 6f 19 3e
       0.1238824 0.095744014 -0.01181297 0.14983884
000030 f0 16 34 bc 79 a4 c5 bd ea b7 b9 3d 53 9d 02 3e
       -0.010991797 -0.09650511 0.09068282 0.12755327
000040 80 49 be 3d dc 28 00 3e 1d 4f f7 3c 4a 5d 93 3d
       0.09291363 0.12515587 0.030189091 0.07195528
000050 ce 7a 89 3d f2 7f 7d bd d6 1f 02 3d 63 f2 58 bc
       0.06712876 -0.061889596 0.031768642 -0.013241383
000060 40 d8 0c 3d ad 20 c4 bd e0 25 f2 3b de 72 73 3d
       0.03438592 -0.09576545 0.007389769 0.059435718
000070 9c 40 3e bd 51 8f 75 bd e8 92 b7 bd a8 f7 82 3d
       -0.046448335 -0.05995113 -0.08963567 0.06394893
000080 71 2e e5 bd 3a 81 06 bd ca c3 73 3c a3 9c 01 3d
       -0.111904986 -0.032838084 0.014878223 0.03164352
000090 9e 9d a5 bd 43 c4 52 3d a0 e5 86 bd ea d9 9c 3c
       -0.08086704 0.0514567 -0.06586766 0.019146878
0000a0 16 ff 6c bd 80 39 ae bd 06 34 46 3d c8 e2 ad 3c
       -0.057860456 -0.08507061 0.048389457 0.021226302
0000b0 6a 9b 10 3e e3 0c 18 3e 62 89 fd 3d 59 06 a3 3d
       0.14121786 0.14848666 0.12379719 0.07960195
0000c0 ca 69 d4 3d f3 90 40 3d e0 31 d6 bd 7a 04 f7 3d
       0.1037174 0.047013234 -0.10458732 0.12061401
0000d0 60 a5 78 3c 6a 67 c4 bd 5c 71 d4 bb d5 54 ec 3d
       0.015176147 -0.09590037 -0.00648324 0.11539618
0000e0 fc 7d e3 3d ea 77 ad 3c d1 ce 26 bd 95 db 9d bd
       0.11108014 0.021175344 -0.04072458 -0.077078976
0000f0 ed 1e d7 3d 5c 79 5d bd 53 67 50 bd ff 37 a1 bd
       0.105039455 -0.054070815 -0.050879788 -0.078720085
000100 78 a9 14 3d fa 3d c4 3d 2f 00 db 3b 74 d8 3e 3d
       0.03629443 0.095821336 0.0066833715 0.046593145
000110 48 61 d2 bd ae 00 ba bd aa 77 bc bd d5 fc c9 bd
       -0.10272461 -0.09082161 -0.092025116 -0.09862677
000120 70 8c 64 bd ea 33 9b bd 2c 86 27 bd 35 cf c4 bd
       -0.055797994 -0.07578261 -0.04089944 -0.09609834
000130 68 82 18 3d 80 69 53 3b 00 71 d0 3b d4 13 59 3d
       0.03723374 0.0032258928 0.006361127 0.052997425
000140 ec cf 01 be 7a 76 8a bd 70 8b b8 bc c8 33 ef bd
       -0.12676972 -0.06760879 -0.022527426 -0.11679798
000150 6f ac 43 3d 2c 3a c0 bd f5 ba 86 3d e8 58 fd 3d
       0.047771867 -0.093860954 0.06578628 0.12370473
000160 70 08 d3 3c fc 33 79 bd 66 ad b4 3d 34 d4 a7 bd
       0.02576086 -0.06084059 0.088221356 -0.081947714
000170 80 ee c1 3b 75 c8 74 3d 26 c1 c9 3d 10 11 16 3c
       0.005918324 0.059761483 0.09851293 0.009159341
000180 45 8e e6 bc 1e 5c ee bc ac 32 f8 bd 40 40 79 3b
       -0.028144011 -0.02909666 -0.1211904 0.003803268
000190 82 2b f1 bd 0d 29 ed bb 3d c6 45 bd 58 b0 8d 3d
       -0.117758766 -0.0072375597 -0.048284758 0.069184005
0001a0 80 01 4d bd d6 f2 b5 3d 99 ac 42 bd 10 0d c6 bc
       -0.05005026 0.08884208 -0.047527883 -0.02417615
0001b0 2e a0 07 be ed 14 b8 3d 30 24 31 3c 0c b9 e6 bd
       -0.13244697 0.08988366 0.01081185 -0.11265764
0001c0 a0 97 3d bc 79 de 05 3d 58 66 38 bd 32 0f ab 3d
       -0.011571795 0.03268287 -0.045019478 0.08352508
0001d0 70 69 7a 3d f5 15 0d bd 2a f0 ff 3d 82 8b b4 3d
       0.06113571 -0.034444768 0.124969795 0.088156715
0001e0 64 2a 08 bd 20 e8 30 bc 14 22 1d 3d 5c 69 32 bd
       -0.03324355 -0.01079753 0.038362578 -0.04355751
0001f0 2e 6e 70 3d 14 4c f6 bd 90 26 89 bd ca 8e 1f 3d
       0.058698826 -0.120262295 -0.06696808 0.038954534
000200 94 b3 f5 bd 4d c1 14 bd 4b 9f d8 bd 22 ed a8 3d
       -0.119971424 -0.03631716 -0.10577258 0.082483545
000210 67 c9 f7 3c 7a 4c 1e bd 95 89 05 3e 5c 82 fc bc
       0.030247403 -0.038647152 0.13040765 -0.030823879
000220 78 0c 9d 3c 04 c4 99 3d 98 e4 ae bd 10 2d 69 3c
       0.019170985 0.0750809 -0.085396945 0.014231935
000230 bb 69 55 bd 7d 99 ce bb f4 9a 34 bd 39 4b bc 3d
       -0.052102786 -0.0063049183 -0.044093087 0.09194035
000240 fc fd d7 bc be 24 02 be 34 e7 2f bd 09 21 8a 3d
       -0.026366226 -0.12709329 -0.0429451 0.06744582
000250 8a f3 39 bd 79 69 2e 3d 70 1f 1c 3e 2e fb 6d bb
       -0.045398273 0.042581055 0.15246367 -0.0036313045
000260 6e 75 e4 bd 7d 4d dd bd fe ec 07 3d eb 66 75 3d
       -0.111552104 -0.10805795 0.033184998 0.059912603
000270 00 87 e7 3a 31 13 19 be c0 dc 0f be b3 4b 69 bd
       0.0017664135 -0.14948727 -0.14049053 -0.056956958
000280 96 fa 21 3d 2d 62 9d bc 68 cc 7c bd ad 5b 1a be
       0.039545618 -0.019211853 -0.061718374 -0.15074034
000290 57 42 c0 3d 3d 9e 65 ba 54 fb ac 3d af bd 91 bd
       0.09387653 -0.0008759236 0.084463745 -0.071162574
0002a0 b7 53 9a bd 83 5e 06 3d 05 89 d1 3d 4a 1a a9 3d
       -0.075354986 0.032804977 0.102312125 0.08256967
0002b0 2b 66 20 3e 9a 5a df 3d 95 2d b1 3d c2 7d 41 bd
       0.15663974 0.10905953 0.08651272 -0.047239073
0002c0 42 ec 02 3e d1 c4 a6 bd 65 0e 56 3d a3 26 8d 3d
       0.12785438 -0.081430085 0.05225982 0.06892135
0002d0 5a bd 97 bd fc 61 db bd 91 72 4f 3c 91 8c dc 3d
       -0.07409163 -0.107120484 0.012661592 0.107689984
0002e0 7f 40 e5 3d 6b 4e 71 3d 99 44 85 bd 64 17 f8 3c
       0.11193942 0.058912676 -0.065072246 0.030284591
0002f0 b4 20 09 3e 38 e4 56 bd e8 58 05 3e bd 6d 76 bc
       0.13391382 -0.05246374 0.13022196 -0.015040812
000300 de 9b 8d 3d 20 a0 2f 3d f1 83 89 3d 66 cd d9 bd
       0.06914495 0.042877316 0.06714619 -0.1063488
000310 db 3b 25 3d ca fd dd bd f2 d3 a3 bc 1b 97 b0 3d
       0.040340286 -0.10839422 -0.019998524 0.08622571
000320 e4 ef d1 bd 74 b9 c2 bd 6c 66 60 bd a4 9f e1 bb
       -0.10250834 -0.095080286 -0.054785177 -0.0068854857
000330 c0 92 8d bc d6 f1 c8 bd b8 6c 85 3c 40 9e 00 bd
       -0.01728189 -0.098117515 0.016287193 -0.03140092
000340 bd fe 86 bd 89 03 2d bc ab 9a fa 3c 48 48 a4 3c
       -0.06591556 -0.010559925 0.03059133 0.020053998
000350 bd 4f c2 bd 72 08 ad 3d 9b a2 43 3c e4 a4 51 bd
       -0.09487865 0.084488764 0.011940624 -0.051182643
000360 6e 97 dd 3d 80 6b ce 3c b0 1f 85 3d 62 02 b5 3d
       0.108198985 0.025197744 0.065001845 0.08838345
000370 40 fd 11 bb 44 7e ba 3d 4e b9 4c bc 76 cd cc 3d
       -0.0022276193 0.091061145 -0.012495352 0.10000126
000380 3b 39 4c 3b 1f 51 3a 3d de ea 80 3d 23 4c a6 bd
       0.0031162042 0.04548752 0.06294797 -0.08119991
000390 3a ac c8 3d 35 5d 08 bc 57 05 0e 3d bc 4c d0 bd
       0.097984746 -0.008323004 0.03467306 -0.10170886
0003a0 58 1d 3f bd 0a e1 a6 3d 24 90 a1 bd 20 de 8d 3c
       -0.046658844 0.081483915 -0.07888821 0.017317832
0003b0 54 cb e0 3d d0 27 f3 bd 80 f7 b4 ba e8 65 a6 3c
       0.10976282 -0.11872828 -0.0013806671 0.020312265
0003c0 d2 da 8f 3d 8f aa 58 bd 57 25 09 be 20 a5 b3 bd
       0.070241585 -0.052897032 -0.1339315 -0.087717295
0003d0 44 aa 19 3d 5c 4d d3 bd 8a 24 db bd 80 b0 4e bb
       0.037515894 -0.103174895 -0.10700329 -0.0031538308
0003e0 4f 47 02 3d 4a 87 a0 bd 38 dd 46 bd 6e 08 8c 3d
       0.031806286 -0.07838304 -0.048550814 0.06837545
0003f0 f2 26 ad bd c2 92 d2 bd 3c 4a 41 bd c0 84 b6 3d
       -0.08454694 -0.10281898 -0.047189936 0.08912039

net.6.bias f4 [64]
000000 06 1c 9b bd 95 a8 f5 bd f2 63 87 3d 3e 1d b9 bd
       -0.075737044 -0.11995045 0.0661086 -0.09038781
000010 35 82 11 3e 40 ee 61 bc 21 45 ca bc 47 f9 be bd
       0.14209826 -0.013789713 -0.024691166 -0.0932489
000020 24 10 19 bd a0 17 a3 3d 34 49 1e bd 38 28 fc bd
       -0.03736891 0.079634905 -0.03864403 -0.123123586
000030 62 1b 02 3b 47 b5 e9 3c d8 8a b6 bd cd 85 c0 bd
       0.0019852747 0.028528823 -0.08913201 -0.094005205
000040 38 d7 1e 3e 34 03 72 bd fe b7 ff 3c 00 c0 fe bc
       0.15511787 -0.059085086 0.031215664 -0.031097412
000050 d6 ff e1 bd 96 3e c4 bd 02 f9 0f 3e a3 89 be 3c
       -0.11035125 -0.0958225 0.14059833 0.02325899
000060 db 85 a0 3d f5 65 9e 3d 23 92 62 3d 65 68 9a 3d
       0.07838031 0.077342905 0.055315148 0.07539443
000070 80 98 f6 3d be 69 0d 3e 45 e8 9d 3d da d1 29 3c
       0.12040806 0.13809869 0.077103175 0.010364974
000080 57 ec 90 3d 48 c9 98 bd 1c 26 c7 3d ef fb 34 3d
       0.07076328 -0.07460266 0.09724066 0.044185575
000090 97 4c 15 3d 96 eb 48 3b b0 89 c5 3d d1 b6 62 3d
       0.036449995 0.0030657998 0.096454024 0.05535013
0000a0 94 e5 5b 3e 42 11 e5 3c 3d 5f 2d bd f8 74 96 bc
       0.21474296 0.02796233 -0.042327154 -0.018366322
0000b0 7e f9 0c 3e f9 4a 87 3d c4 76 00 3d 59 c9 34 3d
       0.13767049 0.06606097 0.031363264 0.044137333
0000c0 19 6a 8d 3d f2 aa b5 bd e4 00 9d bd 5d 29 1c 3e
       0.06905002 -0.08870496 -0.076661855 0.15250154
0000d0 00 90 32 3a 27 12 7a 3d 4b 7a ae bc 2b 80 cf bd
       0.0006811619 0.061052468 -0.021298548 -0.10131868
0000e0 9d 33 6d 3d d0 b8 c7 3d ca 1d f1 bd 9e df 04 be
       0.05791055 0.09752047 -0.1177326 -0.12975928
0000f0 90 3d 46 bd 40 72 fc 3d 44 be e4 bd 0d f0 12 3e
       -0.048398554 0.12326479 -0.11169103 0.14349385

net.8.weight f4 [1, 64]
000000 56 8d 12 3e 63 0f 2c bc 48 29 26 3d 4f e4 eb 3b
       0.14311728 -0.010501715 0.040566713 0.0071988474
000010 ea c8 1b 3e 30 61 95 3d ff 8c 82 3d 3b 33 ed bc
       0.15213361 0.07293928 0.06374549 -0.028955093
000020 80 1c c8 ba d1 74 1a bd 43 75 24 3d 63 f4 2a bc
       -0.0015267283 -0.03770906 0.040150892 -0.010434243
000030 0a 13 79 bc 3d ed 46 3c 96 65 1c be f4 9a 0b 3e
       -0.015202293 0.012141523 -0.15273127 0.13633329
000040 cd 2c d4 3d d8 54 b4 3d 60 72 98 3d 58 c9 71 3d
       0.103601076 0.08805245 0.0744369 0.059029907
000050 de f1 8b 3d 4a 24 9b 3d 56 c3 df 3d f9 07 81 bd
       0.06833242 0.07575281 0.10925929 -0.06300349
000060 41 65 bd 3d f5 c4 30 bd e2 c0 92 3d 71 78 41 3e
       0.09247828 -0.043156583 0.07165696 0.18893601
000070 70 55 0b be ed 54 d7 bd e9 d2 0a be b5 19 f2 bc
       -0.1360681 -0.10514245 -0.13557018 -0.029553274
000080 d5 cd 9c 3d ef dc 6f 3d 7a ab ff 3d 59 9f a4 be
       0.07656447 0.058560308 0.124838784 -0.32152823
000090 8a a5 57 3d e3 bb 08 3e 1b c0 dc bd 0c c9 0d be
       0.052648105 0.13352923 -0.10778829 -0.13846225
0000a0 78 41 d9 3e cb b7 c6 bd 14 f6 4b 3d ac 76 77 bd
       0.4243276 -0.097030245 0.049795225 -0.06041591
0000b0 86 95 55 3d 74 5f 10 be 90 e6 03 3e 50 db 07 be
       0.05214455 -0.14098912 0.12880921 -0.13267255
0000c0 2a de 26 be bb 58 49 bd e8 9b d3 bb f4 e6 10 3e
       -0.16295686 -0.049156886 -0.0064577945 0.14150602
0000d0 48 19 d6 3c 83 19 8a bd 2f 9f 09 be 48 ed e6 3d
       0.026135102 -0.06743147 -0.1343963 0.112757266
0000e0 28 c0 0b 3d b3 13 a1 bd 44 94 0f bd 30 08 03 3d
       0.0341188 -0.078650855 -0.035053506 0.03199023
0000f0 c5 05 89 3d 88 30 f2 bd b8 54 f7 bc d0 31 bb 3d
       0.066905536 -0.11825663 -0.030191764 0.0914036
